etc/ckpts/participants/661_test_30_all/sigmoid/TCN/epochs/TCN-chpkt-pecanstreet-participant-id-661_test_30_all_epoch=045.ckpt (torch, 943789 bytes, 201 tensors)

model.tcn.0.conv1.bias f4 [25]
0.0392613 -0.030056505 0.034334105 0.02300835 -0.06347696 -0.03285961 -0.048767895 0.050202083
0.019314691 0.012319747 -0.04281097 -0.06676658 -0.017765228 -0.045285575 -0.0634768 -0.048172694
-0.04612154 -0.06443633 0.03167466 0.038829464 0.040948905 -0.071035415 0.05486925 0.028553072
0.040515985
00000000: 75d0 203d 0f39 f6bc eba1 0c3d 027c bc3c
00000010: 3500 82bd cc97 06bd d8c0 47bd b3a0 4d3d
00000020: d839 9e3c c4d8 493c 8e5a 2fbd ebbc 88bd
00000030: 6288 91bc 5e7d 39bd 2000 82bd bb50 45bd
00000040: f1e9 3cbd 32f7 83bd 4abd 013d a50b 1f3d
00000050: 0aba 273d 047b 91bd 94be 603d 22e8 e93c
00000060: 17f4 253d

model.tcn.0.conv1.weight_g f4 [25, 1, 1]
0.59395134 0.57957405 0.6210793 0.61988515 0.573246 0.58368707 0.6118071 0.5883995
0.5566616 0.5756821 0.5727726 0.5531967 0.58356655 0.5849824 0.54027456 0.5596175
0.59439546 0.5577275 0.5930598 0.56513745 0.6010595 0.55335957 0.5817702 0.5815321
0.57967895
00000000: 320d 183f f75e 143f 0eff 1e3f cbb0 1e3f
00000010: 40c0 123f 846c 153f 649f 1c3f 5aa1 163f
00000020: 6081 0e3f e75f 133f 3aa1 123f 4d9e 0d3f
00000030: 9e64 153f 68c1 153f 6f4f 0a3f 1843 0f3f
00000040: 4d2a 183f 3bc7 0e3f c4d2 173f d9ac 103f
00000050: 09df 193f f9a8 0d3f e4ee 143f 4adf 143f
00000060: d765 143f

model.tcn.0.conv1.weight_v f4 [25, 28, 7]
0.012079284 0.049454033 -0.04162239 -0.03399139 -0.008368678 0.03848834 0.022594728 0.044363577
-0.015464017 0.008142823 -0.030614948 -0.023275292 -0.07457843 -0.05532666 -0.023996465 0.004077044
0.026386617 0.04066539 -0.037942827 -0.02236979 0.024986291 0.05645088 -0.014540632 0.051293116
-0.010671041 0.0077845827 0.06313126 -0.062313747 -0.036210787 -0.011068989 -0.020959385 0.06371336
-0.039564565 -0.027205624 -0.044056207 -0.06295739 -0.039180495 0.05919193 0.0309614 0.033640448
0.0040176488 -0.034540858 0.015099341 -0.059488643 -0.04483106 -0.030375745 0.047156278 0.04471222
-0.02447772 -0.0087104235 0.0029505622 -0.017117178 -0.024595454 -0.059028897 -0.0533003 -0.10083008
-0.0017164903 -0.07126845 -0.07382025 -0.06877459 -0.015187404 -0.03828325 -0.14956719 0.032420523
0.048773848 0.0034422588 0.014237711 0.026922382 0.052210793 0.074726194 -0.04873224 -0.022206534
0.02825972 0.057063032 0.059639793 0.06001991 0.014199334 -0.0703137 -0.0030334038 -0.051967993
-0.07272904 0.053918872 0.045552928 -0.07531067 0.008015374 -0.016054923 -0.015650567 -0.0355571
0.02219408 -0.04447677 0.021305405 0.03522369 0.049076952 0.026183167 -0.06463436 -0.042202685
0.034042634 0.014818042 -0.050502304 -0.03647841 0.067084685 0.049395338 -0.025807971 -0.012962229
-0.060331956 0.007459827 -0.04351747 -0.04527099 0.0031806102 0.016807271 -0.022162007 0.04611428
-0.03847898 0.0615108 0.046607215 -0.054364804 -0.0150198415 0.004103374 0.010669117 0.020376032
0.030501729 0.008824049 -0.026953157 0.036421187 -0.05790844 -0.033607606 -0.014385326 -0.030358274
-0.021578046 -0.052827917 -0.012602536 0.015220452 -0.042529155 -0.005853682 0.04649424 -0.007794529
0.001835142 -0.004969246 0.015101508 0.045366585 0.06190147 0.040776838 0.062375985 -0.007418479
-0.06379958 -0.034615856 0.045249682 0.0048649656 -0.029989902 -0.049218595 -0.061969835 -0.05620264
-0.012704676 0.03860028 0.031497307 -0.07221859 0.038566105 -0.057849023 -0.018143062 -0.030870976
-0.01518128 -0.014117288 -0.06137541 -0.058689307 -0.0105260555 0.0011108486 -0.029968204 0.0266
-0.05380874 0.00092139805 0.06312529 -0.021397999 0.06501174 0.029292947 -0.05389952 0.04314447
-0.008806045 -0.03214666 0.052353714 -0.057881992 0.004353851 -0.018058302 0.048135567 0.019590633
0.033870097 0.025956633 -0.013571656 -0.010951077 -0.05156421 0.042268086 0.05970955 0.053130724
-0.038014434 0.012628673 -0.03609057 -0.024710102 -0.045844335 0.021600464 -0.044905074 -0.004031938
0.0037278994 0.047364663 -0.043945912 -0.04044957 -0.032961704 0.057605326 -0.01731414 0.06424558
0.03171717 0.0159352 -0.005609014 -0.017998766 0.0074246554 -0.017115775 0.0024268595 0.012882311
-0.046714764 -0.039973665 0.051808614 -0.058039803 -0.008388252 0.06656671 0.02556967 0.005603044
-0.052868277 0.041964844 -0.044075638 -0.015348632 -0.017500801 -0.0053379065 0.003558225 0.05541021
0.008611231 0.060006212 0.04102008 -0.041852493 0.030291537 -0.046477452 -0.03475846 0.014672107
0.017862301 0.045473076 -0.023350153 -0.0012264817 0.034857158 -0.084248975 0.04068225 -0.08889976
-0.009207117 -0.06941717 -0.07785592 -0.07790361 0.06344899 -0.014707486 -0.044037394 -0.03290767
00000000: 30e8 453c 5090 4a3d 3d7c 2abd 8e3a 0bbd
00000010: c81c 09bc f3a5 1d3d 9418 b93c 95b6 353d
00000020: ca5c 7dbc 7a69 053c 33cc fabc d3ab bebc
00000030: 93bc 98bd 359e 62bd 3c94 c4bc b998 853b
00000040: bf28 d83c c190 263d f069 1bbd da40 b7bc
00000050: 0db0 cc3c 0a39 673d d53b 6ebc bb18 523d
00000060: 97d5 2ebc d015 ff3b f64a 813d b33c 7fbd
00000070: c351 14bd b45a 35bc 04b3 abbc 267c 823d
00000080: 740e 22bd 54de debc 4874 34bd ceef 80bd
00000090: ba7b 20bd 3d73 723d c3a2 fd3c 91ca 093d
000000a0: 7ba6 833b b77a 0dbd 3a63 773c 5daa 73bd
000000b0: c6a0 37bd 8ed6 f8bc f126 413d 2924 373d
000000c0: 8085 c8bc 2ab6 0ebc 385e 413b 5339 8cbc
000000d0: 687c c9bc 49c8 71bd 6a51 5abd 0080 cebd
000000e0: dbfb e0ba 31f5 91bd 122f 97bd b1d9 8cbd
000000f0: 97d4 78bc e6ce 1cbd 2428 19be 62cb 043d
00000100: 16c7 473d 8597 613b 4a45 693c 548c dc3c
00000110: fcda 553d 0c0a 993d 759b 47bd 7aea b5bc
00000120: ee80 e73c edba 693d db48 743d 70d7 753d
00000130: 53a4 683c a100 90bd 12cc 46bb 64dc 54bd
00000140: f7f2 94bd 09da 5c3d b595 3a3d 7b3c 9abd
00000150: ea52 033c 9d85 83bc 9e35 80bc 52a4 11bd
00000160: 5cd0 b53c 462d 36bd ac88 ae3c b746 103d
00000170: ea04 493d 157e d63c 055f 84bd b9dc 2cbd
00000180: 4a70 0b3d 5fc7 723c 81db 4ebd 636a 15bd
00000190: b263 893d c452 4a3d 3d6b d3bc 875f 54bc
000001a0: a41e 77bd 9071 f43b 603f 32bd 136e 39bd
000001b0: c971 503b 67af 893c 198d b5bc 54e2 3c3d
000001c0: 239c 1dbd c0f2 7b3d 35e7 3e3d a1ad 5ebd
000001d0: c815 76bc 9975 863b 85cd 2e3c a3eb a63c
000001e0: c3de f93c be92 103c decc dcbc 622e 153d
000001f0: 6631 6dbd 21a8 09bd 6eb0 6bbc eab1 f8bc
00000200: 71c4 b0bc 1662 58bd de7a 4ebc 345f 793c
00000210: 0d33 2ebd 3ed0 bfbb bf70 3e3d 4069 ffbb
00000220: 2689 f03a 0fd5 a2bb 516c 773c 50d2 393d
00000230: 658c 7d3d 9d05 273d f67d 7f3d b616 f3bb
00000240: 5ba9 82bd 5bc9 0dbd bb57 393d 4a6a 9f3b
00000250: 62ad f5bc 7099 49bd 15d4 7dbd bd34 66bd
00000260: 4627 50bc 541b 1e3d 5203 013d 57e7 93bd
00000270: 7ef7 1d3d 19f3 6cbd c2a0 94bc 21e5 fcbc
00000280: e7ba 78bc 334c 67bc c864 7bbd 3364 70bd
00000290: 7a75 2cbc e599 913a e17f f5bc 3ee8 d93c
000002a0: 8e66 5cbd fa89 713a d547 813d db4a afbc
000002b0: e024 853d c3f7 ef3c bec5 5cbd 41b8 303d
000002c0: 3b47 10bc 37ac 03bd d970 563d ab15 6dbd
000002d0: c0aa 8e3b 01ef 93bc cd29 453d 897c a03c
000002e0: 5fbb 0a3d 01a3 d43c a75b 5ebc 256c 33bc
000002f0: fe34 53bd 4d21 2d3d 0092 743d 9a9f 593d
00000300: 06b5 1bbd 7ee8 4e3c b5d3 13bd d76c cabc
00000310: 45c7 3bbd 75f3 b03c 62ee 37bd 591e 84bb
00000320: c64f 743b 7301 423d a100 34bd 73ae 25bd
00000330: da02 07bd 90f3 6b3d 62d6 8dbc 3093 833d
00000340: dde9 013d 898a 823c d2cb b7bb 2672 93bc
00000350: 864a f33b 6236 8cbc f20b 1f3b 5410 533c
00000360: fb57 3fbd 6dbb 23bd 4535 543d 25bb 6dbd
00000370: e16e 09bc 2154 883d 7c77 d13c bd99 b73b
00000380: 688c 58bd 54e3 2b3d a888 34bd d478 7bbc
00000390: d75d 8fbc 9be9 aebb 1c31 693b d1f5 623d
000003a0: 1f16 0d3c 13c9 753d ac04 283d 856d 2bbd
000003b0: f525 f83c 245f 3ebd e35e 0ebd 4763 703c
000003c0: f653 923c fa41 3a3d d248 bfbc e6c1 a0ba
000003d0: 61c6 0e3d ba8a acbd 6ea2 263d 1411 b6bd
000003e0: 73d9 16bc 972a 8ebd ed72 9fbd ee8b 9fbd
000003f0: 8bf1 813d abf7 70bc 8e60 34bd 31ca 06bd

model.tcn.0.conv2.bias f4 [25]
-0.019279897 0.00086903246 -0.013931346 0.051338937 0.068524264 0.045202147 0.007021823 -0.025741188
0.011541446 -0.054213636 0.005251136 0.07700552 -0.001976136 0.07695704 -0.028105546 0.07136305
0.04854823 -0.036998533 -0.070747055 -0.036469627 0.04641823 0.07393372 -0.04896137 -0.029286534
0.039042253
00000000: e0f0 9dbc c8cf 633a 4d40 64bc c748 523d
00000010: 7356 8c3d e325 393d 5217 e63b 2fdf d2bc
00000020: 5518 3d3c 1e0f 5ebd b911 ac3b 12b5 9d3d
00000030: 0f82 01bb a79b 9d3d 9a3d e6bc ca26 923d
00000040: 82da 463d c68b 17bd d5e3 90bd 2d61 15bd
00000050: 0b21 3e3d 906a 973d b88b 48bd 50ea efbc
00000060: c5ea 1f3d

model.tcn.0.conv2.weight_g f4 [25, 1, 1]
0.5922726 0.58958447 0.556456 0.6026116 0.5939541 0.5568262 0.6054915 0.62866163
0.5874077 0.60937274 0.56487274 0.59107524 0.5461418 0.5772754 0.64521974 0.5795606
0.60531074 0.5665249 0.58228356 0.5656084 0.5983727 0.5715504 0.62130433 0.58499277
0.5858548
00000000: 2d9f 173f 02ef 163f e773 0e3f c144 1a3f
00000010: 600d 183f 298c 0e3f 7e01 1b3f f8ef 203f
00000020: 5a60 163f daff 1b3f 809b 103f b550 173f
00000030: f3cf 0b3f 52c8 133f 1f2d 253f 155e 143f
00000040: a5f5 1a3f c707 113f 8910 153f b6cb 103f
00000050: f42e 193f 2151 123f cd0d 1f3f 16c2 153f
00000060: 95fa 153f

model.tcn.0.conv2.weight_v f4 [25, 25, 7]
-0.012856257 0.03989418 -0.061707612 0.034015086 0.07013362 0.04848208 -0.047796153 -0.00979728
0.0013387862 0.036755376 -0.012932217 0.018395683 -0.005816254 0.010809135 -0.0018824774 -0.040157635
-0.047648724 0.062425904 0.06635066 0.009020143 0.07946907 0.060780976 -0.034374468 -0.016652333
-0.036524117 0.036849566 0.019897439 0.011794553 0.04498574 -0.019457322 -0.029868785 -0.04156507
-0.026620181 0.060685042 -0.02337179 -0.0106973965 0.040392682 -0.04835139 -0.039286066 0.054294374
-0.02866031 -0.041869495 -0.0058676 -0.0062054493 0.014500837 0.026843084 -0.046534248 0.063902974
-0.057663046 0.028792564 -0.014115209 -0.023369968 0.07568174 -0.05814234 0.02131287 0.068466514
0.062036183 -0.04571937 0.013720498 0.06635737 -0.059899088 0.012924792 -0.042315103 0.019610332
-0.05554684 0.043799937 -0.0044526984 0.055813603 0.016563313 0.011834091 -0.008177189 -0.055063706
-0.019666437 0.014090335 -0.04025577 0.07908815 -0.022868836 -0.025201127 -0.013069747 -0.050474465
-0.011480828 -0.029188514 -0.052634157 -0.012769621 0.052755054 0.01323896 0.050144542 0.0017827692
-0.016553832 0.054931633 -0.023926953 -0.061598647 0.019628113 0.0410336 -0.0331017 0.038961567
-0.0062956754 0.018315662 0.0036181875 0.0037515345 -0.040036533 0.020903025 0.00095999084 0.05258776
0.018311944 -0.052235126 -0.04775115 -0.028870407 0.041731816 -0.032451794 -0.013314352 0.03785317
-0.024840817 -0.008339986 0.06927519 -0.010650331 0.004724613 0.06063546 0.036592178 0.047052592
-0.06581084 0.027016798 -0.01766756 -0.051705386 -0.038374163 -0.07642829 0.050111853 -0.011197869
-0.06725653 0.065707445 0.05355236 0.040815353 0.08835491 0.072436005 0.075307235 0.073945686
0.06968255 0.03155237 0.009168917 0.022012137 -0.020095158 0.04358823 0.0136269955 0.03138841
-0.030111326 -0.0054855016 0.0850035 0.0030867157 0.016474059 -0.06423892 -0.03647951 -0.01424243
-0.023445975 0.013389187 -0.014713831 0.06467304 -0.0048712473 0.03941482 -0.036407687 0.03369137
-0.04623923 -0.051641494 -0.035337098 0.033506323 0.020356463 0.024432478 0.012720646 0.08968595
0.075165346 0.038387 0.06572637 0.0084682 -0.011937517 0.034002718 0.07566639 -0.0045284126
-0.04843709 0.03277094 -0.0076495004 -0.021456309 0.065320104 0.021020172 -0.029975425 -0.031323478
0.063555166 0.046087258 -0.036091153 0.015579474 0.017888147 0.03558073 -0.05815965 0.0049769846
0.02993871 0.045173466 0.02005837 -0.019679077 -0.06080681 0.04428062 0.07102115 -0.010787535
-0.051648326 0.035159715 -0.032223944 -0.03960139 0.016972056 -0.001879242 0.000104035265 0.05743191
-0.0061658747 0.040654294 -0.017311506 0.056940388 0.02480878 0.0643861 0.023725871 -0.029091522
0.02349969 0.05977185 0.016753606 0.03520634 -0.042602994 0.04226168 -0.058216162 0.06782456
0.03222629 0.008355767 -0.062513284 0.07217603 0.055084947 0.08030527 0.04633703 0.014746661
-0.020558354 -0.030758325 0.015653854 0.010903352 -0.01351297 -0.005576459 0.030130511 -0.061737288
-0.054889206 -0.009039187 0.059560772 0.049875576 -0.050065767 -0.014665228 -9.000499e-05 0.03153844
0.06792334 0.015323655 -0.038933095 0.027972128 -0.0313389 -0.04404379 0.0083611235 -0.02051731
00000000: 0da3 52bc 1468 233d 1fc1 7cbd 6753 0b3d
00000010: 37a2 8f3d 2595 463d e6c5 43bd c584 20bc
00000020: 367a af3a ce8c 163d a6e1 53bc 8bb2 963c
00000030: 4696 bebb cc18 313c 76bd f6ba 557c 24bd
00000040: 4f2b 43bd 4eb2 7f3d dbe2 873d 39c9 133c
00000050: aec0 a23d 79f5 783d 3ecc 0cbd 796a 88bc
00000060: 509a 15bd 92ef 163d f4ff a23c f13d 413c
00000070: f842 383d f664 9fbc 62af f4bc 2340 2abd
00000080: 9112 dabc e190 783d 3276 bfbc 2244 2fbc
00000090: cc72 253d 1b0c 46bd 6dea 20bd c763 5e3d
000000a0: 07c9 eabc 597f 2bbd ff44 c0bb 1557 cbbb
000000b0: eb94 6d3c 07e6 db3c b29a 3ebd 90df 823d
000000c0: 1630 6cbd 62de eb3c 7a43 67bc 6072 bfbc
000000d0: 07ff 9a3d aa26 6ebd 5498 ae3c 2c38 8c3d
000000e0: a719 7e3d 3c44 3bbd f1cb 603c 5fe6 873d
000000f0: bf58 75bd 82c2 533c 9a52 2dbd d9a5 a03c
00000100: 1585 63bd 9067 333d f1e7 91bb ce9c 643d
00000110: c9af 873c c6e3 413c 9ef9 05bc 7b8a 61bd
00000120: 821b a1bc 26db 663c 3ce3 24bd f8f8 a13d
00000130: 6d57 bbbc 9872 cebc 7e22 56bc 50be 4ebd
00000140: 151a 3cbc c01c efbc ea96 57bd ac37 51bc
00000150: af15 583d 39e8 583c 5d64 4d3d cfab e93a
00000160: e79b 87bc feff 603d 7502 c4bc dd4e 7cbd
00000170: 23cb a03c d912 283d a695 07bd 2a96 1f3d
00000180: f44b cebb ba0a 963c 1d1f 6d3b 4edc 753b
00000190: 59fd 23bd d23c ab3c e5a7 7b3a 4366 573d
000001a0: ee02 963c 80f4 55bd b696 43bd a281 ecbc
000001b0: fbee 2a3d 2cec 04bd 7124 5abc ed0b 1b3d
000001c0: f87e cbbc 70a4 08bc 27e0 8d3d ba7e 2ebc
000001d0: edd0 9a3b e35c 783d aee1 153d 38ba 403d
000001e0: d5c7 86bd 5552 dd3c 8fbb 90bc 07c9 53bd
000001f0: 3a2e 1dbd 6f86 9cbd 1642 4d3d 4477 37bc
00000200: cbbd 89bd a091 863d b859 5b3d 002e 273d
00000210: 6bf3 b43d 5459 943d ae3a 9a3d d670 973d
00000220: bab5 8e3d 0f3d 013d 3a39 163c cc52 b43c
00000230: 9a9e a4bc 9289 323d c343 5f3c 2291 003d
00000240: 07ac f6bc b9bf b3bb 5116 ae3d 7f4a 4a3b
00000250: 9bf4 863c b28f 83bd 8a6b 15bd 1559 69bc
00000260: c611 c0bc 525e 5b3c 4812 71bc 4c73 843d
00000270: fc9e 9fbb 6f71 213d 3a20 15bd f6ff 093d
00000280: 5965 3dbd 0886 53bd a2bd 10bd ed3d 093d
00000290: 99c2 a63c 9f26 c83c 426a 503c 44ad b73d
000002a0: 4af0 993d b03b 1d3d 8c9b 863d 35be 0a3c
000002b0: 9395 43bc 6f46 0b3d fbf6 9a3d 1463 94bb
000002c0: f865 46bd d23a 063d a9a8 fabb 24c5 afbc
000002d0: 8cc6 853d 7f32 ac3c 068f f5bc 0c4d 00bd
000002e0: 3629 823d fec5 3c3d 51d4 13bd 0d41 7f3c
000002f0: 2a8a 923c 19bd 113d d038 6ebd f915 a33b
00000300: 0742 f53c d007 393d 7351 a43c 0436 a1bc
00000310: 9010 79bd 985f 353d 8973 913d 34be 30bc
00000320: 328d 53bd a203 103d 41fd 03bd 1135 22bd
00000330: fb08 8b3c e650 f6ba 822d da38 b93d 6b3d
00000340: 1b0b cabb 1e85 263d dcd0 8dbc 533a 693d
00000350: c83b cb3c dcdc 833d c25c c23c 5851 eebc
00000360: 6c82 c03c 54d3 743d dc3e 893c 8634 103d
00000370: 7a80 2ebd 951a 2d3d 1274 6ebd 9ae7 8a3d
00000380: b7ff 033d a0e6 083c f706 80bd 07d1 933d
00000390: c1a0 613d 1777 a43d e6cb 3d3d fb9b 713c
000003a0: fe69 a8bc e2f8 fbbc 833c 803c f9a3 323c
000003b0: 8165 5dbc bbba b6bb 43d4 f63c 3de0 7cbd
000003c0: 81d3 60bd 1919 14bc fff5 733d 554a 4c3d
000003d0: c311 4dbd 6d46 70bc 10c1 bcb8 742e 013d
000003e0: 641b 8b3d 1110 7b3c 4f78 1fbd ce25 e53c
000003f0: 385d 00bd 4367 34bd 18fd 083c eb13 a8bc

model.tcn.0.net.0.bias f4 [25]
0.0392613 -0.030056505 0.034334105 0.02300835 -0.06347696 -0.03285961 -0.048767895 0.050202083
0.019314691 0.012319747 -0.04281097 -0.06676658 -0.017765228 -0.045285575 -0.0634768 -0.048172694
-0.04612154 -0.06443633 0.03167466 0.038829464 0.040948905 -0.071035415 0.05486925 0.028553072
0.040515985
00000000: 75d0 203d 0f39 f6bc eba1 0c3d 027c bc3c
00000010: 3500 82bd cc97 06bd d8c0 47bd b3a0 4d3d
00000020: d839 9e3c c4d8 493c 8e5a 2fbd ebbc 88bd
00000030: 6288 91bc 5e7d 39bd 2000 82bd bb50 45bd
00000040: f1e9 3cbd 32f7 83bd 4abd 013d a50b 1f3d
00000050: 0aba 273d 047b 91bd 94be 603d 22e8 e93c
00000060: 17f4 253d

model.tcn.0.net.0.weight_g f4 [25, 1, 1]
0.59395134 0.57957405 0.6210793 0.61988515 0.573246 0.58368707 0.6118071 0.5883995
0.5566616 0.5756821 0.5727726 0.5531967 0.58356655 0.5849824 0.54027456 0.5596175
0.59439546 0.5577275 0.5930598 0.56513745 0.6010595 0.55335957 0.5817702 0.5815321
0.57967895
00000000: 320d 183f f75e 143f 0eff 1e3f cbb0 1e3f
00000010: 40c0 123f 846c 153f 649f 1c3f 5aa1 163f
00000020: 6081 0e3f e75f 133f 3aa1 123f 4d9e 0d3f
00000030: 9e64 153f 68c1 153f 6f4f 0a3f 1843 0f3f
00000040: 4d2a 183f 3bc7 0e3f c4d2 173f d9ac 103f
00000050: 09df 193f f9a8 0d3f e4ee 143f 4adf 143f
00000060: d765 143f

model.tcn.0.net.0.weight_v f4 [25, 28, 7]
0.012079284 0.049454033 -0.04162239 -0.03399139 -0.008368678 0.03848834 0.022594728 0.044363577
-0.015464017 0.008142823 -0.030614948 -0.023275292 -0.07457843 -0.05532666 -0.023996465 0.004077044
0.026386617 0.04066539 -0.037942827 -0.02236979 0.024986291 0.05645088 -0.014540632 0.051293116
-0.010671041 0.0077845827 0.06313126 -0.062313747 -0.036210787 -0.011068989 -0.020959385 0.06371336
-0.039564565 -0.027205624 -0.044056207 -0.06295739 -0.039180495 0.05919193 0.0309614 0.033640448
0.0040176488 -0.034540858 0.015099341 -0.059488643 -0.04483106 -0.030375745 0.047156278 0.04471222
-0.02447772 -0.0087104235 0.0029505622 -0.017117178 -0.024595454 -0.059028897 -0.0533003 -0.10083008
-0.0017164903 -0.07126845 -0.07382025 -0.06877459 -0.015187404 -0.03828325 -0.14956719 0.032420523
0.048773848 0.0034422588 0.014237711 0.026922382 0.052210793 0.074726194 -0.04873224 -0.022206534
0.02825972 0.057063032 0.059639793 0.06001991 0.014199334 -0.0703137 -0.0030334038 -0.051967993
-0.07272904 0.053918872 0.045552928 -0.07531067 0.008015374 -0.016054923 -0.015650567 -0.0355571
0.02219408 -0.04447677 0.021305405 0.03522369 0.049076952 0.026183167 -0.06463436 -0.042202685
0.034042634 0.014818042 -0.050502304 -0.03647841 0.067084685 0.049395338 -0.025807971 -0.012962229
-0.060331956 0.007459827 -0.04351747 -0.04527099 0.0031806102 0.016807271 -0.022162007 0.04611428
-0.03847898 0.0615108 0.046607215 -0.054364804 -0.0150198415 0.004103374 0.010669117 0.020376032
0.030501729 0.008824049 -0.026953157 0.036421187 -0.05790844 -0.033607606 -0.014385326 -0.030358274
-0.021578046 -0.052827917 -0.012602536 0.015220452 -0.042529155 -0.005853682 0.04649424 -0.007794529
0.001835142 -0.004969246 0.015101508 0.045366585 0.06190147 0.040776838 0.062375985 -0.007418479
-0.06379958 -0.034615856 0.045249682 0.0048649656 -0.029989902 -0.049218595 -0.061969835 -0.05620264
-0.012704676 0.03860028 0.031497307 -0.07221859 0.038566105 -0.057849023 -0.018143062 -0.030870976
-0.01518128 -0.014117288 -0.06137541 -0.058689307 -0.0105260555 0.0011108486 -0.029968204 0.0266
-0.05380874 0.00092139805 0.06312529 -0.021397999 0.06501174 0.029292947 -0.05389952 0.04314447
-0.008806045 -0.03214666 0.052353714 -0.057881992 0.004353851 -0.018058302 0.048135567 0.019590633
0.033870097 0.025956633 -0.013571656 -0.010951077 -0.05156421 0.042268086 0.05970955 0.053130724
-0.038014434 0.012628673 -0.03609057 -0.024710102 -0.045844335 0.021600464 -0.044905074 -0.004031938
0.0037278994 0.047364663 -0.043945912 -0.04044957 -0.032961704 0.057605326 -0.01731414 0.06424558
0.03171717 0.0159352 -0.005609014 -0.017998766 0.0074246554 -0.017115775 0.0024268595 0.012882311
-0.046714764 -0.039973665 0.051808614 -0.058039803 -0.008388252 0.06656671 0.02556967 0.005603044
-0.052868277 0.041964844 -0.044075638 -0.015348632 -0.017500801 -0.0053379065 0.003558225 0.05541021
0.008611231 0.060006212 0.04102008 -0.041852493 0.030291537 -0.046477452 -0.03475846 0.014672107
0.017862301 0.045473076 -0.023350153 -0.0012264817 0.034857158 -0.084248975 0.04068225 -0.08889976
-0.009207117 -0.06941717 -0.07785592 -0.07790361 0.06344899 -0.014707486 -0.044037394 -0.03290767
00000000: 30e8 453c 5090 4a3d 3d7c 2abd 8e3a 0bbd
00000010: c81c 09bc f3a5 1d3d 9418 b93c 95b6 353d
00000020: ca5c 7dbc 7a69 053c 33cc fabc d3ab bebc
00000030: 93bc 98bd 359e 62bd 3c94 c4bc b998 853b
00000040: bf28 d83c c190 263d f069 1bbd da40 b7bc
00000050: 0db0 cc3c 0a39 673d d53b 6ebc bb18 523d
00000060: 97d5 2ebc d015 ff3b f64a 813d b33c 7fbd
00000070: c351 14bd b45a 35bc 04b3 abbc 267c 823d
00000080: 740e 22bd 54de debc 4874 34bd ceef 80bd
00000090: ba7b 20bd 3d73 723d c3a2 fd3c 91ca 093d
000000a0: 7ba6 833b b77a 0dbd 3a63 773c 5daa 73bd
000000b0: c6a0 37bd 8ed6 f8bc f126 413d 2924 373d
000000c0: 8085 c8bc 2ab6 0ebc 385e 413b 5339 8cbc
000000d0: 687c c9bc 49c8 71bd 6a51 5abd 0080 cebd
000000e0: dbfb e0ba 31f5 91bd 122f 97bd b1d9 8cbd
000000f0: 97d4 78bc e6ce 1cbd 2428 19be 62cb 043d
00000100: 16c7 473d 8597 613b 4a45 693c 548c dc3c
00000110: fcda 553d 0c0a 993d 759b 47bd 7aea b5bc
00000120: ee80 e73c edba 693d db48 743d 70d7 753d
00000130: 53a4 683c a100 90bd 12cc 46bb 64dc 54bd
00000140: f7f2 94bd 09da 5c3d b595 3a3d 7b3c 9abd
00000150: ea52 033c 9d85 83bc 9e35 80bc 52a4 11bd
00000160: 5cd0 b53c 462d 36bd ac88 ae3c b746 103d
00000170: ea04 493d 157e d63c 055f 84bd b9dc 2cbd
00000180: 4a70 0b3d 5fc7 723c 81db 4ebd 636a 15bd
00000190: b263 893d c452 4a3d 3d6b d3bc 875f 54bc
000001a0: a41e 77bd 9071 f43b 603f 32bd 136e 39bd
000001b0: c971 503b 67af 893c 198d b5bc 54e2 3c3d
000001c0: 239c 1dbd c0f2 7b3d 35e7 3e3d a1ad 5ebd
000001d0: c815 76bc 9975 863b 85cd 2e3c a3eb a63c
000001e0: c3de f93c be92 103c decc dcbc 622e 153d
000001f0: 6631 6dbd 21a8 09bd 6eb0 6bbc eab1 f8bc
00000200: 71c4 b0bc 1662 58bd de7a 4ebc 345f 793c
00000210: 0d33 2ebd 3ed0 bfbb bf70 3e3d 4069 ffbb
00000220: 2689 f03a 0fd5 a2bb 516c 773c 50d2 393d
00000230: 658c 7d3d 9d05 273d f67d 7f3d b616 f3bb
00000240: 5ba9 82bd 5bc9 0dbd bb57 393d 4a6a 9f3b
00000250: 62ad f5bc 7099 49bd 15d4 7dbd bd34 66bd
00000260: 4627 50bc 541b 1e3d 5203 013d 57e7 93bd
00000270: 7ef7 1d3d 19f3 6cbd c2a0 94bc 21e5 fcbc
00000280: e7ba 78bc 334c 67bc c864 7bbd 3364 70bd
00000290: 7a75 2cbc e599 913a e17f f5bc 3ee8 d93c
000002a0: 8e66 5cbd fa89 713a d547 813d db4a afbc
000002b0: e024 853d c3f7 ef3c bec5 5cbd 41b8 303d
000002c0: 3b47 10bc 37ac 03bd d970 563d ab15 6dbd
000002d0: c0aa 8e3b 01ef 93bc cd29 453d 897c a03c
000002e0: 5fbb 0a3d 01a3 d43c a75b 5ebc 256c 33bc
000002f0: fe34 53bd 4d21 2d3d 0092 743d 9a9f 593d
00000300: 06b5 1bbd 7ee8 4e3c b5d3 13bd d76c cabc
00000310: 45c7 3bbd 75f3 b03c 62ee 37bd 591e 84bb
00000320: c64f 743b 7301 423d a100 34bd 73ae 25bd
00000330: da02 07bd 90f3 6b3d 62d6 8dbc 3093 833d
00000340: dde9 013d 898a 823c d2cb b7bb 2672 93bc
00000350: 864a f33b 6236 8cbc f20b 1f3b 5410 533c
00000360: fb57 3fbd 6dbb 23bd 4535 543d 25bb 6dbd
00000370: e16e 09bc 2154 883d 7c77 d13c bd99 b73b
00000380: 688c 58bd 54e3 2b3d a888 34bd d478 7bbc
00000390: d75d 8fbc 9be9 aebb 1c31 693b d1f5 623d
000003a0: 1f16 0d3c 13c9 753d ac04 283d 856d 2bbd
000003b0: f525 f83c 245f 3ebd e35e 0ebd 4763 703c
000003c0: f653 923c fa41 3a3d d248 bfbc e6c1 a0ba
000003d0: 61c6 0e3d ba8a acbd 6ea2 263d 1411 b6bd
000003e0: 73d9 16bc 972a 8ebd ed72 9fbd ee8b 9fbd
000003f0: 8bf1 813d abf7 70bc 8e60 34bd 31ca 06bd

model.tcn.0.net.4.bias f4 [25]
-0.019279897 0.00086903246 -0.013931346 0.051338937 0.068524264 0.045202147 0.007021823 -0.025741188
0.011541446 -0.054213636 0.005251136 0.07700552 -0.001976136 0.07695704 -0.028105546 0.07136305
0.04854823 -0.036998533 -0.070747055 -0.036469627 0.04641823 0.07393372 -0.04896137 -0.029286534
0.039042253
00000000: e0f0 9dbc c8cf 633a 4d40 64bc c748 523d
00000010: 7356 8c3d e325 393d 5217 e63b 2fdf d2bc
00000020: 5518 3d3c 1e0f 5ebd b911 ac3b 12b5 9d3d
00000030: 0f82 01bb a79b 9d3d 9a3d e6bc ca26 923d
00000040: 82da 463d c68b 17bd d5e3 90bd 2d61 15bd
00000050: 0b21 3e3d 906a 973d b88b 48bd 50ea efbc
00000060: c5ea 1f3d

model.tcn.0.net.4.weight_g f4 [25, 1, 1]
0.5922726 0.58958447 0.556456 0.6026116 0.5939541 0.5568262 0.6054915 0.62866163
0.5874077 0.60937274 0.56487274 0.59107524 0.5461418 0.5772754 0.64521974 0.5795606
0.60531074 0.5665249 0.58228356 0.5656084 0.5983727 0.5715504 0.62130433 0.58499277
0.5858548
00000000: 2d9f 173f 02ef 163f e773 0e3f c144 1a3f
00000010: 600d 183f 298c 0e3f 7e01 1b3f f8ef 203f
00000020: 5a60 163f daff 1b3f 809b 103f b550 173f
00000030: f3cf 0b3f 52c8 133f 1f2d 253f 155e 143f
00000040: a5f5 1a3f c707 113f 8910 153f b6cb 103f
00000050: f42e 193f 2151 123f cd0d 1f3f 16c2 153f
00000060: 95fa 153f

model.tcn.0.net.4.weight_v f4 [25, 25, 7]
-0.012856257 0.03989418 -0.061707612 0.034015086 0.07013362 0.04848208 -0.047796153 -0.00979728
0.0013387862 0.036755376 -0.012932217 0.018395683 -0.005816254 0.010809135 -0.0018824774 -0.040157635
-0.047648724 0.062425904 0.06635066 0.009020143 0.07946907 0.060780976 -0.034374468 -0.016652333
-0.036524117 0.036849566 0.019897439 0.011794553 0.04498574 -0.019457322 -0.029868785 -0.04156507
-0.026620181 0.060685042 -0.02337179 -0.0106973965 0.040392682 -0.04835139 -0.039286066 0.054294374
-0.02866031 -0.041869495 -0.0058676 -0.0062054493 0.014500837 0.026843084 -0.046534248 0.063902974
-0.057663046 0.028792564 -0.014115209 -0.023369968 0.07568174 -0.05814234 0.02131287 0.068466514
0.062036183 -0.04571937 0.013720498 0.06635737 -0.059899088 0.012924792 -0.042315103 0.019610332
-0.05554684 0.043799937 -0.0044526984 0.055813603 0.016563313 0.011834091 -0.008177189 -0.055063706
-0.019666437 0.014090335 -0.04025577 0.07908815 -0.022868836 -0.025201127 -0.013069747 -0.050474465
-0.011480828 -0.029188514 -0.052634157 -0.012769621 0.052755054 0.01323896 0.050144542 0.0017827692
-0.016553832 0.054931633 -0.023926953 -0.061598647 0.019628113 0.0410336 -0.0331017 0.038961567
-0.0062956754 0.018315662 0.0036181875 0.0037515345 -0.040036533 0.020903025 0.00095999084 0.05258776
0.018311944 -0.052235126 -0.04775115 -0.028870407 0.041731816 -0.032451794 -0.013314352 0.03785317
-0.024840817 -0.008339986 0.06927519 -0.010650331 0.004724613 0.06063546 0.036592178 0.047052592
-0.06581084 0.027016798 -0.01766756 -0.051705386 -0.038374163 -0.07642829 0.050111853 -0.011197869
-0.06725653 0.065707445 0.05355236 0.040815353 0.08835491 0.072436005 0.075307235 0.073945686
0.06968255 0.03155237 0.009168917 0.022012137 -0.020095158 0.04358823 0.0136269955 0.03138841
-0.030111326 -0.0054855016 0.0850035 0.0030867157 0.016474059 -0.06423892 -0.03647951 -0.01424243
-0.023445975 0.013389187 -0.014713831 0.06467304 -0.0048712473 0.03941482 -0.036407687 0.03369137
-0.04623923 -0.051641494 -0.035337098 0.033506323 0.020356463 0.024432478 0.012720646 0.08968595
0.075165346 0.038387 0.06572637 0.0084682 -0.011937517 0.034002718 0.07566639 -0.0045284126
-0.04843709 0.03277094 -0.0076495004 -0.021456309 0.065320104 0.021020172 -0.029975425 -0.031323478
0.063555166 0.046087258 -0.036091153 0.015579474 0.017888147 0.03558073 -0.05815965 0.0049769846
0.02993871 0.045173466 0.02005837 -0.019679077 -0.06080681 0.04428062 0.07102115 -0.010787535
-0.051648326 0.035159715 -0.032223944 -0.03960139 0.016972056 -0.001879242 0.000104035265 0.05743191
-0.0061658747 0.040654294 -0.017311506 0.056940388 0.02480878 0.0643861 0.023725871 -0.029091522
0.02349969 0.05977185 0.016753606 0.03520634 -0.042602994 0.04226168 -0.058216162 0.06782456
0.03222629 0.008355767 -0.062513284 0.07217603 0.055084947 0.08030527 0.04633703 0.014746661
-0.020558354 -0.030758325 0.015653854 0.010903352 -0.01351297 -0.005576459 0.030130511 -0.061737288
-0.054889206 -0.009039187 0.059560772 0.049875576 -0.050065767 -0.014665228 -9.000499e-05 0.03153844
0.06792334 0.015323655 -0.038933095 0.027972128 -0.0313389 -0.04404379 0.0083611235 -0.02051731
00000000: 0da3 52bc 1468 233d 1fc1 7cbd 6753 0b3d
00000010: 37a2 8f3d 2595 463d e6c5 43bd c584 20bc
00000020: 367a af3a ce8c 163d a6e1 53bc 8bb2 963c
00000030: 4696 bebb cc18 313c 76bd f6ba 557c 24bd
00000040: 4f2b 43bd 4eb2 7f3d dbe2 873d 39c9 133c
00000050: aec0 a23d 79f5 783d 3ecc 0cbd 796a 88bc
00000060: 509a 15bd 92ef 163d f4ff a23c f13d 413c
00000070: f842 383d f664 9fbc 62af f4bc 2340 2abd
00000080: 9112 dabc e190 783d 3276 bfbc 2244 2fbc
00000090: cc72 253d 1b0c 46bd 6dea 20bd c763 5e3d
000000a0: 07c9 eabc 597f 2bbd ff44 c0bb 1557 cbbb
000000b0: eb94 6d3c 07e6 db3c b29a 3ebd 90df 823d
000000c0: 1630 6cbd 62de eb3c 7a43 67bc 6072 bfbc
000000d0: 07ff 9a3d aa26 6ebd 5498 ae3c 2c38 8c3d
000000e0: a719 7e3d 3c44 3bbd f1cb 603c 5fe6 873d
000000f0: bf58 75bd 82c2 533c 9a52 2dbd d9a5 a03c
00000100: 1585 63bd 9067 333d f1e7 91bb ce9c 643d
00000110: c9af 873c c6e3 413c 9ef9 05bc 7b8a 61bd
00000120: 821b a1bc 26db 663c 3ce3 24bd f8f8 a13d
00000130: 6d57 bbbc 9872 cebc 7e22 56bc 50be 4ebd
00000140: 151a 3cbc c01c efbc ea96 57bd ac37 51bc
00000150: af15 583d 39e8 583c 5d64 4d3d cfab e93a
00000160: e79b 87bc feff 603d 7502 c4bc dd4e 7cbd
00000170: 23cb a03c d912 283d a695 07bd 2a96 1f3d
00000180: f44b cebb ba0a 963c 1d1f 6d3b 4edc 753b
00000190: 59fd 23bd d23c ab3c e5a7 7b3a 4366 573d
000001a0: ee02 963c 80f4 55bd b696 43bd a281 ecbc
000001b0: fbee 2a3d 2cec 04bd 7124 5abc ed0b 1b3d
000001c0: f87e cbbc 70a4 08bc 27e0 8d3d ba7e 2ebc
000001d0: edd0 9a3b e35c 783d aee1 153d 38ba 403d
000001e0: d5c7 86bd 5552 dd3c 8fbb 90bc 07c9 53bd
000001f0: 3a2e 1dbd 6f86 9cbd 1642 4d3d 4477 37bc
00000200: cbbd 89bd a091 863d b859 5b3d 002e 273d
00000210: 6bf3 b43d 5459 943d ae3a 9a3d d670 973d
00000220: bab5 8e3d 0f3d 013d 3a39 163c cc52 b43c
00000230: 9a9e a4bc 9289 323d c343 5f3c 2291 003d
00000240: 07ac f6bc b9bf b3bb 5116 ae3d 7f4a 4a3b
00000250: 9bf4 863c b28f 83bd 8a6b 15bd 1559 69bc
00000260: c611 c0bc 525e 5b3c 4812 71bc 4c73 843d
00000270: fc9e 9fbb 6f71 213d 3a20 15bd f6ff 093d
00000280: 5965 3dbd 0886 53bd a2bd 10bd ed3d 093d
00000290: 99c2 a63c 9f26 c83c 426a 503c 44ad b73d
000002a0: 4af0 993d b03b 1d3d 8c9b 863d 35be 0a3c
000002b0: 9395 43bc 6f46 0b3d fbf6 9a3d 1463 94bb
000002c0: f865 46bd d23a 063d a9a8 fabb 24c5 afbc
000002d0: 8cc6 853d 7f32 ac3c 068f f5bc 0c4d 00bd
000002e0: 3629 823d fec5 3c3d 51d4 13bd 0d41 7f3c
000002f0: 2a8a 923c 19bd 113d d038 6ebd f915 a33b
00000300: 0742 f53c d007 393d 7351 a43c 0436 a1bc
00000310: 9010 79bd 985f 353d 8973 913d 34be 30bc
00000320: 328d 53bd a203 103d 41fd 03bd 1135 22bd
00000330: fb08 8b3c e650 f6ba 822d da38 b93d 6b3d
00000340: 1b0b cabb 1e85 263d dcd0 8dbc 533a 693d
00000350: c83b cb3c dcdc 833d c25c c23c 5851 eebc
00000360: 6c82 c03c 54d3 743d dc3e 893c 8634 103d
00000370: 7a80 2ebd 951a 2d3d 1274 6ebd 9ae7 8a3d
00000380: b7ff 033d a0e6 083c f706 80bd 07d1 933d
00000390: c1a0 613d 1777 a43d e6cb 3d3d fb9b 713c
000003a0: fe69 a8bc e2f8 fbbc 833c 803c f9a3 323c
000003b0: 8165 5dbc bbba b6bb 43d4 f63c 3de0 7cbd
000003c0: 81d3 60bd 1919 14bc fff5 733d 554a 4c3d
000003d0: c311 4dbd 6d46 70bc 10c1 bcb8 742e 013d
000003e0: 641b 8b3d 1110 7b3c 4f78 1fbd ce25 e53c
000003f0: 385d 00bd 4367 34bd 18fd 083c eb13 a8bc

model.tcn.0.downsample.weight f4 [25, 28, 1]
0.013700992 -0.0025584267 -0.029786259 -0.00189288 0.0029174471 -0.011832047 -0.007649817 -0.07693734
-0.1156276 -0.002862589 -0.022206116 0.01693756 0.00016089638 -0.009938012 0.008814654 0.012047186
-0.005713846 0.009579362 0.010193469 0.007357003 -0.007825038 -0.017460642 -0.010962097 -0.0063963635
-0.0006362385 -0.004419843 0.016502678 0.013025513 0.02665575 -0.0030407936 0.026039654 -0.002920972
-0.010781041 -0.007994588 -0.0054039047 -0.0910157 -0.1108866 -0.007536159 -0.0018246447 0.017666647
-0.0042309407 -0.0029094396 0.01323652 0.001205488 -0.009230371 0.0069435304 -0.021914212 -0.00075386616
-0.0017481273 -0.0065318393 0.007827603 0.0044349087 0.0063566025 -0.020199358 0.004671682 0.020598592
0.001875567 -0.0066306884 -0.016894378 0.016635476 0.0042897537 0.018990869 0.019329267 -0.012862926
0.005413078 -0.0006026395 0.016448397 -0.0144247925 -0.00667267 0.0035282306 0.010582923 -0.0007850519
-0.003399612 -0.0018055771 0.009654871 -0.009818719 0.0028690384 0.0040372075 0.0021206988 -0.009731448
-0.0002425311 0.0066637127 -0.0273838 0.005252046 0.03355973 0.005464413 0.007799701 0.00816582
-0.0012660774 -0.002825455 0.020924415 -0.086554945 -0.09451798 0.0043397145 0.009843807 -0.0042752544
-0.0055205696 -0.015705042 -0.0046576494 -0.0055249813 -0.0011825693 0.0035027948 0.003537734 0.013199922
-0.016648775 -0.0034220512 0.014243187 -0.0029958752 0.01041385 -0.011957315 -0.0069591845 0.012820306
-0.005338816 -0.002896654 0.0052312277 -0.030998116 0.0019344569 -0.004382294 0.003845725 -0.078388765
-0.0022161044 0.0010339159 0.012182326 -0.04019725 0.0032187304 -0.015667323 0.009996762 0.0021233235
-0.013072537 -0.00911637 -0.007845281 0.010294166 -0.019272516 0.01402588 -0.05568094 -0.015011367
-0.0016101369 0.016629852 -0.024939898 -0.014661502 0.0039342367 -0.010695745 -0.005083067 -0.009654687
-0.0060210247 0.014182349 0.0045527755 -0.01040117 0.0036750867 0.0050634844 -0.0025052342 -0.009998069
0.007262329 -0.019154644 0.0060738544 -0.00051793025 0.011097556 0.015468658 0.007886045 -0.008081816
0.0012641846 -0.0050048893 -0.019215548 0.0073359064 0.0049656145 0.00058513356 -0.017111195 0.010413887
0.018298242 0.005716284 -0.0023249958 -0.0032394659 -0.018782254 0.0038486996 -0.013544769 -0.10757367
-0.1513809 -0.0049949232 0.005189827 -0.0017732173 -0.0120449355 0.0152598815 -0.010441561 0.0019131474
-0.009709836 0.006944754 -0.011023009 0.0025124338 -0.005849385 -0.0031829805 -0.008393914 -0.0014828836
-0.0008719106 -0.017478805 -0.00420149 0.0059648906 0.026917169 0.010923144 -0.023234194 -0.012061788
0.0008954639 -0.01692316 -0.01526236 -0.11592052 -0.17377004 -0.012490948 -0.0066881794 -0.01584593
0.0017732927 0.01065242 0.0048597525 0.006146201 -0.011470151 0.020502206 0.0058276425 -0.012244883
-0.017486814 0.0026940394 -0.015166586 -0.0135583 0.0071671535 -0.004427156 0.02675185 0.013450738
-0.005758627 -0.0047932835 -0.07118292 0.0016674121 0.02576196 0.013590876 0.0009590748 0.04512741
0.041077256 -0.008013044 0.013487502 -0.006441886 0.007727697 0.01267164 -0.004660344 0.003262167
-0.01837272 0.004726465 0.00811849 -0.0053213327 0.008209695 -0.018619029 -0.008171759 -0.03329217
0.012408724 0.006668736 0.011488087 -0.026987895 0.020863188 0.0049445187 0.017977921 0.0036392678
00000000: 207a 603c 47ab 27bb 5002 f4bc 831a f8ba
00000010: a432 3f3b 34db 41bc 51ab fabb 5391 9dbd
00000020: 2ace ecbd 469a 3bbb 9ae9 b5bc a3c0 8a3c
00000030: 4bb6 2839 0bd3 22bc 576b 103c 8f61 453c
00000040: 373b bbbb c2f2 1c3c 8202 273c 0413 f13b
00000050: 9734 00bc 9f09 8fbc 5e9a 33bc 9698 d1bb
00000060: 3ec9 26ba 55d4 90bb a030 873c f668 553c
00000070: 295d da3c 0d48 47bb 1d51 d53c c76d 3fbb
00000080: f7a2 30bc bcfb 02bc 3d13 b1bb 7066 babd
00000090: 8418 e3bd e2f1 f6bb eb28 efba a5b9 903c
000000a0: b4a3 8abb 4cac 3ebb fddd 583c 7701 9e3a
000000b0: fb3a 17bc 8e86 e33b 6f85 b3bc 1a9f 45ba
000000c0: 6b21 e5ba 0a09 d6bb 593f 003c b652 913b
000000d0: 0c4b d03b 2079 a5bc e914 993b 61be a83c
000000e0: 96d5 f53a 3f46 d9bb 1466 8abc 1f47 883c
000000f0: 1091 8c3b bd92 9b3c 6958 9e3c 06bf 52bc
00000100: 3060 b13b 74fa 1dba cabe 863c f755 6cbc
00000110: 6aa6 dabb e339 673b ff63 2d3c f1cb 4dba
00000120: 06cc 5ebb 1da9 ecba 772f 1e3c b1de 20bc
00000130: 7a06 3c3b 8d4a 843b 6cfb 0a3b a770 1fbc
00000140: f24f 7eb9 465b da3b fe53 e0bc 5b19 ac3b
00000150: ed75 093d d20e b33b a294 ff3b eec9 053c
00000160: 82f2 a5ba 452b 39bb ae69 ab3c b843 b1bd
00000170: a592 c1bd 2a34 8e3b eb47 213c 6f17 8cbb
00000180: e5e5 b4bb dca7 80bc 329f 98bb e70a b5bb
00000190: 7100 9bba 258f 653b 54d9 673b 7c44 583c
000001a0: 0363 88bc 7e44 60bb 425c 693c 7256 44bb
000001b0: da9e 2a3c 9de8 43bc df09 e4bb 430c 523c
000001c0: 3cf1 aebb cad5 3dbb b86a ab3b c3ef fdbc
000001d0: 9a8d fd3a 5999 8fbb 8f08 7c3b 4a8a a0bd
000001e0: 103c 11bb 7684 873a 6198 473c dfa5 24bd
000001f0: 56f1 523b c258 80bc 75c9 233c 7527 0b3b
00000200: 322e 56bc d45c 15bc 7e89 00bc dda8 283c
00000210: 65e1 9dbc cecc 653c b311 64bd 3df2 75bc
00000220: 3b0b d3ba 543b 883c c24e ccbc cc36 70bc
00000230: c5ea 803b 353d 2fbc db8f a6bb b12e 1ebc
00000240: 044c c5bb 155d 683c 732f 953b ab69 2abc
00000250: b9d9 703b 96eb a53b db2e 24bb f1ce 23bc
00000260: d5f8 ed3b 33ea 9cbc 2f07 c73b b6c5 07ba
00000270: 86d2 353c 4170 7d3c 7834 013c 9869 04bc
00000280: ffb2 a53a 0e00 a4bb ed69 9dbc 0b62 f03b
00000290: 98b6 a23b a663 193a c72c 8cbc 029f 2a3c
000002a0: 32e6 953c aa4f bb3b f55e 18bb 384d 54bb
000002b0: 3edd 99bc 773a 7c3b e1ea 5dbc 964f dcbd
000002c0: 9803 1bbe 74ac a3bb 6d0f aa3b 4d6b e8ba
000002d0: 1f58 45bc 9504 7a3c 1513 2bbc 93c2 fa3a
000002e0: 0116 1fbc d290 e33b da99 34bc a5a7 243b
000002f0: 33ac bfbb 8d99 50bb a186 09bc 515d c2ba
00000300: ee90 64ba b62f 8fbc a7ac 89bb 2175 c33b
00000310: 6581 dc3c fdf6 323c a355 bebc ce9e 45bc
00000320: 91bd 6a3a 70a2 8abc fa0e 7abc bd67 edbd
00000330: c6f0 31be d5a6 4cbc 8428 dbbb 53cf 81bc
00000340: d46d e83a 7d87 2e3c 8f3e 9f3b 1266 c93b
00000350: 4ded 3bbc 3ef4 a73c cff5 be3b c39e 48bc
00000360: 8240 8fbc 7b8e 303b 467d 78bc a223 5ebc
00000370: 71da ea3b ad11 91bb b226 db3c 7c60 5c3c
00000380: ddb2 bcbb fa10 9dbb 5ac8 91bd 118d da3a
00000390: bf0a d33c 44ac 5e3c 6c6a 7b3a 85d7 383d
000003a0: a040 283d 2449 03bc affa 5c3c 7516 d3bb
000003b0: 9f38 fd3b b69c 4f3c cdb5 98bb 15ca 553b
000003c0: 6382 96bc 76e0 9a3b 6a03 053c 935e aebb
000003d0: f581 063c ef86 98bc d7e2 05bc 5f5d 08bd
000003e0: f64d 4b3c 6a85 da3b 8738 3c3c b815 ddbc
000003f0: 47e9 aa3c a105 a23b 6f46 933c c880 6e3b

model.tcn.0.downsample.bias f4 [25]
-0.052631274 0.14194255 0.037691146 0.04806268 0.05717159 0.052519944 -0.12203899 -0.014395185
-0.034751244 -0.05984131 -0.11384644 -0.016125077 0.0028307615 -0.054102328 -0.02739335 -0.04433282
-0.009128945 -0.15348561 0.1669181 -0.101949066 0.107678324 -0.16251074 -0.00050651206 -0.013846404
-0.14615849
00000000: e493 57bd 6359 113e 0862 1a3d 5fdd 443d
00000010: c22c 6a3d 271f 573d 94ef f9bd c8d9 6bbc
00000020: 5257 0ebd 291c 75bd 5328 e9bd bd18 84bc
00000030: 4c84 393b 679a 5dbd 0568 e0bc 5596 35bd
00000040: 9291 15bc 552b 1dbe 94ec 2a3e acca d0bd
00000050: 7486 dc3d 3769 26be 73c7 04ba 07dc 62bc
00000060: 92aa 15be

model.tcn.1.conv1.bias f4 [25]
-0.039288033 -0.0049753375 -0.045645345 0.06808836 -0.060594805 -0.05973478 0.06416318 -0.057623368
-0.014838362 -0.018164292 0.043246597 0.08501583 -0.04388142 -0.053850036 0.034667037 0.0302236
0.04612855 0.048701674 -0.048375692 0.03137181 -0.019934513 0.05184652 0.021960214 0.05431769
-0.01733246
00000000: 7dec 20bd 2808 a3bb 9df6 3abd e971 8b3d
00000010: 4232 78bd 75ac 74bd fc67 833d 7b06 6cbd
00000020: 9a1c 73bc 48cd 94bc 5823 313d c81c ae3d
00000030: 01bd 33bd db91 5cbd 06ff 0d3d 7c97 f73c
00000040: 4af1 3c3d 687b 473d 9725 46bd ba7f 003d
00000050: b44d a3bc 045d 543d e8e5 b33c 3a7c 5e3d
00000060: cefc 8dbc

model.tcn.1.conv1.weight_g f4 [25, 1, 1]
0.58121943 0.5581901 0.57208854 0.60605747 0.5795811 0.5620118 0.6375022 0.59334177
0.6327749 0.56464005 0.5990467 0.59685725 0.61204875 0.5849309 0.62526476 0.5910111
0.5906117 0.5612221 0.5932012 0.6058407 0.5887578 0.6025469 0.6189288 0.5999065
0.5721212
00000000: ccca 143f 8ce5 0e3f 6574 123f 9526 1b3f
00000010: 6d5f 143f 01e0 0f3f 5833 233f 3fe5 173f
00000020: 89fd 213f 408c 103f 205b 193f a3cb 183f
00000030: 3aaf 1c3f 08be 153f 5a11 203f 814c 173f
00000040: 5432 173f 40ac 0f3f 09dc 173f 6018 1b3f
00000050: d5b8 163f 8340 1a3f 1e72 1e3f 7993 193f
00000060: 8976 123f

model.tcn.1.conv1.weight_v f4 [25, 25, 7]
0.050520916 0.022402417 0.004016143 0.026104214 0.016866906 -0.014562373 -0.029410366 -0.028239913
0.027098158 -0.02930985 0.02463612 -0.03755587 -0.04872763 0.074925095 -0.045401398 0.017339658
0.049554694 0.003397271 0.040399835 -0.012406966 -0.05377981 -0.033718623 -0.023953672 -0.04588537
-0.048454918 0.023494773 0.06815197 0.07252534 0.034287993 -0.047909413 0.0008688453 0.04461637
0.08624726 -0.01564063 0.07746287 0.044677258 -0.010285106 -0.060057838 0.043946266 0.050386902
-0.045992583 0.07478807 -0.002730706 -0.053905472 0.00071729784 0.029385982 -0.001880788 -0.050028488
-0.01427581 0.03358303 0.024215592 0.03276627 0.020285593 0.043181997 -0.0009167235 0.09106064
0.012194917 0.0070679416 0.06238018 -0.018730545 0.048844784 -0.024544938 0.03647408 -0.012015687
0.039137553 -0.027533237 -0.00052366866 0.05089864 0.005046276 0.030962026 -0.032865062 0.040494893
0.0256018 -0.024494236 -0.02521554 0.06407107 0.07261377 0.056564976 -0.039885614 -0.030956982
-0.051362846 -0.054583535 -0.000382391 0.024909439 -0.034441374 -0.022511162 0.00019725732 -0.01734694
-0.055764064 0.062208813 0.0026674133 0.017121864 0.03324896 -0.06267285 -0.008768326 -0.05087633
0.0732072 -0.0029470099 0.0487364 0.0036164555 -0.032318775 0.0247806 -0.05814164 -0.01906765
0.015975574 0.070324734 -0.061075203 0.0252057 0.065290295 -0.014203012 -0.028898107 -0.022086011
-0.014827703 0.05023548 -0.04814078 0.059613053 -0.057831112 0.06646894 0.028506225 -0.017336532
-0.05302572 -0.031196414 -0.040635657 -0.05777759 -0.019664848 0.041040063 -0.058393065 0.06484217
0.025030043 0.04570113 -0.00040661424 -0.022250826 0.06228989 0.03873663 0.014409787 0.027001467
0.06300465 0.01524709 -0.020008912 0.040365364 -0.039178196 0.0607882 0.011952518 0.034200218
0.014033437 0.06989751 0.054395735 0.05050849 -0.03435164 0.010521729 0.04514988 0.047842633
-0.01923975 0.07776204 -0.063461594 0.045964573 -0.031186242 -0.052688 0.050324466 0.007972393
0.00081331783 0.039193623 0.050172172 0.005450516 -0.055945456 -0.034872483 -0.035392 0.051036708
-0.06581803 -0.038848616 -0.072343014 -0.006804549 0.040435832 0.01981978 0.032619115 0.03986793
-0.04240964 -0.014163242 0.052484985 -0.059667543 -0.069678426 -0.02229602 -0.057619844 -0.00706268
0.055991042 0.0056905868 0.025189204 0.016422382 -0.043037903 -0.021828266 0.023368109 0.07785067
-0.035287607 0.06357787 -0.026091889 -0.043965824 0.01597512 0.052517187 0.011200022 0.04213239
0.0030121852 -0.011729421 0.015573649 0.034657225 -0.0028302488 0.0339549 0.022044048 -0.048465475
0.07383285 -0.049188618 0.03463443 -0.046075568 -0.00087199034 0.0485998 0.042859316 0.07336132
-0.008693174 0.02102471 0.026891805 -0.06841108 -0.046841413 0.023174306 -0.0007088285 -0.020083439
-0.013835899 0.033374555 0.05542946 0.058438756 0.04687665 0.027832163 -0.047911204 0.05627795
-0.017362254 0.060416233 -0.032445055 0.046600502 0.020217843 0.07807491 0.0111656515 0.03578293
-0.06614194 0.018596385 -0.0673804 -0.06109445 -0.06665719 -0.0458475 -0.026727213 0.014106733
0.003861059 -0.02479654 0.017622443 -0.06819881 0.072748065 -0.032587364 -0.024421347 0.006664851
00000000: 05ef 4e3d 4685 b73c d999 833b 81d8 d53c
00000010: 772c 8a3c 0597 6ebc 02ee f0bc 6457 e7bc
00000020: f5fc dd3c 361b f0bc b0d1 c93c 2fd4 19bd
00000030: a096 47bd 5472 993d d1f6 39bd e60b 8e3c
00000040: ddf9 4a3d c0a4 5e3b 4c7a 253d 9646 4bbc
00000050: 3848 5cbd 8a1c 0abd 7e3a c4bc 4cf2 3bbd
00000060: aa78 46bd 1c78 c03c 4393 8b3d 2a88 943d
00000070: 9171 0c3d a93c 44bd 39c3 633a a8bf 363d
00000080: 67a2 b03d c720 80bc daa4 9e3d 80ff 363d
00000090: dc82 28bc 35ff 75bd 0001 343d 7f62 4e3d
000000a0: b862 3cbd 7d2a 993d a5f5 32bb fccb 5cbd
000000b0: 0b09 3c3a dfba f03c c684 f6ba acea 4cbd
000000c0: 16e5 69bc 5c8e 093d c75f c63c ed35 063d
000000d0: f92d a63c 9bdf 303d 4650 70ba 007e ba3d
000000e0: 30cd 473c 319a e73b 5c82 7f3d cd70 99bc
000000f0: 7811 483d 7712 c9bc d865 153d 72dd 44bc
00000100: b34e 203d 628d e1bc cf46 09ba 187b 503d
00000110: 3b5b a53b 13a4 fd3c 849d 06bd f9dd 253d
00000120: deba d13c 23a8 c8bc d290 cebc b137 833d
00000130: 87b6 943d adb0 673d 195f 23bd 7f99 fdbc
00000140: d961 52bd fc92 5fbd a77b c8b9 e10e cc3c
00000150: 6612 0dbd 5469 b8bc dcd6 4e39 2b1b 8ebc
00000160: dc68 64bd abce 7e3d c5cf 2e3b 2743 8c3c
00000170: 1030 083d a05a 80bd 06a9 0fbc b363 50bd
00000180: a8ed 953d 9f22 41bb d29f 473d 0e02 6d3b
00000190: b160 04bd af00 cb3c ee25 6ebd c333 9cbc
000001a0: 35df 823c 6a06 903d fe29 7abd 2f7c ce3c
000001b0: ebb6 853d c0b3 68bc b9bb ecbc b9ed b4bc
000001c0: e5ef 72bc b8c3 4d3d 442f 45bd d12c 743d
000001d0: 51e0 6cbd de20 883d e385 e93c 5805 8ebc
000001e0: 7f31 59bd 9f8f ffbc 9371 26bd 32a8 6cbd
000001f0: 2d18 a1bc a019 283d 912d 6fbd f9cb 843d
00000200: ce0b cd3c 1c31 3b3d d72e d5b9 5d47 b6bc
00000210: af23 7f3d 4daa 1e3d 0717 6c3c 2e32 dd3c
00000220: 9508 813d eece 793c bbe9 a3bc 2756 253d
00000230: 5179 20bd 0cfd 783d 7ed4 433c 8715 0c3d
00000240: 80ec 653c 6d26 8f3d 10ce 5e3d fee1 4e3d
00000250: 4eb4 0cbd 5463 2c3c 15ef 383d a3f6 433d
00000260: ae9c 9dbc b441 9f3d 27f8 81bd 5945 3c3d
00000270: 4a7a ffbc 5fcf 57bd 0721 4e3d a49e 023c
00000280: d634 553a 7e89 203d 5681 4d3d 3e9a b23b
00000290: 1027 65bd 73d6 0ebd 34f7 10bd de0b 513d
000002a0: 9acb 86bd ba1f 1fbd 9328 94bd b2f8 debb
000002b0: 0ba0 253d 175d a23c 9f9b 053d 8e4c 233d
000002c0: bbb5 2dbd f10c 68bc 7ffa 563d f465 74bd
000002d0: 90b3 8ebd 25a6 b6bc c902 6cbd 0e6e e7bb
000002e0: dd56 653d 1a78 ba3b 9759 ce3c 3b88 863c
000002f0: 8348 30bd 31d1 b2bc 7a6e bf3c 2c70 9f3d
00000300: bd89 10bd 1d35 823d a8be d5bc 8215 34bd
00000310: 41de 823c 431c 573d 4c80 373c 0393 2c3d
00000320: 1568 453b c22c 40bc 9e28 7f3c bcf4 0d3d
00000330: b27b 39bb 4b14 0b3d b895 b43c bc83 46bd
00000340: ad35 973d 017a 49bd d5dc 0d3d bcb9 3cbd
00000350: 4896 64ba 9510 473d 408d 2f3d 763e 963d
00000360: d16d 0ebc 033c ac3c 344c dc3c 1c1b 8cbd
00000370: c8dc 3fbd 0bd8 bd3c add0 39ba 0686 a4bc
00000380: f7af 62bc c2b3 083d 000a 633d 7a5d 6f3d
00000390: bb01 403d 4700 e43c 8a3e 44bd b583 663d
000003a0: 493b 8ebc 0377 773d 1be5 04bd 2be0 3e3d
000003b0: e49f a53c bde5 9f3d 23f0 363c 1f91 123d
000003c0: 6d75 87bd 7257 983c bcfe 89bd 2d3e 7abd
000003d0: 9183 88bd 97ca 3bbd 07f3 dabc ed1f 673c
000003e0: d209 7d3b 1d22 cbbc f15c 903c d1ab 8bbd
000003f0: f0fc 943d 547a 05bd 470f c8bc d364 da3b

model.tcn.1.conv2.bias f4 [25]
-0.029320825 0.029082105 -0.031719204 -0.048035923 0.00569529 0.01201786 0.07540596 0.04766574
-0.027251236 -0.04859018 0.04320708 0.04956009 0.018793603 0.011211943 -0.012550313 -0.0452568
0.0024357082 -0.057819422 0.017893173 -0.0014539828 -0.026211755 0.028553024 0.051569335 -0.05341101
0.021877848
00000000: 3a32 f0bc 983d ee3c ffeb 01bd 51c1 44bd
00000010: 8e9f ba3b 8fe6 443c 716e 9a3d 273d 433d
00000020: fc3d dfbc 7f06 47bd e8f9 303d 85ff 4a3d
00000030: 0bf5 993c 4cb2 373c d49f 4dbc 325f 39bd
00000040: 67a0 1f3b 0fd4 6cbd b494 923c 9193 beba
00000050: 09ba d6bc 08e8 e93c 5e3a 533d 81c5 5abd
00000060: 2c39 b33c

model.tcn.1.conv2.weight_g f4 [25, 1, 1]
0.57357824 0.5944308 0.55163664 0.59697616 0.5838669 0.5972998 0.582926 0.5840926
0.5458873 0.54490954 0.5890522 0.56564105 0.5798529 0.57252824 0.5932945 0.57139695
0.60737026 0.5475762 0.582876 0.5796552 0.5960535 0.54269415 0.5850677 0.6435978
0.5958951
00000000: 06d6 123f 9e2c 183f 0f38 0d3f 6ed3 183f
00000010: 4d78 153f a4e8 183f a33a 153f 1887 153f
00000020: 45bf 0b3f 317f 0b3f 20cc 163f dacd 103f
00000030: 3d71 143f 3691 123f 26e2 173f 1247 123f
00000040: 9e7c 1b3f f42d 0c3f 5d37 153f 4864 143f
00000050: f696 183f 01ee 0a3f ffc6 153f d3c2 243f
00000060: 958c 183f
