etc/ckpts/participants/661_test_30_all/sigmoid/TCN/epochs/TCN-chpkt-pecanstreet-participant-id-661_test_30_all_epoch=165.ckpt (torch, 998269 bytes, 201 tensors)

model.tcn.0.conv1.bias f4 [25]
0.043118335 -0.039610364 0.043818187 0.028648501 -0.064007424 0.024274344 -0.056525793 0.051837154
0.045376737 0.009449125 -0.034410417 -0.06646068 -0.015011605 -0.040153924 -0.057903375 -0.051123906
-0.05633985 -0.05607429 0.031739917 0.051020335 0.041213244 -0.0649604 0.049872726 0.029234054
0.042630877
00000000: da9c 303d 7a3e 22bd b37a 333d 43b0 ea3c
00000010: 5316 83bd fdda c63c 9787 67bd 3253 543d
00000020: f5dc 393d 81d0 1a3c f0f1 0cbd 891c 88bd
00000030: 3cf3 75bc 7178 24bd 172c 6dbd 4d67 51bd
00000040: 9dc4 66bd 28ae 65bd b701 023d b3fa 503d
00000050: 38cf 283d f509 85bd 5847 4c3d 417c ef3c
00000060: b79d 2e3d

model.tcn.0.conv1.weight_g f4 [25, 1, 1]
0.58007514 0.57230175 0.6390493 0.5973633 0.5672096 0.6068305 0.5813498 0.5727563
0.5501302 0.5535163 0.5518091 0.5437441 0.5793879 0.5647603 0.54080683 0.55153567
0.5848717 0.5424755 0.5805981 0.5413839 0.5764669 0.5355772 0.63532823 0.54942894
0.5593935
00000000: ce7f 143f 5e82 123f bc98 233f cdec 183f
00000010: a634 113f 3e59 1b3f 57d3 143f 28a0 123f
00000020: 55d5 0c3f 3fb3 0d3f 5c43 0d3f d032 0b3f
00000030: c452 143f 2294 103f 5172 0a3f 7131 0d3f
00000040: 27ba 153f addf 0a3f 14a2 143f 2398 0a3f
00000050: 5693 133f 961b 093f dfa4 223f 60a7 0c3f
00000060: 6a34 0f3f

model.tcn.0.conv1.weight_v f4 [25, 28, 7]
0.021547228 0.053297322 -0.03267864 -0.028622944 -0.0071978276 0.031705603 0.0297994 0.037416246
-0.019241711 0.004487697 -0.031014651 -0.023422768 -0.07132899 -0.050847888 -0.033609424 -0.0007635479
0.014754585 0.033652317 -0.027783118 -0.020076869 0.018557841 0.051638655 -0.016496362 0.047079545
-0.013890815 0.0018126019 0.05679156 -0.061929237 -0.02874682 -0.0049032713 -0.014423163 0.065662354
-0.030133946 -0.020092998 -0.037171185 -0.06310548 -0.040479127 0.053418983 0.024220048 0.028672617
0.00040286846 -0.03500561 0.017649377 -0.053968538 -0.0399044 -0.028014872 0.04553481 0.044979557
-0.019068392 -0.03807007 0.08054523 -0.031296793 0.069304354 0.04571367 -0.098183975 -0.16793886
-0.015111985 -0.0689216 -0.07130423 -0.055083472 0.0070594605 -0.02625138 -0.16702813 0.043548808
0.059200343 0.01529929 0.027658714 0.041450042 0.0647163 0.08707737 -0.04462413 -0.019348355
0.029080614 0.05650604 0.060247928 0.06015608 0.01644125 -0.07092094 -0.005721304 -0.0504761
-0.07638759 0.04262266 0.035746306 -0.077181205 0.006533242 -0.014287846 -0.013103984 -0.030616608
0.026247356 -0.03764225 0.024928212 0.032436848 0.046234973 0.02359515 -0.062236857 -0.043078203
0.030267233 0.012358659 -0.052408956 -0.039837282 0.05897566 0.041306783 -0.031741586 -0.019827781
-0.06470436 0.0085519 -0.041460596 -0.04416513 0.0038815532 0.01823173 -0.020464877 0.04477043
-0.036237396 0.058988336 0.0445694 -0.052397225 -0.0140350135 0.0034155992 0.011148585 0.019563071
0.028693955 0.007865959 -0.027131077 0.03383909 -0.05678313 -0.03200172 -0.013580748 -0.02930202
-0.021893376 -0.051079407 -0.011674382 0.014172478 -0.040266655 -0.0017811431 0.047295757 -0.0038890813
0.0023308957 -0.00653871 0.012192421 0.04260016 0.051649235 0.030575847 0.04992036 -0.016054442
-0.070808895 -0.043257557 0.032761246 0.0044933306 -0.030167274 -0.049510352 -0.060628127 -0.054724842
-0.0140720345 0.03327732 0.032253005 -0.06597888 0.04205307 -0.054548968 -0.020194665 -0.031000648
-0.011781803 -0.00418904 -0.048953407 -0.045659963 -8.467133e-05 0.010349082 -0.01784809 0.03881919
-0.050550193 0.000874281 0.059818048 -0.022017445 0.061486516 0.026418088 -0.05078856 0.044028778
-0.0060094967 -0.030308878 0.052526955 -0.049505666 0.008807654 -0.0148752155 0.04642706 0.020770805
0.035324022 0.026580438 -0.011982881 -0.010099029 -0.045855116 0.042472053 0.05843364 0.051774308
-0.03731417 0.008962304 -0.03751338 -0.023532733 -0.02977901 0.03221888 -0.028524999 0.0058762827
0.013128215 0.052060936 -0.030006064 -0.028467711 -0.023633994 0.06262941 -0.009382354 0.06493466
0.030753277 0.016953425 -0.002017427 -0.0050463937 0.0162505 -0.00921631 0.014931075 0.022195978
-0.027558675 -0.06756447 0.023707177 -0.08244672 -0.032472674 0.04215886 0.003208048 -0.0066532884
-0.025218755 0.059990052 -0.022936488 -0.00064150535 -0.0014299077 0.004471357 0.00981115 0.06087388
0.01874257 0.06675249 0.04651872 -0.02774967 0.036056366 -0.034000907 -0.062342297 -0.011386983
-0.008338155 0.019873945 -0.04293591 -0.021425294 0.022751823 -0.1188937 0.095986076 -0.11448775
0.04126839 -0.075299665 -0.09335924 -0.14997028 0.036069904 -0.013670086 -0.0519582 -0.021395322
00000000: d083 b03c 4b4e 5a3d 0ada 05bd aa7a eabc
00000010: c1db ebbb bcdd 013d df1d f43c c741 193d
00000020: cba0 9dbc 880d 933b 7012 febc 1be1 bfbc
00000030: ef14 92bd e045 50bd 09aa 09bd d528 48ba
00000040: 37bd 713c 03d7 093d 6c99 e3bc 3f78 a4bc
00000050: 9d06 983c 0e83 533d 6123 87bc 7bd6 403d
00000060: 4d96 63bc d494 ed3a 449e 683d 83a9 7dbd
00000070: 737e ebbc 9fab a0bb 214f 6cbc fc79 863d
00000080: 77db f6bc 129a a4bc d040 18bd 723d 81bd
00000090: 71cd 25bd ddcd 5a3d 1f69 c63c d6e2 ea3c
000000a0: 1738 d339 0b62 0fbd 6d95 903c 1d0e 5dbd
000000b0: cc72 23bd 727f e5bc b582 3a3d 7c3c 383d
000000c0: 5135 9cbc 5def 1bbd e6f4 a43d 1131 00bd
000000d0: 71ef 8d3d 423e 3b3d ae14 c9bd 2af8 2bbe
000000e0: 4298 77bc c526 8dbd f407 92bd 359f 61bd
000000f0: 0c53 e73b 220d d7bc 6c09 2bbe 3c60 323d
00000100: 0f7c 723d e0a9 7a3c 8794 e23c 85c7 293d
00000110: fb89 843d 9f55 b23d cbc7 36bd 7180 9ebc
00000120: 783a ee3c e172 673d 88c6 763d 3966 763d
00000130: cdaf 863c ff3e 91bd c779 bbbb 07c0 4ebd
00000140: 1971 9cbd 1995 2e3d b86a 123d 2e11 9ebd
00000150: ce14 d63b 9217 6abc 18b2 56bc aecf fabc
00000160: b204 d73c c32e 1abd 4036 cc3c 80dc 043d
00000170: e260 3d3d 9e4a c13c 13ec 7ebd c572 30bd
00000180: fdf2 f73c f97b 4a3c c6aa 56bd 6b2c 23bd
00000190: 7690 713d 4d31 293d 7703 02bd df6d a2bc
000001a0: b883 84bd 451d 0c3c 96d2 29bd 7fe6 34bd
000001b0: a861 7e3b b65a 953c f5a5 a7bc 3361 373d
000001c0: aa6d 14bd c19d 713d 678e 363d 799e 56bd
000001d0: 1df3 65bc 3fd8 5f3b 8ea8 363c bc42 a03c
000001e0: 960f eb3c 39e0 003c fe41 debc dc9a 0a3d
000001f0: 6d95 68bd 3c14 03bd c981 5ebc ca0a f0bc
00000200: bd59 b3bc a438 51bd e845 3fbc ae33 683c
00000210: a6ee 24bd 3f75 e9ba 32b9 413d f5df 7ebb
00000220: f1c1 183b ad42 d6bb b8c2 473c 817d 2e3d
00000230: 268e 533d 337a fa3c 4b79 4c3d 9b84 83bc
00000240: 4104 91bd d62e 31bd a830 063d ca3c 933b
00000250: 5c21 f7bc 5ecb 4abd 3355 78bd 2827 60bd
00000260: 648e 66bc cd4d 083d ba1b 043d ef1f 87bd
00000270: d73f 2c3d bd6e 5fbd 486f a5bc 12f5 fdbc
00000280: 7708 41bc 3744 89bb 5e83 48bd f105 3bbd
00000290: 9391 b1b8 328f 293c 2836 92bc df00 1f3d
000002a0: b80d 4fbd 0130 653a c503 753d ee5d b4bc
000002b0: 49d9 7b3d bf6a d83c aa07 50bd 8557 343d
000002c0: 50eb c4bb 534a f8bc 8126 573d 74c6 4abd
000002d0: fa4d 103c 2db7 73bc 4d2a 3e3d 8927 aa3c
000002e0: ecaf 103d 38bf d93c d953 44bc 6676 25bc
000002f0: 93d2 3bbd 2df7 2d3d 1d58 6f3d 4c11 543d
00000300: bed6 18bd a1d6 123c a1a7 19bd b8c7 c0bc
00000310: 1cf3 f3bc f2f7 033d 42ad e9bc d58d c03b
00000320: ba17 573c d93d 553d 47cf f5bc 1e35 e9bc
00000330: 149c c1bc d943 803d 72b8 19bc 77fc 843d
00000340: 4cee fb3c e9e1 8a3c cf36 04bb 385c a5bb
00000350: c51f 853c 0200 17bc 78a1 743c 57d4 b53c
00000360: bbc2 e1bc 3e5f 8abd 8e35 c23c d3d9 a8bd
00000370: 1102 05bd c5ae 2c3d 1d3e 523b d403 dabb
00000380: 9097 cebc 21b8 753d 4de5 bbbc b22a 28ba
00000390: be6b bbba 7684 923b f2be 203c e456 793d
000003a0: 058a 993c 88b5 883d 6a8a 3e3d 4753 e3bc
000003b0: d7af 133d 8944 0bbd a35a 7fbd 7890 3abc
000003c0: c29c 08bc afce a23c 91dd 2fbd 1984 afbc
000003d0: 0862 ba3c 8a7e f3bd 5994 c43d 8e78 eabd
000003e0: 0b09 293d b636 9abd 2133 bfbd cf91 19be
000003f0: 09be 133d 7ff8 5fbc 1fd2 54bd 3e45 afbc

model.tcn.0.conv2.bias f4 [25]
-0.019034103 0.0071616946 -0.010612916 0.05130324 0.08675117 0.058364913 -0.0031560315 0.0017927678
0.0113381175 -0.049229033 0.004149279 0.066292666 0.010012972 0.08131836 -0.0016495915 0.083330624
0.077403046 -0.037580896 -0.066248916 -0.030799882 0.053902563 0.07106694 -0.05274427 -0.038662653
0.044324726
00000000: 68ed 9bbc a6ac ea3b cce1 2dbc 5923 523d
00000010: 99aa b13d 0c10 6f3d 6cd5 4ebb 4efb ea3a
00000020: 83c3 393c 62a4 49bd adf6 873b 73c4 873d
00000030: 730d 243c 3e8a a63d 1b37 d8ba 3fa9 aa3d
00000040: 7d85 9e3d 6dee 19bd 83ad 87bd 0950 fcbc
00000050: efc8 5c3d 8b8b 913d 600a 58bd bb5c 1ebd
00000060: d88d 353d

model.tcn.0.conv2.weight_g f4 [25, 1, 1]
0.57631665 0.56399 0.5492775 0.58003515 0.575997 0.54224074 0.5853638 0.67127526
0.5703524 0.5937622 0.55958796 0.59345216 0.5260594 0.552738 0.67551786 0.55617094
0.6033159 0.546142 0.5940492 0.55541736 0.57982266 0.55186975 0.59533316 0.57291734
0.67119837
00000000: 7d89 133f a661 103f 739d 0c3f 2f7d 143f
00000010: 8a74 133f 4ad0 0a3f 67da 153f b2d8 2b3f
00000020: 9d02 123f cd00 183f 2841 0f3f 7bec 173f
00000030: d4ab 063f 3d80 0d3f bdee 2c3f 3861 0e3f
00000040: e972 1a3f f6cf 0b3f 9c13 183f d52f 0e3f
00000050: 426f 143f 5647 0d3f c167 183f b6aa 123f
00000060: a8d3 2b3f

model.tcn.0.conv2.weight_v f4 [25, 25, 7]
-0.0048407284 0.040898245 -0.05567267 0.035741735 0.06313209 0.04716999 -0.030002026 0.0077895042
0.021518014 0.050950646 0.003984563 0.018308772 0.0067722723 0.020792164 -0.0013690173 -0.033615842
-0.047140863 0.061662115 0.05058516 0.017107556 0.094024554 0.059797555 -0.034917377 -0.0167444
-0.038152605 0.034441724 0.01609967 0.015856981 0.045449387 -0.020010605 -0.03043435 -0.03878072
-0.027053125 0.05110742 -0.01734912 -0.010789349 0.037204474 -0.04787868 -0.040278807 0.055524994
-0.033812653 -0.053023882 0.0041450593 0.0055127363 0.021914281 0.03523235 -0.030006649 0.064677835
-0.040392753 0.020441648 -0.016412217 -0.029943816 0.068503685 -0.062320396 0.017753443 0.07331282
0.056793083 -0.046632558 0.013561701 0.061184138 -0.047481626 0.01163384 -0.04939932 0.02425277
-0.051224116 0.041062407 -0.008142074 0.040132042 0.013857741 0.017816566 -0.004432385 -0.049684025
-0.0194666 0.0135101285 -0.045544706 0.06805041 -0.021263829 -0.019198777 -0.0077913166 -0.04583848
-0.0053194556 -0.012372418 -0.052397747 -0.020038111 0.056448635 0.026826628 0.05571021 0.01197797
-0.011408463 0.06266841 -0.005681443 -0.063658416 0.012999811 0.03076534 -0.04043783 0.022112755
-0.011709172 0.02234171 0.010043237 0.007499834 -0.03864397 0.023843078 0.0036763374 0.0541297
0.024302177 -0.054491386 -0.04961677 -0.03487926 0.032248396 -0.05139486 -0.0152957775 0.046059247
-0.023883067 -0.012937409 0.058905568 -0.014180984 -0.007879891 0.047632575 0.027031815 0.044185385
-0.061224822 0.027290512 -0.014168146 -0.044515196 -0.035759076 -0.08130954 0.047794197 -0.009724937
-0.0642634 0.0650211 0.047139175 0.035934255 0.10763991 0.07440436 0.07490078 0.07063534
0.06350071 0.02546632 0.0068265554 0.024637224 -0.036625102 0.021687241 -0.011686976 0.010609501
-0.05055857 -0.018209154 0.06445367 0.0031652376 0.010315252 -0.063519746 -0.03410834 -0.0104573835
-0.025601178 -0.004348623 -0.016683135 0.057976104 -0.0029747004 0.033665814 -0.039812863 0.034321297
-0.018805481 -0.055861846 -0.04171023 0.022023896 0.007920431 0.012544962 0.0014224814 0.08532593
0.06957764 0.036567144 0.052615985 0.010848281 -0.018800495 0.029154487 0.078215554 0.002744611
-0.04413535 0.033216164 -0.008877421 -0.027238246 0.06001691 0.033455797 -0.018350443 -0.020093208
0.08119102 0.058054566 -0.037916455 0.023825714 0.02326758 0.033520304 -0.050674766 0.0071002264
0.028832583 0.03529564 0.026712852 -0.006990039 -0.0541776 0.044856302 0.07172133 -0.011726033
-0.05027574 0.032403834 -0.028054575 -0.027660726 0.01181329 -0.010349762 -0.008719244 0.047177933
-0.010581125 0.042382162 -0.012531402 0.057734784 0.02469193 0.06481075 0.028751746 -0.030186083
0.014951566 0.062257607 0.020900628 0.037639927 -0.03992386 0.045713246 -0.05802053 0.072910696
0.029312065 0.009513045 -0.062927805 0.068413265 0.04503289 0.077042274 0.053372607 0.011149264
-0.023945402 -0.032632362 0.0150319245 0.01746245 -0.012768508 -0.011130004 0.033300493 -0.059327316
-0.05433496 -0.014909702 0.039553206 0.03883503 -0.049577024 -0.014562483 0.0040546446 0.034153774
0.06922654 0.010581902 -0.04622277 0.028186986 -0.032104224 -0.04670266 0.010618825 -0.016855672
00000000: f99e 9ebb eb84 273d 0709 64bd ed65 123d
00000010: 664b 813d 5235 413d cfc6 f5bc 193f ff3b
00000020: 8c46 b03c a0b1 503d f090 823b 47fc 953c
00000030: f0e9 dd3b 5454 aa3c 9970 b3ba c4b0 09bd
00000040: c716 41bd 6a91 7c3d 6232 4f3d 2525 8c3c
00000050: f28f c03d 48ee 743d 8605 0fbd 8d2b 89bc
00000060: e845 1cbd c412 0d3d 75e3 833c 80e6 813c
00000070: 2329 3a3d 48ed a3bc 7551 f9bc 88d8 1ebd
00000080: 849e ddbc 0456 513d be1f 8ebc cfc5 30bc
00000090: b863 183d 6f1c 44bd 64fb 24bd 2d6e 633d
000000a0: 237f 0abd 922f 59bd 47d3 873b 2fa4 b43b
000000b0: 9485 b33c cc4f 103d 81d0 f5bc d075 843d
000000c0: df72 25bd 3e75 a73c ea72 86bc bc4c f5bc
000000d0: a94b 8c3d ac43 7fbd ab6f 913c 0825 963d
000000e0: dd9f 683d c801 3fbd e631 5e3c 389c 7a3d
000000f0: 187c 42bd dd9b 3e3c f156 4abd bfad c63c
00000100: 61d0 51bd 0e31 283d 5566 05bc 7f61 243d
00000110: 940b 633c 0cf4 913c 8a3d 91bb 7a81 4bbd
00000120: 6b78 9fbc 9659 5d3c 168d 3abd 035e 8b3d
00000130: 7b31 aebc c146 9dbc 4d4e ffbb 21c1 3bbd
00000140: d44e aebb afb5 4abc 059f 56bd f726 a4bc
00000150: af36 673d 84c3 db3c 6430 643d 3f3f 443c
00000160: 90ea 3abc 4c58 803d 662b babb 585f 82bd
00000170: 29fd 543c 9807 fc3c 23a2 25bd cf25 b53c
00000180: d4d7 3fbc f605 b73c 648c 243c 2bc1 f53b
00000190: 2449 1ebd 8f52 c33c b5ee 703b 1bb7 5d3d
000001a0: 5c15 c73c 5c32 5fbd f43a 4bbd 8edd 0ebd
000001b0: e516 043d 6b83 52bd 249b 7abc 9fa8 3c3d
000001c0: 6ca6 c3bc 6df7 53bc f746 713d 5c57 68bc
000001d0: a91a 01bc 601a 433d d371 dd3c bcfb 343d
000001e0: e1c6 7abd 5a90 df3c 8321 68bc 9155 36bd
000001f0: 1c78 12bd 9e85 a6bd d9c3 433d 5855 1fbc
00000200: 889c 83bd c829 853d 0215 413d cc2f 133d
00000210: 5072 dc3d 5061 983d 9565 993d 43a9 903d
00000220: a90c 823d be9e d03c 4cb1 df3b 01d4 c93c
00000230: 3404 16bd 71a9 b13c bb7a 3fbc 79d3 2d3c
00000240: 8116 4fbd 5d2b 95bc 4900 843d e06f 4f3b
00000250: 4d01 293c a416 82bd 30b5 0bbd 7255 2bbc
00000260: 90b9 d1bc e57e 8ebb 12ab 88bc 5a78 6d3d
00000270: 31f3 42bb 2ae5 093d d012 23bd 7d94 0c3d
00000280: f40d 9abc 64cf 64bd 59d8 2abd 756b b43c
00000290: b2c4 013c 6289 4d3c 8e72 ba3a 5cbf ae3d
000002a0: b97e 8e3d 6ec7 153d dc83 573d fdbc 313c
000002b0: 7f03 9abc 64d5 ee3c 7a2f a03d eede 333b
000002c0: 45c7 34bd ac0d 083d 9a72 11bc be22 dfbc
000002d0: 4bd4 753d f208 093d ab53 96bc 839a a4bc
000002e0: 7a47 a63d a0ca 6d3d 494e 1bbd 252e c33c
000002f0: a79b be3c 964c 093d 5890 4fbd 04a9 e83b
00000300: 4f32 ec3c 2992 103d e9d4 da3c b20c e5bb
00000310: 55e9 5dbd 3ebb 373d a2e2 923d 8c1e 40bc
00000320: efed 4dbd e2b9 043d b5d2 e5bc bf98 e2bc
00000330: 888c 413c 0c92 29bc 29db 0ebc a63d 413d
00000340: 745c 2dbc eb98 2d3d 8250 4dbc 4f7b 6c3d
00000350: bb46 ca3c 80bb 843d c888 eb3c ce48 f7bc
00000360: 6af7 743c d501 7f3d cb37 ab3c 532c 1a3d
00000370: 3487 23bd d03d 3b3d efa6 6dbd 3452 953d
00000380: db1f f03c 9adc 1b3c 4be0 80bd 411c 8c3d
00000390: 6874 383d 57c8 9d3d 3c9d 5a3d 67ab 363c
000003a0: 2629 c4bc 83a9 05bd 7648 763c 690d 8f3c
000003b0: 0133 51bc 9f5a 36bc 1966 083d 3301 73bd
000003c0: 568e 5ebd d347 74bc 8b02 223d 7b11 1f3d
000003d0: 4711 4bbd 7b97 6ebc d3dc 843b d4e4 0b3d
000003e0: a5c6 8d3d b75f 2d3c 1654 3dbd 65e8 e63c
000003f0: b87f 03bd 4a4b 3fbd 95fa 2d3c e814 8abc

model.tcn.0.net.0.bias f4 [25]
0.043118335 -0.039610364 0.043818187 0.028648501 -0.064007424 0.024274344 -0.056525793 0.051837154
0.045376737 0.009449125 -0.034410417 -0.06646068 -0.015011605 -0.040153924 -0.057903375 -0.051123906
-0.05633985 -0.05607429 0.031739917 0.051020335 0.041213244 -0.0649604 0.049872726 0.029234054
0.042630877
00000000: da9c 303d 7a3e 22bd b37a 333d 43b0 ea3c
00000010: 5316 83bd fdda c63c 9787 67bd 3253 543d
00000020: f5dc 393d 81d0 1a3c f0f1 0cbd 891c 88bd
00000030: 3cf3 75bc 7178 24bd 172c 6dbd 4d67 51bd
00000040: 9dc4 66bd 28ae 65bd b701 023d b3fa 503d
00000050: 38cf 283d f509 85bd 5847 4c3d 417c ef3c
00000060: b79d 2e3d

model.tcn.0.net.0.weight_g f4 [25, 1, 1]
0.58007514 0.57230175 0.6390493 0.5973633 0.5672096 0.6068305 0.5813498 0.5727563
0.5501302 0.5535163 0.5518091 0.5437441 0.5793879 0.5647603 0.54080683 0.55153567
0.5848717 0.5424755 0.5805981 0.5413839 0.5764669 0.5355772 0.63532823 0.54942894
0.5593935
00000000: ce7f 143f 5e82 123f bc98 233f cdec 183f
00000010: a634 113f 3e59 1b3f 57d3 143f 28a0 123f
00000020: 55d5 0c3f 3fb3 0d3f 5c43 0d3f d032 0b3f
00000030: c452 143f 2294 103f 5172 0a3f 7131 0d3f
00000040: 27ba 153f addf 0a3f 14a2 143f 2398 0a3f
00000050: 5693 133f 961b 093f dfa4 223f 60a7 0c3f
00000060: 6a34 0f3f

model.tcn.0.net.0.weight_v f4 [25, 28, 7]
0.021547228 0.053297322 -0.03267864 -0.028622944 -0.0071978276 0.031705603 0.0297994 0.037416246
-0.019241711 0.004487697 -0.031014651 -0.023422768 -0.07132899 -0.050847888 -0.033609424 -0.0007635479
0.014754585 0.033652317 -0.027783118 -0.020076869 0.018557841 0.051638655 -0.016496362 0.047079545
-0.013890815 0.0018126019 0.05679156 -0.061929237 -0.02874682 -0.0049032713 -0.014423163 0.065662354
-0.030133946 -0.020092998 -0.037171185 -0.06310548 -0.040479127 0.053418983 0.024220048 0.028672617
0.00040286846 -0.03500561 0.017649377 -0.053968538 -0.0399044 -0.028014872 0.04553481 0.044979557
-0.019068392 -0.03807007 0.08054523 -0.031296793 0.069304354 0.04571367 -0.098183975 -0.16793886
-0.015111985 -0.0689216 -0.07130423 -0.055083472 0.0070594605 -0.02625138 -0.16702813 0.043548808
0.059200343 0.01529929 0.027658714 0.041450042 0.0647163 0.08707737 -0.04462413 -0.019348355
0.029080614 0.05650604 0.060247928 0.06015608 0.01644125 -0.07092094 -0.005721304 -0.0504761
-0.07638759 0.04262266 0.035746306 -0.077181205 0.006533242 -0.014287846 -0.013103984 -0.030616608
0.026247356 -0.03764225 0.024928212 0.032436848 0.046234973 0.02359515 -0.062236857 -0.043078203
0.030267233 0.012358659 -0.052408956 -0.039837282 0.05897566 0.041306783 -0.031741586 -0.019827781
-0.06470436 0.0085519 -0.041460596 -0.04416513 0.0038815532 0.01823173 -0.020464877 0.04477043
-0.036237396 0.058988336 0.0445694 -0.052397225 -0.0140350135 0.0034155992 0.011148585 0.019563071
0.028693955 0.007865959 -0.027131077 0.03383909 -0.05678313 -0.03200172 -0.013580748 -0.02930202
-0.021893376 -0.051079407 -0.011674382 0.014172478 -0.040266655 -0.0017811431 0.047295757 -0.0038890813
0.0023308957 -0.00653871 0.012192421 0.04260016 0.051649235 0.030575847 0.04992036 -0.016054442
-0.070808895 -0.043257557 0.032761246 0.0044933306 -0.030167274 -0.049510352 -0.060628127 -0.054724842
-0.0140720345 0.03327732 0.032253005 -0.06597888 0.04205307 -0.054548968 -0.020194665 -0.031000648
-0.011781803 -0.00418904 -0.048953407 -0.045659963 -8.467133e-05 0.010349082 -0.01784809 0.03881919
-0.050550193 0.000874281 0.059818048 -0.022017445 0.061486516 0.026418088 -0.05078856 0.044028778
-0.0060094967 -0.030308878 0.052526955 -0.049505666 0.008807654 -0.0148752155 0.04642706 0.020770805
0.035324022 0.026580438 -0.011982881 -0.010099029 -0.045855116 0.042472053 0.05843364 0.051774308
-0.03731417 0.008962304 -0.03751338 -0.023532733 -0.02977901 0.03221888 -0.028524999 0.0058762827
0.013128215 0.052060936 -0.030006064 -0.028467711 -0.023633994 0.06262941 -0.009382354 0.06493466
0.030753277 0.016953425 -0.002017427 -0.0050463937 0.0162505 -0.00921631 0.014931075 0.022195978
-0.027558675 -0.06756447 0.023707177 -0.08244672 -0.032472674 0.04215886 0.003208048 -0.0066532884
-0.025218755 0.059990052 -0.022936488 -0.00064150535 -0.0014299077 0.004471357 0.00981115 0.06087388
0.01874257 0.06675249 0.04651872 -0.02774967 0.036056366 -0.034000907 -0.062342297 -0.011386983
-0.008338155 0.019873945 -0.04293591 -0.021425294 0.022751823 -0.1188937 0.095986076 -0.11448775
0.04126839 -0.075299665 -0.09335924 -0.14997028 0.036069904 -0.013670086 -0.0519582 -0.021395322
00000000: d083 b03c 4b4e 5a3d 0ada 05bd aa7a eabc
00000010: c1db ebbb bcdd 013d df1d f43c c741 193d
00000020: cba0 9dbc 880d 933b 7012 febc 1be1 bfbc
00000030: ef14 92bd e045 50bd 09aa 09bd d528 48ba
00000040: 37bd 713c 03d7 093d 6c99 e3bc 3f78 a4bc
00000050: 9d06 983c 0e83 533d 6123 87bc 7bd6 403d
00000060: 4d96 63bc d494 ed3a 449e 683d 83a9 7dbd
00000070: 737e ebbc 9fab a0bb 214f 6cbc fc79 863d
00000080: 77db f6bc 129a a4bc d040 18bd 723d 81bd
00000090: 71cd 25bd ddcd 5a3d 1f69 c63c d6e2 ea3c
000000a0: 1738 d339 0b62 0fbd 6d95 903c 1d0e 5dbd
000000b0: cc72 23bd 727f e5bc b582 3a3d 7c3c 383d
000000c0: 5135 9cbc 5def 1bbd e6f4 a43d 1131 00bd
000000d0: 71ef 8d3d 423e 3b3d ae14 c9bd 2af8 2bbe
000000e0: 4298 77bc c526 8dbd f407 92bd 359f 61bd
000000f0: 0c53 e73b 220d d7bc 6c09 2bbe 3c60 323d
00000100: 0f7c 723d e0a9 7a3c 8794 e23c 85c7 293d
00000110: fb89 843d 9f55 b23d cbc7 36bd 7180 9ebc
00000120: 783a ee3c e172 673d 88c6 763d 3966 763d
00000130: cdaf 863c ff3e 91bd c779 bbbb 07c0 4ebd
00000140: 1971 9cbd 1995 2e3d b86a 123d 2e11 9ebd
00000150: ce14 d63b 9217 6abc 18b2 56bc aecf fabc
00000160: b204 d73c c32e 1abd 4036 cc3c 80dc 043d
00000170: e260 3d3d 9e4a c13c 13ec 7ebd c572 30bd
00000180: fdf2 f73c f97b 4a3c c6aa 56bd 6b2c 23bd
00000190: 7690 713d 4d31 293d 7703 02bd df6d a2bc
000001a0: b883 84bd 451d 0c3c 96d2 29bd 7fe6 34bd
000001b0: a861 7e3b b65a 953c f5a5 a7bc 3361 373d
000001c0: aa6d 14bd c19d 713d 678e 363d 799e 56bd
000001d0: 1df3 65bc 3fd8 5f3b 8ea8 363c bc42 a03c
000001e0: 960f eb3c 39e0 003c fe41 debc dc9a 0a3d
000001f0: 6d95 68bd 3c14 03bd c981 5ebc ca0a f0bc
00000200: bd59 b3bc a438 51bd e845 3fbc ae33 683c
00000210: a6ee 24bd 3f75 e9ba 32b9 413d f5df 7ebb
00000220: f1c1 183b ad42 d6bb b8c2 473c 817d 2e3d
00000230: 268e 533d 337a fa3c 4b79 4c3d 9b84 83bc
00000240: 4104 91bd d62e 31bd a830 063d ca3c 933b
00000250: 5c21 f7bc 5ecb 4abd 3355 78bd 2827 60bd
00000260: 648e 66bc cd4d 083d ba1b 043d ef1f 87bd
00000270: d73f 2c3d bd6e 5fbd 486f a5bc 12f5 fdbc
00000280: 7708 41bc 3744 89bb 5e83 48bd f105 3bbd
00000290: 9391 b1b8 328f 293c 2836 92bc df00 1f3d
000002a0: b80d 4fbd 0130 653a c503 753d ee5d b4bc
000002b0: 49d9 7b3d bf6a d83c aa07 50bd 8557 343d
000002c0: 50eb c4bb 534a f8bc 8126 573d 74c6 4abd
000002d0: fa4d 103c 2db7 73bc 4d2a 3e3d 8927 aa3c
000002e0: ecaf 103d 38bf d93c d953 44bc 6676 25bc
000002f0: 93d2 3bbd 2df7 2d3d 1d58 6f3d 4c11 543d
00000300: bed6 18bd a1d6 123c a1a7 19bd b8c7 c0bc
00000310: 1cf3 f3bc f2f7 033d 42ad e9bc d58d c03b
00000320: ba17 573c d93d 553d 47cf f5bc 1e35 e9bc
00000330: 149c c1bc d943 803d 72b8 19bc 77fc 843d
00000340: 4cee fb3c e9e1 8a3c cf36 04bb 385c a5bb
00000350: c51f 853c 0200 17bc 78a1 743c 57d4 b53c
00000360: bbc2 e1bc 3e5f 8abd 8e35 c23c d3d9 a8bd
00000370: 1102 05bd c5ae 2c3d 1d3e 523b d403 dabb
00000380: 9097 cebc 21b8 753d 4de5 bbbc b22a 28ba
00000390: be6b bbba 7684 923b f2be 203c e456 793d
000003a0: 058a 993c 88b5 883d 6a8a 3e3d 4753 e3bc
000003b0: d7af 133d 8944 0bbd a35a 7fbd 7890 3abc
000003c0: c29c 08bc afce a23c 91dd 2fbd 1984 afbc
000003d0: 0862 ba3c 8a7e f3bd 5994 c43d 8e78 eabd
000003e0: 0b09 293d b636 9abd 2133 bfbd cf91 19be
000003f0: 09be 133d 7ff8 5fbc 1fd2 54bd 3e45 afbc

model.tcn.0.net.4.bias f4 [25]
-0.019034103 0.0071616946 -0.010612916 0.05130324 0.08675117 0.058364913 -0.0031560315 0.0017927678
0.0113381175 -0.049229033 0.004149279 0.066292666 0.010012972 0.08131836 -0.0016495915 0.083330624
0.077403046 -0.037580896 -0.066248916 -0.030799882 0.053902563 0.07106694 -0.05274427 -0.038662653
0.044324726
00000000: 68ed 9bbc a6ac ea3b cce1 2dbc 5923 523d
00000010: 99aa b13d 0c10 6f3d 6cd5 4ebb 4efb ea3a
00000020: 83c3 393c 62a4 49bd adf6 873b 73c4 873d
00000030: 730d 243c 3e8a a63d 1b37 d8ba 3fa9 aa3d
00000040: 7d85 9e3d 6dee 19bd 83ad 87bd 0950 fcbc
00000050: efc8 5c3d 8b8b 913d 600a 58bd bb5c 1ebd
00000060: d88d 353d

model.tcn.0.net.4.weight_g f4 [25, 1, 1]
0.57631665 0.56399 0.5492775 0.58003515 0.575997 0.54224074 0.5853638 0.67127526
0.5703524 0.5937622 0.55958796 0.59345216 0.5260594 0.552738 0.67551786 0.55617094
0.6033159 0.546142 0.5940492 0.55541736 0.57982266 0.55186975 0.59533316 0.57291734
0.67119837
00000000: 7d89 133f a661 103f 739d 0c3f 2f7d 143f
00000010: 8a74 133f 4ad0 0a3f 67da 153f b2d8 2b3f
00000020: 9d02 123f cd00 183f 2841 0f3f 7bec 173f
00000030: d4ab 063f 3d80 0d3f bdee 2c3f 3861 0e3f
00000040: e972 1a3f f6cf 0b3f 9c13 183f d52f 0e3f
00000050: 426f 143f 5647 0d3f c167 183f b6aa 123f
00000060: a8d3 2b3f

model.tcn.0.net.4.weight_v f4 [25, 25, 7]
-0.0048407284 0.040898245 -0.05567267 0.035741735 0.06313209 0.04716999 -0.030002026 0.0077895042
0.021518014 0.050950646 0.003984563 0.018308772 0.0067722723 0.020792164 -0.0013690173 -0.033615842
-0.047140863 0.061662115 0.05058516 0.017107556 0.094024554 0.059797555 -0.034917377 -0.0167444
-0.038152605 0.034441724 0.01609967 0.015856981 0.045449387 -0.020010605 -0.03043435 -0.03878072
-0.027053125 0.05110742 -0.01734912 -0.010789349 0.037204474 -0.04787868 -0.040278807 0.055524994
-0.033812653 -0.053023882 0.0041450593 0.0055127363 0.021914281 0.03523235 -0.030006649 0.064677835
-0.040392753 0.020441648 -0.016412217 -0.029943816 0.068503685 -0.062320396 0.017753443 0.07331282
0.056793083 -0.046632558 0.013561701 0.061184138 -0.047481626 0.01163384 -0.04939932 0.02425277
-0.051224116 0.041062407 -0.008142074 0.040132042 0.013857741 0.017816566 -0.004432385 -0.049684025
-0.0194666 0.0135101285 -0.045544706 0.06805041 -0.021263829 -0.019198777 -0.0077913166 -0.04583848
-0.0053194556 -0.012372418 -0.052397747 -0.020038111 0.056448635 0.026826628 0.05571021 0.01197797
-0.011408463 0.06266841 -0.005681443 -0.063658416 0.012999811 0.03076534 -0.04043783 0.022112755
-0.011709172 0.02234171 0.010043237 0.007499834 -0.03864397 0.023843078 0.0036763374 0.0541297
0.024302177 -0.054491386 -0.04961677 -0.03487926 0.032248396 -0.05139486 -0.0152957775 0.046059247
-0.023883067 -0.012937409 0.058905568 -0.014180984 -0.007879891 0.047632575 0.027031815 0.044185385
-0.061224822 0.027290512 -0.014168146 -0.044515196 -0.035759076 -0.08130954 0.047794197 -0.009724937
-0.0642634 0.0650211 0.047139175 0.035934255 0.10763991 0.07440436 0.07490078 0.07063534
0.06350071 0.02546632 0.0068265554 0.024637224 -0.036625102 0.021687241 -0.011686976 0.010609501
-0.05055857 -0.018209154 0.06445367 0.0031652376 0.010315252 -0.063519746 -0.03410834 -0.0104573835
-0.025601178 -0.004348623 -0.016683135 0.057976104 -0.0029747004 0.033665814 -0.039812863 0.034321297
-0.018805481 -0.055861846 -0.04171023 0.022023896 0.007920431 0.012544962 0.0014224814 0.08532593
0.06957764 0.036567144 0.052615985 0.010848281 -0.018800495 0.029154487 0.078215554 0.002744611
-0.04413535 0.033216164 -0.008877421 -0.027238246 0.06001691 0.033455797 -0.018350443 -0.020093208
0.08119102 0.058054566 -0.037916455 0.023825714 0.02326758 0.033520304 -0.050674766 0.0071002264
0.028832583 0.03529564 0.026712852 -0.006990039 -0.0541776 0.044856302 0.07172133 -0.011726033
-0.05027574 0.032403834 -0.028054575 -0.027660726 0.01181329 -0.010349762 -0.008719244 0.047177933
-0.010581125 0.042382162 -0.012531402 0.057734784 0.02469193 0.06481075 0.028751746 -0.030186083
0.014951566 0.062257607 0.020900628 0.037639927 -0.03992386 0.045713246 -0.05802053 0.072910696
0.029312065 0.009513045 -0.062927805 0.068413265 0.04503289 0.077042274 0.053372607 0.011149264
-0.023945402 -0.032632362 0.0150319245 0.01746245 -0.012768508 -0.011130004 0.033300493 -0.059327316
-0.05433496 -0.014909702 0.039553206 0.03883503 -0.049577024 -0.014562483 0.0040546446 0.034153774
0.06922654 0.010581902 -0.04622277 0.028186986 -0.032104224 -0.04670266 0.010618825 -0.016855672
00000000: f99e 9ebb eb84 273d 0709 64bd ed65 123d
00000010: 664b 813d 5235 413d cfc6 f5bc 193f ff3b
00000020: 8c46 b03c a0b1 503d f090 823b 47fc 953c
00000030: f0e9 dd3b 5454 aa3c 9970 b3ba c4b0 09bd
00000040: c716 41bd 6a91 7c3d 6232 4f3d 2525 8c3c
00000050: f28f c03d 48ee 743d 8605 0fbd 8d2b 89bc
00000060: e845 1cbd c412 0d3d 75e3 833c 80e6 813c
00000070: 2329 3a3d 48ed a3bc 7551 f9bc 88d8 1ebd
00000080: 849e ddbc 0456 513d be1f 8ebc cfc5 30bc
00000090: b863 183d 6f1c 44bd 64fb 24bd 2d6e 633d
000000a0: 237f 0abd 922f 59bd 47d3 873b 2fa4 b43b
000000b0: 9485 b33c cc4f 103d 81d0 f5bc d075 843d
000000c0: df72 25bd 3e75 a73c ea72 86bc bc4c f5bc
000000d0: a94b 8c3d ac43 7fbd ab6f 913c 0825 963d
000000e0: dd9f 683d c801 3fbd e631 5e3c 389c 7a3d
000000f0: 187c 42bd dd9b 3e3c f156 4abd bfad c63c
00000100: 61d0 51bd 0e31 283d 5566 05bc 7f61 243d
00000110: 940b 633c 0cf4 913c 8a3d 91bb 7a81 4bbd
00000120: 6b78 9fbc 9659 5d3c 168d 3abd 035e 8b3d
00000130: 7b31 aebc c146 9dbc 4d4e ffbb 21c1 3bbd
00000140: d44e aebb afb5 4abc 059f 56bd f726 a4bc
00000150: af36 673d 84c3 db3c 6430 643d 3f3f 443c
00000160: 90ea 3abc 4c58 803d 662b babb 585f 82bd
00000170: 29fd 543c 9807 fc3c 23a2 25bd cf25 b53c
00000180: d4d7 3fbc f605 b73c 648c 243c 2bc1 f53b
00000190: 2449 1ebd 8f52 c33c b5ee 703b 1bb7 5d3d
000001a0: 5c15 c73c 5c32 5fbd f43a 4bbd 8edd 0ebd
000001b0: e516 043d 6b83 52bd 249b 7abc 9fa8 3c3d
000001c0: 6ca6 c3bc 6df7 53bc f746 713d 5c57 68bc
000001d0: a91a 01bc 601a 433d d371 dd3c bcfb 343d
000001e0: e1c6 7abd 5a90 df3c 8321 68bc 9155 36bd
000001f0: 1c78 12bd 9e85 a6bd d9c3 433d 5855 1fbc
00000200: 889c 83bd c829 853d 0215 413d cc2f 133d
00000210: 5072 dc3d 5061 983d 9565 993d 43a9 903d
00000220: a90c 823d be9e d03c 4cb1 df3b 01d4 c93c
00000230: 3404 16bd 71a9 b13c bb7a 3fbc 79d3 2d3c
00000240: 8116 4fbd 5d2b 95bc 4900 843d e06f 4f3b
00000250: 4d01 293c a416 82bd 30b5 0bbd 7255 2bbc
00000260: 90b9 d1bc e57e 8ebb 12ab 88bc 5a78 6d3d
00000270: 31f3 42bb 2ae5 093d d012 23bd 7d94 0c3d
00000280: f40d 9abc 64cf 64bd 59d8 2abd 756b b43c
00000290: b2c4 013c 6289 4d3c 8e72 ba3a 5cbf ae3d
000002a0: b97e 8e3d 6ec7 153d dc83 573d fdbc 313c
000002b0: 7f03 9abc 64d5 ee3c 7a2f a03d eede 333b
000002c0: 45c7 34bd ac0d 083d 9a72 11bc be22 dfbc
000002d0: 4bd4 753d f208 093d ab53 96bc 839a a4bc
000002e0: 7a47 a63d a0ca 6d3d 494e 1bbd 252e c33c
000002f0: a79b be3c 964c 093d 5890 4fbd 04a9 e83b
00000300: 4f32 ec3c 2992 103d e9d4 da3c b20c e5bb
00000310: 55e9 5dbd 3ebb 373d a2e2 923d 8c1e 40bc
00000320: efed 4dbd e2b9 043d b5d2 e5bc bf98 e2bc
00000330: 888c 413c 0c92 29bc 29db 0ebc a63d 413d
00000340: 745c 2dbc eb98 2d3d 8250 4dbc 4f7b 6c3d
00000350: bb46 ca3c 80bb 843d c888 eb3c ce48 f7bc
00000360: 6af7 743c d501 7f3d cb37 ab3c 532c 1a3d
00000370: 3487 23bd d03d 3b3d efa6 6dbd 3452 953d
00000380: db1f f03c 9adc 1b3c 4be0 80bd 411c 8c3d
00000390: 6874 383d 57c8 9d3d 3c9d 5a3d 67ab 363c
000003a0: 2629 c4bc 83a9 05bd 7648 763c 690d 8f3c
000003b0: 0133 51bc 9f5a 36bc 1966 083d 3301 73bd
000003c0: 568e 5ebd d347 74bc 8b02 223d 7b11 1f3d
000003d0: 4711 4bbd 7b97 6ebc d3dc 843b d4e4 0b3d
000003e0: a5c6 8d3d b75f 2d3c 1654 3dbd 65e8 e63c
000003f0: b87f 03bd 4a4b 3fbd 95fa 2d3c e814 8abc

model.tcn.0.downsample.weight f4 [25, 28, 1]
0.019037114 -0.0051978305 -0.029193612 0.00423927 0.0030480188 -0.007998816 0.0011730373 -0.11836731
-0.15558846 -0.00082979933 -0.025393194 0.021420605 0.0032568858 -0.009577575 0.008723242 0.012533897
-0.0048616533 0.013615887 0.009015735 0.019077307 -0.0033486031 -0.01909655 -0.002766028 -0.018687574
0.002932287 -0.006431825 0.03191949 0.027168883 0.023580113 -0.0014307452 0.02397701 -0.0037732655
-0.0024787413 -0.004628916 -0.0016310826 -0.12560433 -0.14104691 -0.00493696 0.00073870725 0.012355593
-0.004566697 -0.006264753 0.020828376 0.0015306552 -0.0075820433 0.006667491 -0.021089876 -0.00061836647
-0.003110966 -0.008369509 0.009346455 -0.000693359 0.005620848 -0.013879532 0.00086791517 0.02114667
0.0052866987 0.003429215 0.0072444966 0.01805795 -0.0053154253 0.025286958 0.01641449 0.00062498945
0.02930991 -0.014024479 0.0061332528 -0.011609697 -0.0035662248 -0.016450508 0.011771561 -0.005300114
-0.008403122 -0.005785324 0.0061833845 -0.011614652 0.019615546 -0.00030904374 0.0036124412 0.0076908185
-0.0037624852 0.00016242277 -0.029020509 0.00767947 0.0583223 -0.01671115 0.022061175 0.010306524
-0.0058955317 -0.04140475 0.014452415 -0.22481592 -0.1395484 0.0149890175 0.011772099 0.005149643
0.003169281 -0.022387894 -0.00067354675 -0.017458828 -0.014413003 -0.005709337 -0.010789624 0.030376788
-0.008174999 -0.018162116 0.023964716 0.017391112 0.00037815265 -0.01933655 -0.008650556 0.031076213
0.009413833 0.0060829176 0.014893735 -0.03910142 -0.01069736 -0.0053174975 -0.0074739214 -0.03710488
0.029255226 -0.006847798 0.012836004 -0.04522066 0.009441819 -0.017113002 0.023286056 0.0004943299
-0.008586154 -0.00654847 0.00043691837 0.025717461 -0.019888826 -0.008579606 -0.04051284 -0.01818
-0.00055269967 -0.00019319523 -0.002918704 0.009704168 0.01774034 -0.004454969 -0.00283207 -0.017334472
-0.019577034 0.012014874 -0.007583182 0.02636454 0.033090964 0.00022780923 -0.0067352555 -0.0153620355
0.010288568 -0.018767472 0.010538765 0.0001536651 0.014509077 0.016739022 0.014484859 -0.00047112018
-0.00067737 -0.016333653 -0.014318246 0.007835783 0.0061314725 -0.0077030472 -0.0016957996 0.021992061
0.006696457 -0.0054451614 -0.00509255 0.012288965 -0.031417996 -0.005587255 0.0063083824 -0.3111169
-0.22219162 -0.007899184 0.022230646 0.0099637695 -0.021236377 0.027788505 0.0149485255 0.0008645517
-0.010480588 0.0066238553 -0.01316876 0.018976023 0.010110592 -0.003098658 0.012680031 -0.015570635
-0.00067383255 -0.021809677 0.015311925 0.01700811 0.016209135 0.00022454877 -0.027108975 -0.015975306
0.011587485 -0.012074501 -0.016250828 -0.16052358 -0.21111535 -0.0039713173 0.006352205 -0.04427026
-0.017546698 0.009906734 0.013397596 0.019215258 -0.0077477735 0.017480105 0.0127834985 -0.029088698
-0.012762774 0.016075205 -0.026306024 -0.01639026 0.0036928942 0.0036756047 0.034980178 -7.3900665e-05
0.0021377176 -0.010632619 -0.07136513 0.00807652 0.023332281 0.0046541677 0.0014849295 0.07472657
0.058409553 -0.011844211 0.0009220192 -0.0038407892 0.010142962 0.015639596 -0.021941058 0.0007243908
-0.019976238 0.0012120873 0.006543431 -0.012293924 0.0001482309 -0.01792881 -0.010331073 -0.026547723
0.007971272 0.0071166083 0.019162763 -0.03572895 0.02832636 -0.006682896 0.0149589395 0.0035744964
00000000: b9f3 9b3c 9052 aabb 7127 efbc 93e9 8a3b
00000010: 45c1 473b 770d 03bc 9ac0 993a 8f6a f2bd
00000020: 9552 1fbe e486 59ba 6305 d0bc 447a af3c
00000030: 7a71 553b 43eb 1cbc eeeb 0e3c f95a 4d3c
00000040: 814e 9fbb 2b15 5f3c bcb6 133c 0348 9c3c
00000050: 3d74 5bbb 5e70 9cbc 4046 35bb af16 99bc
00000060: 9d2b 403b 0fc2 d2bb 03be 023d 4791 de3c
00000070: 152b c13c d887 bbba 6f6b c43c e448 77bb
00000080: 6172 22bb 29ae 97bb 0dca d5ba 6c9e 00be
00000090: 9a6e 10be 39c6 a1bb cea5 413a 1d6f 4a3c
000000a0: 3ba4 95bb 8f48 cdbb 45a0 aa3c 44a0 c83a
000000b0: ca72 f8bb f87a da3b adc4 acbc df19 22ba
000000c0: 59e1 4bbb 4420 09bc e021 193c 89c2 35ba
000000d0: 172f b83b fa66 63bc cd84 633a c83b ad3c
000000e0: 0b3c ad3b aebc 603b 3e63 ed3b 44ee 933c
000000f0: 052d aebb 9826 cf3c ae77 863c 55d6 233a
00000100: 561b f03c eec6 65bc 74f9 c83b 9936 3ebc
00000110: 53b7 69bb 37c3 86bc 81dd 403c 94ac adbb
00000120: 40ad 09bc d192 bdbb fd9d ca3b 624b 3ebc
00000130: c8b0 a03c 2607 a2b9 b5be 6c3b 4303 fc3b
00000140: 0794 76bb 0850 2a39 6bbc edbc 10a4 fb3b
00000150: 5de3 6e3d d2e5 88bc a3b9 b43c b2dc 283c
00000160: 4e2f c1bb 0798 29bd d2c9 6c3c 2536 66be
00000170: c7e5 0ebe 7f94 753c c3df 403c 56be a83b
00000180: b6b3 4f3b d166 b7bc f590 30ba d105 8fbc
00000190: 8424 6cbc 6415 bbbb f7c6 30bc bed8 f83c
000001a0: 6ef0 05bc b8c8 94bc a751 c43c ce77 8e3c
000001b0: ca42 c639 af67 9ebc 10bb 0dbc 8b93 fe3c
000001c0: 7a3c 1a3c 3653 c73b da04 743c d028 20bd
000001d0: fb43 2fbc 673e aebb cce7 f4bb 49fb 17bd
000001e0: a8a8 ef3c 7e63 e0bb 1a4e 523c 4c39 39bd
000001f0: dcb1 1a3c 9130 8cbc 66c2 be3c eb95 013a
00000200: f1ac 0cbc 8c94 d6bb 3112 e539 6dad d23c
00000210: e4ed a2bc 7a91 0cbc cbf0 25bd 39ee 94bc
00000220: 0ce3 10ba 7394 4ab9 ba47 3fbb 3bfe 1e3c
00000230: 3154 913c fdfa 91bb 409a 39bb 0601 8ebc
00000240: 0460 a0bc 09da 443c 577c f8bb 73fa d73c
00000250: 648a 073d 13e0 6e39 6bb3 dcbb 0cb1 7bbc
00000260: 6291 283c 3ebe 99bc c9aa 2c3c 2921 2139
00000270: 7bb7 6d3c 4620 893c e751 6d3c ae00 f7b9
00000280: 8891 31ba 27ce 85bc 1497 6abc a861 003c
00000290: 85ea c83b d869 fcbb 9845 deba b228 b43c
000002a0: f46d db3b 536d b2bb 68df a6bb a857 493c
000002b0: 28b0 00bd 4b15 b7bb 8cb6 ce3b b74a 9fbe
000002c0: 3386 63be 946b 01bc 0b1d b63c 143f 233c
000002d0: e9f7 adbc b8a4 e33c a9ea 743c 15a3 623a
000002e0: c6b6 2bbc ed0c d93b c8c1 57bc 9b73 9b3c
000002f0: e5a6 253c db12 4bbb e8bf 4f3c fa1b 7fbc
00000300: 23a4 30ba 35aa b2bc dede 7a3c 9854 8b3c
00000310: 05c9 843c da74 6b39 a413 debc a5de 82bc
00000320: 6fd9 3d3c 21d4 45bc 7520 85bc 4b60 24be
00000330: 9f2e 58be d321 82bb 2826 d03b bb54 35bd
00000340: 18be 8fbc db4f 223c 9781 5b3c 5169 9d3c
00000350: 09e1 fdbb 7032 8f3c e171 513c 6c4b eebc
00000360: f41a 51bc 26b0 833c bb7f d7bc de44 86bc
00000370: 7c04 723b 6ae2 703b 6047 0f3d 1efb 9ab8
00000380: f318 0c3b 7034 2ebc e227 92bd 6153 043c
00000390: 5723 bf3c fd81 983b f7a1 c23a 3e0a 993d
000003a0: db3e 6f3d 390e 42bc a9b3 713a c0b5 7bbb
000003b0: ab2e 263c 9c1e 803c bcbd b3bc 0be5 3d3a
000003c0: 35a5 a3bc e7de 9e3a 476a d63b 746c 49bc
000003d0: 6e6e 1b39 71df 92bc a943 29bc 9c7a d9bc
000003e0: f099 023c 7032 e93b 3afb 9c3c 8558 12bd
000003f0: af0c e83c 32fc dabb 5716 753c 1942 6a3b

model.tcn.0.downsample.bias f4 [25]
-0.05030702 0.14386582 0.033797696 0.036967713 0.06968962 0.060600277 -0.12789045 0.018076774
-0.033769593 -0.05683193 -0.10944766 -0.024493754 0.014767005 -0.045664735 -0.00206456 -0.029218175
0.021839354 -0.15206559 0.18679021 -0.07596546 0.11261265 -0.15780391 -0.019860672 -0.03255651
-0.1374948
00000000: bc0e 4ebd 9051 133e 746f 0a3d 756b 173d
00000010: 6eb9 8e3d ff37 783d b7f5 02be be15 943c
00000020: fc51 0abd 99c8 68bd 1826 e0bd 20a7 c8bc
00000030: 4ff1 713c f20a 3bbd 924d 07bb f45a efbc
00000040: 72e8 b23c 15b7 1bbe ef45 3f3e c793 9bbd
00000050: 76a1 e63d 5997 21be d9b2 a2bc fa59 05bd
00000060: 70cb 0cbe

model.tcn.1.conv1.bias f4 [25]
-0.053239655 0.01876036 -0.048864603 0.088051654 -0.062371224 -0.06023525 0.07115549 -0.06013532
-0.012067542 -0.009090431 0.049403768 0.15720147 -0.039936077 -0.05592716 0.04737805 0.016505873
0.051431637 0.07830651 -0.047254506 0.054727152 0.011273917 0.065364376 0.013757845 0.086892575
-0.020560063
00000000: d311 5abd 54af 993c 4026 48bd 6d54 b43d
00000010: f878 7fbd 3db9 76bd f8b9 913d 7450 76bd
00000020: f1b6 45bc 08f0 14bc 9b5b 4a3d 6cf9 203e
00000030: 0394 23bd e113 65bd 7c0f 423d 5337 873c
00000040: fba9 523d 2a5f a03d f18d 41bd 9429 603d
00000050: 3cb6 383c c2dd 853d 9668 613c bcf4 b13d
00000060: 946d a8bc

model.tcn.1.conv1.weight_g f4 [25, 1, 1]
0.5753397 0.56635827 0.7169772 0.5968759 0.5598107 0.53440106 0.6472424 0.5682015
0.61302197 0.5420087 0.6457825 0.72353566 0.61549956 0.61933184 0.62224543 0.5671534
0.5748487 0.57600504 0.58093786 0.61285204 0.61768085 0.6139391 0.6082106 0.5846053
0.5560292
00000000: 7649 133f dbfc 103f d18b 373f dccc 183f
00000010: c14f 0f3f 82ce 083f aeb1 253f a775 113f
00000020: 02ef 1c3f 15c1 0a3f 0052 253f a239 393f
00000030: 6191 1d3f 888c 1e3f 7a4b 1f3f f730 113f
00000040: 4929 133f 1175 133f 58b8 143f dfe3 1c3f
00000050: 5520 1e3f 1d2b 1d3f b1b3 1b3f b1a8 153f
00000060: ee57 0e3f

model.tcn.1.conv1.weight_v f4 [25, 25, 7]
0.04242272 0.017361183 0.0108065205 0.021076666 0.0032396095 -0.050103895 -0.023942469 -0.03222113
0.034102943 -0.018299669 0.024877233 -0.03963715 -0.05643221 0.07050663 -0.035997506 0.02913352
0.047043845 -0.009036176 0.028349163 -0.014884899 -0.058686018 -0.038176008 -0.021689909 -0.03620635
-0.049679764 -0.00038235052 0.016039116 0.08463616 0.028380468 -0.038762778 0.0020930618 0.040724985
0.06991991 -0.009431618 0.06489866 0.038515527 -0.008319561 -0.05645059 0.040558707 0.03953012
-0.039587975 0.067661956 -0.0025232246 -0.054155197 0.0025456683 0.015382618 -0.015217872 -0.08833096
0.014037453 0.01671806 0.02848963 0.046244457 0.013731706 0.015451057 -0.04482769 0.10900715
0.018072873 0.007897116 0.050145376 -0.0152410455 0.043587644 -0.0031445173 0.01126172 -0.022374604
0.026438069 -0.021631239 -0.0017999653 0.030121334 -0.049332764 0.03576665 -0.031759672 0.036635794
0.028415175 -0.028493097 -0.024095772 0.013566374 0.11682402 0.050970525 -0.030797552 -0.014425318
-0.04731668 -0.053152934 -0.04586844 0.055029772 -0.035918042 -0.020262305 0.0066664256 -0.019823758
-0.059898756 0.006891436 0.004712665 0.0054106466 0.025799155 -0.0523458 -0.010887276 -0.060317546
0.022328679 -0.014385626 0.04008984 0.006123405 -0.021318827 0.017234936 -0.058579944 -0.062960826
0.03396459 0.061127983 -0.047663078 0.030935228 0.058643542 -0.02254735 -0.05597138 -0.02355614
-0.019738374 0.053442664 -0.035790663 0.0573794 -0.06271119 0.026199773 0.032420274 -0.022555413
-0.048160106 -0.027692413 -0.038884364 -0.058262687 -0.02561276 0.010490336 -0.0569032 0.096543916
0.042350527 0.052920412 -0.010603419 -0.022601124 0.06751052 0.020820513 -0.0025154268 0.0048256996
0.04483645 0.0002526085 -0.015020272 0.021880822 -0.04231797 0.06075296 0.01163762 0.032381717
0.0028033983 0.05500669 0.04259823 0.044942316 -0.033483513 0.0143693695 0.042605147 0.042178802
-0.05004956 0.08217401 -0.06491395 0.02550475 -0.025160395 -0.051559787 0.034373038 -0.026843019
0.046925865 0.02984582 0.050865293 0.0164684 -0.05805546 -0.047070995 -0.0761939 0.08078335
-0.06503981 -0.03163472 -0.054544043 -0.010877849 0.025051748 -0.024357615 0.07407482 0.018769016
-0.050177213 -0.025496125 0.027112601 -0.06758697 -0.085969724 -0.05056841 -0.06610841 -0.02064689
0.035346456 -0.0071290596 0.01171397 0.0020050749 -0.049933907 -0.015105867 0.019173605 0.057775874
-0.023019915 0.048848175 -0.013804568 -0.025970835 0.020596085 0.044887166 0.01506578 0.039389156
0.005883347 -0.021844009 -0.008032282 0.04253716 0.006087523 0.039743587 0.028872872 -0.03653793
0.08349058 -0.030764565 0.033375215 -0.04280498 -0.001316829 0.04468991 0.04057806 0.07278902
-0.0001604253 0.035247847 0.037744466 -0.047491487 -0.032583892 0.022069773 -0.01631119 -0.03678222
-0.017970849 0.022306612 0.042391945 0.04677378 0.040326882 0.013697454 -0.05032182 0.052123867
-0.011403487 0.05818687 -0.023806812 0.047252543 0.031382244 0.0879786 0.01743433 0.03426514
-0.056041304 0.015617598 -0.06016967 -0.06841632 -0.076729685 -0.011216162 0.004106888 0.038940016
0.02495082 -0.005486234 0.015529853 -0.0563263 0.047054157 -0.04283894 -0.034583736 -0.00990135
00000000: 72c3 2d3d 0a39 8e3c d50d 313c f9a8 ac3c
00000010: a14f 543b be39 4dbd ff22 c4bc 4efa 03bd
00000020: 87af 0b3d 30e9 95bc 57cb cb3c 905a 22bd
00000030: 7625 67bd c865 903d 1f72 13bd 6ba9 ee3c
00000040: 0cb1 403d 780c 14bc 813c e83c cbdf 73bc
00000050: c060 70bd 725e 1cbd 09af b1bc 1c4d 14bd
00000060: 027d 4bbd 3876 c8b9 7764 833c b955 ad3d
00000070: 287e e83c b8c5 1ebd c02b 093b 3ecf 263d
00000080: 2b32 8f3d 1387 1abc 97e9 843d 75c2 1d3d
00000090: c54e 08bc bc38 67bd e320 263d 56ea 213d
000000a0: 0027 22bd 5a92 8a3d af5c 25bb d7d1 5dbd
000000b0: 3ad5 263b 6007 7c3c 6254 79bc dde6 b4bd
000000c0: 58fd 653c 50f4 883c 1663 e93c d46a 3d3d
000000d0: f3fa 603c 6e26 7d3c 3d9d 37bd 243f df3d
000000e0: 900d 943c e862 013c 3d65 4d3d 94b5 79bc
000000f0: f588 323d 3f14 4ebb 1483 383c f24a b7bc
00000100: a694 d83c ff33 b1bc d0ec ebba 04c1 f63c
00000110: 2711 4abd 0d80 123d 6e16 02bd 6a0f 163d
00000120: f1c6 e83c 5b6a e9bc 7f64 c5bc 7f45 5e3c
00000130: 6f41 ef3d 78c6 503d 264b fcbc 2b58 6cbc
00000140: 23cf 41bd e4b6 59bd 8ce0 3bbd e666 613d
00000150: cc1e 13bd 22fd a5bc 0872 da3b 6f65 a2bc
00000160: 6658 75bd 8ed1 e13b b36c 9a3b cb4b b13b
00000170: c058 d33c 8d68 56bd 8c60 32bc 880f 77bd
00000180: a2ea b63c b0b1 6bbc 3e35 243d d8a6 c83b
00000190: d2a4 aebc 4830 8d3c 86f1 6fbd 9bf1 80bd
000001a0: 741e 0b3d 5661 7a3d 5c3a 43bd e06b fd3c
000001b0: 3634 703d 38b5 b8bc 3f42 65bd cef8 c0bc
000001c0: 5fb2 a1bc b2e6 5a3d 3b99 12bd a906 6b3d
000001d0: b96e 80bd e8a0 d63c 1fcb 043d 21c6 b8bc
000001e0: 8843 45bd 33db e2bc 3645 1fbd dba4 6ebd
000001f0: dad1 d1bc a9df 2b3c 5413 69bd d1b8 c53d
00000200: bf77 2d3d 13c3 583d f6b9 2dbc fe25 b9bc
00000210: f542 8a3d c88f aa3c dcd9 24bb e720 9e3b
00000220: 6da6 373d 8a70 8439 9617 76bc 693f b33c
00000230: 9c55 2dbd 19d8 783d b7ab 3e3c b1a2 043d
00000240: 38b9 373b b24e 613d 7b7b 2e3d 6f15 383d
00000250: 0226 09bd 816d 6b3c bc82 2e3d aec3 2c3d
00000260: c400 4dbd d94a a83d 9bf1 84bd 56ef d03c
00000270: 2c1d cebc 5b30 53bd beca 0c3d e4e5 dbbc
00000280: 5635 403d 397f f43c 2058 503d bde8 863c
00000290: 90cb 6dbd 84cd 40bd 8c0b 9cbd be71 a53d
000002a0: 9833 85bd 6893 01bd 9369 5fbd 0139 32bc
000002b0: 5339 cd3c 9f89 c7bc 8ab4 973d 7bc1 993c
000002c0: 9f86 4dbd 40dd d0bc 3f1b de3c 0a6b 8abd
000002d0: e510 b0bd d220 4fbd d963 87bd ab23 a9bc
000002e0: 72c7 103d e39a e9bb f4eb 3f3c 9367 033b
000002f0: 7f87 4cbd 997e 77bc f711 9d3c 65a6 6c3d
00000300: 4394 bcbc 0615 483d 8e2c 62bc cac0 d4bc
00000310: 1fb9 a83c 9bdb 373d 76d6 763c 8656 213d
00000320: 17c9 c03b 35f2 b2bc d599 03bc 723b 2e3d
00000330: d879 c73b 2cca 223d cd86 ec3c cca8 15bd
00000340: 1cfd aa3d f805 fcbc 73b4 083d 4654 2fbd
00000350: 7399 acba c40c 373d 2e35 263d 6912 953d
00000360: d737 28b9 0c60 103d f199 1a3d 6f86 42bd
00000370: b076 05bd abcb b43c 0b9f 85bc f4a8 16bd
00000380: 9a37 93bc 5bbc b63c 2da3 2d3d dd95 3f3d
00000390: cd2d 253d 496b 603c 411e 4ebd d67f 553d
000003a0: b1d5 3abc 5b55 6e3d 8106 c3bc e28b 413d
000003b0: ab8a 003d 202e b43d 71d2 8e3c 9a59 0c3d
000003c0: 918b 65bd f4e0 7f3c 7974 76bd db1d 8cbd
000003d0: 7424 9dbd fec3 37bc 1393 863b 917f 1f3d
000003e0: a965 cc3c dec5 b3bb ed70 7e3c 68b6 66bd
000003f0: dcbb 403d e277 2fbd ada7 0dbd 4639 22bc

model.tcn.1.conv2.bias f4 [25]
-0.031118896 0.017870009 -0.034366768 -0.047450725 0.016302334 0.016434368 0.0838446 0.071938835
-0.026207997 -0.042060576 0.035413854 0.049914163 0.02503371 0.052835245 0.014522421 -0.038890563
0.01676062 -0.046621338 0.020777738 -0.0047470145 -0.022103298 0.027969336 0.05702761 -0.054280695
0.023627177
00000000: 0eed febc 2064 923c 2bc4 0cbd b15b 42bd
00000010: 798c 853c 5ea1 863c b8b6 ab3d ab54 933d
00000020: 27b2 d6bc b647 2cbd 1e0e 113d cb72 4c3d
00000030: 7f13 cd3c c569 583d 73ef 6d3c b64b 1fbd
00000040: 914d 893c 04f6 3ebd 1336 aa3c d88c 9bbb
00000050: fa11 b5bc f31f e53c c895 693d 6f55 5ebd
00000060: c88d c13c

model.tcn.1.conv2.weight_g f4 [25, 1, 1]
0.6381623 0.60019255 0.54151547 0.5732066 0.5739774 0.6005556 0.59318364 0.6497984
0.5258809 0.54289895 0.5843988 0.60062784 0.5940389 0.7192278 0.6723115 0.5577673
0.5983577 0.5613021 0.581349 0.5589538 0.58465457 0.52156234 0.57628804 0.6871651
0.5905984
00000000: 9b5e 233f 38a6 193f c2a0 0a3f abbd 123f
00000010: 2ff0 123f 03be 193f e2da 173f 3059 263f
00000020: 21a0 063f 6dfb 0a3f 299b 153f bfc2 193f
00000030: ef12 183f 501f 383f 9b1c 2c3f d6c9 0e3f
00000040: f82d 193f 7fb1 0f3f 4ad3 143f 9917 0f3f
00000050: ecab 153f 1c85 053f 9d87 133f 0dea 2f3f
00000060: 7531 173f
