etc/ckpts/participants/661_test_30_all/sigmoid/TCN/epochs/TCN-chpkt-pecanstreet-participant-id-661_test_30_all_epoch=122.ckpt (torch, 978771 bytes, 201 tensors)

model.tcn.0.conv1.bias f4 [25]
0	0x3d2bdfef	0.041961607
1	0xbd1cc926	-0.038277768
2	0x3d37590f	0.044762667
3	0x3cdc577e	0.026897188
4	0xbd80d778	-0.062910974
5	0x3c51f1e7	0.012814022
6	0xbd6303cd	-0.055423547
7	0x3d52ab8e	0.05143314
8	0x3d255edf	0.04037368
9	0x3c29745e	0.0103426855
10	0xbd1db731	-0.038504783
11	0xbd89de55	-0.067318596
12	0xbc660c96	-0.014041087
13	0xbd231268	-0.039812475
14	0xbd7cd55e	-0.06172692
15	0xbd47552e	-0.048665218
16	0xbd59e9f8	-0.053201646
17	0xbd6d8e6e	-0.05799716
18	0x3d003de8	0.03130904
19	0x3d4aaa61	0.049478892
20	0x3d2aedda	0.04173074
21	0xbd8b0626	-0.06788282
22	0x3d5e97db	0.05434404
23	0x3cf287ad	0.02960571
24	0x3d2db417	0.042408075

model.tcn.0.conv1.weight_g f4 [25, 1, 1]
0	0x3f160660	0.5860348
1	0x3f13bcf4	0.57710195
2	0x3f239067	0.63892215
3	0x3f1a9ae8	0.6039262
4	0x3f117415	0.5681775
5	0x3f1cf416	0.61309946
6	0x3f181a1f	0.5941486
7	0x3f137cf6	0.5761255
8	0x3f0d7f57	0.5527243
9	0x3f0f1bcd	0.55901796
10	0x3f0eeb16	0.5582746
11	0x3f0b78e4	0.5448134
12	0x3f150c1c	0.582216
13	0x3f129683	0.5726091
14	0x3f096e75	0.5368417
15	0x3f0d74c9	0.55256325
16	0x3f16747e	0.587715
17	0x3f0c6d1d	0.54853994
18	0x3f156dd0	0.58370686
19	0x3f0c8714	0.5489361
20	0x3f15207e	0.58252704
21	0x3f0ae16c	0.54250216
22	0x3f1f2e11	0.62179667
23	0x3f0f9b45	0.560963
24	0x3f10e648	0.5660138

model.tcn.0.conv1.weight_v f4 [25, 28, 7]
0	0x3ca8dfc5	0.020614514
1	0x3d5fb91b	0.05461989
2	0xbd08cf26	-0.033400677
3	0xbcfc96e2	-0.030833665
4	0xbc2c2204	-0.010506157
5	0x3d06370e	0.032767348
6	0x3cec34b7	0.02883373
7	0x3d2f10c4	0.0427406
8	0xbc722cb0	-0.014781162
9	0x3c0df7e3	0.008665058
10	0xbce3d44e	-0.027811196
11	0xbca34001	-0.01992798
12	0xbd8c0e55	-0.06838671
13	0xbd47ca0e	-0.04877668
14	0xbd0eaf26	-0.034835003
15	0xbb7b6716	-0.0038361005
16	0x3c7e55ed	0.015523416
17	0x3d086a74	0.033304647
18	0xbd1436bf	-0.036185022
19	0xbcc3e749	-0.023913996
20	0x3c8f6d5d	0.017508203
21	0x3d5b6d3a	0.053570963
22	0xbc7e845a	-0.015534485
23	0x3d478f9b	0.048720937
24	0xbc5199fb	-0.012793059
25	0x3b80650e	0.0039182967
26	0x3d714d1e	0.058911435
27	0xbd7d6c65	-0.06187095
28	0xbd02a119	-0.031891916
29	0xbc012991	-0.007883445
30	0xbc90c07b	-0.017669907
31	0x3d8275a9	0.06370098
32	0xbd0dea01	-0.03464699
33	0xbcbdd19b	-0.023171237
34	0xbd259223	-0.04042257
35	0xbd828288	-0.06372553
36	0xbd27755b	-0.040883403
37	0x3d5fa265	0.05459823
38	0x3cd361c9	0.025803464
39	0x3cf4587c	0.029827349
40	0x3a417130	0.0007379232
41	0xbd1357b8	-0.035972327
42	0x3c8d4571	0.017245026
43	0xbd63348f	-0.055470046
44	0xbd29529b	-0.041338544
45	0xbceab4ea	-0.02865072
46	0x3d3e4e84	0.046461597
47	0x3d37f5e0	0.04491222
48	0xbca86959	-0.020558046
49	0xbce13c3d	-0.027494544
50	0x3d80661c	0.06269476
51	0xbc922589	-0.017840164
52	0x3d8da461	0.069161184
53	0xbaae1617	-0.001328173
54	0xbdc52e83	-0.09628012
55	0xbe278abe	-0.1636152
56	0xbc46554a	-0.012105295
57	0xbd8e3f35	-0.069456495
58	0xbd8f1f2b	-0.06988367
59	0xbd53b5ce	-0.051687054
60	0x3bd79d03	0.0065799966
61	0xbcdc4aae	-0.026891079
62	0xbe294257	-0.16529213
63	0x3d3b8705	0.04578306
64	0x3d7c1165	0.061540026
65	0x3c8aaf86	0.0169294
66	0x3cedc16b	0.029022893
67	0x3d2d49f6	0.042306863
68	0x3d890531	0.06690443
69	0x3db6db75	0.08928577
70	0xbd35fa71	-0.044428293
71	0xbc9c3087	-0.019066108
72	0x3cf3a734	0.029742815
73	0x3d6bec9a	0.057598688
74	0x3d79899d	0.060922254
75	0x3d7bc632	0.06146831
76	0x3c8efded	0.017455066
77	0xbd902786	-0.070387885
78	0xbb9037a9	-0.0044011665
79	0xbd4eab4e	-0.050456338
80	0xbd992d45	-0.074793376
81	0x3d3cdb28	0.04610744
82	0x3d1c9630	0.038229167
83	0xbd9d2523	-0.07673099
84	0x3be26f2e	0.0069102263
85	0xbc741690	-0.014897957
86	0xbc6262fa	-0.013817543
87	0xbd02e221	-0.031953935
88	0x3cd07b73	0.02544949
89	0xbd21a730	-0.039466083
90	0x3cc4b3ad	0.024011457
91	0x3d08399f	0.033258077
92	0x3d3f3d1f	0.04668915
93	0x3cc41dc4	0.023939975
94	0xbd810e2c	-0.06301531
95	0xbd31387e	-0.043266766
96	0x3cfb26d2	0.03065816
97	0x3c4fa7f1	0.012674318
98	0xbd455ec7	-0.04818609
99	0xbd0feb6b	-0.03513662
100	0x3d854c4a	0.065086916
101	0x3d414684	0.04718639
102	0xbcd8f0e6	-0.026482057
103	0xbc6704c4	-0.014100257
104	0xbd739843	-0.05947138
105	0x3c1cce64	0.009570692
106	0xbd26a1b4	-0.040681556
107	0xbd30c850	-0.043159783
108	0x3ba3285c	0.0049791764
109	0x3c9dc778	0.019260153
110	0xbc9a4c25	-0.018835137
111	0x3d408877	0.047005143
112	0xbd189e75	-0.03726049
113	0x3d71e2ef	0.05905431
114	0x3d3621b9	0.044465754
115	0xbd5a5868	-0.053306967
116	0xbc753b3e	-0.014967738
117	0x3b52d7cd	0.0032172084
118	0x3c288ec8	0.010287948
119	0x3ca6f278	0.02037929
120	0x3cf4f573	0.029902196
121	0x3c118b5e	0.008883325
122	0xbcd75392	-0.026284967
123	0x3d0f4bdc	0.034984455
124	0xbd65d341	-0.05610967
125	0xbd01d0ec	-0.031693384
126	0xbc688bd9	-0.0141934985
127	0xbcf47397	-0.029840274
128	0xbcb4681c	-0.0220223
129	0xbd540b88	-0.05176881
130	0xbc4ae737	-0.0123842275
131	0x3c6c0d6f	0.0144075
132	0xbd280d23	-0.041028153
133	0x3b0e9930	0.0021758787
134	0x3d5452da	0.051836826
135	0xb9bf1d7e	-0.00036452332
136	0x3bd00f9e	0.006349518
137	0xbb0e3825	-0.0021700945
138	0x3c871823	0.016491001
139	0x3d40cf1a	0.047072507
140	0x3d51a824	0.051185742
141	0x3cf89e90	0.030349046
142	0x3d4f9449	0.050678525
143	0xbc84b6ba	-0.016200412
144	0xbd90f282	-0.07077505
145	0xbd2dc6eb	-0.04242603
146	0x3d10a858	0.035316795
147	0x3bf9fdb2	0.00762912
148	0xbce026de	-0.027362283
149	0xbd4072ed	-0.0469846
150	0xbd6f7548	-0.058461457
151	0xbd563104	-0.05229284
152	0xbc25cec6	-0.010120099
153	0x3d1e841e	0.038700216
154	0x3d06a84c	0.032875344
155	0xbd892593	-0.0669662
156	0x3d2beae5	0.04197206
157	0xbd5f8c52	-0.05457718
158	0xbc9a0d0b	-0.018805047
159	0xbcfca642	-0.030840997
160	0xbc44ffe6	-0.012023902
161	0xba99e836	-0.0011742178
162	0xbd3e725e	-0.046495788
163	0xbd30b7e7	-0.043144133
164	0x3b4ade78	0.0030955356
165	0x3c60855a	0.0137036685
166	0xbc81a934	-0.015827753
167	0x3d26c28d	0.04071288
168	0xbd4e6ae0	-0.050394893
169	0x3afbe43a	0.0019217797
170	0x3d7c49f3	0.06159396
171	0xbcaa62d7	-0.020799084
172	0x3d8130fe	0.06308173
173	0x3ce6f62a	0.028193552
174	0xbd4fa9cc	-0.05069904
175	0x3d33466a	0.043768324
176	0xbbf09af2	-0.0073426897
177	0xbd00c12a	-0.031434216
178	0x3d55df13	0.052214693
179	0xbd55bbb3	-0.052180957
180	0x3bff3a5e	0.0077889403
181	0xbc86fa18	-0.016476676
182	0x3d45a364	0.048251525
183	0x3cb0e263	0.021592325
184	0x3d134759	0.035956714
185	0x3cdfd845	0.027324805
186	0xbc3a17fd	-0.011358258
187	0xbc1bba8e	-0.009504927
188	0xbd3ccaa6	-0.046091698
189	0x3d3762a6	0.044771813
190	0x3d79fc5f	0.061031695
191	0x3d5dc86a	0.054146208
192	0xbd13698b	-0.035989325
193	0x3c34e2e3	0.011040422
194	0xbd15bd8c	-0.03655772
195	0xbcbea958	-0.023274109
196	0xbd08ef69	-0.033431444
197	0x3cfa4a48	0.030552998
198	0xbcf778e0	-0.030209005
199	0x3b81ddc9	0.0039632064
200	0x3c0f4018	0.0087433085
201	0x3d4e8b3a	0.050425746
202	0xbd00061f	-0.031255838
203	0xbd006673	-0.031347703
204	0xbcd2e69d	-0.02574473
205	0x3d7572be	0.05992388
206	0xbc64bff4	-0.013961781
207	0x3d809ed1	0.06280292
208	0x3cec3d1e	0.028837737
209	0x3c778c82	0.015109183
210	0xb9e7f3e8	-0.00044241478
211	0xbc18bc33	-0.009322214
212	0x3c5c5ed6	0.013450345
213	0xbc47a189	-0.012184509
214	0x3c58b910	0.013227716
215	0x3cb98065	0.022644231
216	0xbcf76128	-0.030197695
217	0xbd82a619	-0.06379337
218	0x3cdf5ec6	0.027266871
219	0xbda201f1	-0.079105265
220	0xbcef4fce	-0.029212859
221	0x3d394151	0.045228306
222	0x3badd7a8	0.0053052492
223	0xbbc9cb80	-0.0061582923
224	0xbd06d65a	-0.032919265
225	0x3d624e49	0.05525044
226	0xbcf08675	-0.02936099
227	0xbbbe0ab7	-0.005799617
228	0xbc0d000f	-0.008605971
229	0xbb0e011a	-0.0021668137
230	0x3b512f53	0.0031919077
231	0x3d73ef2b	0.05955426
232	0x3c856cd7	0.01628725
233	0x3d852a30	0.06502187
234	0x3d39c7b8	0.045356482
235	0xbd0e7a9e	-0.034784906
236	0x3cfd3ca8	0.030912712
237	0xbd1e70dd	-0.038681854
238	0xbd6c82c7	-0.057741906
239	0xbbfcf898	-0.0077200644
240	0xbb75146e	-0.003739621
241	0x3cc73673	0.024317956
242	0xbd28a3c7	-0.041171815
243	0xbca3388a	-0.01992442
244	0x3cc30990	0.02380827
245	0xbdf5e50a	-0.12006576
246	0x3dbd87f2	0.09254445
247	0xbdf19a71	-0.117970355
248	0x3d6a571b	0.057211976
249	0xbdadbbdd	-0.08483098
250	0xbdb27d87	-0.08715349
251	0xbe19de05	-0.150261
252	0x3d175010	0.036941588
253	0xbc855cfb	-0.016279688
254	0xbd658e73	-0.056044053
255	0xbcac09c4	-0.02100075

model.tcn.0.conv2.bias f4 [25]
0	0xbc9342ab	-0.017976126
1	0x3bd3f5df	0.006468519
2	0xbc3c57ba	-0.011495525
3	0x3d491c7f	0.04909944
4	0x3dac97df	0.084274046
5	0x3d6e3067	0.05815163
6	0x39b877cc	0.0003518447
7	0xbb03867f	-0.002006918
8	0x3c493ce0	0.01228258
9	0xbd4edd75	-0.050504167
10	0x3bae47b2	0.0053186053
11	0x3d8c293c	0.06843802
12	0x3c0d6895	0.008630891
13	0x3da4c10b	0.080446325
14	0xbc0ca4f5	-0.008584251
15	0x3da71b70	0.0815953
16	0x3d9975b8	0.07493156
17	0xbd1114e7	-0.035420325
18	0xbd8d06a4	-0.06886032
19	0xbcf0c795	-0.029392043
20	0x3d562849	0.052284513
21	0x3d915d6d	0.07097898
22	0xbd52597c	-0.05135487
23	0xbd1ae3ac	-0.03781478
24	0x3d3ce768	0.046119124

model.tcn.0.conv2.weight_g f4 [25, 1, 1]
0	0x3f15359c	0.58284926
1	0x3f1348e8	0.5753312
2	0x3f0bff97	0.54686874
3	0x3f1678e1	0.58778197
4	0x3f15575e	0.58336437
5	0x3f0c8562	0.54891026
6	0x3f16e213	0.5893871
7	0x3f27b9f0	0.65518093
8	0x3f13cb4c	0.5773208
9	0x3f1980a0	0.5996189
10	0x3f0ebf7b	0.55760926
11	0x3f187bb3	0.5956375
12	0x3f0877c3	0.5330774
13	0x3f0f6ece	0.5602845
14	0x3f2b6e7e	0.6696547
15	0x3f103f6f	0.5634679
16	0x3f1ae643	0.605076
17	0x3f0e5a52	0.5560657
18	0x3f17d734	0.5931275
19	0x3f0fe8a0	0.5621433
20	0x3f15d9af	0.58535284
21	0x3f0ef56f	0.5584325
22	0x3f1a4eb4	0.6027634
23	0x3f13cea4	0.57737184
24	0x3f274015	0.65332156

model.tcn.0.conv2.weight_v f4 [25, 25, 7]
0	0xbc092929	-0.00837163
1	0x3d216e6e	0.039411955
2	0xbd7656bb	-0.060141306
3	0x3cf39d66	0.02973814
4	0x3d75ad9d	0.059980024
5	0x3d3e6dc9	0.046491418
6	0xbd161682	-0.03664256
7	0x3b204987	0.0024457888
8	0x3c71105f	0.014713376
9	0x3d3fff20	0.046874166
10	0xbb434bcf	-0.0029799824
11	0x3c9b63e7	0.018968536
12	0x3b75cea3	0.0037507198
13	0x3ca78961	0.02045125
14	0xb9ce9538	-0.00039402558
15	0xbd128a9e	-0.035776727
16	0xbd3fe083	-0.04684497
17	0x3d749c53	0.059719395
18	0x3d64e3e6	0.055881403
19	0x3c79ca34	0.015245963
20	0x3dbdf806	0.09275822
21	0x3d804ba6	0.06264429
22	0xbd039469	-0.032123957
23	0xbc6cc3ea	-0.014451006
24	0xbd144fac	-0.036208794
25	0x3d0f31a8	0.034959465
26	0x3ca45f0c	0.020064853
27	0x3c96d2d6	0.018411081
28	0x3d3f46f6	0.046698533
29	0xbc8a9de8	-0.016920999
30	0xbcea1a39	-0.028576957
31	0xbd20b601	-0.039236072
32	0xbcd255c5	-0.025675664
33	0x3d62ded1	0.055388276
34	0xbc7e8b2f	-0.015536114
35	0xbc2945bc	-0.010331567
36	0x3d212dd2	0.03935034
37	0xbd3f4a47	-0.046701696
38	0xbd1ad232	-0.037798114
39	0x3d668c8c	0.05628638
40	0xbd02f63a	-0.0319731
41	0xbd4fc4e6	-0.050724886
42	0xb69a1062	-4.591465e-06
43	0x3aa3b294	0.0012489134
44	0x3c9be470	0.019029826
45	0x3cfc1886	0.030773412
46	0xbd14d489	-0.0363355
47	0x3d8542ec	0.06506905
48	0xbd3559a4	-0.04427494
49	0x3cb3a696	0.02193002
50	0xbc8effb4	-0.017455913
51	0xbcee431e	-0.029084738
52	0x3d88ab6e	0.066733226
53	0xbd817cf5	-0.06322662
54	0x3c8b5861	0.017009916
55	0x3d8d4b78	0.0689916
56	0x3d6db42f	0.058033165
57	0xbd34b4fb	-0.04411791
58	0x3c7bf0fa	0.0153772775
59	0x3d89373c	0.06699988
60	0xbd4c211d	-0.049836267
61	0x3c615b58	0.013754688
62	0xbd3678e5	-0.044548888
63	0x3cb8ff4b	0.02258267
64	0xbd59ae72	-0.05314488
65	0x3d253065	0.040329356
66	0xbc26bd61	-0.010176987
67	0x3d2c8d9e	0.042127244
68	0x3c4fc3bd	0.012680945
69	0x3c63730a	0.013882408
70	0xbb41a780	-0.00295493
71	0xbd483bf1	-0.04888529
72	0xbc8d3335	-0.017236331
73	0x3c7fdb70	0.015616283
74	0xbd2b9e74	-0.04189916
75	0x3d988dcb	0.0744892
76	0xbc9a6b10	-0.01884988
77	0xbc8b508a	-0.017006177
78	0xbb3dbcf6	-0.002895174
79	0xbd30ed24	-0.043194905
80	0xbaa69e25	-0.0012711926
81	0xbc3c11fe	-0.011478899
82	0xbd3fcf42	-0.046828516
83	0xbc1fbdff	-0.009749888
84	0x3d6d62bd	0.057955492
85	0x3cbebad1	0.02328244
86	0x3d63bf20	0.055602193
87	0x3c109312	0.008824127
88	0xbc57d2a0	-0.0131727755
89	0x3d7c148a	0.061543025
90	0xbc3bed5b	-0.011470164
91	0xbd812237	-0.06305354
92	0x3c757a94	0.014982838
93	0x3d084b9c	0.03327523
94	0xbd23a6b7	-0.039953914
95	0x3ccd2d83	0.025046116
96	0xbc2c0f1d	-0.01050165
97	0x3cc2de12	0.023787532
98	0x3b1a4444	0.0023539225
99	0x3a8e7250	0.0010867808
100	0xbd2906f3	-0.041266393
101	0x3c8e2ce0	0.017355382
102	0xbb6428cf	-0.0034814363
103	0x3d4f6e1e	0.050642125
104	0x3c828bbc	0.015935771
105	0xbd548be0	-0.051891208
106	0xbd440159	-0.047852848
107	0xbd05506d	-0.032547403
108	0x3d021394	0.031756952
109	0xbd3e0775	-0.04639383
110	0xbc6614f5	-0.0140430825
111	0x3d3e83d6	0.046512447
112	0xbcbd7096	-0.023124974
113	0xbc2d970d	-0.010595095
114	0x3d7d7729	0.061881218
115	0xbc6d55e7	-0.014485813
116	0xbbd1847e	-0.006393968
117	0x3d4ee08c	0.050507113
118	0x3cf23e02	0.029570583
119	0x3d196325	0.037448067
120	0xbd8c0da9	-0.06838543
121	0x3cabcbbb	0.02097117
122	0xbcac6f07	-0.021049036
123	0xbd5bc8e1	-0.05365837
124	0xbd38212e	-0.044953518
125	0xbdb32902	-0.08748056
126	0x3d3fa605	0.046789188
127	0xbc40e439	-0.0117731625
128	0xbd8afb00	-0.06786156
129	0x3d78850a	0.06067375
130	0x3d367121	0.044541482
131	0x3d121d39	0.0356724
132	0x3dce797b	0.10081764
133	0x3d9b8812	0.07594313
134	0x3d9eb93f	0.07750177
135	0x3d98690c	0.07441911
136	0x3d883865	0.066513814
137	0x3ce30396	0.02771167
138	0x3c169791	0.00919141
139	0x3cd9409f	0.026520072
140	0xbcef4357	-0.029206915
141	0x3cf74548	0.030184403
142	0xbb1ea3ae	-0.0024206447
143	0x3c862689	0.016375797
144	0xbd34d14d	-0.044144917
145	0xbc519cde	-0.012793748
146	0x3d96558a	0.07340534
147	0x3b0f209e	0.002183951
148	0x3c47bf1a	0.012191558
149	0xbd82be0c	-0.06383905
150	0xbd0ba514	-0.034092978
151	0xbc32a6ce	-0.010904027
152	0xbccb997c	-0.02485346
153	0x3a80aff0	0.0009818058
154	0xbc98985a	-0.018627334
155	0x3d5e1f28	0.05422893
156	0xbc122e08	-0.0089221075
157	0x3ce39127	0.027779175
158	0xbd34ec89	-0.04417089
159	0x3d03f97b	0.032220345
160	0xbcf1272f	-0.02943763
161	0xbd5f45ad	-0.054509807
162	0xbd24562d	-0.040121246
163	0x3cc94f67	0.024573995
164	0x3c224f39	0.009906583
165	0x3c5e7224	0.013577018
166	0x3b970827	0.004609126
167	0x3db29e1d	0.08721564
168	0x3d980035	0.074219145
169	0x3d1f843b	0.038944464
170	0x3d73bea7	0.059507992
171	0x3c128960	0.008943886
172	0xbc722ff7	-0.0147819435
173	0x3d085ea8	0.033293396
174	0x3da639ff	0.081165306
175	0x3abe2e19	0.0014509588
176	0xbd36b469	-0.044605646
177	0x3d0447df	0.032295104
178	0xbc260c74	-0.010134805
179	0xbcd424c0	-0.02589643
180	0x3d80e950	0.06294501
181	0x3cff5be2	0.031171743
182	0xbcadcd1d	-0.02121597
183	0xbcb59431	-0.02216539
184	0x3d98402e	0.07434116
185	0x3d5a06eb	0.053229254
186	0xbd0eff21	-0.03491128
187	0x3cae68d9	0.02129023
188	0x3cc8aa67	0.024495317
189	0x3d12be75	0.035826165
190	0xbd59f5fd	-0.05321311
191	0x3bd5bdcd	0.00652287
192	0x3ceb0d89	0.028692978
193	0x3d1f7593	0.038930487
194	0x3cd07530	0.025446504
195	0xbc106a66	-0.00881443
196	0xbd63871a	-0.055548765
197	0x3d3d7874	0.04625745
198	0x3d948673	0.07252207
199	0xbc2d72f0	-0.010586485
200	0xbd4f812b	-0.050660294
201	0x3d0db1b0	0.034593284
202	0xbcd79f48	-0.026321068
203	0xbceed57a	-0.029154528
204	0x3c819214	0.015816726
205	0xbbeb33b6	-0.0071777953
206	0xbbe71b13	-0.007052788
207	0x3d4b0329	0.04956356
208	0xbc0b03d3	-0.0084847985
209	0x3d2c53aa	0.042071976
210	0xbc5dd6e7	-0.013540006
211	0x3d71ea58	0.05906138
212	0x3cdd5b3c	0.027021043
213	0x3d88abb5	0.066733755
214	0x3ce7fa2f	0.028317539
215	0xbcef2548	-0.029192582
216	0x3c8a69df	0.016896186
217	0x3d7772a4	0.060412064
218	0x3ca77796	0.020442765
219	0x3d1a64dd	0.037693847
220	0xbd19f695	-0.037588675
221	0x3d369bfc	0.044582352
222	0xbd581748	-0.052756578
223	0x3d953ba3	0.072867654
224	0x3cff9b9c	0.03120213
225	0x3c109115	0.008823653
226	0xbd7f08f7	-0.06226441
227	0x3d8b9b1b	0.068166934
228	0x3d44d47d	0.048054207
229	0x3da158e5	0.078782834
230	0x3d510c51	0.051037136
231	0x3c1a6e8e	0.009425772
232	0xbcbfee86	-0.023429167
233	0xbd048a7f	-0.032358643
234	0x3c7f8410	0.015595451
235	0x3c6baf7f	0.014385103
236	0xbc663dae	-0.0140527915
237	0xbc1d64ed	-0.009606582
238	0x3d09456c	0.03351347
239	0xbd7168bd	-0.058937777
240	0xbd5db048	-0.054123193
241	0xbc6756e6	-0.014119839
242	0x3d3a64d6	0.04550632
243	0x3d2bc110	0.041932166
244	0xbd48c57c	-0.04901646
245	0xbc653976	-0.013990751
246	0x3b114eaf	0.0022172143
247	0x3d02fa9d	0.031977285
248	0x3d88a459	0.06671972
249	0x3c3e4d2f	0.011615082
250	0xbd2ebe2d	-0.042661835
251	0x3ce2e36a	0.02769633
252	0xbce20c4b	-0.027593752
253	0xbd296511	-0.04135615
254	0x3c4f6b0c	0.012659799
255	0xbc622a6c	-0.0138040595

model.tcn.0.net.0.bias f4 [25]
0	0x3d2bdfef	0.041961607
1	0xbd1cc926	-0.038277768
2	0x3d37590f	0.044762667
3	0x3cdc577e	0.026897188
4	0xbd80d778	-0.062910974
5	0x3c51f1e7	0.012814022
6	0xbd6303cd	-0.055423547
7	0x3d52ab8e	0.05143314
8	0x3d255edf	0.04037368
9	0x3c29745e	0.0103426855
10	0xbd1db731	-0.038504783
11	0xbd89de55	-0.067318596
12	0xbc660c96	-0.014041087
13	0xbd231268	-0.039812475
14	0xbd7cd55e	-0.06172692
15	0xbd47552e	-0.048665218
16	0xbd59e9f8	-0.053201646
17	0xbd6d8e6e	-0.05799716
18	0x3d003de8	0.03130904
19	0x3d4aaa61	0.049478892
20	0x3d2aedda	0.04173074
21	0xbd8b0626	-0.06788282
22	0x3d5e97db	0.05434404
23	0x3cf287ad	0.02960571
24	0x3d2db417	0.042408075

model.tcn.0.net.0.weight_g f4 [25, 1, 1]
0	0x3f160660	0.5860348
1	0x3f13bcf4	0.57710195
2	0x3f239067	0.63892215
3	0x3f1a9ae8	0.6039262
4	0x3f117415	0.5681775
5	0x3f1cf416	0.61309946
6	0x3f181a1f	0.5941486
7	0x3f137cf6	0.5761255
8	0x3f0d7f57	0.5527243
9	0x3f0f1bcd	0.55901796
10	0x3f0eeb16	0.5582746
11	0x3f0b78e4	0.5448134
12	0x3f150c1c	0.582216
13	0x3f129683	0.5726091
14	0x3f096e75	0.5368417
15	0x3f0d74c9	0.55256325
16	0x3f16747e	0.587715
17	0x3f0c6d1d	0.54853994
18	0x3f156dd0	0.58370686
19	0x3f0c8714	0.5489361
20	0x3f15207e	0.58252704
21	0x3f0ae16c	0.54250216
22	0x3f1f2e11	0.62179667
23	0x3f0f9b45	0.560963
24	0x3f10e648	0.5660138

model.tcn.0.net.0.weight_v f4 [25, 28, 7]
0	0x3ca8dfc5	0.020614514
1	0x3d5fb91b	0.05461989
2	0xbd08cf26	-0.033400677
3	0xbcfc96e2	-0.030833665
4	0xbc2c2204	-0.010506157
5	0x3d06370e	0.032767348
6	0x3cec34b7	0.02883373
7	0x3d2f10c4	0.0427406
8	0xbc722cb0	-0.014781162
9	0x3c0df7e3	0.008665058
10	0xbce3d44e	-0.027811196
11	0xbca34001	-0.01992798
12	0xbd8c0e55	-0.06838671
13	0xbd47ca0e	-0.04877668
14	0xbd0eaf26	-0.034835003
15	0xbb7b6716	-0.0038361005
16	0x3c7e55ed	0.015523416
17	0x3d086a74	0.033304647
18	0xbd1436bf	-0.036185022
19	0xbcc3e749	-0.023913996
20	0x3c8f6d5d	0.017508203
21	0x3d5b6d3a	0.053570963
22	0xbc7e845a	-0.015534485
23	0x3d478f9b	0.048720937
24	0xbc5199fb	-0.012793059
25	0x3b80650e	0.0039182967
26	0x3d714d1e	0.058911435
27	0xbd7d6c65	-0.06187095
28	0xbd02a119	-0.031891916
29	0xbc012991	-0.007883445
30	0xbc90c07b	-0.017669907
31	0x3d8275a9	0.06370098
32	0xbd0dea01	-0.03464699
33	0xbcbdd19b	-0.023171237
34	0xbd259223	-0.04042257
35	0xbd828288	-0.06372553
36	0xbd27755b	-0.040883403
37	0x3d5fa265	0.05459823
38	0x3cd361c9	0.025803464
39	0x3cf4587c	0.029827349
40	0x3a417130	0.0007379232
41	0xbd1357b8	-0.035972327
42	0x3c8d4571	0.017245026
43	0xbd63348f	-0.055470046
44	0xbd29529b	-0.041338544
45	0xbceab4ea	-0.02865072
46	0x3d3e4e84	0.046461597
47	0x3d37f5e0	0.04491222
48	0xbca86959	-0.020558046
49	0xbce13c3d	-0.027494544
50	0x3d80661c	0.06269476
51	0xbc922589	-0.017840164
52	0x3d8da461	0.069161184
53	0xbaae1617	-0.001328173
54	0xbdc52e83	-0.09628012
55	0xbe278abe	-0.1636152
56	0xbc46554a	-0.012105295
57	0xbd8e3f35	-0.069456495
58	0xbd8f1f2b	-0.06988367
59	0xbd53b5ce	-0.051687054
60	0x3bd79d03	0.0065799966
61	0xbcdc4aae	-0.026891079
62	0xbe294257	-0.16529213
63	0x3d3b8705	0.04578306
64	0x3d7c1165	0.061540026
65	0x3c8aaf86	0.0169294
66	0x3cedc16b	0.029022893
67	0x3d2d49f6	0.042306863
68	0x3d890531	0.06690443
69	0x3db6db75	0.08928577
70	0xbd35fa71	-0.044428293
71	0xbc9c3087	-0.019066108
72	0x3cf3a734	0.029742815
73	0x3d6bec9a	0.057598688
74	0x3d79899d	0.060922254
75	0x3d7bc632	0.06146831
76	0x3c8efded	0.017455066
77	0xbd902786	-0.070387885
78	0xbb9037a9	-0.0044011665
79	0xbd4eab4e	-0.050456338
80	0xbd992d45	-0.074793376
81	0x3d3cdb28	0.04610744
82	0x3d1c9630	0.038229167
83	0xbd9d2523	-0.07673099
84	0x3be26f2e	0.0069102263
85	0xbc741690	-0.014897957
86	0xbc6262fa	-0.013817543
87	0xbd02e221	-0.031953935
88	0x3cd07b73	0.02544949
89	0xbd21a730	-0.039466083
90	0x3cc4b3ad	0.024011457
91	0x3d08399f	0.033258077
92	0x3d3f3d1f	0.04668915
93	0x3cc41dc4	0.023939975
94	0xbd810e2c	-0.06301531
95	0xbd31387e	-0.043266766
96	0x3cfb26d2	0.03065816
97	0x3c4fa7f1	0.012674318
98	0xbd455ec7	-0.04818609
99	0xbd0feb6b	-0.03513662
100	0x3d854c4a	0.065086916
101	0x3d414684	0.04718639
102	0xbcd8f0e6	-0.026482057
103	0xbc6704c4	-0.014100257
104	0xbd739843	-0.05947138
105	0x3c1cce64	0.009570692
106	0xbd26a1b4	-0.040681556
107	0xbd30c850	-0.043159783
108	0x3ba3285c	0.0049791764
109	0x3c9dc778	0.019260153
110	0xbc9a4c25	-0.018835137
111	0x3d408877	0.047005143
112	0xbd189e75	-0.03726049
113	0x3d71e2ef	0.05905431
114	0x3d3621b9	0.044465754
115	0xbd5a5868	-0.053306967
116	0xbc753b3e	-0.014967738
117	0x3b52d7cd	0.0032172084
118	0x3c288ec8	0.010287948
119	0x3ca6f278	0.02037929
120	0x3cf4f573	0.029902196
121	0x3c118b5e	0.008883325
122	0xbcd75392	-0.026284967
123	0x3d0f4bdc	0.034984455
124	0xbd65d341	-0.05610967
125	0xbd01d0ec	-0.031693384
126	0xbc688bd9	-0.0141934985
127	0xbcf47397	-0.029840274
128	0xbcb4681c	-0.0220223
129	0xbd540b88	-0.05176881
130	0xbc4ae737	-0.0123842275
131	0x3c6c0d6f	0.0144075
132	0xbd280d23	-0.041028153
133	0x3b0e9930	0.0021758787
134	0x3d5452da	0.051836826
135	0xb9bf1d7e	-0.00036452332
136	0x3bd00f9e	0.006349518
137	0xbb0e3825	-0.0021700945
138	0x3c871823	0.016491001
139	0x3d40cf1a	0.047072507
140	0x3d51a824	0.051185742
141	0x3cf89e90	0.030349046
142	0x3d4f9449	0.050678525
143	0xbc84b6ba	-0.016200412
144	0xbd90f282	-0.07077505
145	0xbd2dc6eb	-0.04242603
146	0x3d10a858	0.035316795
147	0x3bf9fdb2	0.00762912
148	0xbce026de	-0.027362283
149	0xbd4072ed	-0.0469846
150	0xbd6f7548	-0.058461457
151	0xbd563104	-0.05229284
152	0xbc25cec6	-0.010120099
153	0x3d1e841e	0.038700216
154	0x3d06a84c	0.032875344
155	0xbd892593	-0.0669662
156	0x3d2beae5	0.04197206
157	0xbd5f8c52	-0.05457718
158	0xbc9a0d0b	-0.018805047
159	0xbcfca642	-0.030840997
160	0xbc44ffe6	-0.012023902
161	0xba99e836	-0.0011742178
162	0xbd3e725e	-0.046495788
163	0xbd30b7e7	-0.043144133
164	0x3b4ade78	0.0030955356
165	0x3c60855a	0.0137036685
166	0xbc81a934	-0.015827753
167	0x3d26c28d	0.04071288
168	0xbd4e6ae0	-0.050394893
169	0x3afbe43a	0.0019217797
170	0x3d7c49f3	0.06159396
171	0xbcaa62d7	-0.020799084
172	0x3d8130fe	0.06308173
173	0x3ce6f62a	0.028193552
174	0xbd4fa9cc	-0.05069904
175	0x3d33466a	0.043768324
176	0xbbf09af2	-0.0073426897
177	0xbd00c12a	-0.031434216
178	0x3d55df13	0.052214693
179	0xbd55bbb3	-0.052180957
180	0x3bff3a5e	0.0077889403
181	0xbc86fa18	-0.016476676
182	0x3d45a364	0.048251525
183	0x3cb0e263	0.021592325
184	0x3d134759	0.035956714
185	0x3cdfd845	0.027324805
186	0xbc3a17fd	-0.011358258
187	0xbc1bba8e	-0.009504927
188	0xbd3ccaa6	-0.046091698
189	0x3d3762a6	0.044771813
190	0x3d79fc5f	0.061031695
191	0x3d5dc86a	0.054146208
192	0xbd13698b	-0.035989325
193	0x3c34e2e3	0.011040422
194	0xbd15bd8c	-0.03655772
195	0xbcbea958	-0.023274109
196	0xbd08ef69	-0.033431444
197	0x3cfa4a48	0.030552998
198	0xbcf778e0	-0.030209005
199	0x3b81ddc9	0.0039632064
200	0x3c0f4018	0.0087433085
201	0x3d4e8b3a	0.050425746
202	0xbd00061f	-0.031255838
203	0xbd006673	-0.031347703
204	0xbcd2e69d	-0.02574473
205	0x3d7572be	0.05992388
206	0xbc64bff4	-0.013961781
207	0x3d809ed1	0.06280292
208	0x3cec3d1e	0.028837737
209	0x3c778c82	0.015109183
210	0xb9e7f3e8	-0.00044241478
211	0xbc18bc33	-0.009322214
212	0x3c5c5ed6	0.013450345
213	0xbc47a189	-0.012184509
214	0x3c58b910	0.013227716
215	0x3cb98065	0.022644231
216	0xbcf76128	-0.030197695
217	0xbd82a619	-0.06379337
218	0x3cdf5ec6	0.027266871
219	0xbda201f1	-0.079105265
220	0xbcef4fce	-0.029212859
221	0x3d394151	0.045228306
222	0x3badd7a8	0.0053052492
223	0xbbc9cb80	-0.0061582923
224	0xbd06d65a	-0.032919265
225	0x3d624e49	0.05525044
226	0xbcf08675	-0.02936099
227	0xbbbe0ab7	-0.005799617
228	0xbc0d000f	-0.008605971
229	0xbb0e011a	-0.0021668137
230	0x3b512f53	0.0031919077
231	0x3d73ef2b	0.05955426
232	0x3c856cd7	0.01628725
233	0x3d852a30	0.06502187
234	0x3d39c7b8	0.045356482
235	0xbd0e7a9e	-0.034784906
236	0x3cfd3ca8	0.030912712
237	0xbd1e70dd	-0.038681854
238	0xbd6c82c7	-0.057741906
239	0xbbfcf898	-0.0077200644
240	0xbb75146e	-0.003739621
241	0x3cc73673	0.024317956
242	0xbd28a3c7	-0.041171815
243	0xbca3388a	-0.01992442
244	0x3cc30990	0.02380827
245	0xbdf5e50a	-0.12006576
246	0x3dbd87f2	0.09254445
247	0xbdf19a71	-0.117970355
248	0x3d6a571b	0.057211976
249	0xbdadbbdd	-0.08483098
250	0xbdb27d87	-0.08715349
251	0xbe19de05	-0.150261
252	0x3d175010	0.036941588
253	0xbc855cfb	-0.016279688
254	0xbd658e73	-0.056044053
255	0xbcac09c4	-0.02100075

model.tcn.0.net.4.bias f4 [25]
0	0xbc9342ab	-0.017976126
1	0x3bd3f5df	0.006468519
2	0xbc3c57ba	-0.011495525
3	0x3d491c7f	0.04909944
4	0x3dac97df	0.084274046
5	0x3d6e3067	0.05815163
6	0x39b877cc	0.0003518447
7	0xbb03867f	-0.002006918
8	0x3c493ce0	0.01228258
9	0xbd4edd75	-0.050504167
10	0x3bae47b2	0.0053186053
11	0x3d8c293c	0.06843802
12	0x3c0d6895	0.008630891
13	0x3da4c10b	0.080446325
14	0xbc0ca4f5	-0.008584251
15	0x3da71b70	0.0815953
16	0x3d9975b8	0.07493156
17	0xbd1114e7	-0.035420325
18	0xbd8d06a4	-0.06886032
19	0xbcf0c795	-0.029392043
20	0x3d562849	0.052284513
21	0x3d915d6d	0.07097898
22	0xbd52597c	-0.05135487
23	0xbd1ae3ac	-0.03781478
24	0x3d3ce768	0.046119124

model.tcn.0.net.4.weight_g f4 [25, 1, 1]
0	0x3f15359c	0.58284926
1	0x3f1348e8	0.5753312
2	0x3f0bff97	0.54686874
3	0x3f1678e1	0.58778197
4	0x3f15575e	0.58336437
5	0x3f0c8562	0.54891026
6	0x3f16e213	0.5893871
7	0x3f27b9f0	0.65518093
8	0x3f13cb4c	0.5773208
9	0x3f1980a0	0.5996189
10	0x3f0ebf7b	0.55760926
11	0x3f187bb3	0.5956375
12	0x3f0877c3	0.5330774
13	0x3f0f6ece	0.5602845
14	0x3f2b6e7e	0.6696547
15	0x3f103f6f	0.5634679
16	0x3f1ae643	0.605076
17	0x3f0e5a52	0.5560657
18	0x3f17d734	0.5931275
19	0x3f0fe8a0	0.5621433
20	0x3f15d9af	0.58535284
21	0x3f0ef56f	0.5584325
22	0x3f1a4eb4	0.6027634
23	0x3f13cea4	0.57737184
24	0x3f274015	0.65332156

model.tcn.0.net.4.weight_v f4 [25, 25, 7]
0	0xbc092929	-0.00837163
1	0x3d216e6e	0.039411955
2	0xbd7656bb	-0.060141306
3	0x3cf39d66	0.02973814
4	0x3d75ad9d	0.059980024
5	0x3d3e6dc9	0.046491418
6	0xbd161682	-0.03664256
7	0x3b204987	0.0024457888
8	0x3c71105f	0.014713376
9	0x3d3fff20	0.046874166
10	0xbb434bcf	-0.0029799824
11	0x3c9b63e7	0.018968536
12	0x3b75cea3	0.0037507198
13	0x3ca78961	0.02045125
14	0xb9ce9538	-0.00039402558
15	0xbd128a9e	-0.035776727
16	0xbd3fe083	-0.04684497
17	0x3d749c53	0.059719395
18	0x3d64e3e6	0.055881403
19	0x3c79ca34	0.015245963
20	0x3dbdf806	0.09275822
21	0x3d804ba6	0.06264429
22	0xbd039469	-0.032123957
23	0xbc6cc3ea	-0.014451006
24	0xbd144fac	-0.036208794
25	0x3d0f31a8	0.034959465
26	0x3ca45f0c	0.020064853
27	0x3c96d2d6	0.018411081
28	0x3d3f46f6	0.046698533
29	0xbc8a9de8	-0.016920999
30	0xbcea1a39	-0.028576957
31	0xbd20b601	-0.039236072
32	0xbcd255c5	-0.025675664
33	0x3d62ded1	0.055388276
34	0xbc7e8b2f	-0.015536114
35	0xbc2945bc	-0.010331567
36	0x3d212dd2	0.03935034
37	0xbd3f4a47	-0.046701696
38	0xbd1ad232	-0.037798114
39	0x3d668c8c	0.05628638
40	0xbd02f63a	-0.0319731
41	0xbd4fc4e6	-0.050724886
42	0xb69a1062	-4.591465e-06
43	0x3aa3b294	0.0012489134
44	0x3c9be470	0.019029826
45	0x3cfc1886	0.030773412
46	0xbd14d489	-0.0363355
47	0x3d8542ec	0.06506905
48	0xbd3559a4	-0.04427494
49	0x3cb3a696	0.02193002
50	0xbc8effb4	-0.017455913
51	0xbcee431e	-0.029084738
52	0x3d88ab6e	0.066733226
53	0xbd817cf5	-0.06322662
54	0x3c8b5861	0.017009916
55	0x3d8d4b78	0.0689916
56	0x3d6db42f	0.058033165
57	0xbd34b4fb	-0.04411791
58	0x3c7bf0fa	0.0153772775
59	0x3d89373c	0.06699988
60	0xbd4c211d	-0.049836267
61	0x3c615b58	0.013754688
62	0xbd3678e5	-0.044548888
63	0x3cb8ff4b	0.02258267
64	0xbd59ae72	-0.05314488
65	0x3d253065	0.040329356
66	0xbc26bd61	-0.010176987
67	0x3d2c8d9e	0.042127244
68	0x3c4fc3bd	0.012680945
69	0x3c63730a	0.013882408
70	0xbb41a780	-0.00295493
71	0xbd483bf1	-0.04888529
72	0xbc8d3335	-0.017236331
73	0x3c7fdb70	0.015616283
74	0xbd2b9e74	-0.04189916
75	0x3d988dcb	0.0744892
76	0xbc9a6b10	-0.01884988
77	0xbc8b508a	-0.017006177
78	0xbb3dbcf6	-0.002895174
79	0xbd30ed24	-0.043194905
80	0xbaa69e25	-0.0012711926
81	0xbc3c11fe	-0.011478899
82	0xbd3fcf42	-0.046828516
83	0xbc1fbdff	-0.009749888
84	0x3d6d62bd	0.057955492
85	0x3cbebad1	0.02328244
86	0x3d63bf20	0.055602193
87	0x3c109312	0.008824127
88	0xbc57d2a0	-0.0131727755
89	0x3d7c148a	0.061543025
90	0xbc3bed5b	-0.011470164
91	0xbd812237	-0.06305354
92	0x3c757a94	0.014982838
93	0x3d084b9c	0.03327523
94	0xbd23a6b7	-0.039953914
95	0x3ccd2d83	0.025046116
96	0xbc2c0f1d	-0.01050165
97	0x3cc2de12	0.023787532
98	0x3b1a4444	0.0023539225
99	0x3a8e7250	0.0010867808
100	0xbd2906f3	-0.041266393
101	0x3c8e2ce0	0.017355382
102	0xbb6428cf	-0.0034814363
103	0x3d4f6e1e	0.050642125
104	0x3c828bbc	0.015935771
105	0xbd548be0	-0.051891208
106	0xbd440159	-0.047852848
107	0xbd05506d	-0.032547403
108	0x3d021394	0.031756952
109	0xbd3e0775	-0.04639383
110	0xbc6614f5	-0.0140430825
111	0x3d3e83d6	0.046512447
112	0xbcbd7096	-0.023124974
113	0xbc2d970d	-0.010595095
114	0x3d7d7729	0.061881218
115	0xbc6d55e7	-0.014485813
116	0xbbd1847e	-0.006393968
117	0x3d4ee08c	0.050507113
118	0x3cf23e02	0.029570583
119	0x3d196325	0.037448067
120	0xbd8c0da9	-0.06838543
121	0x3cabcbbb	0.02097117
122	0xbcac6f07	-0.021049036
123	0xbd5bc8e1	-0.05365837
124	0xbd38212e	-0.044953518
125	0xbdb32902	-0.08748056
126	0x3d3fa605	0.046789188
127	0xbc40e439	-0.0117731625
128	0xbd8afb00	-0.06786156
129	0x3d78850a	0.06067375
130	0x3d367121	0.044541482
131	0x3d121d39	0.0356724
132	0x3dce797b	0.10081764
133	0x3d9b8812	0.07594313
134	0x3d9eb93f	0.07750177
135	0x3d98690c	0.07441911
136	0x3d883865	0.066513814
137	0x3ce30396	0.02771167
138	0x3c169791	0.00919141
139	0x3cd9409f	0.026520072
140	0xbcef4357	-0.029206915
141	0x3cf74548	0.030184403
142	0xbb1ea3ae	-0.0024206447
143	0x3c862689	0.016375797
144	0xbd34d14d	-0.044144917
145	0xbc519cde	-0.012793748
146	0x3d96558a	0.07340534
147	0x3b0f209e	0.002183951
148	0x3c47bf1a	0.012191558
149	0xbd82be0c	-0.06383905
150	0xbd0ba514	-0.034092978
151	0xbc32a6ce	-0.010904027
152	0xbccb997c	-0.02485346
153	0x3a80aff0	0.0009818058
154	0xbc98985a	-0.018627334
155	0x3d5e1f28	0.05422893
156	0xbc122e08	-0.0089221075
157	0x3ce39127	0.027779175
158	0xbd34ec89	-0.04417089
159	0x3d03f97b	0.032220345
160	0xbcf1272f	-0.02943763
161	0xbd5f45ad	-0.054509807
162	0xbd24562d	-0.040121246
163	0x3cc94f67	0.024573995
164	0x3c224f39	0.009906583
165	0x3c5e7224	0.013577018
166	0x3b970827	0.004609126
167	0x3db29e1d	0.08721564
168	0x3d980035	0.074219145
169	0x3d1f843b	0.038944464
170	0x3d73bea7	0.059507992
171	0x3c128960	0.008943886
172	0xbc722ff7	-0.0147819435
173	0x3d085ea8	0.033293396
174	0x3da639ff	0.081165306
175	0x3abe2e19	0.0014509588
176	0xbd36b469	-0.044605646
177	0x3d0447df	0.032295104
178	0xbc260c74	-0.010134805
179	0xbcd424c0	-0.02589643
180	0x3d80e950	0.06294501
181	0x3cff5be2	0.031171743
182	0xbcadcd1d	-0.02121597
183	0xbcb59431	-0.02216539
184	0x3d98402e	0.07434116
185	0x3d5a06eb	0.053229254
186	0xbd0eff21	-0.03491128
187	0x3cae68d9	0.02129023
188	0x3cc8aa67	0.024495317
189	0x3d12be75	0.035826165
190	0xbd59f5fd	-0.05321311
191	0x3bd5bdcd	0.00652287
192	0x3ceb0d89	0.028692978
193	0x3d1f7593	0.038930487
194	0x3cd07530	0.025446504
195	0xbc106a66	-0.00881443
196	0xbd63871a	-0.055548765
197	0x3d3d7874	0.04625745
198	0x3d948673	0.07252207
199	0xbc2d72f0	-0.010586485
200	0xbd4f812b	-0.050660294
201	0x3d0db1b0	0.034593284
202	0xbcd79f48	-0.026321068
203	0xbceed57a	-0.029154528
204	0x3c819214	0.015816726
205	0xbbeb33b6	-0.0071777953
206	0xbbe71b13	-0.007052788
207	0x3d4b0329	0.04956356
208	0xbc0b03d3	-0.0084847985
209	0x3d2c53aa	0.042071976
210	0xbc5dd6e7	-0.013540006
211	0x3d71ea58	0.05906138
212	0x3cdd5b3c	0.027021043
213	0x3d88abb5	0.066733755
214	0x3ce7fa2f	0.028317539
215	0xbcef2548	-0.029192582
216	0x3c8a69df	0.016896186
217	0x3d7772a4	0.060412064
218	0x3ca77796	0.020442765
219	0x3d1a64dd	0.037693847
220	0xbd19f695	-0.037588675
221	0x3d369bfc	0.044582352
222	0xbd581748	-0.052756578
223	0x3d953ba3	0.072867654
224	0x3cff9b9c	0.03120213
225	0x3c109115	0.008823653
226	0xbd7f08f7	-0.06226441
227	0x3d8b9b1b	0.068166934
228	0x3d44d47d	0.048054207
229	0x3da158e5	0.078782834
230	0x3d510c51	0.051037136
231	0x3c1a6e8e	0.009425772
232	0xbcbfee86	-0.023429167
233	0xbd048a7f	-0.032358643
234	0x3c7f8410	0.015595451
235	0x3c6baf7f	0.014385103
236	0xbc663dae	-0.0140527915
237	0xbc1d64ed	-0.009606582
238	0x3d09456c	0.03351347
239	0xbd7168bd	-0.058937777
240	0xbd5db048	-0.054123193
241	0xbc6756e6	-0.014119839
242	0x3d3a64d6	0.04550632
243	0x3d2bc110	0.041932166
244	0xbd48c57c	-0.04901646
245	0xbc653976	-0.013990751
246	0x3b114eaf	0.0022172143
247	0x3d02fa9d	0.031977285
248	0x3d88a459	0.06671972
249	0x3c3e4d2f	0.011615082
250	0xbd2ebe2d	-0.042661835
251	0x3ce2e36a	0.02769633
252	0xbce20c4b	-0.027593752
253	0xbd296511	-0.04135615
254	0x3c4f6b0c	0.012659799
255	0xbc622a6c	-0.0138040595

model.tcn.0.downsample.weight f4 [25, 28, 1]
0	0x3c96ba09	0.018399255
1	0xbb4e50af	-0.0031481197
2	0xbd05030b	-0.032473605
3	0x3a2680fa	0.00063516165
4	0x3c208e2b	0.0097995205
5	0xbaf62ab1	-0.0018781034
6	0xba13509f	-0.00056196185
7	0xbe034dad	-0.128226
8	0xbe194bfc	-0.14970392
9	0xb9303fc3	-0.00016808421
10	0xbccf8f04	-0.02533675
11	0x3c93ff5f	0.018066106
12	0x3ac17f72	0.0014762713
13	0xbc1b89bf	-0.00949329
14	0x3c41b83a	0.011823708
15	0x3c60ecd1	0.013728336
16	0xbb85433e	-0.004066854
17	0x3c732750	0.014840916
18	0x3c30b00f	0.010784163
19	0x3c8869fc	0.0166521
20	0xba5d9552	-0.00084527314
21	0xbc9a04fc	-0.018801205
22	0xbbbe5f54	-0.005809704
23	0xbc3a196f	-0.011358603
24	0x3b99849e	0.0046849987
25	0xbbc34f9c	-0.005960418
26	0x3cbc1079	0.022957074
27	0x3cb59335	0.02216492
28	0x3ccf6fd7	0.025321884
29	0x3a7bf74d	0.0009611741
30	0x3cd1b664	0.025599666
31	0xbb1adbf6	-0.0023629642
32	0xbb9ff300	-0.004881263
33	0xbba05d74	-0.004893953
34	0xbaa80244	-0.0012818058
35	0xbe12c7ef	-0.14334081
36	0xbe0e210f	-0.13879798
37	0xbbbf944b	-0.0058465353
38	0xbb8d88d6	-0.0043192906
39	0x3c5ddbce	0.013541175
40	0xbb6b493a	-0.00359018
41	0xbbd3e5d3	-0.006466606
42	0x3c9b4cc1	0.018957498
43	0x3b079c7e	0.0020692642
44	0xbc1940bb	-0.009353812
45	0x3beea980	0.0072833896
46	0xbcb65ee5	-0.022262046
47	0x3af69d74	0.0018815235
48	0xba2a639f	-0.000649983
49	0xbbd69e20	-0.0065496117
50	0x3c06e2e1	0.008232803
51	0x3ba6003c	0.005065946
52	0x3bde2185	0.006778898
53	0xbc7933f1	-0.015210138
54	0xb96a1fb7	-0.00022327794
55	0x3cb8492d	0.02249583
56	0x3b1903fe	0.0023348327
57	0xbb9087cd	-0.00441072
58	0x39638c73	0.00021700728
59	0x3ca8129a	0.020516682
60	0xbc20d641	-0.009816707
61	0x3cd91310	0.026498348
62	0x3cb2205e	0.02174395
63	0xba883936	-0.0010393027
64	0x3cc68f3f	0.024238227
65	0xbc414359	-0.011795842
66	0x3c4ae6bb	0.012384112
67	0xbc3bf62a	-0.011472264
68	0xbb878921	-0.00413622
69	0xbbc19363	-0.0059074624
70	0x3bec684b	0.007214581
71	0xbb87d599	-0.004145336
72	0xbbf93ced	-0.00760614
73	0xbbdaf0bc	-0.00668153
74	0x3bd30dfb	0.0064408756
75	0xbc525745	-0.0128381895
76	0x3c7b8e51	0.015353755
77	0x3b34a788	0.0027565677
78	0x3b981087	0.004640642
79	0xbbbcd9fe	-0.0057632914
80	0xbbb54074	-0.005531365
81	0xba979daf	-0.0011567379
82	0xbce5884d	-0.028019095
83	0x3a923881	0.0011155755
84	0x3d53d0c5	0.05171277
85	0xbb89efda	-0.0042095007
86	0x3c946cf5	0.018118361
87	0x3c19e025	0.009391819
88	0xbb4c2807	-0.0031151788
89	0xbd0944a9	-0.033512745
90	0x3c67bfbb	0.014144833
91	0xbe5df62c	-0.21675938
92	0xbe04353b	-0.12910931
93	0x3c4a26c2	0.012338342
94	0x3c4c5c72	0.012473213
95	0x3afb3dbe	0.0019168181
96	0x3a9930d3	0.0011687524
97	0xbcab91ff	-0.02094364
98	0xbb767870	-0.0037608407
99	0xbc7f9131	-0.015598581
100	0xbc28a7ec	-0.010293942
101	0xba97f6c0	-0.0011593923
102	0xbbd2d6fd	-0.00643432
103	0x3c9bde0c	0.019026779
104	0xbc7340bf	-0.01484698
105	0xbc90a1b9	-0.01765524
106	0x3c9f7975	0.019467095
107	0x3c87c168	0.016571715
108	0x3ba2a5fe	0.0049636355
109	0xbc2bf395	-0.010495086
110	0xbc316322	-0.010826858
111	0x3ca87f0e	0.020568397
112	0x3b551e4e	0.0032519284
113	0x3b0da09f	0.002161063
114	0x3c54e027	0.012992895
115	0xbd0d8fc2	-0.034560926
116	0xbc1d6079	-0.00960552
117	0xbc970228	-0.018433645
118	0xbbf6de20	-0.0075338036
119	0xbd992057	-0.074768715
120	0x3cbb21ed	0.022843326
121	0xbbdba25b	-0.006702704
122	0x3c5761c8	0.013145871
123	0xbd42e00d	-0.047576953
124	0x3c0e36c3	0.008680048
125	0xbc93b847	-0.018032206
126	0x3caf9e9f	0.021437941
127	0x3a6a8632	0.0008946388
128	0xbc85e9b1	-0.016346784
129	0xbc455e1a	-0.012046361
130	0xbbd7eb3a	-0.0065893205
131	0x3cef8520	0.029238284
132	0xbc266ea7	-0.0101582175
133	0xbb110be8	-0.002213234
134	0xbd388814	-0.04505165
135	0xbcb6c6a7	-0.022311522
136	0xbbcc6009	-0.006237034
137	0xb84751e7	-4.7521575e-05
138	0xbbe4e7b8	-0.006985631
139	0x3b540d90	0.0032356717
140	0x3c5ed9bd	0.013601718
141	0xbb5eafb9	-0.003397925
142	0xbb7363ec	-0.0037138416
143	0xbc58dc19	-0.013236069
144	0xbc886539	-0.01664983
145	0x3b89401d	0.004188551
146	0xbbc76259	-0.006084722
147	0x3b844df9	0.0040376154
148	0x3cd3af96	0.025840562
149	0x3addb0bc	0.0016913633
150	0xbaf2d6e1	-0.0018527174
151	0xbc87624e	-0.016526368
152	0x3c018576	0.007905355
153	0xbc933eee	-0.017974343
154	0x3c1a478e	0.009416474
155	0x3a542bc9	0.00080936827
156	0x3c3c1de2	0.011481734
157	0x3c780d9e	0.015139965
158	0x3c3c0543	0.011475864
159	0x3adfff59	0.0017089649
160	0x3bbd46c5	0.0057762587
161	0xbc630597	-0.013856313
162	0xbc86dbf6	-0.016462307
163	0x3b0e49bd	0.0021711432
164	0x3b79ae25	0.0038098183
165	0xbc0ee89b	-0.00872245
166	0xbb98ce55	-0.0046632686
167	0x3c944ea7	0.01810391
168	0x3c418a29	0.011812725
169	0xbb08df51	-0.002088506
170	0xbbf2559b	-0.007395459
171	0x3c161c07	0.009161956
172	0xbcebb277	-0.028771622
173	0xba8ea2e5	-0.0010882287
174	0x3b8a42af	0.004219375
175	0xbe9ca3c5	-0.30593696
176	0xbe555b01	-0.20835496
177	0xbb34f0f8	-0.002760945
178	0x3c8b2b82	0.01698852
179	0x3bc0cb61	0.0058836197
180	0xbc9c4848	-0.019077435
181	0x3cca534a	0.024697918
182	0x3c3db996	0.011579892
183	0x3abfe768	0.0014641108
184	0xbc05325c	-0.008129682
185	0x3c1a557c	0.009419795
186	0xbc2a4aa3	-0.010393771
187	0x3c52f7c8	0.0128764585
188	0x3ada1666	0.0016638755
189	0xbba71d2f	-0.0050999145
190	0x3be1bf08	0.006889228
191	0xbc82e6d6	-0.015979212
192	0x3aed70b3	0.0018115252
193	0xbc8f88ab	-0.017521223
194	0x3c2ba93d	0.010477361
195	0x3c387518	0.011258386
196	0x3ca64c41	0.020300033
197	0x3b59d19e	0.0033236514
198	0xbcde379a	-0.027126122
199	0xbc8e48c8	-0.01736869
200	0x3c236552	0.009972887
201	0xbc6a46be	-0.014299093
202	0xbca76709	-0.020434873
203	0xbe41106c	-0.1885392
204	0xbe5683db	-0.20948736
205	0xbc15e72d	-0.009149355
206	0xbb754567	-0.00374254
207	0xbd241646	-0.040060304
208	0xba9244eb	-0.0011159455
209	0x3b4cea5f	0.0031267626
210	0x3c3d2c8c	0.011546265
211	0x3c7d2391	0.015450374
212	0xbc8a7a31	-0.016903969
213	0x3c3916cf	0.011296942
214	0x3b9fa517	0.004871975
215	0xbcdc9681	-0.026927235
216	0xbc3ab476	-0.011395564
217	0x3c88bc5a	0.016691376
218	0xbcc73c9f	-0.024320899
219	0xbc6102b7	-0.013733557
220	0xbb0655ce	-0.002049792
221	0xbb07d02d	-0.0020723448
222	0x3d07bf8f	0.03314167
223	0xbbb498a5	-0.0055113607
224	0xb92af4a6	-0.00016303602
225	0xbbce709a	-0.0063000442
226	0xbda04e66	-0.07827453
227	0x3bb1ffbd	0.0054320977
228	0x3cb91e45	0.022597441
229	0x3bf87330	0.007582091
230	0x3a4c05a6	0.0007782824
231	0x3d895673	0.06705942
232	0x3d5c5a48	0.053797036
233	0xbc445a35	-0.011984398
234	0x3bcc406a	0.0062332647
235	0xbbc72c4a	-0.0060782777
236	0x3c3af482	0.011410834
237	0x3c7ad59d	0.015309718
238	0xbca4068c	-0.020022653
239	0x3ad8e43e	0.0016547514
240	0xbc94885f	-0.018131433
241	0x3b3af59a	0.0028527738
242	0x3c0e204c	0.008674692
243	0xbc422a34	-0.011850882
244	0xba04e8fe	-0.0005070119
245	0xbcaacc20	-0.020849288
246	0xbc2cb8fe	-0.010542152
247	0xbd002cf8	-0.031292886
248	0x3c1b27be	0.0094699245
249	0x3bc022e0	0.0058635324
250	0x3c864b06	0.016393196
251	0xbd0d6e36	-0.034528933
252	0x3ccd2771	0.025043221
253	0xbbd06437	-0.006359603
254	0x3c56a8b6	0.013101747
255	0x3ba4cf1d	0.0050295726

model.tcn.0.downsample.bias f4 [25]
0	0xbd4c61d5	-0.049897987
1	0x3e13e5b4	0.14443094
2	0x3d097708	0.033560783
3	0x3d2b8669	0.04187623
4	0x3d8ddb34	0.06926575
5	0x3d7727b8	0.060340613
6	0xbe0056a3	-0.1253305
7	0x3c512a64	0.012766454
8	0xbd08a81c	-0.033363447
9	0xbd68e907	-0.056862857
10	0xbde1d4f7	-0.11026948
11	0xbcc1b6b9	-0.0236467
12	0x3c5e2b5b	0.013560141
13	0xbd44c446	-0.048038743
14	0xbc0629bb	-0.00818866
15	0xbd040c3b	-0.032238226
16	0x3c991cca	0.018690486
17	0xbe18ff29	-0.14941086
18	0x3e3a8c8d	0.18217678
19	0xbda4ec47	-0.08052879
20	0x3de52d0f	0.11190235
21	0xbe24760b	-0.16060655
22	0xbc4a0023	-0.012329134
23	0xbcc6928f	-0.024239806
24	0xbe09be76	-0.13451561

model.tcn.1.conv1.bias f4 [25]
0	0xbd3f310d	-0.046677638
1	0x3c802041	0.01564038
2	0xbd44fd4a	-0.048093118
3	0x3dae531f	0.08511948
4	0xbd7b11fa	-0.06129644
5	0xbd75e814	-0.06003578
6	0x3d8bc3f3	0.06824484
7	0xbd6b74a1	-0.057484273
8	0xbc70096c	-0.014650684
9	0xbc004bec	-0.007830601
10	0x3d3ade06	0.045621894
11	0x3e0f151c	0.13972896
12	0xbd1f7592	-0.038930483
13	0xbd5bc6f3	-0.05365653
14	0x3d2d8211	0.04236037
15	0x3ca6112f	0.020271866
16	0x3d4ce73b	0.050025206
17	0x3d8f3a28	0.06993514
18	0xbd3e167c	-0.04640816
19	0x3d4aa58a	0.049474277
20	0x3b4e69e1	0.0031496214
21	0x3d6b16e0	0.057394862
22	0x3c65fad8	0.014036857
23	0x3da584a0	0.08081937
24	0xbc87a9c5	-0.016560445

model.tcn.1.conv1.weight_g f4 [25, 1, 1]
0	0x3f12f731	0.57408434
1	0x3f1223ae	0.5708569
2	0x3f2e462f	0.6807584
3	0x3f1945a3	0.5987188
4	0x3f117a0c	0.56826854
5	0x3f0b4d98	0.54415274
6	0x3f255076	0.645759
7	0x3f13da72	0.57755196
8	0x3f1e60df	0.61866564
9	0x3f0cca74	0.5499642
10	0x3f22a072	0.6352607
11	0x3f333013	0.6999523
12	0x3f1dcd66	0.6164154
13	0x3f1d68ae	0.61487854
14	0x3f1f0540	0.62117386
15	0x3f13995e	0.57655895
16	0x3f138cd7	0.5763678
17	0x3f123c42	0.57123196
18	0x3f16881c	0.58801436
19	0x3f1da634	0.6158173
20	0x3f1d0654	0.6133778
21	0x3f1be79c	0.6090028
22	0x3f1b6b8a	0.60710967
23	0x3f16455c	0.58699584
24	0x3f0fef95	0.5622495

model.tcn.1.conv1.weight_v f4 [25, 25, 7]
0	0x3d34bae0	0.04412353
1	0x3ca9e989	0.020741241
2	0x3c0ba3fe	0.0085229855
3	0x3ccdc238	0.025117025
4	0x3bd4f345	0.0064987266
5	0xbd178f3b	-0.03700183
6	0xbca929bc	-0.020649783
7	0xbcf4237e	-0.02980208
8	0x3d08c050	0.03338653
9	0xbcb6e0fa	-0.022324074
10	0x3cc475e6	0.023982
11	0xbd2459da	-0.04012475
12	0xbd55401f	-0.052063104
13	0x3da2b1df	0.079440825
14	0xbd2c2a02	-0.04203225
15	0x3ccbb4db	0.024866512
16	0x3d49a890	0.04923302
17	0xbb818094	-0.0039520953
18	0x3cf800e7	0.030273868
19	0xbc5e09d0	-0.013552144
20	0xbd6a4ea1	-0.057203893
21	0xbd16b809	-0.036796603
22	0xbcaf441f	-0.021394787
23	0xbd2c8ced	-0.042126585
24	0xbd4b6bfb	-0.049663525
25	0x3b95858b	0.0045630387
26	0x3d05d4d8	0.032673687
27	0x3daf8b79	0.08571524
28	0x3d010497	0.031498518
29	0xbd2c0edb	-0.042006355
30	0x3a082136	0.0005192937
31	0x3d1c2e95	0.03813036
32	0x3d96642e	0.073433265
33	0xbc588c0f	-0.013216986
34	0x3d8e2e75	0.06942455
35	0x3d2a7ea3	0.041624676
36	0xbc175f1a	-0.009238983
37	0xbd71d0d1	-0.059037033
38	0x3d1d5a5c	0.03841625
39	0x3d2b4076	0.04180952
40	0xbd321fda	-0.043487407
41	0x3d8a0e5b	0.06741019
42	0xbb9477db	-0.0045308894
43	0xbd5b2838	-0.053505152
44	0x3a81e163	0.000990909
45	0x3cbfb500	0.023401737
46	0xbc56162e	-0.0130668115
47	0xbd934456	-0.071907684
48	0x3bc9b2e6	0.0061553596
49	0x3caeaa66	0.021321487
50	0x3ce9c9b0	0.028538555
51	0x3d236390	0.039889872
52	0x3c5870b0	0.013210461
53	0x3c96c9b7	0.018406732
54	0xbd02e3e3	-0.03195561
55	0x3deec382	0.11658384
56	0x3c82d652	0.015971337
57	0x3bcdf714	0.0062855575
58	0x3d5d500c	0.054031417
59	0xbc9d8935	-0.019230464
60	0x3d3212bf	0.04347491
61	0xbc8e35b1	-0.017359586
62	0x3c34f5a2	0.011044892
63	0xbc9c835a	-0.019105602
64	0x3d03c0f0	0.03216642
65	0xbccc4309	-0.024934309
66	0xbaec8d8a	-0.0018047553
67	0x3d0c1355	0.034198124
68	0xbcf80a38	-0.03027831
69	0x3d333d49	0.043759618
70	0xbd063a17	-0.032770243
71	0x3d22a7fc	0.039710984
72	0x3cdac8be	0.02670705
73	0xbccc2f6d	-0.024924958
74	0xbcdbf3e7	-0.0268497
75	0x3d085fee	0.03329461
76	0x3dea6253	0.11444535
77	0x3d5d8e46	0.05409076
78	0xbcf9d3f1	-0.03049657
79	0xbca9642e	-0.020677652
80	0xbd3f0f4c	-0.046645448
81	0xbd65807e	-0.056030743
82	0xbcd6ced0	-0.026221663
83	0x3d5e2b5e	0.054240577
84	0xbd0ecd13	-0.034863543
85	0xbc96fafc	-0.018430226
86	0x3b89bb66	0.004203248
87	0xbc981182	-0.018563036
88	0xbd7bf57e	-0.061513416
89	0x3cef05fb	0.029177656
90	0x3c27b5bc	0.0102362
91	0x3c003b16	0.007826587
92	0x3ce7fb40	0.028318048
93	0xbd6bfb3d	-0.057612646
94	0xbc420879	-0.01184284
95	0xbd703485	-0.058643837
96	0x3d208c00	0.039196014
97	0xbb611a15	-0.0034347821
98	0x3d31cd16	0.043408476
99	0x3c039a26	0.008032357
100	0xbcd3f555	-0.02587382
101	0x3cac1773	0.021007275
102	0xbd7e3fe0	-0.062072635
103	0xbd396c4a	-0.045269288
104	0x3d0ecb97	0.034862127
105	0x3d820656	0.06348865
106	0xbd56853a	-0.05237315
107	0x3cea7c2f	0.028623668
108	0x3d757cde	0.059933536
109	0xbcaddd83	-0.02122379
110	0xbd38a716	-0.04508122
111	0xbc9511c6	-0.018196952
112	0xbc923d8f	-0.017851619
113	0x3d5f729a	0.054552652
114	0xbd285f71	-0.041106645
115	0x3d6acfbd	0.05732702
116	0xbd816fdd	-0.06320164
117	0x3d2ddbdc	0.042446002
118	0x3d1acc8a	0.03779272
119	0xbcf2c951	-0.02963701
120	0xbd61fb3d	-0.05517124
121	0xbd0ebede	-0.034849994
122	0xbd3445a9	-0.044011746
123	0xbd77e19b	-0.06051789
124	0xbce741d0	-0.028229624
125	0x3ccb0ded	0.024786914
126	0xbd6d7f92	-0.05798299
127	0x3db7a5d6	0.089671776
128	0x3d143c0c	0.036190078
129	0x3d35f059	0.044418667
130	0xbc1d41ae	-0.009598179
131	0xbc9f56c2	-0.019450549
132	0x3d9e4c19	0.07729358
133	0x3cdd6baa	0.027028877
134	0x3b0b7ce8	0.0021284167
135	0x3c4499e8	0.011999585
136	0x3d58dfda	0.052947856
137	0x3bd363f4	0.0064511243
138	0xbc8d5c01	-0.017255785
139	0x3d01cbbf	0.031688448
140	0xbd2840b2	-0.041077323
141	0x3d7a825f	0.061159488
142	0x3c33d5d5	0.0109762745
143	0x3cf32b95	0.029683867
144	0x3ba22521	0.0049482738
145	0x3d746acb	0.05967216
146	0x3d44ce3d	0.048048247
147	0x3d3fdfa8	0.046844155
148	0xbd02baff	-0.031916615
149	0x3c510ed5	0.012759884
150	0x3d35cd2d	0.044385124
151	0x3d303707	0.04302123
152	0xbd0fa587	-0.03506997
153	0x3db1d58d	0.0868331
154	0xbd818e6b	-0.06325992
155	0x3d1be657	0.038061466
156	0xbcd2b97d	-0.025723213
157	0xbd484b7d	-0.048900116
158	0x3d180b25	0.037120003
159	0xbc9389ea	-0.018010098
160	0x3cfe27f0	0.031024903
161	0x3d08a067	0.033356097
162	0x3d59b8cb	0.053154748
163	0x3c501b41	0.01270181
164	0xbd5a81e3	-0.053346526
165	0xbd27828e	-0.04089599
166	0xbd785e89	-0.06063703
167	0x3d9a09d4	0.07521406
168	0xbd86996e	-0.06572233
169	0xbd051769	-0.03249303
170	0xbd82d26c	-0.06387791
171	0xbc3dbf56	-0.011581263
172	0x3cb41b17	0.021985574
173	0xbc6a94cc	-0.0143177025
174	0x3d89095c	0.06691238
175	0x3cb535c5	0.022120366
176	0xbd4b5274	-0.04963918
177	0xbcd2fd04	-0.025755413
178	0x3ce44ae1	0.027867736
179	0xbd9189f7	-0.07106393
180	0xbdb01318	-0.08597392
181	0xbd40a512	-0.047032423
182	0xbd809d4c	-0.06280002
183	0xbc85a53f	-0.016314147
184	0x3d2746a9	0.04083887
185	0xbb8b27b5	-0.004246677
186	0x3c616b49	0.013758489
187	0x3b96c64e	0.0046012765
188	0xbd4695b4	-0.04848261
189	0xbc5d9aca	-0.013525674
190	0x3cb6cef2	0.022315476
191	0x3d846fe2	0.064666525
192	0xbcbf7ce0	-0.023374975
193	0x3d5e27f0	0.054237306
194	0xbc68e922	-0.014215739
195	0xbcdc3f77	-0.026885731
196	0x3cb168bd	0.021656388
197	0x3d3fd94e	0.046838097
198	0x3c635eb5	0.01387756
199	0x3d16a4ac	0.036778137
200	0x3a7324de	0.0009275208
201	0xbcb5a555	-0.022173563
202	0xbbb7a470	-0.0056043193
203	0x3d2a02bd	0.041506518
204	0x3b97b91d	0.0046302215
205	0x3d1fdec4	0.039030805
206	0x3ce5f8ec	0.028072797
207	0xbd1cbb87	-0.038264778
208	0x3da9d05b	0.08291694
209	0xbd073d26	-0.0330173
210	0x3d0b7a09	0.03405193
211	0xbd313396	-0.043262087
212	0xba7bb0b7	-0.00096012227
213	0x3d3b1627	0.045675423
214	0x3d2a4180	0.041566372
215	0x3d96e914	0.07368675
216	0xba9164ef	-0.0011092703
217	0x3ce48675	0.027896145
218	0x3cfcbb0a	0.030850906
219	0xbd6b1162	-0.057389624
220	0xbd2d590d	-0.042321254
221	0x3c46ecbd	0.012141404
222	0xbcb45b02	-0.022016052
223	0xbd2bdadc	-0.041956767
224	0xbc602f30	-0.013683125
225	0x3ce8d9fe	0.02842426
226	0x3d410193	0.047120642
227	0x3d465bb2	0.04842729
228	0x3d1c234e	0.038119607
229	0x3c659841	0.014013351
230	0xbd4e0902	-0.05030156
231	0x3d539f59	0.051665638
232	0xbc5eb187	-0.0135921305
233	0x3d6bcfb3	0.057571124
234	0xbcd48373	-0.025941586
235	0x3d3e63dd	0.046481956
236	0x3ce213a1	0.02759725
237	0x3daa4bfa	0.08315273
238	0x3c74f107	0.0149500435
239	0x3d09a6b6	0.033606254
240	0xbd730fcb	-0.059341233
241	0x3c4e3e5a	0.012588108
242	0xbd85660b	-0.06513604
243	0xbd8a28f5	-0.06746093
244	0xbd95a571	-0.07306946
245	0xbc89acf8	-0.01680611
246	0xba6bf15a	-0.0009000503
247	0x3d090384	0.03345062
248	0x3c9c5d90	0.019087583
249	0xbc4a911d	-0.012363699
250	0x3c534621	0.012895138
251	0xbd772b4c	-0.060344025
252	0x3d6db3e4	0.058032885
253	0xbd13167b	-0.03591011
254	0xbcec9ea2	-0.028884236
255	0xbb88f8e3	-0.0041800602

model.tcn.1.conv2.bias f4 [25]
0	0xbce79602	-0.028269771
1	0x3cb3d319	0.021951245
2	0xbd0910d1	-0.033463303
3	0xbd44b6c8	-0.048025876
4	0x3c84d0a8	0.016212776
5	0x3c864ba7	0.016393496
6	0x3daf272b	0.085523926
7	0x3d925e7d	0.071469285
8	0xbcddcc4e	-0.02707496
9	0xbd3c3f99	-0.04595909
10	0x3d1cbdf0	0.038267076
11	0x3d5e81f8	0.054323167
12	0x3ccefb19	0.025266217
13	0x3d3512b0	0.044207275
14	0x3c1aafa7	0.009441293
15	0xbd23405b	-0.039856296
16	0x3c7fb2dd	0.015606609
17	0xbd4a921b	-0.049455743
18	0x3ca87717	0.020564599
19	0xbb9d66da	-0.0048035206
20	0xbcbb072a	-0.022830565
21	0x3cf2cb09	0.02963783
22	0x3d67cab4	0.056589797
23	0xbd5f4478	-0.054508656
24	0x3cd4ad9e	0.025961693

model.tcn.1.conv2.weight_g f4 [25, 1, 1]
0	0x3f1f9033	0.62329406
1	0x3f18eabd	0.5973318
2	0x3f0aff68	0.5429597
3	0x3f14d24b	0.5813338
4	0x3f134a99	0.575357
5	0x3f1a5498	0.6028533
6	0x3f169d67	0.58833927
7	0x3f2548ca	0.6456419
8	0x3f084439	0.532291
9	0x3f09a82d	0.5377224
10	0x3f15dd47	0.5854077
11	0x3f193af5	0.59855586
12	0x3f17c433	0.5928375
13	0x3f2b532c	0.66923785
14	0x3f2c149f	0.67218965
15	0x3f1023b9	0.5630451
16	0x3f1a4be6	0.6027206
17	0x3f0f2cc4	0.5592768
18	0x3f1431e4	0.5788863
19	0x3f10f19b	0.5661866
20	0x3f16cc2a	0.5890528
21	0x3f0761ad	0.52883416
22	0x3f132f08	0.5749364
23	0x3f2cd69d	0.67514974
24	0x3f18aa9e	0.5963534
