etc/ckpts/participants/661_test_30_all/sigmoid/TCN/epochs/TCN-chpkt-pecanstreet-participant-id-661_test_30_all_epoch=027.ckpt (torch, 935633 bytes, 201 tensors)

model.tcn.0.conv1.bias f4 [25]
00000000: 8c43 1b3d 4b64 02bd e6b8 ee3c c805 ad3c
00000010: 7538 7ebd 8b82 27bd ba6e 4bbd e735 4a3d
00000020: a570 833c 0e0f 2d3c 501c 38bd 15bd 89bd
00000030: 467a a2bc 71d0 44bd d12b 83bd ab4a 51bd
00000040: 99e4 34bd e91f 87bd 4f31 003d bf4b 0f3d
00000050: 812e 1f3d 04d3 92bd 610e 5c3d bddc e13c
00000060: 7a4d 213d
0.037906215 -0.031833928 0.0291409 0.02112092 -0.06206556 -0.04089598 -0.049666144 0.04936781
0.016044924 0.010562671 -0.044948876 -0.06725518 -0.019833695 -0.048050348 -0.06404842 -0.0510966
-0.04416332 -0.06597883 0.031297024 0.034984346 0.03886271 -0.07169154 0.05372465 0.027571077
0.039380528

model.tcn.0.conv1.weight_g f4 [25, 1, 1]
00000000: b8e4 173f 5121 123f 6b75 193f bce0 1e3f
00000010: 61ad 133f 129d 103f ee61 1c3f bc9c 173f
00000020: e41f 0d3f 491c 133f 5313 133f 2fed 0d3f
00000030: 404a 153f 05e7 163f 6145 093f 19be 0f3f
00000040: 6216 183f 0a88 0e3f 2a9c 173f d3e3 103f
00000050: cadf 1a3f a045 0e3f 1df9 143f 8ab0 153f
00000060: d9a7 133f
0.5933337 0.57082087 0.5994479 0.6206167 0.5768643 0.5648967 0.6108693 0.5922353
0.55126786 0.57465035 0.5745136 0.5544004 0.5831642 0.5894626 0.5362149 0.5614944
0.59409153 0.5567633 0.5922266 0.5659763 0.60497725 0.5557499 0.58192617 0.584725
0.5767799

model.tcn.0.conv1.weight_v f4 [25, 28, 7]
00000000: e1ad 463c 7de5 4c3d 1d54 2dbd 0514 11bd
00000010: 8459 2bbc 17c0 103d 55a2 8a3c eada 573d
00000020: e7fd fabb 421b 833c 00dc bcbc 9edd 82bc
00000030: 20bd 8abd d38d 45bd ced7 bcbc f3b1 893b
00000040: d895 d13c 4048 1d3d e8c6 2cbd fc9c d9bc
00000050: 0bb4 b73c 49e3 6a3d 0c6c 6bbc 9b7c 553d
00000060: 6c97 30bc ad6b ff3b ea19 823d f952 82bd
00000070: bdde 22bd 387b 69bc 675a c4bc 2aab 7d3d
00000080: f1af 2dbd c95c f3bc e086 3dbd 3fa9 81bd
00000090: ffc1 20bd aebd 753d 7e17 013d 4def 0b3d
000000a0: f76a 8e3b 4d28 0dbd f690 6b3c 6e46 7abd
000000b0: 0e51 3dbd cb7c 02bd 8dff 3f3d 917d 343d
000000c0: ac3b d8bc 13b3 77bc 194c 13ba 6d54 bf3a
000000d0: b501 1ebc b99a e3bc 5e39 1bbc 7805 7ebd
000000e0: 2913 8dbc 618b babd 1bda b9bd 609a a9bd
000000f0: bc9a 97bc 067d f3bc e9bf f2bd 730b d83c
00000100: c495 2f3d 1361 35bb cdf7 043c bdfd ab3c
00000110: c340 3f3d a428 8e3d c279 4ebd b57d bebc
00000120: 9107 e73c 2560 6c3d 7a96 773d 3522 7a3d
00000130: 4bd9 6e3c 8b58 8bbd cbfa d1b9 e436 4dbd
00000140: 75f8 91bd ca18 663d ab0e 423d 4fa5 99bd
00000150: a51b 493c 3c6a 48bc 7228 44bc 064a 04bd
00000160: c1ca d33c 39ed 2abd 2ea4 c83c 28e6 003d
00000170: 0822 3b3d e13c b83c b089 8ebd 1884 3fbd
00000180: e285 f93c b522 323c d26f 63bd f635 2abd
00000190: e4f6 803d ae44 373d 596e 01bd be4f 9abc
000001a0: 7565 89bd 580e 883b 1912 40bd 0a76 46bd
000001b0: aae4 3a3a 9256 713c 3173 c6bc 1852 383d
000001c0: c6bd 1fbd 4080 803d f34a 433d 1065 61bd
000001d0: cc86 75bc f7c2 973b bfff 3a3c 43e7 a13c
000001e0: f3af f63c c347 023c 6ebc eabc 3fa6 123d
000001f0: 4a2c 77bd 7c18 12bd 4a81 6dbc 2cb5 fabc
00000200: 7656 b0bc e73c 5abd 8f27 4abc f788 843c
00000210: 248b 2dbd 1471 c9bb 3134 3e3d 1275 14bc
00000220: 7c55 4239 49d8 ebbb 4720 513c 3698 2f3d
00000230: 007a 803d a5eb 283d b80b 813d de95 fabb
00000240: 0c9d 84bd 458b 10bd 27c8 383d 223f ec39
00000250: 8bdc 0bbd 86a7 59bd 30fe 85bd 1bba 72bd
00000260: 8962 75bc 1e25 183d 0ea9 053d a0c5 93bd
00000270: 4c9b 203d 57ce 6fbd 2a01 99bc b5c3 02bd
00000280: 881f 88bc 5609 72bc 5a5b 80bd 2466 76bd
00000290: a9f5 3cbc 065b 3039 f98b 01bd 10b8 d03c
000002a0: d084 65bd ec74 a5b9 041d 813d 0033 bdbc
000002b0: 6ab6 843d c9e7 e83c 2f02 67bd 4bf4 303d
000002c0: 6452 10bc 3ac2 02bd f371 5d3d 4218 6abd
000002d0: fa99 ca3b ee24 83bc ae20 453d 9a1c 9b3c
000002e0: 9de9 073d 24a4 cb3c 532b 7fbc d1bb 57bc
000002f0: bde9 60bd 64d7 243d 9e0d 6c3d fedb 4e3d
00000300: 0e82 2fbd a224 063c 67e7 2bbd 0906 ffbc
00000310: e8b9 32bd feba c83c 7eb0 33bd 00f7 36bb
00000320: fe77 853b f251 3f3d 3f39 4ebd 11a2 50bd
00000330: e004 34bd 300d 453d ddee ebbc 2780 613d
00000340: d4e5 ad3c 4dd3 943b 996e 72ba f040 5dbc
00000350: f23e 383c d2a4 6dbc 4dd5 783b e86a 603c
00000360: 0b7b 41bd 0829 08bd d9dd 783d 24c1 55bd
00000370: a441 d5ba 1d0d 983d 98fe 003d 8800 193c
00000380: e1ea 57bd a801 363d ac22 2fbd 7ce7 53bc
00000390: a64f 6bbc 6b6d b1ba ff42 143c 8d7e 733d
000003a0: 8652 3e3c 5327 843d a10d 393d 59ce 22bd
000003b0: f69f 0c3d c5ba 38bd e303 dcbc 6221 c73c
000003c0: 0242 df3c d464 633d 3058 81bc 8e32 c63b
000003d0: a299 283d edb0 a0bd d580 e83c a380 94bd
000003e0: 6c54 27bc f700 17bd 8512 5abd ff83 d8bc
000003f0: ed90 4d3d d20b 0abd 8655 73bd fbd7 3bbd
0.012126417 0.050023545 -0.042316545 -0.035419483 -0.010458354 0.03533944 0.01692311 0.052699007
-0.007659662 0.016004208 -0.023054123 -0.015974816 -0.06774354 -0.048230957 -0.023052122 0.0042021214
0.025584146 0.03839898 -0.04218188 -0.026564114 0.022424718 0.057345662 -0.014369022 0.052120786
-0.010778289 0.0077948184 0.06352599 -0.06363482 -0.0397632 -0.014250569 -0.023968888 0.061930813
-0.04240412 -0.02970733 -0.046271205 -0.06331109 -0.03924751 0.059995346 0.031516545 0.034163762
0.0043462473 -0.034462262 0.014377823 -0.061102323 -0.046219878 -0.031857293 0.04687457 0.044065062
-0.026395641 -0.015118378 -0.00056189444 0.0014597304 -0.009643962 -0.027783738 -0.009474127 -0.062016934
-0.01722105 -0.09108616 -0.090748034 -0.08281398 -0.0185064 -0.029722702 -0.1185301 0.026372647
0.042867437 -0.002767627 0.008115721 0.020995015 0.04669262 0.06941345 -0.050409086 -0.023253301
0.02820185 0.057708878 0.06044624 0.06106778 0.014578174 -0.068039976 -0.00040050442 -0.050101176
-0.071274675 0.056175984 0.04737727 -0.07502233 0.012274657 -0.0122323595 -0.011972534 -0.032297157
0.025853517 -0.04173014 0.02449235 0.031469494 0.04568675 0.022489967 -0.069598556 -0.046756834
0.030459348 0.010872533 -0.055526562 -0.041555367 0.06297091 0.044743232 -0.031599376 -0.018836852
-0.067088045 0.0041521005 -0.04689226 -0.048452415 0.00071294105 0.014730113 -0.02422485 0.045000166
-0.03899934 0.06274462 0.0476789 -0.05502802 -0.014985751 0.004631396 0.011413514 0.019763594
0.030113196 0.00795168 -0.028654303 0.035803076 -0.06034497 -0.03566788 -0.014496157 -0.030603968
-0.021525603 -0.053280737 -0.012338533 0.016178591 -0.042369023 -0.006147513 0.046436492 -0.009061115
0.00018533127 -0.007197414 0.012764043 0.04286977 0.0627327 0.041240353 0.06301063 -0.00764726
-0.06475267 -0.035289068 0.045112755 0.00045060465 -0.034145873 -0.05313828 -0.06542623 -0.059259515
-0.014977106 0.037144773 0.032631926 -0.07215428 0.039210603 -0.05854639 -0.018677313 -0.031924922
-0.016616598 -0.014772734 -0.06267424 -0.060156003 -0.011533179 0.00016818577 -0.03162763 0.025478393
-0.056034863 -0.00031558366 0.063043624 -0.023095608 0.06480105 0.028430836 -0.056398567 0.043201726
-0.008808706 -0.03192351 0.05406375 -0.05715204 0.006182906 -0.01600882 0.04812687 0.018934537
0.033181775 0.024858542 -0.015574294 -0.0131673375 -0.05491041 0.040244475 0.057630174 0.05050277
-0.04284864 0.008187445 -0.04196873 -0.031130807 -0.043634325 0.024503227 -0.043869488 -0.002791822
0.004073142 0.04670901 -0.050347563 -0.05093581 -0.04394996 0.04810828 -0.028800422 0.055053856
0.021227755 0.0045417906 -0.0009248048 -0.013504252 0.011245476 -0.014504628 0.0037968934 0.013697363
-0.047236484 -0.033242255 0.060758445 -0.052186146 -0.0016270173 0.07424376 0.0314928 0.009338506
-0.052714232 0.044435173 -0.042757675 -0.012933608 -0.014362251 -0.0013536637 0.009049176 0.05944686
0.011616355 0.06452813 0.045179013 -0.03974757 0.03433224 -0.045099992 -0.026857322 0.02430791
0.027253155 0.05551608 -0.015789121 0.006048507 0.04116214 -0.07846246 0.028381744 -0.07251098
-0.010212999 -0.036866155 -0.053240318 -0.026430128 0.05018704 -0.03370268 -0.059407733 -0.045860272

model.tcn.0.conv2.bias f4 [25]
00000000: f399 a4bc f747 d839 e25d 62bc 74ef 5b3d
00000010: 4663 503d 04e8 113d 7c57 c63b 9a0c 10bd
00000020: af6b 473c bbec 61bd 5f4e 963b 25f2 993d
00000030: f600 b6bb afe1 993d bafc 0ebd 8df6 8c3d
00000040: a460 293d adb9 11bd 2ea6 97bd 4362 1abd
00000050: 5463 2a3d 409c 983d c7db 52bd 86ed ecbc
00000060: 5daf 0f3d
-0.02009294 0.00041252348 -0.013816329 0.053695157 0.050875925 0.035621658 0.0060529094 -0.035168268
0.01217167 -0.055157404 0.0045869793 0.075168885 -0.005554314 0.07513749 -0.034908988 0.06882963
0.04135193 -0.035577465 -0.07404743 -0.037691366 0.041598633 0.07451677 -0.051479127 -0.028921854
0.03507935

model.tcn.0.conv2.weight_g f4 [25, 1, 1]
00000000: d3b3 173f 90bb 173f ad1c 0d3f 7232 1b3f
00000010: 2bc7 123f bb8b 0a3f f736 1b3f 39e5 1d3f
00000020: 6484 163f 24bf 1b3f 48a6 113f e5de 163f
00000030: c6a2 0b3f 0574 143f 42a8 203f fb57 153f
00000040: 3217 193f f742 123f 5447 133f 2608 113f
00000050: e6fc 183f d6d1 123f ce0c 203f b885 153f
00000060: f1dd 103f
0.59258765 0.5927057 0.5512188 0.6062385 0.57335156 0.5411946 0.60630745 0.6167789
0.5879576 0.6083853 0.5689435 0.5893386 0.5454525 0.5798953 0.6275674 0.5833737
0.5980102 0.5713343 0.57530713 0.5665306 0.5976089 0.57351434 0.6251954 0.58407164
0.56588656

model.tcn.0.conv2.weight_v f4 [25, 25, 7]
00000000: 5389 0fbc fc33 3b3d ac74 72bd 6169 1a3d
00000010: fbb3 953d 619c 413d e1d2 59bd 19ad f1bb
00000020: bcf1 7f3b ac08 253d d798 4ebc 7487 963c
00000030: c359 17bc 3f29 a93b 0cf3 e73a 3109 1bbd
00000040: 1074 3cbd 72a1 833d c885 873d ff4c 8b3b
00000050: ff88 903d 43b5 7e3d ddcf 0cbd 1697 89bc
00000060: b108 19bd d343 123d 08fe 873c 004f ca3b
00000070: 5a51 563d 9ab0 80bc 18b3 dcbc 7669 21bd
00000080: 4f06 c7bc 1b78 883d 1cda b4bc 84b0 70bc
00000090: bd5a 183d a953 53bd 19b6 27bd 4c00 633d
000000a0: 7afd d5bc ec12 17bd 6aca bebb b325 d1bb
000000b0: a07a 773c 5761 e23c d792 47bd 2d6a 853d
000000c0: c6e3 79bd 01b8 083d b629 30bc e9f5 a6bc
000000d0: 994c a33d 2bda 6dbd 7be7 a33c 1d38 833d
000000e0: 5bcd 793d 5dd7 47bd 07b5 403c bbd0 863d
000000f0: 39ba 7bbd 2858 763c f4d7 20bd ee6c b63c
00000100: ba17 5ebd c479 403d 4db8 4bbb c12e 693d
00000110: b532 673c f193 d33b 07f0 9abb 83f8 5abd
00000120: a239 89bc 2021 903c d94c 24bd 2295 a43d
00000130: 4901 e5bc a2dd c2bc 8c6a 38bc 3e97 51bd
00000140: 1227 23bc 0ce9 f1bc ed93 5abd 5333 28bc
00000150: 6892 6f3d 2132 923c fb3b 633d 6e29 953b
00000160: 0fd9 81bc 7f7a 663d 2467 dfbc d646 6abd
00000170: f357 db3c d01f 453d 5e0e f7bc 7bd1 283d
00000180: cefd 10bc a564 303c 99ae e9ba 9e53 a1ba
00000190: 068e 3abd b6f8 8c3c 5f06 86bb 1e32 4f3d
000001a0: 6a5b 5d3c a33c 47bd 3214 34bd 7b6b cebc
000001b0: bc03 3b3d da3c 02bd c60c 84bc e87d ff3c
000001c0: 7df2 ffbc a261 77bc b2c5 8c3d d556 91bc
000001d0: 14a7 2cbb 3b49 6f3d 8d51 fe3c afb3 493d
000001e0: b2a7 86bd ffea f13c b5cc 7fbc e849 4cbd
000001f0: c890 10bd ff78 96bd 76ca 583d cdc4 24bc
00000200: 5964 89bd 17b5 8a3d 895c 5c3d 028a 1c3d
00000210: 5ce7 a63d 86ff 9a3d 45fe a03d 80aa 9c3d
00000220: 3707 923d 1e00 003d 839b d83b a1c8 8c3c
00000230: 8426 8fbc 7532 473d 53a5 8c3c f90c 0b3d
00000240: 27a4 f9bc b760 14bc 35b4 9f3d 91be ccba
00000250: af2a 453c cd51 8cbd 823b 22bd e01e 7ebc
00000260: 8e46 b8bc 5b15 983c e53a 4fbc a8a7 903d
00000270: fe15 32bb 1b85 2a3d 67cb 1cbd 5cd3 e93c
00000280: 2119 62bd c470 4abd 4532 05bd 3543 1a3d
00000290: 752d c03c 1269 d63c a8c1 433c 190e b03d
000002a0: 7a3a a43d 704a 2a3d a058 8e3d ad00 0f3c
000002b0: 85f1 62bc 26e2 ef3c c068 863d b72f 34ba
000002c0: 1a9b 38bd eb0e 173d 691f a7bb f2b6 a7bc
000002d0: 889e 823d 1361 853c 8219 e1bc f28c edbc
000002e0: 9fa4 883d e838 453d 21b8 13bd 6bd6 5f3c
000002f0: edc4 5f3c ab81 173d fee4 6dbd f5a1 a33b
00000300: 275d e93c 0da9 2b3d 5727 603c 6979 ebbc
00000310: f06b 72bd bee3 403d 1ff6 963d 1629 18bc
00000320: f6dc 52bd e210 0c3d 6777 10bd 8f95 15bd
00000330: 889e a93c 3e8e e83a 93dd 653b fcac 773d
00000340: 9df6 6fbb e353 2e3d 5de6 aabc 84a3 5c3d
00000350: 045b b53c c002 813d 770e c13c 4424 e1bc
00000360: 39a8 e53c 5629 7b3d cb23 953c 4172 153d
00000370: 0cbe 2cbd 6f98 2f3d 7366 70bd 9c70 893d
00000380: 6441 123d 5aa8 3a3c e9b3 77bd a789 993d
00000390: 9dc2 673d a8c2 a23d 539f 2e3d 2587 863c
000003a0: 5158 9fbc 5517 f3bc 434c 8e3c 075b 5b3c
000003b0: 2ba7 20bc 2e07 3d38 1e9a 033d c571 77bd
000003c0: c3fe 5bbd 5772 02bc d9c2 753d 0514 443d
000003d0: ad6f 5fbd 89cb 43bc 131e 3c3b 933c 0e3d
000003e0: c44f 903d 6b3d 823c 26d7 26bd 5e91 b73c
000003f0: b5c4 eabc 4caf 2bbd 5c3e 353c db0b 95bc
-0.008760768 0.045703873 -0.0591933 0.037698153 0.07309719 0.047268275 -0.053179625 -0.007375371
0.0039053997 0.040291473 -0.012609682 0.018375136 -0.009237709 0.0051623876 0.0017696335 -0.037850562
-0.046009123 0.064272776 0.066173136 0.004251122 0.0705738 0.062184583 -0.03437792 -0.016795676
-0.037361804 0.035709213 0.016600624 0.0061739683 0.052323677 -0.01570921 -0.026940867 -0.039407216
-0.024295 0.06663533 -0.022076659 -0.014690522 0.03719591 -0.051593456 -0.040945146 0.055420205
-0.026121844 -0.03688328 -0.0058224695 -0.006382668 0.01510492 0.027634306 -0.04872402 0.06514392
-0.061008237 0.033378605 -0.010752132 -0.020380931 0.07973594 -0.05806939 0.02000784 0.06407187
0.060986858 -0.04878937 0.01176191 0.06582781 -0.061456893 0.0150356665 -0.03926845 0.022268739
-0.054221846 0.046991125 -0.0031085194 0.056929354 0.014111211 0.006456845 -0.0047283205 -0.053459655
-0.016751114 0.01759392 -0.04011235 0.08036257 -0.027954714 -0.023787323 -0.0112558715 -0.051169626
-0.009958046 -0.02953007 -0.05336373 -0.010266143 0.058489233 0.017846169 0.055477124 0.004552058
-0.015850572 0.056269165 -0.027270861 -0.05719646 0.026775336 0.048126042 -0.030158218 0.0412154
-0.008849574 0.010766183 -0.0017828523 -0.0012308245 -0.0455456 0.017208438 -0.004090115 0.050584905
0.013510564 -0.048641812 -0.043964572 -0.025197735 0.04565786 -0.031796314 -0.016119372 0.031187966
-0.031243557 -0.015098961 0.06873645 -0.0177416 -0.0026344704 0.058419447 0.031044746 0.049243625
-0.06574954 0.029531 -0.015612771 -0.04987517 -0.035294324 -0.07347297 0.052927457 -0.010056687
-0.06708593 0.067728214 0.053799186 0.038217552 0.08149597 0.075682685 0.07860998 0.07649708
0.07130282 0.03125011 0.0066103353 0.017185511 -0.01747442 0.048632104 0.017168676 0.03394792
-0.030473782 -0.009056262 0.07798044 -0.0015620758 0.012034102 -0.0685154 -0.039607532 -0.015510291
-0.02249458 0.01856487 -0.012648319 0.07063228 -0.0027173753 0.041630846 -0.038279917 0.028543167
-0.055199746 -0.049423948 -0.032518644 0.03766175 0.023459176 0.026173148 0.011948027 0.08596439
0.08018966 0.041574895 0.069504976 0.008728188 -0.013851528 0.02928264 0.06562948 -0.0006873565
-0.04506979 0.03687946 -0.00510018 -0.020472977 0.06377894 0.01628164 -0.027477983 -0.028997872
0.06672024 0.048149973 -0.03606427 0.013661961 0.013657791 0.036988895 -0.058079712 0.004993672
0.028486801 0.041909266 0.013681254 -0.028744416 -0.05918497 0.047092192 0.073711626 -0.009287139
-0.051480256 0.03419579 -0.03527012 -0.036519583 0.020705476 0.0017742587 0.0035074695 0.060467705
-0.0036615499 0.04256047 -0.020861799 0.05386688 0.022138126 0.06299353 0.023566468 -0.027483113
0.028034316 0.061318718 0.018205544 0.036485914 -0.04217343 0.04286998 -0.058691453 0.06710932
0.035706893 0.011392677 -0.06047431 0.07496958 0.056582082 0.07947284 0.042632412 0.016421864
-0.019451292 -0.029674212 0.017370349 0.013388402 -0.009805481 4.5067798e-05 0.0321294 -0.060411233
-0.053709757 -0.007961831 0.060000274 0.047870655 -0.05454986 -0.011950382 0.002870445 0.034725737
0.07046464 0.015898427 -0.040732525 0.022408184 -0.02865825 -0.041915223 0.011062231 -0.01819413

model.tcn.0.net.0.bias f4 [25]
00000000: 8c43 1b3d 4b64 02bd e6b8 ee3c c805 ad3c
00000010: 7538 7ebd 8b82 27bd ba6e 4bbd e735 4a3d
00000020: a570 833c 0e0f 2d3c 501c 38bd 15bd 89bd
00000030: 467a a2bc 71d0 44bd d12b 83bd ab4a 51bd
00000040: 99e4 34bd e91f 87bd 4f31 003d bf4b 0f3d
00000050: 812e 1f3d 04d3 92bd 610e 5c3d bddc e13c
00000060: 7a4d 213d
0.037906215 -0.031833928 0.0291409 0.02112092 -0.06206556 -0.04089598 -0.049666144 0.04936781
0.016044924 0.010562671 -0.044948876 -0.06725518 -0.019833695 -0.048050348 -0.06404842 -0.0510966
-0.04416332 -0.06597883 0.031297024 0.034984346 0.03886271 -0.07169154 0.05372465 0.027571077
0.039380528

model.tcn.0.net.0.weight_g f4 [25, 1, 1]
00000000: b8e4 173f 5121 123f 6b75 193f bce0 1e3f
00000010: 61ad 133f 129d 103f ee61 1c3f bc9c 173f
00000020: e41f 0d3f 491c 133f 5313 133f 2fed 0d3f
00000030: 404a 153f 05e7 163f 6145 093f 19be 0f3f
00000040: 6216 183f 0a88 0e3f 2a9c 173f d3e3 103f
00000050: cadf 1a3f a045 0e3f 1df9 143f 8ab0 153f
00000060: d9a7 133f
0.5933337 0.57082087 0.5994479 0.6206167 0.5768643 0.5648967 0.6108693 0.5922353
0.55126786 0.57465035 0.5745136 0.5544004 0.5831642 0.5894626 0.5362149 0.5614944
0.59409153 0.5567633 0.5922266 0.5659763 0.60497725 0.5557499 0.58192617 0.584725
0.5767799

model.tcn.0.net.0.weight_v f4 [25, 28, 7]
00000000: e1ad 463c 7de5 4c3d 1d54 2dbd 0514 11bd
00000010: 8459 2bbc 17c0 103d 55a2 8a3c eada 573d
00000020: e7fd fabb 421b 833c 00dc bcbc 9edd 82bc
00000030: 20bd 8abd d38d 45bd ced7 bcbc f3b1 893b
00000040: d895 d13c 4048 1d3d e8c6 2cbd fc9c d9bc
00000050: 0bb4 b73c 49e3 6a3d 0c6c 6bbc 9b7c 553d
00000060: 6c97 30bc ad6b ff3b ea19 823d f952 82bd
00000070: bdde 22bd 387b 69bc 675a c4bc 2aab 7d3d
00000080: f1af 2dbd c95c f3bc e086 3dbd 3fa9 81bd
00000090: ffc1 20bd aebd 753d 7e17 013d 4def 0b3d
000000a0: f76a 8e3b 4d28 0dbd f690 6b3c 6e46 7abd
000000b0: 0e51 3dbd cb7c 02bd 8dff 3f3d 917d 343d
000000c0: ac3b d8bc 13b3 77bc 194c 13ba 6d54 bf3a
000000d0: b501 1ebc b99a e3bc 5e39 1bbc 7805 7ebd
000000e0: 2913 8dbc 618b babd 1bda b9bd 609a a9bd
000000f0: bc9a 97bc 067d f3bc e9bf f2bd 730b d83c
00000100: c495 2f3d 1361 35bb cdf7 043c bdfd ab3c
00000110: c340 3f3d a428 8e3d c279 4ebd b57d bebc
00000120: 9107 e73c 2560 6c3d 7a96 773d 3522 7a3d
00000130: 4bd9 6e3c 8b58 8bbd cbfa d1b9 e436 4dbd
00000140: 75f8 91bd ca18 663d ab0e 423d 4fa5 99bd
00000150: a51b 493c 3c6a 48bc 7228 44bc 064a 04bd
00000160: c1ca d33c 39ed 2abd 2ea4 c83c 28e6 003d
00000170: 0822 3b3d e13c b83c b089 8ebd 1884 3fbd
00000180: e285 f93c b522 323c d26f 63bd f635 2abd
00000190: e4f6 803d ae44 373d 596e 01bd be4f 9abc
000001a0: 7565 89bd 580e 883b 1912 40bd 0a76 46bd
000001b0: aae4 3a3a 9256 713c 3173 c6bc 1852 383d
000001c0: c6bd 1fbd 4080 803d f34a 433d 1065 61bd
000001d0: cc86 75bc f7c2 973b bfff 3a3c 43e7 a13c
000001e0: f3af f63c c347 023c 6ebc eabc 3fa6 123d
000001f0: 4a2c 77bd 7c18 12bd 4a81 6dbc 2cb5 fabc
00000200: 7656 b0bc e73c 5abd 8f27 4abc f788 843c
00000210: 248b 2dbd 1471 c9bb 3134 3e3d 1275 14bc
00000220: 7c55 4239 49d8 ebbb 4720 513c 3698 2f3d
00000230: 007a 803d a5eb 283d b80b 813d de95 fabb
00000240: 0c9d 84bd 458b 10bd 27c8 383d 223f ec39
00000250: 8bdc 0bbd 86a7 59bd 30fe 85bd 1bba 72bd
00000260: 8962 75bc 1e25 183d 0ea9 053d a0c5 93bd
00000270: 4c9b 203d 57ce 6fbd 2a01 99bc b5c3 02bd
00000280: 881f 88bc 5609 72bc 5a5b 80bd 2466 76bd
00000290: a9f5 3cbc 065b 3039 f98b 01bd 10b8 d03c
000002a0: d084 65bd ec74 a5b9 041d 813d 0033 bdbc
000002b0: 6ab6 843d c9e7 e83c 2f02 67bd 4bf4 303d
000002c0: 6452 10bc 3ac2 02bd f371 5d3d 4218 6abd
000002d0: fa99 ca3b ee24 83bc ae20 453d 9a1c 9b3c
000002e0: 9de9 073d 24a4 cb3c 532b 7fbc d1bb 57bc
000002f0: bde9 60bd 64d7 243d 9e0d 6c3d fedb 4e3d
00000300: 0e82 2fbd a224 063c 67e7 2bbd 0906 ffbc
00000310: e8b9 32bd feba c83c 7eb0 33bd 00f7 36bb
00000320: fe77 853b f251 3f3d 3f39 4ebd 11a2 50bd
00000330: e004 34bd 300d 453d ddee ebbc 2780 613d
00000340: d4e5 ad3c 4dd3 943b 996e 72ba f040 5dbc
00000350: f23e 383c d2a4 6dbc 4dd5 783b e86a 603c
00000360: 0b7b 41bd 0829 08bd d9dd 783d 24c1 55bd
00000370: a441 d5ba 1d0d 983d 98fe 003d 8800 193c
00000380: e1ea 57bd a801 363d ac22 2fbd 7ce7 53bc
00000390: a64f 6bbc 6b6d b1ba ff42 143c 8d7e 733d
000003a0: 8652 3e3c 5327 843d a10d 393d 59ce 22bd
000003b0: f69f 0c3d c5ba 38bd e303 dcbc 6221 c73c
000003c0: 0242 df3c d464 633d 3058 81bc 8e32 c63b
000003d0: a299 283d edb0 a0bd d580 e83c a380 94bd
000003e0: 6c54 27bc f700 17bd 8512 5abd ff83 d8bc
000003f0: ed90 4d3d d20b 0abd 8655 73bd fbd7 3bbd
0.012126417 0.050023545 -0.042316545 -0.035419483 -0.010458354 0.03533944 0.01692311 0.052699007
-0.007659662 0.016004208 -0.023054123 -0.015974816 -0.06774354 -0.048230957 -0.023052122 0.0042021214
0.025584146 0.03839898 -0.04218188 -0.026564114 0.022424718 0.057345662 -0.014369022 0.052120786
-0.010778289 0.0077948184 0.06352599 -0.06363482 -0.0397632 -0.014250569 -0.023968888 0.061930813
-0.04240412 -0.02970733 -0.046271205 -0.06331109 -0.03924751 0.059995346 0.031516545 0.034163762
0.0043462473 -0.034462262 0.014377823 -0.061102323 -0.046219878 -0.031857293 0.04687457 0.044065062
-0.026395641 -0.015118378 -0.00056189444 0.0014597304 -0.009643962 -0.027783738 -0.009474127 -0.062016934
-0.01722105 -0.09108616 -0.090748034 -0.08281398 -0.0185064 -0.029722702 -0.1185301 0.026372647
0.042867437 -0.002767627 0.008115721 0.020995015 0.04669262 0.06941345 -0.050409086 -0.023253301
0.02820185 0.057708878 0.06044624 0.06106778 0.014578174 -0.068039976 -0.00040050442 -0.050101176
-0.071274675 0.056175984 0.04737727 -0.07502233 0.012274657 -0.0122323595 -0.011972534 -0.032297157
0.025853517 -0.04173014 0.02449235 0.031469494 0.04568675 0.022489967 -0.069598556 -0.046756834
0.030459348 0.010872533 -0.055526562 -0.041555367 0.06297091 0.044743232 -0.031599376 -0.018836852
-0.067088045 0.0041521005 -0.04689226 -0.048452415 0.00071294105 0.014730113 -0.02422485 0.045000166
-0.03899934 0.06274462 0.0476789 -0.05502802 -0.014985751 0.004631396 0.011413514 0.019763594
0.030113196 0.00795168 -0.028654303 0.035803076 -0.06034497 -0.03566788 -0.014496157 -0.030603968
-0.021525603 -0.053280737 -0.012338533 0.016178591 -0.042369023 -0.006147513 0.046436492 -0.009061115
0.00018533127 -0.007197414 0.012764043 0.04286977 0.0627327 0.041240353 0.06301063 -0.00764726
-0.06475267 -0.035289068 0.045112755 0.00045060465 -0.034145873 -0.05313828 -0.06542623 -0.059259515
-0.014977106 0.037144773 0.032631926 -0.07215428 0.039210603 -0.05854639 -0.018677313 -0.031924922
-0.016616598 -0.014772734 -0.06267424 -0.060156003 -0.011533179 0.00016818577 -0.03162763 0.025478393
-0.056034863 -0.00031558366 0.063043624 -0.023095608 0.06480105 0.028430836 -0.056398567 0.043201726
-0.008808706 -0.03192351 0.05406375 -0.05715204 0.006182906 -0.01600882 0.04812687 0.018934537
0.033181775 0.024858542 -0.015574294 -0.0131673375 -0.05491041 0.040244475 0.057630174 0.05050277
-0.04284864 0.008187445 -0.04196873 -0.031130807 -0.043634325 0.024503227 -0.043869488 -0.002791822
0.004073142 0.04670901 -0.050347563 -0.05093581 -0.04394996 0.04810828 -0.028800422 0.055053856
0.021227755 0.0045417906 -0.0009248048 -0.013504252 0.011245476 -0.014504628 0.0037968934 0.013697363
-0.047236484 -0.033242255 0.060758445 -0.052186146 -0.0016270173 0.07424376 0.0314928 0.009338506
-0.052714232 0.044435173 -0.042757675 -0.012933608 -0.014362251 -0.0013536637 0.009049176 0.05944686
0.011616355 0.06452813 0.045179013 -0.03974757 0.03433224 -0.045099992 -0.026857322 0.02430791
0.027253155 0.05551608 -0.015789121 0.006048507 0.04116214 -0.07846246 0.028381744 -0.07251098
-0.010212999 -0.036866155 -0.053240318 -0.026430128 0.05018704 -0.03370268 -0.059407733 -0.045860272

model.tcn.0.net.4.bias f4 [25]
00000000: f399 a4bc f747 d839 e25d 62bc 74ef 5b3d
00000010: 4663 503d 04e8 113d 7c57 c63b 9a0c 10bd
00000020: af6b 473c bbec 61bd 5f4e 963b 25f2 993d
00000030: f600 b6bb afe1 993d bafc 0ebd 8df6 8c3d
00000040: a460 293d adb9 11bd 2ea6 97bd 4362 1abd
00000050: 5463 2a3d 409c 983d c7db 52bd 86ed ecbc
00000060: 5daf 0f3d
-0.02009294 0.00041252348 -0.013816329 0.053695157 0.050875925 0.035621658 0.0060529094 -0.035168268
0.01217167 -0.055157404 0.0045869793 0.075168885 -0.005554314 0.07513749 -0.034908988 0.06882963
0.04135193 -0.035577465 -0.07404743 -0.037691366 0.041598633 0.07451677 -0.051479127 -0.028921854
0.03507935

model.tcn.0.net.4.weight_g f4 [25, 1, 1]
00000000: d3b3 173f 90bb 173f ad1c 0d3f 7232 1b3f
00000010: 2bc7 123f bb8b 0a3f f736 1b3f 39e5 1d3f
00000020: 6484 163f 24bf 1b3f 48a6 113f e5de 163f
00000030: c6a2 0b3f 0574 143f 42a8 203f fb57 153f
00000040: 3217 193f f742 123f 5447 133f 2608 113f
00000050: e6fc 183f d6d1 123f ce0c 203f b885 153f
00000060: f1dd 103f
0.59258765 0.5927057 0.5512188 0.6062385 0.57335156 0.5411946 0.60630745 0.6167789
0.5879576 0.6083853 0.5689435 0.5893386 0.5454525 0.5798953 0.6275674 0.5833737
0.5980102 0.5713343 0.57530713 0.5665306 0.5976089 0.57351434 0.6251954 0.58407164
0.56588656

model.tcn.0.net.4.weight_v f4 [25, 25, 7]
00000000: 5389 0fbc fc33 3b3d ac74 72bd 6169 1a3d
00000010: fbb3 953d 619c 413d e1d2 59bd 19ad f1bb
00000020: bcf1 7f3b ac08 253d d798 4ebc 7487 963c
00000030: c359 17bc 3f29 a93b 0cf3 e73a 3109 1bbd
00000040: 1074 3cbd 72a1 833d c885 873d ff4c 8b3b
00000050: ff88 903d 43b5 7e3d ddcf 0cbd 1697 89bc
00000060: b108 19bd d343 123d 08fe 873c 004f ca3b
00000070: 5a51 563d 9ab0 80bc 18b3 dcbc 7669 21bd
00000080: 4f06 c7bc 1b78 883d 1cda b4bc 84b0 70bc
00000090: bd5a 183d a953 53bd 19b6 27bd 4c00 633d
000000a0: 7afd d5bc ec12 17bd 6aca bebb b325 d1bb
000000b0: a07a 773c 5761 e23c d792 47bd 2d6a 853d
000000c0: c6e3 79bd 01b8 083d b629 30bc e9f5 a6bc
000000d0: 994c a33d 2bda 6dbd 7be7 a33c 1d38 833d
000000e0: 5bcd 793d 5dd7 47bd 07b5 403c bbd0 863d
000000f0: 39ba 7bbd 2858 763c f4d7 20bd ee6c b63c
00000100: ba17 5ebd c479 403d 4db8 4bbb c12e 693d
00000110: b532 673c f193 d33b 07f0 9abb 83f8 5abd
00000120: a239 89bc 2021 903c d94c 24bd 2295 a43d
00000130: 4901 e5bc a2dd c2bc 8c6a 38bc 3e97 51bd
00000140: 1227 23bc 0ce9 f1bc ed93 5abd 5333 28bc
00000150: 6892 6f3d 2132 923c fb3b 633d 6e29 953b
00000160: 0fd9 81bc 7f7a 663d 2467 dfbc d646 6abd
00000170: f357 db3c d01f 453d 5e0e f7bc 7bd1 283d
00000180: cefd 10bc a564 303c 99ae e9ba 9e53 a1ba
00000190: 068e 3abd b6f8 8c3c 5f06 86bb 1e32 4f3d
000001a0: 6a5b 5d3c a33c 47bd 3214 34bd 7b6b cebc
000001b0: bc03 3b3d da3c 02bd c60c 84bc e87d ff3c
000001c0: 7df2 ffbc a261 77bc b2c5 8c3d d556 91bc
000001d0: 14a7 2cbb 3b49 6f3d 8d51 fe3c afb3 493d
000001e0: b2a7 86bd ffea f13c b5cc 7fbc e849 4cbd
000001f0: c890 10bd ff78 96bd 76ca 583d cdc4 24bc
00000200: 5964 89bd 17b5 8a3d 895c 5c3d 028a 1c3d
00000210: 5ce7 a63d 86ff 9a3d 45fe a03d 80aa 9c3d
00000220: 3707 923d 1e00 003d 839b d83b a1c8 8c3c
00000230: 8426 8fbc 7532 473d 53a5 8c3c f90c 0b3d
00000240: 27a4 f9bc b760 14bc 35b4 9f3d 91be ccba
00000250: af2a 453c cd51 8cbd 823b 22bd e01e 7ebc
00000260: 8e46 b8bc 5b15 983c e53a 4fbc a8a7 903d
00000270: fe15 32bb 1b85 2a3d 67cb 1cbd 5cd3 e93c
00000280: 2119 62bd c470 4abd 4532 05bd 3543 1a3d
00000290: 752d c03c 1269 d63c a8c1 433c 190e b03d
000002a0: 7a3a a43d 704a 2a3d a058 8e3d ad00 0f3c
000002b0: 85f1 62bc 26e2 ef3c c068 863d b72f 34ba
000002c0: 1a9b 38bd eb0e 173d 691f a7bb f2b6 a7bc
000002d0: 889e 823d 1361 853c 8219 e1bc f28c edbc
000002e0: 9fa4 883d e838 453d 21b8 13bd 6bd6 5f3c
000002f0: edc4 5f3c ab81 173d fee4 6dbd f5a1 a33b
00000300: 275d e93c 0da9 2b3d 5727 603c 6979 ebbc
00000310: f06b 72bd bee3 403d 1ff6 963d 1629 18bc
00000320: f6dc 52bd e210 0c3d 6777 10bd 8f95 15bd
00000330: 889e a93c 3e8e e83a 93dd 653b fcac 773d
00000340: 9df6 6fbb e353 2e3d 5de6 aabc 84a3 5c3d
00000350: 045b b53c c002 813d 770e c13c 4424 e1bc
00000360: 39a8 e53c 5629 7b3d cb23 953c 4172 153d
00000370: 0cbe 2cbd 6f98 2f3d 7366 70bd 9c70 893d
00000380: 6441 123d 5aa8 3a3c e9b3 77bd a789 993d
00000390: 9dc2 673d a8c2 a23d 539f 2e3d 2587 863c
000003a0: 5158 9fbc 5517 f3bc 434c 8e3c 075b 5b3c
000003b0: 2ba7 20bc 2e07 3d38 1e9a 033d c571 77bd
000003c0: c3fe 5bbd 5772 02bc d9c2 753d 0514 443d
000003d0: ad6f 5fbd 89cb 43bc 131e 3c3b 933c 0e3d
000003e0: c44f 903d 6b3d 823c 26d7 26bd 5e91 b73c
000003f0: b5c4 eabc 4caf 2bbd 5c3e 353c db0b 95bc
-0.008760768 0.045703873 -0.0591933 0.037698153 0.07309719 0.047268275 -0.053179625 -0.007375371
0.0039053997 0.040291473 -0.012609682 0.018375136 -0.009237709 0.0051623876 0.0017696335 -0.037850562
-0.046009123 0.064272776 0.066173136 0.004251122 0.0705738 0.062184583 -0.03437792 -0.016795676
-0.037361804 0.035709213 0.016600624 0.0061739683 0.052323677 -0.01570921 -0.026940867 -0.039407216
-0.024295 0.06663533 -0.022076659 -0.014690522 0.03719591 -0.051593456 -0.040945146 0.055420205
-0.026121844 -0.03688328 -0.0058224695 -0.006382668 0.01510492 0.027634306 -0.04872402 0.06514392
-0.061008237 0.033378605 -0.010752132 -0.020380931 0.07973594 -0.05806939 0.02000784 0.06407187
0.060986858 -0.04878937 0.01176191 0.06582781 -0.061456893 0.0150356665 -0.03926845 0.022268739
-0.054221846 0.046991125 -0.0031085194 0.056929354 0.014111211 0.006456845 -0.0047283205 -0.053459655
-0.016751114 0.01759392 -0.04011235 0.08036257 -0.027954714 -0.023787323 -0.0112558715 -0.051169626
-0.009958046 -0.02953007 -0.05336373 -0.010266143 0.058489233 0.017846169 0.055477124 0.004552058
-0.015850572 0.056269165 -0.027270861 -0.05719646 0.026775336 0.048126042 -0.030158218 0.0412154
-0.008849574 0.010766183 -0.0017828523 -0.0012308245 -0.0455456 0.017208438 -0.004090115 0.050584905
0.013510564 -0.048641812 -0.043964572 -0.025197735 0.04565786 -0.031796314 -0.016119372 0.031187966
-0.031243557 -0.015098961 0.06873645 -0.0177416 -0.0026344704 0.058419447 0.031044746 0.049243625
-0.06574954 0.029531 -0.015612771 -0.04987517 -0.035294324 -0.07347297 0.052927457 -0.010056687
-0.06708593 0.067728214 0.053799186 0.038217552 0.08149597 0.075682685 0.07860998 0.07649708
0.07130282 0.03125011 0.0066103353 0.017185511 -0.01747442 0.048632104 0.017168676 0.03394792
-0.030473782 -0.009056262 0.07798044 -0.0015620758 0.012034102 -0.0685154 -0.039607532 -0.015510291
-0.02249458 0.01856487 -0.012648319 0.07063228 -0.0027173753 0.041630846 -0.038279917 0.028543167
-0.055199746 -0.049423948 -0.032518644 0.03766175 0.023459176 0.026173148 0.011948027 0.08596439
0.08018966 0.041574895 0.069504976 0.008728188 -0.013851528 0.02928264 0.06562948 -0.0006873565
-0.04506979 0.03687946 -0.00510018 -0.020472977 0.06377894 0.01628164 -0.027477983 -0.028997872
0.06672024 0.048149973 -0.03606427 0.013661961 0.013657791 0.036988895 -0.058079712 0.004993672
0.028486801 0.041909266 0.013681254 -0.028744416 -0.05918497 0.047092192 0.073711626 -0.009287139
-0.051480256 0.03419579 -0.03527012 -0.036519583 0.020705476 0.0017742587 0.0035074695 0.060467705
-0.0036615499 0.04256047 -0.020861799 0.05386688 0.022138126 0.06299353 0.023566468 -0.027483113
0.028034316 0.061318718 0.018205544 0.036485914 -0.04217343 0.04286998 -0.058691453 0.06710932
0.035706893 0.011392677 -0.06047431 0.07496958 0.056582082 0.07947284 0.042632412 0.016421864
-0.019451292 -0.029674212 0.017370349 0.013388402 -0.009805481 4.5067798e-05 0.0321294 -0.060411233
-0.053709757 -0.007961831 0.060000274 0.047870655 -0.05454986 -0.011950382 0.002870445 0.034725737
0.07046464 0.015898427 -0.040732525 0.022408184 -0.02865825 -0.041915223 0.011062231 -0.01819413

model.tcn.0.downsample.weight f4 [25, 28, 1]
00000000: 7153 113c 5cba 35bb ac6b c5bc fdac 8bba
00000010: 1c5e 833a 1c35 32bc 2c5f e8bb 64f0 08bd
00000020: 6cd8 9cbd 4fb7 84b9 c26b 8ebc 14b9 873c
00000030: 1732 d13a 263d 05bc 81d5 4e3c 0f96 4b3c
00000040: 8307 61bb 29f0 2f3c c609 503c cb2b 083c
00000050: 53dd f0bb 5630 95bc 7a40 4bbc 3c69 fcbb
00000060: 693b 8739 ab9d 45bb 0671 963c a1ae 2c3c
00000070: d372 cc3c 810e c4ba 143a be3c 940a 10bb
00000080: a27a 3bbc 3c8e e1bb 8a45 babb d56f 43bd
00000090: 6987 9fbd 36e3 b4bb fd5b 003b ebd3 9b3c
000000a0: 5086 22bb 290d feba 7a07 6c3c 399e 003b
000000b0: 3ab6 c2bb 3497 203c a13c 99bc 7f27 3b3a
000000c0: ea36 a1ba f3f3 e9bb 7c09 0b3c 3c31 743b
000000d0: 4a1f 103c 87ee a5bc 9a16 e83b 2159 a13c
000000e0: 30c7 803b 0b8e 30bc 1fe5 dfbb 73ed 873c
000000f0: adaf ba3b fb9c 883c 10de 9f3c 9c2e 65bc
00000100: 3fd4 39bb ee8b 09bb 953f 843c 433e 75bc
00000110: b83d 36bc 1293 803b a4f8 393c ab6e 6bb9
00000120: 5441 c6bb e859 93bb 30ff ed3b 5920 60bc
00000130: a24e 633a 3de2 d93b e269 2a3b 0bd6 eabb
00000140: 6cc2 1bbb 7aba f63b 0ca3 e9bc 267c 893b
00000150: 38c0 d13c a992 883c b430 6239 9ca8 933b
00000160: 2cb9 15bb be67 46bb e2a5 823c 6d65 dabc
00000170: eb0a 8fbd f04a 123b 6a26 203c 8956 c6bb
00000180: 16c8 5abb 3cd5 a3bc e508 f6bb 647f 04bc
00000190: 6324 03bb cc9a 453a e334 443b 75ff 713c
000001a0: 6821 7ebc 61c6 aebb 71ed 3d3c 12e0 6dbb
000001b0: c24a ff3b 83d8 37bc e1b8 40bc 6db2 363c
000001c0: 1aff 033c 2a91 b3bc a446 873b 5ba4 97bc
000001d0: fd63 8a3a b87b b53a 6e32 953c 9d52 0ebd
000001e0: a33f 8ebc 8b80 7b3b 6b7e bf3c 2821 c1bc
000001f0: fac2 afbb ec11 9bbb f010 9f3b 76fc ac3b
00000200: 248d 40bc 1966 0ebc f460 d2bb 92cf bd3b
00000210: 1fb2 a4bc e2ef bb3c e7c0 26bd c939 2dbc
00000220: 6587 45b8 0377 263c 6b9a 4fbc 369f 94bc
00000230: 4d4c 153c e35b a4bc 4ef6 ac39 4ccc 7cbb
00000240: e928 c8bb 2a3a 823c 6779 473c afe5 f4bb
00000250: 3717 aebc 7969 903b a002 123b d14a 22bb
00000260: 2b02 043b 6093 70bc 595d 2c3b 1cc2 9fb7
00000270: 924b 1d3c 22e8 593c c00b d73b dfcb 2ebc
00000280: 22f7 8c3a ed5b 78ba d6bf 4abc 2a74 303c
00000290: 6bfa 723b e82d 42bb e6cc 43bc b467 1e3c
000002a0: b5a8 6e3c c843 6c3b 1db0 8abb 7394 35bb
000002b0: 8fd3 a5bc 2ae3 943b bf0d 69bc 414c f5bc
000002c0: f58b a8bd 469d 82bb 4f01 c93b e8fc 05bb
000002d0: bfe9 43bc 693a 6e3c 56ec 4bbc 9ff8 e93a
000002e0: 4b35 0ebc 269f e23b 534d 20bc 2d98 003a
000002f0: f9f9 64bb c3a1 89bb 57f4 25bc a710 0dbb
00000300: d7ff 7cba e35e 6ebc 86b3 b4bb d1ec 423b
00000310: 477d aa3c 035e 9aba 74cc 97bc 3e2f ddbb
00000320: 0511 ccba c1eb 83bc d155 23bc 4d65 42bd
00000330: db0b d0bd f2c9 66bc 9861 453a 127e 0fbc
00000340: 6a0b 88b9 9743 4a3c 3c09 273b bdf8 e53b
00000350: bfaf 37bc 9da1 993c 4cb9 d53b 6041 8fbc
00000360: c855 b9bc 06b3 ea3b 6b85 22bc 7229 04bc
00000370: 0c16 bb3b 89f0 91bb 9f0c f53c 1e8b d03b
00000380: 9867 93bb 9aa9 dbbb 3a6e 39bd dd98 2f3a
00000390: d214 cb3c 3c94 503c 11c7 963a 33cb 1d3d
000003a0: 2c40 033d d41f 39bc 4d0d 453c a7f1 f0bb
000003b0: db7a e63b 6cf1 323c ec14 9cbb 2e52 4e3b
000003c0: 2268 aabc 448b 283b a523 c63b 021a 0cbc
000003d0: ea6a b93b 5b07 91bc cf0a 09bc 8922 f7bc
000003e0: 4f07 333c 806a eb3b 009e 093c 4a58 debc
000003f0: b9f7 753c 4b36 1c3c de70 c43c f119 163b
0.008869992 -0.0027729487 -0.024099194 -0.0010656413 0.0010022554 -0.01087692 -0.0070914235 -0.03343238
-0.07658467 -0.00025313577 -0.017385367 0.016567744 0.0015960363 -0.008132255 0.0126241455 0.0124259135
-0.0034336753 0.010738411 0.012697643 0.008311222 -0.0073506027 -0.018211525 -0.012405509 -0.0077029746
0.0002579347 -0.0030153792 0.01836444 0.010539682 0.024957096 -0.0014957936 0.023221053 -0.0021978961
-0.011442812 -0.0068834107 -0.0056845592 -0.047714073 -0.07789499 -0.0055202497 0.001958608 0.019021949
-0.0024799295 -0.0019382584 0.014406079 0.0019625558 -0.0059421333 0.009801675 -0.018705668 0.0007139369
-0.0012299691 -0.0071396767 0.008486148 0.0037260791 0.008796522 -0.02025534 0.0070827724 0.01969582
0.003929995 -0.010776053 -0.0068327333 0.016592717 0.0056972117 0.016676417 0.019515067 -0.013988163
-0.0028355268 -0.0020987946 0.0161436 -0.014968458 -0.011123113 0.003923782 0.011350784 -0.00022452573
-0.006050268 -0.0044968016 0.0072630867 -0.013679587 0.000867108 0.006649284 0.0026003052 -0.007166629
-0.0023767008 0.007529554 -0.02852013 0.004195708 0.025604352 0.016671496 0.00021571183 0.004506184
-0.0022845967 -0.0030274238 0.01594824 -0.026659692 -0.06984504 0.0022322498 0.009774784 -0.0060527963
-0.003338342 -0.019999139 -0.0075083845 -0.008087013 -0.0020010702 0.000753802 0.002993875 0.014770378
-0.015510894 -0.005333707 0.011592255 -0.0036296886 0.0077908942 -0.011221054 -0.011762829 0.011150938
0.008056426 -0.021919806 0.004128294 -0.018510988 0.0010558363 0.0013846075 0.018212523 -0.034746755
-0.017364329 0.0038376178 0.02337571 -0.02357538 -0.005363819 -0.004732361 0.004854314 0.005279119
-0.011752401 -0.008691334 -0.006420249 0.0057925666 -0.020104466 0.022941533 -0.04071131 -0.010572859
-4.7094556e-05 0.010160211 -0.012671093 -0.018142324 0.00911243 -0.020063346 0.00032989908 -0.003857392
-0.0061083925 0.015896875 0.012174941 -0.0074736695 -0.021251304 0.0044071046 0.0022279397 -0.0024763832
0.0020142894 -0.014683574 0.0026300757 -1.9044666e-05 0.009600537 0.013299974 0.00656268 -0.010668724
0.0010754804 -0.0009474147 -0.012374839 0.010769883 0.003707553 -0.0029629413 -0.011950707 0.009668279
0.01456659 0.0036051143 -0.00423242 -0.002770689 -0.02024248 0.0045436816 -0.014224469 -0.029943587
-0.0822982 -0.0039860336 0.006134189 -0.0020444933 -0.011957585 0.014540293 -0.012446484 0.0017850584
-0.008679698 0.0069159446 -0.0097840605 0.00049054885 -0.0034939034 -0.0042001917 -0.010129056 -0.0021524818
-0.000965116 -0.01454899 -0.005514565 0.0029743204 0.02081169 -0.0011777285 -0.018530108 -0.0067500165
-0.0015569037 -0.016103627 -0.009969191 -0.04745989 -0.10158511 -0.014086233 0.0007529496 -0.008758085
-0.00025948446 0.012345216 0.0025487682 0.0070181773 -0.011211335 0.018753821 0.0065223332 -0.017487228
-0.022623911 0.0071624545 -0.009919505 -0.008066522 0.0057094153 -0.004453723 0.029913245 0.0063642403
-0.0044984333 -0.0067035677 -0.045271136 0.00066984986 0.024790201 0.012730654 0.0011503418 0.038523864
0.03204362 -0.011299092 0.012027097 -0.007353026 0.0070336885 0.010921817 -0.0047632363 0.0031482088
-0.020801608 0.0025717774 0.0060467296 -0.008551123 0.005658497 -0.017703703 -0.008364393 -0.030167835
0.0109270355 0.0071843266 0.008399487 -0.027141709 0.015012675 0.009534429 0.0239796 0.0022903646

model.tcn.0.downsample.bias f4 [25]
00000000: ce10 5cbd 2bcd 0f3e 56df 1d3d e490 473d
00000010: 4046 223d af68 383d 4d92 fdbd 9fa8 c0bc
00000020: a1f7 08bd ecdf 78bd fc1d ecbd 2dc1 96bc
00000030: 12ab 26ba 4923 69bd cbc3 0bbd bb92 42bd
00000040: aa55 88bc 3e4b 1cbe 8cbb 233e 2d75 d4bd
00000050: 3fd1 d33d 99f9 26be 3a62 19bb 20a7 57bc
00000060: 95b1 1abe
-0.053726964 0.14043109 0.038543068 0.048722163 0.039617777 0.04502171 -0.1238142 -0.023517905
-0.033439282 -0.060760424 -0.115291566 -0.01840266 -0.0006357889 -0.056918416 -0.03412227 -0.047503214
-0.01664241 -0.15263078 0.15989512 -0.10373912 0.10342645 -0.16306151 -0.0023404495 -0.013162404
-0.15106805

model.tcn.1.conv1.bias f4 [25]
00000000: 6401 33bd 0c61 b5bc ff8c 3fbd 4cfb 473d
00000010: 59cd 82bd 7c8c 81bd e3f7 6f3d dd26 72bd
00000020: ae7e 3cbc 354c acbc b284 2e3d 75e4 963d
00000030: 12a3 2cbd eb17 59bd f7b2 103d 1acc 083d
00000040: 1843 2e3d df6e 2a3d bfb9 43bd 9f2e a53c
00000050: 1834 0fbd 0b89 443d 0481 ce3c 91bd 483d
00000060: 188f bfbc
-0.043702498 -0.022141002 -0.046765324 0.04882364 -0.06386823 -0.063256234 0.058586013 -0.059119094
-0.011504812 -0.021032432 0.042607017 0.073677935 -0.042147703 -0.053001326 0.035326924 0.03339777
0.042544454 0.04160964 -0.047784563 0.020163832 -0.03496179 0.047982257 0.025208004 0.04900891
-0.023383662

model.tcn.1.conv1.weight_g f4 [25, 1, 1]
00000000: ccbc 143f 998c 0b3f b888 113f 3a9a 163f
00000010: cd33 153f 96d0 103f 0ef9 1c3f f61f 193f
00000020: d7c8 223f 0e37 113f 14e1 193f 7366 153f
00000030: 5341 1b3f 6593 143f 8aa4 1e3f 77c7 183f
00000040: 3f19 183f ca7d 0d3f 30e1 173f d93f 163f
00000050: 62e7 133f 8342 153f a6a4 1e3f b6eb 1a3f
00000060: 17a5 123f
0.5810058 0.5451141 0.5684924 0.5882908 0.58282167 0.56568277 0.6131753 0.59814394
0.6358771 0.5672463 0.60109067 0.5835945 0.6064655 0.58037406 0.61969817 0.5967936
0.5941352 0.55270064 0.59327984 0.58691174 0.5777494 0.58304614 0.61969984 0.60515916
0.5728316

model.tcn.1.conv1.weight_v f4 [25, 25, 7]
00000000: 25ee 573d aee0 da3c 75cf 383c 41af 1e3d
00000010: 1f2c f83c a4fe e4bb c0a3 08bd 6055 f1bc
00000020: c2e6 eb3c 540c d7bc 7140 083d ea9b fbbc
00000030: 6460 36bd 2569 9a3d 7a46 35bd 7eae c13c
00000040: af8c 803d 770b 163c 8c8f 523d 0abb 42bc
00000050: c860 66bd e459 10bd eeaa b9bc 568e 2bbd
00000060: c50f 2bbd fa51 1b3d c195 a83d d362 923d
00000070: 4df4 ff3c 2e7b 56bd 2604 69bb edb4 223d
00000080: 99e7 a33d aed6 bcbc 0f92 8d3d 5576 2e3d
00000090: 5585 63bc 1050 84bd 3a30 1e3d 45c3 353d
000000a0: 6aac 54bd 10e2 903d 2ddc 15bb 335c 53bd
000000b0: 9838 193c c127 363d 99e3 533c c2ab 28bd
000000c0: da7b 6fbc 6fd2 193d 1446 013d 7222 3a3d
000000d0: c3c0 113d 93bb 773d 8007 a03b f0fc 9f3d
000000e0: 8391 293c e16e 583b 5d05 6c3d 035a c6bc
000000f0: 99d8 343d 37e0 dfbc 0e3e 273d 0860 2ebc
00000100: 6daa 423d 96d0 a7bc 6b6e 353c 48e5 8d3d
00000110: 1e0b 2d3c 9753 a43c 01aa 0cbd 529e 353d
00000120: c628 083d 456b 88bc a474 87bc 86ca 9b3d
00000130: b2c0 893d 2177 6e3d 02cf 1cbd 3254 d7bc
00000140: 75d3 37bd d28b 43bd c855 983b ec50 923c
00000150: 68c6 0fbd c23d a9bc 02ff c83b 1f02 14bc
00000160: 71ed 46bd a2de 923d b3ff 4bbb 3b3c 983c
00000170: 74be 1f3d fc0c 70bd 76ac 083b c336 2ebd
00000180: bed6 b33d 0c6a b7bb 8aa7 463d 9fdf a73b
00000190: c6a8 e9bc d354 073d aa41 52bd 0b96 64bc
000001a0: 8b77 423c fd0b 943d eae1 74bd 5256 093d
000001b0: e005 a53d 3f93 65bb da3d b5bc 74dd c9bc
000001c0: fb7c 85bc 763a 553d 43e9 39bd 861e 8c3d
000001d0: 5a3b 55bd 85a1 933d 15ba b73c 0783 9abc
000001e0: 92d1 65bd d66f 0abd 6025 31bd 2d1b 79bd
000001f0: c4e6 b5bc f70a 323d 675e 7cbd 0eaa 803d
00000200: 03ea c83c 0a0c 433d 8cb5 f2ba 6639 e4bc
00000210: 5da4 3c3d d9a9 2b3d 6ebe 8b3c 4f0a f73c
00000220: d448 883d cab7 953c 3bcc c3bc 7510 323d
00000230: 420e 28bd 8e40 773d 2b44 413c a4ca 0f3d
00000240: 179a 6e3c a9f6 8d3d 1b55 4c3d 74aa 4a3d
00000250: fd16 0dbd c0b8 673c 42ab 593d 428d 6c3d
00000260: aeae 67bc ca06 9b3d b7cd 81bd cb1d 5a3d
00000270: e965 c3bc ae14 31bd fc22 903d 6aad 9a3c
00000280: a25b eeba 3fe4 1d3d 5621 583d e00a 2f3c
00000290: c880 49bd 8095 d4bc ab78 edbc c392 483d
000002a0: 7b08 86bd ae61 10bd 9427 89bd 04a3 a53b
000002b0: e821 6c3d 77fe e93c aaae cf3c b43d 0e3d
000002c0: 38f4 44bd 6b99 89bc 96f5 613d 7200 74bd
000002d0: 8559 8fbd f02f b1bc 164c 86bd 050b 5ebc
000002e0: 67bf 553d 8aba e23a 9b05 bb3c c134 6b3c
000002f0: 983e 3ebd 33e4 11bd 7faa 283c 4b9d 893d
00000300: 19cb 55bd 3518 503d 8181 30bd ca01 7cbd
00000310: 8722 843c 1373 653d 93d0 753c 06ca 483d
00000320: 2fef 143c 9f64 cbbb 36eb b73c 8f1a b23c
00000330: 1462 88bc 2fcd a03c f5b1 d63b f555 86bd
00000340: 8e9d 683d a26b 8abd 3e7d c83c d21e 6ebd
00000350: 80eb 5cbc d70b 103d 8401 e63c 7b06 6d3d
00000360: 2665 d0bc bb56 9b3c 0de0 e63c 9f39 8abd
00000370: f837 28bd 37dd 0f3d 951a 2f3c c6a4 24bc
00000380: f3e3 93bc 33f5 fd3c 290d 603d e836 703d
00000390: dea3 3c3d e7f9 ca3c 6005 5ebd 4a9d 3e3d
000003a0: 02b3 f5bc 68c2 403d 473b 48bd 2c04 f13c
000003b0: c57c d93a 6295 703d 6520 ee3b 1a15 0b3d
000003c0: 4665 8fbd 7216 a03c 4924 93bd 6fb8 87bd
000003d0: 8fde 93bd eaf4 57bd 68bb febc 40b1 7c3c
000003e0: 8a87 e83b b915 b2bc 0653 c43c 99e3 88bd
000003f0: 751c 8a3d da08 22bd b4a6 f4bc d563 6d3b
0.052717347 0.026718464 0.01127993 0.038741354 0.030294476 -0.0069883633 -0.03335929 -0.029459655
0.028796557 -0.026250996 0.03326458 -0.030713994 -0.04452552 0.07539586 -0.044256665 0.023642775
0.06276833 0.009158007 0.05140643 -0.011885414 -0.05624464 -0.035241976 -0.022664513 -0.04188379
-0.041763086 0.037919976 0.08231688 0.071477555 0.031244421 -0.052363567 -0.0035555451 0.039723326
0.08003158 -0.023051586 0.06912624 0.04259332 -0.013886769 -0.06460583 0.03862021 0.044375677
-0.05192224 0.07074368 -0.002286683 -0.0516016 0.009351872 0.044471506 0.0129326815 -0.041179426
-0.014616931 0.0375542 0.031560972 0.045443006 0.035584223 0.06048162 0.0048837066 0.07811916
0.010349634 0.0033025073 0.057622302 -0.024212843 0.044151876 -0.027328594 0.040830664 -0.010643013
0.047525812 -0.020485204 0.011073689 0.069284976 0.010561733 0.02005939 -0.034341816 0.04434044
0.03324201 -0.016652713 -0.01653511 0.07606988 0.06726207 0.05821908 -0.038283356 -0.026285265
-0.044879396 -0.047740765 0.004648898 0.017860852 -0.035101324 -0.020659331 0.006133915 -0.009033709
-0.048566286 0.0717137 -0.003112775 0.018583408 0.03899999 -0.058606133 0.0020854748 -0.042532694
0.08781193 -0.0055973586 0.04849962 0.0051230933 -0.02852286 0.03303988 -0.051332153 -0.013951789
0.011869322 0.07228849 -0.05978576 0.033529587 0.08057761 -0.0035030392 -0.02212422 -0.02464173
-0.016294947 0.052057706 -0.04538847 0.068417594 -0.052058555 0.07208542 0.022427598 -0.018861307
-0.056108065 -0.03379806 -0.043248534 -0.060816932 -0.022204764 0.04346749 -0.061613467 0.06282435
0.024525648 0.047618903 -0.001851724 -0.027859401 0.046055187 0.041910026 0.017058577 0.030156283
0.06654516 0.018276114 -0.023901096 0.043472726 -0.041029222 0.0603643 0.011796038 0.035105363
0.014563105 0.06931812 0.04988585 0.049478963 -0.03444575 0.014143169 0.05314184 0.0577519
-0.014140768 0.07569654 -0.06338065 0.05325107 -0.023852305 -0.043232612 0.07037923 0.018881518
-0.0018185268 0.03854775 0.052766167 0.010683745 -0.04919508 -0.025950193 -0.028988203 0.048968088
-0.06544586 -0.035249405 -0.06697002 0.0050548334 0.057649523 0.028563721 0.025351841 0.034726813
-0.048084468 -0.016796788 0.05516585 -0.059570737 -0.06999496 -0.021629304 -0.06557481 -0.013552432
0.05218449 0.0017298025 0.022829821 0.014355839 -0.046446413 -0.03561802 0.010294556 0.067194544
-0.052195642 0.050804336 -0.043092255 -0.061525144 0.016129745 0.056017946 0.015003341 0.04902079
0.009090229 -0.0062070633 0.022451025 0.02174118 -0.01664833 0.01962909 0.006551976 -0.06559364
0.05679088 -0.067588106 0.024473783 -0.05813486 -0.013483882 0.03516754 0.028076895 0.05786751
-0.025438856 0.018962255 0.028183008 -0.067492716 -0.041069 0.035123076 0.01068749 -0.010049051
-0.01805303 0.03100071 0.05470005 0.058646113 0.046054713 0.024777366 -0.054204345 0.04653672
-0.029992584 0.0470604 -0.048884656 0.029420935 0.001659297 0.058736213 0.0072670453 0.03395567
-0.07001738 0.019541953 -0.07184655 -0.06626975 -0.07220184 -0.052723803 -0.031095222 0.015423119
0.0070962356 -0.021738874 0.02396537 -0.06684036 0.06743709 -0.039559223 -0.029864646 0.0036222835

model.tcn.1.conv2.bias f4 [25]
00000000: 9d8b eabc a65a e53c feef f9bc 4e58 49bd
00000010: 1194 bf3a fcc0 e73b 8b3a 8f3d c5c4 1a3d
00000020: d4ca e0bc 5793 48bd a085 203d 10e0 183d
00000030: ac26 803c 9b75 143b 7acf b5bc 9a56 3dbd
00000040: d06d bfbb 6c16 7cbd ec9b 1f3c 739e 093a
00000050: 8380 fdbc 470c eb3c a5ac 4a3d 15b1 68bd
00000060: 322c 913c
-0.028631026 0.027997326 -0.030509945 -0.04915648 0.0014616271 0.007072566 0.06993588 0.03778531
-0.027440466 -0.04896864 0.039189935 0.037323058 0.01564344 0.0022653106 -0.02219366 -0.046225168
-0.005841948 -0.06154482 0.0097417645 0.0005249746 -0.030945068 0.028692378 0.049481053 -0.056809504
0.01772127

model.tcn.1.conv2.weight_g f4 [25, 1, 1]
00000000: 072f 143f c80f 163f f72c 0f3f 7504 1a3f
00000010: 0282 153f eeeb 153f 79a9 133f 133e 0e3f
00000020: b185 0c3f 9d45 0c3f a98a 173f be1f 0e3f
00000030: 9e12 133f 6b69 143f ad07 113f 742f 123f
00000040: 3b78 1c3f 828f 0b3f 15f9 143f 9851 153f
00000050: 3e23 193f 65b7 0b3f 759b 153f 8750 213f
00000060: 4ae5 163f
0.5788426 0.5861783 0.55927986 0.6016305 0.584015 0.58563125 0.5768047 0.5556347
0.54891497 0.5479372 0.59195954 0.55517185 0.5745028 0.57973355 0.5665234 0.5710366
0.6112096 0.5451585 0.5819257 0.5832763 0.598194 0.5457671 0.58440334 0.630135
0.5894362
