etc/ckpts/participants/661_test_30_all/sigmoid/TCN/epochs/TCN-chpkt-pecanstreet-participant-id-661_test_30_all_epoch=032.ckpt (torch, 937927 bytes, 201 tensors)

model.tcn.0.conv1.bias f4 [25]
00000000: f51a 1c3d cbbe ffbc d9cc fe3c bc72 b43c
00000010: 6ac6 7dbd 33db 21bd 2ec6 4bbd d519 4d3d
00000020: 0707 8d3c 7dd6 3c3c c6ce 37bd f5ae 89bd
00000030: 5609 99bc 52e9 41bd ab93 83bd 4fe4 4cbd
00000040: 707a 35bd 8085 86bd 095a 003d d443 143d
00000050: 1eb9 213d 1705 93bd a4ab 5d3d 3a44 e53c
00000060: ef20 253d
0.038111646 -0.031218907 0.031103538 0.022027366 -0.0619568 -0.039515685 -0.049749546 0.050073463
0.017215265 0.011525747 -0.04487493 -0.067228235 -0.01868121 -0.047341652 -0.0642465 -0.05002242
-0.04430622 -0.06568432 0.031335864 0.0361975 0.039483182 -0.07178705 0.054118767 0.027986635
0.04031461

model.tcn.0.conv1.weight_g f4 [25, 1, 1]
00000000: 8111 183f d17e 123f ef26 1b3f b41c 1f3f
00000010: 1784 133f b753 113f 48ad 1c3f e257 173f
00000020: 33ba 0d3f 3159 133f 23e6 123f f1c4 0d3f
00000030: 2896 153f c1a7 163f 14af 093f 5dbc 0f3f
00000040: 2f4c 183f e388 0e3f 74a6 173f 5bed 103f
00000050: 27e5 1a3f 0c04 0e3f 4fe7 143f acbd 153f
00000060: 1ef4 133f
0.5940171 0.57224756 0.6060628 0.6215317 0.5762343 0.56768364 0.61201906 0.59118474
0.5536224 0.5755797 0.5738241 0.55378634 0.58432245 0.5884972 0.53782773 0.56146795
0.59491247 0.5567762 0.5923836 0.56612176 0.6050591 0.55474925 0.5816545 0.5849254
0.5779437

model.tcn.0.conv1.weight_v f4 [25, 28, 7]
00000000: 2f96 493c c14a 4d3d 2c05 2bbd 82f1 0dbd
00000010: 2784 1cbc e030 153d 2ee8 973c aba1 4a3d
00000020: 5b34 31bc d633 503c a01f d8bc c876 9ebc
00000030: 778d 91bd 9cda 53bd f2fb b8bc 4ed7 aa3b
00000040: fd45 dd3c 7982 243d 7de9 23bd ef68 c8bc
00000050: 3346 c43c 38a5 6b3d 9db3 63bc 4773 563d
00000060: 649b 27bc dea1 073c 1eb9 823d 627f 80bd
00000070: 9bf2 1dbd ed02 58bc 32e0 bbbc 7622 803d
00000080: 2e9c 29bd 3ffb ebbc 4f1c 3abd 94ed 81bd
00000090: d8ad 21bd f37b 733d eba7 fe3c 8f34 0a3d
000000a0: ce23 843b c7db 0dbd 4bd7 753c 233b 76bd
000000b0: 9772 39bd 7905 fdbc 823e 423d 1e26 373d
000000c0: e44f cfbc 9b0f 83bc 7c45 aebb 8c97 f9bb
000000d0: 1ac5 8abc d4ac 1fbd 2ba7 b1bc 851d 95bd
000000e0: 8bc1 37bc b108 adbd 527c afbd a588 a2bd
000000f0: 3624 9bbc 6e0f 09bd 2a1c 04be 0966 e73c
00000100: 660d 373d d11c 4fba d0b4 243c 1417 bb3c
00000110: 2bff 453d 8c4d 913d 32ab 4bbd 2046 babc
00000120: 8d1e e93c 59ae 6c3d 21ae 773d bcfa 793d
00000130: 70a8 713c bfe6 8bbd 8da5 54ba f4ed 4dbd
00000140: 8314 92bd f68d 643d e4e7 403d be22 99bd
00000150: 8acc 2e3c 1ae6 60bc 1b73 5cbc 9602 0abd
00000160: adac c63c 4354 30bd 9e23 bc3c e467 073d
00000170: 4059 413d b28c c53c 4263 8abd 51de 37bd
00000180: dcf2 023d f882 4c3c dd84 62bd c763 29bd
00000190: 9ea0 803d 272d 373d 733e 00bd c6f2 97bc
000001a0: f146 88bd 2167 aa3b 9486 3bbd 13e5 41bd
000001b0: 4115 d03a 3484 7d3c da12 c0bc e434 3a3d
000001c0: 0325 1fbd fe30 7f3d 57b6 413d 2d78 60bd
000001d0: fb5b 76bc 9385 903b 0ff9 353c 2be4 a23c
000001e0: f413 f73c 00bb 053c 4df4 e6bc 6fd4 123d
000001f0: bea5 74bd 8d3d 10bd cc65 6dbc c72e fabc
00000200: 6970 b0bc cc99 59bd 734a 4cbc 4183 813c
00000210: 97f8 2dbd cbaf c7bb 57cb 3d3d 9bb2 10bc
00000220: 651b f039 e397 debb 735e 573c 2513 313d
00000230: 78d7 813d 4d21 2c3d 0c8c 823d 5344 d9bb
00000240: 210e 82bd 3ec0 0bbd 7dd5 3c3d b506 023b
00000250: 80a2 05bd 8271 53bd 7b07 83bd 3c23 6dbd
00000260: 0f9b 62bc 20f2 1b3d f2ca 043d fd76 93bd
00000270: 4a35 203d 3980 6ebd 3308 97bc 7f29 01bd
00000280: 2d40 84bc 628c 7ebc e781 81bd 659e 78bd
00000290: cb3f 48bc b400 0aba 3882 03bd 277f cb3c
000002a0: 70d4 62bd 6f5a ce36 c1fc 803d 3171 b9bc
000002b0: e281 843d daa6 e93c 3292 64bd d45f 2f3d
000002c0: 6e6c 14bc 5b9b 03bd a108 5b3d 75e9 6abd
000002d0: 59aa ba3b ab1f 87bc 2c31 483d f86a a33c
000002e0: 283b 0c3d cfb9 d53c 68ef 65bc 53ec 3cbc
000002f0: 28b7 58bd 86da 273d e9e9 6e3d 8133 523d
00000300: 4481 29bd 60ed 1a3c 7c08 25bd a9a3 f0bc
00000310: 4ce7 35bd 0484 c13c b27d 35bd f6e9 4ebb
00000320: ba28 803b 2d60 3f3d fd0f 4abd 6fa2 47bd
00000330: 2d27 2bbd 383d 4c3d 9a35 dabc 7af0 673d
00000340: aad0 bb3c 38ba cb3b 059a 1abb 7a2a 72bc
00000350: 1fea 253c 3c0d 7cbc a746 493b c9f4 533c
00000360: 016d 44bd 0c91 0ebd df4a 703d 24fe 5abd
00000370: 46ae 51bb 3d2c 943d 144b f53c 4302 063c
00000380: f1de 56bd 70e7 343d 6e5c 2fbd 2ece 57bc
00000390: d5a2 70bc b9f2 efba 0b98 083c 1923 723d
000003a0: 5565 3d3c e66d 833d 960e 383d 36cd 21bd
000003b0: c5f6 0b3d b13a 37bd 94b0 e7bc 256a b83c
000003c0: f22d d13c 2f9f 5b3d d0b7 8bbc 2c2b 9b3b
000003d0: 4174 233d 1b5a a7bd 6fd9 ed3c b803 a1bd
000003e0: 2a83 40bc 20e5 3ebd b364 71bd 34e7 1fbd
000003f0: fd26 613d 8c7e e4bc 9994 62bd 2a80 2fbd
0.012303873 0.05012012 -0.04175298 -0.034654148 -0.009552992 0.036423564 0.01854333 0.049470585
-0.010815705 0.012707671 -0.026382267 -0.019343749 -0.071070604 -0.051722154 -0.022581074 0.0052136546
0.027010912 0.04016349 -0.040017594 -0.024464099 0.023959255 0.05753061 -0.013897804 0.05235603
-0.010229919 0.008278338 0.063829646 -0.06274296 -0.038561445 -0.013184291 -0.022934053 0.06256573
-0.04140871 -0.028806327 -0.045437153 -0.063441426 -0.03947243 0.05944438 0.031085929 0.03374153
0.0040325886 -0.034633424 0.015004943 -0.06011499 -0.045275297 -0.030886399 0.047422893 0.044714086
-0.02530665 -0.015998652 -0.005318342 -0.0076169427 -0.016939688 -0.03898318 -0.021686157 -0.07281021
-0.011215578 -0.084489234 -0.08568634 -0.07936219 -0.018938165 -0.03346198 -0.12901369 0.028246896
0.044690512 -0.00079007173 0.010052875 0.022838153 0.04833905 0.07094869 -0.04972381 -0.022738516
0.02845695 0.05778346 0.060468797 0.061030135 0.014749631 -0.06831121 -0.0008111827 -0.050275758
-0.071328185 0.055799447 0.047096148 -0.0747733 0.010668883 -0.0137267355 -0.013455178 -0.033693872
0.02425226 -0.04304911 0.022966202 0.033058062 0.047204256 0.02411494 -0.06757213 -0.04488975
0.03196989 0.012482397 -0.05530249 -0.04135492 0.06280635 0.044720795 -0.031309556 -0.01854838
-0.06654156 0.005200282 -0.04578264 -0.047337603 0.0015875475 0.015473414 -0.02344649 0.045460597
-0.038853657 0.062302582 0.047293033 -0.05480211 -0.015036578 0.0044104545 0.0111067435 0.01988419
0.030160882 0.00816226 -0.028192664 0.035847124 -0.059728377 -0.03521495 -0.014489602 -0.030539883
-0.021537976 -0.053125188 -0.012468922 0.015809657 -0.042473402 -0.006093954 0.046336498 -0.008831645
0.00045796778 -0.0067930087 0.013145077 0.04323115 0.063399255 0.042023946 0.06374368 -0.0066304593
-0.06350351 -0.034118883 0.046102036 0.0019840423 -0.032625675 -0.05162192 -0.06397911 -0.05789493
-0.013830914 0.038072705 0.032420106 -0.072004296 0.03911332 -0.05822775 -0.018436527 -0.031533714
-0.016143883 -0.0155364 -0.06323605 -0.06069793 -0.012222241 -0.0005264387 -0.03210661 0.024840904
-0.055378377 6.1498063e-06 0.06298209 -0.022636982 0.06470086 0.028521944 -0.055803485 0.042816
-0.009059055 -0.03213058 0.053475026 -0.05735155 0.0056965766 -0.016494593 0.04887502 0.019948468
0.034236103 0.026089577 -0.01403413 -0.011530953 -0.052909046 0.040979885 0.058328543 0.05131865
-0.041383043 0.009456009 -0.040291294 -0.029374914 -0.044410035 0.02362252 -0.044309326 -0.0031572557
0.003911105 0.04672258 -0.049331654 -0.048738893 -0.041785408 0.04986307 -0.026636887 0.05662582
0.022926647 0.0062172674 -0.0023590338 -0.014780635 0.01012662 -0.015384015 0.0030712278 0.012936779
-0.047955517 -0.034806296 0.058665153 -0.053465024 -0.0031994744 0.07235 0.029943027 0.00817925
-0.052458707 0.04416603 -0.042812757 -0.013171716 -0.01468726 -0.001830659 0.008337031 0.059115503
0.011559804 0.06417446 0.044935785 -0.039502345 0.034170885 -0.044733707 -0.028282441 0.022511551
0.025534604 0.053618606 -0.017055422 0.004735371 0.03990579 -0.08171483 0.029034344 -0.078620374
-0.011750022 -0.04660523 -0.058933925 -0.03903885 0.054968823 -0.027892374 -0.055317495 -0.042846836

model.tcn.0.conv2.bias f4 [25]
00000000: e6b7 a1bc d4a1 443a 2389 64bc 70e7 5a3d
00000010: bbdd 643d f633 193d 3abe cc3b 9779 03bd
00000020: 5e40 433c cff2 60bd 7b51 af3b cf51 9c3d
00000030: 4580 8fbb 9d9f 9b3d ca81 f6bc 842d 8f3d
00000040: 170a 323d 7662 13bd 439c 93bd 5dc4 1cbd
00000050: f09d 313d a9df 983d f993 4fbd 7f39 eabc
00000060: 5f3f 163d
-0.01974101 0.0007500921 -0.013948712 0.053443372 0.05587552 0.03740307 0.0062482627 -0.03209838
0.011917202 -0.05491906 0.0053502894 0.07632791 -0.0043793046 0.07598803 -0.030091185 0.06991103
0.043466654 -0.03598257 -0.07207539 -0.038273204 0.04336351 0.07464535 -0.050678227 -0.02859187
0.03668153

model.tcn.0.conv2.weight_g f4 [25, 1, 1]
00000000: bda9 173f 307b 173f 7974 0d3f 65df 1a3f
00000010: 5948 153f 3286 0b3f 6820 1b3f e9f2 1e3f
00000020: b095 163f 90cd 1b3f a26f 113f cdff 163f
00000030: ebeb 0b3f eb54 143f 7a18 233f 9537 153f
00000040: 771e 1a3f 3c04 123f 5fd3 133f 70ba 103f
00000050: 5454 193f feda 123f 14db 1f3f daf2 153f
00000060: bfda 113f
0.59243375 0.59172344 0.5525585 0.60497123 0.5831352 0.5450164 0.60596323 0.620894
0.58822155 0.6086054 0.56810963 0.5898407 0.5465686 0.57942075 0.63709223 0.58287936
0.60202736 0.5703771 0.577444 0.5653448 0.598943 0.57365406 0.6244366 0.5857369
0.56974405

model.tcn.0.conv2.weight_v f4 [25, 25, 7]
00000000: ac3c 26bc 612f 343d 792a 75bd dda5 163d
00000010: 63a3 943d b467 433d 74e6 53bd dd18 0abc
00000020: c2d4 3e3b cfe1 1f3d 14e3 53bc fcdc 943c
00000030: 3ac1 0ebc 62fe cc3b d7e9 253a 16d9 1dbd
00000040: 11e6 3dbd cebf 823d d5e4 873d 02a6 b03b
00000050: ed80 943d f6e9 7c3d 7f78 0cbd 6b41 88bc
00000060: 6234 17bd d0c8 143d 0daf 913c 5bc0 023c
00000070: 07f8 4f3d d4ed 85bc 94eb e0bc e6f5 22bd
00000080: 46c8 cabc 5086 853d dbb5 b7bc 3819 63bc
00000090: d88d 1a3d 4b3a 51bd fd4b 27bd 4a13 603d
000000a0: 35cf dcbc 0449 1cbd 4143 afbb cafd bebb
000000b0: bcab 7e3c c1d7 e53c ae65 43bd 83f7 853d
000000c0: a5a4 74bd c0c4 013d a80a 45bc e68c afbc
000000d0: 498d a03d 7e71 6ebd 9341 a53c e70b 853d
000000e0: 7a5f 7a3d e46f 45bd fb53 423c 38e0 853d
000000f0: 4248 7cbd 56de 623c 835c 26bd c1ec ae3c
00000100: 3676 5fbd 56f5 3d3d ddff 4cbb e559 6a3d
00000110: 865a 783c c895 063c ac36 cebb 1997 5ebd
00000120: 2077 92bc 67a7 863c 9dd5 24bd d6e4 a33d
00000130: 01fe dabc 15a1 c4bc b68e 40bc d58a 50bd
00000140: 0ab6 2dbc 7af2 f2bc b530 5abd 8d40 39bc
00000150: 6f98 6b3d 7bcd 8c3c 5712 603d 11ad 913b
00000160: dbf1 7cbc 6739 673d da2e d5bc 977c 70bd
00000170: a47b c93c 1d05 3d3d 34e9 fcbc 5237 273d
00000180: df95 04bc 6cf4 4e3c b5c0 01b9 98cb c339
00000190: 3bd6 33bd 014a 983c 0fc5 1ebb 260f 533d
000001a0: ce1b 793c d090 4cbd 972e 39bd 4edc d6bc
000001b0: 2cd4 363d 0333 02bd 5cde 7bbc ffb4 063d
000001c0: 82fb f2bc b336 5abc 0f7a 8d3d 6dd9 81bc
000001d0: 03dc 10ba 8c7d 723d 73f9 053d e77a 493d
000001e0: 1bf7 85bd 4d7c f03c 9fac 80bc e26f 4cbd
000001f0: 2baf 11bd b4f1 96bd e325 533d 4036 31bc
00000200: 2f10 8abd 3b01 893d 3028 5b3d 292a 1e3d
00000210: f468 a93d 17b2 983d 2cf4 9e3d e329 9b3d
00000220: 3045 913d 0fbc 003d 74b6 f03b 005d 973c
00000230: 450e 92bc 5ffa 433d 2ae0 8a3c ba96 0b3d
00000240: 664a f2bc c2e5 f1bb 95e6 a53d 2036 b838
00000250: f941 5d3c ddb5 89bd abcd 1ebd 837a 79bc
00000260: 3d35 bbbc b7e7 8c3c d76a 5ebc 9511 8d3d
00000270: d18a 5bbb e7d4 283d aa5e 1abd 81a8 f43c
00000280: 2040 59bd 8cf2 4cbd eeba 07bd 9c09 173d
00000290: 473f bd3c a71a d73c 1c71 4f3c be04 b33d
000002a0: a4c7 a13d 8f79 273d 5c08 8d3d ef21 123c
000002b0: f65e 56bc f8d5 fb3c 68c3 8b3d ae93 fdba
000002c0: 4fc6 3cbd 8ada 123d 008b b8bb 09a2 a7bc
000002d0: 1f14 843d 69bd 913c 485e e8bc 6406 f4bc
000002e0: 6eb8 863d 038e 423d 56d2 13bd 31b2 653c
000002f0: b341 703c 6dc7 153d ae0c 6ebd 6941 a83b
00000300: 0308 ee3c 725e 303d 85a9 7d3c 554a d8bc
00000310: b7e7 73bd 6485 3e3d 9015 963d e572 19bc
00000320: 8d95 51bd 3a41 0f3d 7256 0bbd 9371 17bd
00000330: 2141 a63c 46e8 b23a 8d09 503b 1d30 763d
00000340: 58d8 7ebb 2897 2d3d 4c21 a2bc c95c 603d
00000350: f00b bb3c 8dac 813d 5ea9 c03c 5cd4 e4bc
00000360: 72cf dc3c 4b87 7c3d e1b2 973c c138 173d
00000370: 825b 2bbd eb5e 323d 1314 6ebd 4593 8b3d
00000380: 3953 0c3d 84c1 253c 6550 7bbd 885b 973d
00000390: dd3d 653d c9cc a23d 12c9 313d 72f5 843c
000003a0: 1dea a0bc bab6 f5bc a292 893c bd7b 4c3c
000003b0: 3336 35bc 0e4f ebba 7727 003d fc7d 79bd
000003c0: e03e 5dbd e4e1 04bc f8c7 763d 9e8e 473d
000003d0: 86a8 59bd 5c21 5abc 0dd5 c83a e338 093d
000003e0: b392 8e3d ddb8 803c 1bed 24bd 24c7 c33c
000003f0: 60eb edbc 4efb 2cbd bdbb 2c3c c2cf 99bc
-0.010146301 0.043990497 -0.05985496 0.036779273 0.07257726 0.04770632 -0.05173345 -0.008428779
0.0029118513 0.039033707 -0.012932558 0.01817178 -0.008713061 0.0062559107 0.00063290953 -0.038537107
-0.046361987 0.0638424 0.06635443 0.0053908834 0.07251153 0.06174656 -0.0342946 -0.016632756
-0.03691519 0.036324322 0.017783666 0.007980431 0.050773647 -0.016348757 -0.027456082 -0.03978529
-0.024753701 0.06519759 -0.022425583 -0.013860993 0.03773293 -0.051080983 -0.040843952 0.054705895
-0.026954273 -0.03815557 -0.0053485935 -0.005828594 0.015543874 0.028056981 -0.04770439 0.0654135
-0.05972733 0.031681776 -0.012026466 -0.02142949 0.07839448 -0.058213703 0.02017287 0.06496411
0.06112621 -0.04820241 0.011860843 0.06536907 -0.061592348 0.013846954 -0.04061557 0.021353127
-0.054556094 0.04637655 -0.0031280436 0.057214636 0.015158301 0.008214422 -0.0062931385 -0.054343317
-0.017879069 0.016437246 -0.04024278 0.08002631 -0.026732447 -0.024002591 -0.011752775 -0.05091365
-0.0106024835 -0.029656637 -0.053269107 -0.011306894 0.05751842 0.017187824 0.05470499 0.00444568
-0.015438522 0.056451228 -0.026023317 -0.058712568 0.02459509 0.046147455 -0.030872919 0.040824242
-0.008092373 0.012631517 -0.00012374188 0.00037344988 -0.043905478 0.018589975 -0.0024226343 0.05152812
0.015204383 -0.04994279 -0.045210447 -0.026228096 0.044635937 -0.03178693 -0.015372839 0.032887455
-0.029660944 -0.013318705 0.069080465 -0.015850747 -0.00055259484 0.059201762 0.032708596 0.049189474
-0.06541272 0.029356146 -0.015707312 -0.049911387 -0.035567444 -0.0737032 0.051549803 -0.010816157
-0.06741368 0.06689688 0.053505123 0.038614426 0.08271971 0.07455843 0.07761416 0.07576349
0.070932746 0.031429347 0.007345969 0.018476963 -0.01782907 0.047846194 0.016952593 0.03407929
-0.029576492 -0.0073821256 0.08100621 8.783885e-05 0.013504499 -0.06724141 -0.03877036 -0.015226963
-0.022852534 0.017200334 -0.013575277 0.06888119 -0.003349949 0.041218664 -0.037687935 0.029865505
-0.05303967 -0.050036 -0.033137254 0.0368744 0.023101462 0.026257826 0.012661245 0.08741139
0.078994066 0.04088741 0.0688636 0.008919223 -0.013084164 0.030741677 0.0682438 -0.001934638
-0.04608756 0.035852946 -0.0056318045 -0.020463007 0.0644915 0.017790513 -0.02836527 -0.029788204
0.06578146 0.047498714 -0.036089264 0.014019535 0.014664101 0.03656714 -0.05811756 0.0051347506
0.029056555 0.04305882 0.015482311 -0.026402632 -0.059547152 0.04651393 0.073283315 -0.009365772
-0.051168013 0.034974314 -0.034017988 -0.036973547 0.020294728 0.0013649545 0.0031743974 0.06010448
-0.0038886275 0.042380482 -0.019791268 0.054775987 0.02283284 0.063317396 0.02351826 -0.027933292
0.026954386 0.061652463 0.018517913 0.03691936 -0.041835316 0.043547552 -0.058124613 0.06815199
0.034259055 0.0101169385 -0.061355967 0.07390505 0.0559672 0.07949216 0.043404646 0.016230319
-0.019642884 -0.029994357 0.016793553 0.012480673 -0.011060285 -0.0017952637 0.031287637 -0.060911164
-0.05401504 -0.008110497 0.0602493 0.048719995 -0.053139232 -0.013313618 0.0015322283 0.033501517
0.069615744 0.01571315 -0.040265184 0.023898669 -0.0290429 -0.04223185 0.010542807 -0.018775824

model.tcn.0.net.0.bias f4 [25]
00000000: f51a 1c3d cbbe ffbc d9cc fe3c bc72 b43c
00000010: 6ac6 7dbd 33db 21bd 2ec6 4bbd d519 4d3d
00000020: 0707 8d3c 7dd6 3c3c c6ce 37bd f5ae 89bd
00000030: 5609 99bc 52e9 41bd ab93 83bd 4fe4 4cbd
00000040: 707a 35bd 8085 86bd 095a 003d d443 143d
00000050: 1eb9 213d 1705 93bd a4ab 5d3d 3a44 e53c
00000060: ef20 253d
0.038111646 -0.031218907 0.031103538 0.022027366 -0.0619568 -0.039515685 -0.049749546 0.050073463
0.017215265 0.011525747 -0.04487493 -0.067228235 -0.01868121 -0.047341652 -0.0642465 -0.05002242
-0.04430622 -0.06568432 0.031335864 0.0361975 0.039483182 -0.07178705 0.054118767 0.027986635
0.04031461

model.tcn.0.net.0.weight_g f4 [25, 1, 1]
00000000: 8111 183f d17e 123f ef26 1b3f b41c 1f3f
00000010: 1784 133f b753 113f 48ad 1c3f e257 173f
00000020: 33ba 0d3f 3159 133f 23e6 123f f1c4 0d3f
00000030: 2896 153f c1a7 163f 14af 093f 5dbc 0f3f
00000040: 2f4c 183f e388 0e3f 74a6 173f 5bed 103f
00000050: 27e5 1a3f 0c04 0e3f 4fe7 143f acbd 153f
00000060: 1ef4 133f
0.5940171 0.57224756 0.6060628 0.6215317 0.5762343 0.56768364 0.61201906 0.59118474
0.5536224 0.5755797 0.5738241 0.55378634 0.58432245 0.5884972 0.53782773 0.56146795
0.59491247 0.5567762 0.5923836 0.56612176 0.6050591 0.55474925 0.5816545 0.5849254
0.5779437

model.tcn.0.net.0.weight_v f4 [25, 28, 7]
00000000: 2f96 493c c14a 4d3d 2c05 2bbd 82f1 0dbd
00000010: 2784 1cbc e030 153d 2ee8 973c aba1 4a3d
00000020: 5b34 31bc d633 503c a01f d8bc c876 9ebc
00000030: 778d 91bd 9cda 53bd f2fb b8bc 4ed7 aa3b
00000040: fd45 dd3c 7982 243d 7de9 23bd ef68 c8bc
00000050: 3346 c43c 38a5 6b3d 9db3 63bc 4773 563d
00000060: 649b 27bc dea1 073c 1eb9 823d 627f 80bd
00000070: 9bf2 1dbd ed02 58bc 32e0 bbbc 7622 803d
00000080: 2e9c 29bd 3ffb ebbc 4f1c 3abd 94ed 81bd
00000090: d8ad 21bd f37b 733d eba7 fe3c 8f34 0a3d
000000a0: ce23 843b c7db 0dbd 4bd7 753c 233b 76bd
000000b0: 9772 39bd 7905 fdbc 823e 423d 1e26 373d
000000c0: e44f cfbc 9b0f 83bc 7c45 aebb 8c97 f9bb
000000d0: 1ac5 8abc d4ac 1fbd 2ba7 b1bc 851d 95bd
000000e0: 8bc1 37bc b108 adbd 527c afbd a588 a2bd
000000f0: 3624 9bbc 6e0f 09bd 2a1c 04be 0966 e73c
00000100: 660d 373d d11c 4fba d0b4 243c 1417 bb3c
00000110: 2bff 453d 8c4d 913d 32ab 4bbd 2046 babc
00000120: 8d1e e93c 59ae 6c3d 21ae 773d bcfa 793d
00000130: 70a8 713c bfe6 8bbd 8da5 54ba f4ed 4dbd
00000140: 8314 92bd f68d 643d e4e7 403d be22 99bd
00000150: 8acc 2e3c 1ae6 60bc 1b73 5cbc 9602 0abd
00000160: adac c63c 4354 30bd 9e23 bc3c e467 073d
00000170: 4059 413d b28c c53c 4263 8abd 51de 37bd
00000180: dcf2 023d f882 4c3c dd84 62bd c763 29bd
00000190: 9ea0 803d 272d 373d 733e 00bd c6f2 97bc
000001a0: f146 88bd 2167 aa3b 9486 3bbd 13e5 41bd
000001b0: 4115 d03a 3484 7d3c da12 c0bc e434 3a3d
000001c0: 0325 1fbd fe30 7f3d 57b6 413d 2d78 60bd
000001d0: fb5b 76bc 9385 903b 0ff9 353c 2be4 a23c
000001e0: f413 f73c 00bb 053c 4df4 e6bc 6fd4 123d
000001f0: bea5 74bd 8d3d 10bd cc65 6dbc c72e fabc
00000200: 6970 b0bc cc99 59bd 734a 4cbc 4183 813c
00000210: 97f8 2dbd cbaf c7bb 57cb 3d3d 9bb2 10bc
00000220: 651b f039 e397 debb 735e 573c 2513 313d
00000230: 78d7 813d 4d21 2c3d 0c8c 823d 5344 d9bb
00000240: 210e 82bd 3ec0 0bbd 7dd5 3c3d b506 023b
00000250: 80a2 05bd 8271 53bd 7b07 83bd 3c23 6dbd
00000260: 0f9b 62bc 20f2 1b3d f2ca 043d fd76 93bd
00000270: 4a35 203d 3980 6ebd 3308 97bc 7f29 01bd
00000280: 2d40 84bc 628c 7ebc e781 81bd 659e 78bd
00000290: cb3f 48bc b400 0aba 3882 03bd 277f cb3c
000002a0: 70d4 62bd 6f5a ce36 c1fc 803d 3171 b9bc
000002b0: e281 843d daa6 e93c 3292 64bd d45f 2f3d
000002c0: 6e6c 14bc 5b9b 03bd a108 5b3d 75e9 6abd
000002d0: 59aa ba3b ab1f 87bc 2c31 483d f86a a33c
000002e0: 283b 0c3d cfb9 d53c 68ef 65bc 53ec 3cbc
000002f0: 28b7 58bd 86da 273d e9e9 6e3d 8133 523d
00000300: 4481 29bd 60ed 1a3c 7c08 25bd a9a3 f0bc
00000310: 4ce7 35bd 0484 c13c b27d 35bd f6e9 4ebb
00000320: ba28 803b 2d60 3f3d fd0f 4abd 6fa2 47bd
00000330: 2d27 2bbd 383d 4c3d 9a35 dabc 7af0 673d
00000340: aad0 bb3c 38ba cb3b 059a 1abb 7a2a 72bc
00000350: 1fea 253c 3c0d 7cbc a746 493b c9f4 533c
00000360: 016d 44bd 0c91 0ebd df4a 703d 24fe 5abd
00000370: 46ae 51bb 3d2c 943d 144b f53c 4302 063c
00000380: f1de 56bd 70e7 343d 6e5c 2fbd 2ece 57bc
00000390: d5a2 70bc b9f2 efba 0b98 083c 1923 723d
000003a0: 5565 3d3c e66d 833d 960e 383d 36cd 21bd
000003b0: c5f6 0b3d b13a 37bd 94b0 e7bc 256a b83c
000003c0: f22d d13c 2f9f 5b3d d0b7 8bbc 2c2b 9b3b
000003d0: 4174 233d 1b5a a7bd 6fd9 ed3c b803 a1bd
000003e0: 2a83 40bc 20e5 3ebd b364 71bd 34e7 1fbd
000003f0: fd26 613d 8c7e e4bc 9994 62bd 2a80 2fbd
0.012303873 0.05012012 -0.04175298 -0.034654148 -0.009552992 0.036423564 0.01854333 0.049470585
-0.010815705 0.012707671 -0.026382267 -0.019343749 -0.071070604 -0.051722154 -0.022581074 0.0052136546
0.027010912 0.04016349 -0.040017594 -0.024464099 0.023959255 0.05753061 -0.013897804 0.05235603
-0.010229919 0.008278338 0.063829646 -0.06274296 -0.038561445 -0.013184291 -0.022934053 0.06256573
-0.04140871 -0.028806327 -0.045437153 -0.063441426 -0.03947243 0.05944438 0.031085929 0.03374153
0.0040325886 -0.034633424 0.015004943 -0.06011499 -0.045275297 -0.030886399 0.047422893 0.044714086
-0.02530665 -0.015998652 -0.005318342 -0.0076169427 -0.016939688 -0.03898318 -0.021686157 -0.07281021
-0.011215578 -0.084489234 -0.08568634 -0.07936219 -0.018938165 -0.03346198 -0.12901369 0.028246896
0.044690512 -0.00079007173 0.010052875 0.022838153 0.04833905 0.07094869 -0.04972381 -0.022738516
0.02845695 0.05778346 0.060468797 0.061030135 0.014749631 -0.06831121 -0.0008111827 -0.050275758
-0.071328185 0.055799447 0.047096148 -0.0747733 0.010668883 -0.0137267355 -0.013455178 -0.033693872
0.02425226 -0.04304911 0.022966202 0.033058062 0.047204256 0.02411494 -0.06757213 -0.04488975
0.03196989 0.012482397 -0.05530249 -0.04135492 0.06280635 0.044720795 -0.031309556 -0.01854838
-0.06654156 0.005200282 -0.04578264 -0.047337603 0.0015875475 0.015473414 -0.02344649 0.045460597
-0.038853657 0.062302582 0.047293033 -0.05480211 -0.015036578 0.0044104545 0.0111067435 0.01988419
0.030160882 0.00816226 -0.028192664 0.035847124 -0.059728377 -0.03521495 -0.014489602 -0.030539883
-0.021537976 -0.053125188 -0.012468922 0.015809657 -0.042473402 -0.006093954 0.046336498 -0.008831645
0.00045796778 -0.0067930087 0.013145077 0.04323115 0.063399255 0.042023946 0.06374368 -0.0066304593
-0.06350351 -0.034118883 0.046102036 0.0019840423 -0.032625675 -0.05162192 -0.06397911 -0.05789493
-0.013830914 0.038072705 0.032420106 -0.072004296 0.03911332 -0.05822775 -0.018436527 -0.031533714
-0.016143883 -0.0155364 -0.06323605 -0.06069793 -0.012222241 -0.0005264387 -0.03210661 0.024840904
-0.055378377 6.1498063e-06 0.06298209 -0.022636982 0.06470086 0.028521944 -0.055803485 0.042816
-0.009059055 -0.03213058 0.053475026 -0.05735155 0.0056965766 -0.016494593 0.04887502 0.019948468
0.034236103 0.026089577 -0.01403413 -0.011530953 -0.052909046 0.040979885 0.058328543 0.05131865
-0.041383043 0.009456009 -0.040291294 -0.029374914 -0.044410035 0.02362252 -0.044309326 -0.0031572557
0.003911105 0.04672258 -0.049331654 -0.048738893 -0.041785408 0.04986307 -0.026636887 0.05662582
0.022926647 0.0062172674 -0.0023590338 -0.014780635 0.01012662 -0.015384015 0.0030712278 0.012936779
-0.047955517 -0.034806296 0.058665153 -0.053465024 -0.0031994744 0.07235 0.029943027 0.00817925
-0.052458707 0.04416603 -0.042812757 -0.013171716 -0.01468726 -0.001830659 0.008337031 0.059115503
0.011559804 0.06417446 0.044935785 -0.039502345 0.034170885 -0.044733707 -0.028282441 0.022511551
0.025534604 0.053618606 -0.017055422 0.004735371 0.03990579 -0.08171483 0.029034344 -0.078620374
-0.011750022 -0.04660523 -0.058933925 -0.03903885 0.054968823 -0.027892374 -0.055317495 -0.042846836

model.tcn.0.net.4.bias f4 [25]
00000000: e6b7 a1bc d4a1 443a 2389 64bc 70e7 5a3d
00000010: bbdd 643d f633 193d 3abe cc3b 9779 03bd
00000020: 5e40 433c cff2 60bd 7b51 af3b cf51 9c3d
00000030: 4580 8fbb 9d9f 9b3d ca81 f6bc 842d 8f3d
00000040: 170a 323d 7662 13bd 439c 93bd 5dc4 1cbd
00000050: f09d 313d a9df 983d f993 4fbd 7f39 eabc
00000060: 5f3f 163d
-0.01974101 0.0007500921 -0.013948712 0.053443372 0.05587552 0.03740307 0.0062482627 -0.03209838
0.011917202 -0.05491906 0.0053502894 0.07632791 -0.0043793046 0.07598803 -0.030091185 0.06991103
0.043466654 -0.03598257 -0.07207539 -0.038273204 0.04336351 0.07464535 -0.050678227 -0.02859187
0.03668153

model.tcn.0.net.4.weight_g f4 [25, 1, 1]
00000000: bda9 173f 307b 173f 7974 0d3f 65df 1a3f
00000010: 5948 153f 3286 0b3f 6820 1b3f e9f2 1e3f
00000020: b095 163f 90cd 1b3f a26f 113f cdff 163f
00000030: ebeb 0b3f eb54 143f 7a18 233f 9537 153f
00000040: 771e 1a3f 3c04 123f 5fd3 133f 70ba 103f
00000050: 5454 193f feda 123f 14db 1f3f daf2 153f
00000060: bfda 113f
0.59243375 0.59172344 0.5525585 0.60497123 0.5831352 0.5450164 0.60596323 0.620894
0.58822155 0.6086054 0.56810963 0.5898407 0.5465686 0.57942075 0.63709223 0.58287936
0.60202736 0.5703771 0.577444 0.5653448 0.598943 0.57365406 0.6244366 0.5857369
0.56974405

model.tcn.0.net.4.weight_v f4 [25, 25, 7]
00000000: ac3c 26bc 612f 343d 792a 75bd dda5 163d
00000010: 63a3 943d b467 433d 74e6 53bd dd18 0abc
00000020: c2d4 3e3b cfe1 1f3d 14e3 53bc fcdc 943c
00000030: 3ac1 0ebc 62fe cc3b d7e9 253a 16d9 1dbd
00000040: 11e6 3dbd cebf 823d d5e4 873d 02a6 b03b
00000050: ed80 943d f6e9 7c3d 7f78 0cbd 6b41 88bc
00000060: 6234 17bd d0c8 143d 0daf 913c 5bc0 023c
00000070: 07f8 4f3d d4ed 85bc 94eb e0bc e6f5 22bd
00000080: 46c8 cabc 5086 853d dbb5 b7bc 3819 63bc
00000090: d88d 1a3d 4b3a 51bd fd4b 27bd 4a13 603d
000000a0: 35cf dcbc 0449 1cbd 4143 afbb cafd bebb
000000b0: bcab 7e3c c1d7 e53c ae65 43bd 83f7 853d
000000c0: a5a4 74bd c0c4 013d a80a 45bc e68c afbc
000000d0: 498d a03d 7e71 6ebd 9341 a53c e70b 853d
000000e0: 7a5f 7a3d e46f 45bd fb53 423c 38e0 853d
000000f0: 4248 7cbd 56de 623c 835c 26bd c1ec ae3c
00000100: 3676 5fbd 56f5 3d3d ddff 4cbb e559 6a3d
00000110: 865a 783c c895 063c ac36 cebb 1997 5ebd
00000120: 2077 92bc 67a7 863c 9dd5 24bd d6e4 a33d
00000130: 01fe dabc 15a1 c4bc b68e 40bc d58a 50bd
00000140: 0ab6 2dbc 7af2 f2bc b530 5abd 8d40 39bc
00000150: 6f98 6b3d 7bcd 8c3c 5712 603d 11ad 913b
00000160: dbf1 7cbc 6739 673d da2e d5bc 977c 70bd
00000170: a47b c93c 1d05 3d3d 34e9 fcbc 5237 273d
00000180: df95 04bc 6cf4 4e3c b5c0 01b9 98cb c339
00000190: 3bd6 33bd 014a 983c 0fc5 1ebb 260f 533d
000001a0: ce1b 793c d090 4cbd 972e 39bd 4edc d6bc
000001b0: 2cd4 363d 0333 02bd 5cde 7bbc ffb4 063d
000001c0: 82fb f2bc b336 5abc 0f7a 8d3d 6dd9 81bc
000001d0: 03dc 10ba 8c7d 723d 73f9 053d e77a 493d
000001e0: 1bf7 85bd 4d7c f03c 9fac 80bc e26f 4cbd
000001f0: 2baf 11bd b4f1 96bd e325 533d 4036 31bc
00000200: 2f10 8abd 3b01 893d 3028 5b3d 292a 1e3d
00000210: f468 a93d 17b2 983d 2cf4 9e3d e329 9b3d
00000220: 3045 913d 0fbc 003d 74b6 f03b 005d 973c
00000230: 450e 92bc 5ffa 433d 2ae0 8a3c ba96 0b3d
00000240: 664a f2bc c2e5 f1bb 95e6 a53d 2036 b838
00000250: f941 5d3c ddb5 89bd abcd 1ebd 837a 79bc
00000260: 3d35 bbbc b7e7 8c3c d76a 5ebc 9511 8d3d
00000270: d18a 5bbb e7d4 283d aa5e 1abd 81a8 f43c
00000280: 2040 59bd 8cf2 4cbd eeba 07bd 9c09 173d
00000290: 473f bd3c a71a d73c 1c71 4f3c be04 b33d
000002a0: a4c7 a13d 8f79 273d 5c08 8d3d ef21 123c
000002b0: f65e 56bc f8d5 fb3c 68c3 8b3d ae93 fdba
000002c0: 4fc6 3cbd 8ada 123d 008b b8bb 09a2 a7bc
000002d0: 1f14 843d 69bd 913c 485e e8bc 6406 f4bc
000002e0: 6eb8 863d 038e 423d 56d2 13bd 31b2 653c
000002f0: b341 703c 6dc7 153d ae0c 6ebd 6941 a83b
00000300: 0308 ee3c 725e 303d 85a9 7d3c 554a d8bc
00000310: b7e7 73bd 6485 3e3d 9015 963d e572 19bc
00000320: 8d95 51bd 3a41 0f3d 7256 0bbd 9371 17bd
00000330: 2141 a63c 46e8 b23a 8d09 503b 1d30 763d
00000340: 58d8 7ebb 2897 2d3d 4c21 a2bc c95c 603d
00000350: f00b bb3c 8dac 813d 5ea9 c03c 5cd4 e4bc
00000360: 72cf dc3c 4b87 7c3d e1b2 973c c138 173d
00000370: 825b 2bbd eb5e 323d 1314 6ebd 4593 8b3d
00000380: 3953 0c3d 84c1 253c 6550 7bbd 885b 973d
00000390: dd3d 653d c9cc a23d 12c9 313d 72f5 843c
000003a0: 1dea a0bc bab6 f5bc a292 893c bd7b 4c3c
000003b0: 3336 35bc 0e4f ebba 7727 003d fc7d 79bd
000003c0: e03e 5dbd e4e1 04bc f8c7 763d 9e8e 473d
000003d0: 86a8 59bd 5c21 5abc 0dd5 c83a e338 093d
000003e0: b392 8e3d ddb8 803c 1bed 24bd 24c7 c33c
000003f0: 60eb edbc 4efb 2cbd bdbb 2c3c c2cf 99bc
-0.010146301 0.043990497 -0.05985496 0.036779273 0.07257726 0.04770632 -0.05173345 -0.008428779
0.0029118513 0.039033707 -0.012932558 0.01817178 -0.008713061 0.0062559107 0.00063290953 -0.038537107
-0.046361987 0.0638424 0.06635443 0.0053908834 0.07251153 0.06174656 -0.0342946 -0.016632756
-0.03691519 0.036324322 0.017783666 0.007980431 0.050773647 -0.016348757 -0.027456082 -0.03978529
-0.024753701 0.06519759 -0.022425583 -0.013860993 0.03773293 -0.051080983 -0.040843952 0.054705895
-0.026954273 -0.03815557 -0.0053485935 -0.005828594 0.015543874 0.028056981 -0.04770439 0.0654135
-0.05972733 0.031681776 -0.012026466 -0.02142949 0.07839448 -0.058213703 0.02017287 0.06496411
0.06112621 -0.04820241 0.011860843 0.06536907 -0.061592348 0.013846954 -0.04061557 0.021353127
-0.054556094 0.04637655 -0.0031280436 0.057214636 0.015158301 0.008214422 -0.0062931385 -0.054343317
-0.017879069 0.016437246 -0.04024278 0.08002631 -0.026732447 -0.024002591 -0.011752775 -0.05091365
-0.0106024835 -0.029656637 -0.053269107 -0.011306894 0.05751842 0.017187824 0.05470499 0.00444568
-0.015438522 0.056451228 -0.026023317 -0.058712568 0.02459509 0.046147455 -0.030872919 0.040824242
-0.008092373 0.012631517 -0.00012374188 0.00037344988 -0.043905478 0.018589975 -0.0024226343 0.05152812
0.015204383 -0.04994279 -0.045210447 -0.026228096 0.044635937 -0.03178693 -0.015372839 0.032887455
-0.029660944 -0.013318705 0.069080465 -0.015850747 -0.00055259484 0.059201762 0.032708596 0.049189474
-0.06541272 0.029356146 -0.015707312 -0.049911387 -0.035567444 -0.0737032 0.051549803 -0.010816157
-0.06741368 0.06689688 0.053505123 0.038614426 0.08271971 0.07455843 0.07761416 0.07576349
0.070932746 0.031429347 0.007345969 0.018476963 -0.01782907 0.047846194 0.016952593 0.03407929
-0.029576492 -0.0073821256 0.08100621 8.783885e-05 0.013504499 -0.06724141 -0.03877036 -0.015226963
-0.022852534 0.017200334 -0.013575277 0.06888119 -0.003349949 0.041218664 -0.037687935 0.029865505
-0.05303967 -0.050036 -0.033137254 0.0368744 0.023101462 0.026257826 0.012661245 0.08741139
0.078994066 0.04088741 0.0688636 0.008919223 -0.013084164 0.030741677 0.0682438 -0.001934638
-0.04608756 0.035852946 -0.0056318045 -0.020463007 0.0644915 0.017790513 -0.02836527 -0.029788204
0.06578146 0.047498714 -0.036089264 0.014019535 0.014664101 0.03656714 -0.05811756 0.0051347506
0.029056555 0.04305882 0.015482311 -0.026402632 -0.059547152 0.04651393 0.073283315 -0.009365772
-0.051168013 0.034974314 -0.034017988 -0.036973547 0.020294728 0.0013649545 0.0031743974 0.06010448
-0.0038886275 0.042380482 -0.019791268 0.054775987 0.02283284 0.063317396 0.02351826 -0.027933292
0.026954386 0.061652463 0.018517913 0.03691936 -0.041835316 0.043547552 -0.058124613 0.06815199
0.034259055 0.0101169385 -0.061355967 0.07390505 0.0559672 0.07949216 0.043404646 0.016230319
-0.019642884 -0.029994357 0.016793553 0.012480673 -0.011060285 -0.0017952637 0.031287637 -0.060911164
-0.05401504 -0.008110497 0.0602493 0.048719995 -0.053139232 -0.013313618 0.0015322283 0.033501517
0.069615744 0.01571315 -0.040265184 0.023898669 -0.0290429 -0.04223185 0.010542807 -0.018775824

model.tcn.0.downsample.weight f4 [25, 28, 1]
00000000: a9f3 2a3c 97a9 2dbb 0aeb d4bc 9068 a7ba
00000010: a198 d03a decc 3bbc 417b eebb cab9 3cbd
00000020: df2e b2bd db1f 5dba 204e 97bc fe70 883c
00000030: 41e7 9a3a 685a 07bc 71cf 373c 8621 493c
00000040: 6f75 90bb bea4 243c 648c 3f3c f8ce 053c
00000050: 2306 f8bb fcc2 91bc 4152 47bc 05d5 fabb
00000060: 2394 a5b9 a265 6cbb 2bfb 953c fe2e 3a3c
00000070: 54d4 d13c 792b e9ba c72c b33c 48a4 1dbb
00000080: dfc9 3cbc df5d f7bb 3b4b bfbb 8f32 76bd
00000090: 3abc b3bd c20e c3bb bb27 a13a 2a52 983c
000000a0: a347 44bb 1468 f3ba 9b1f 6a3c e1f9 cc3a
000000b0: 020b ecbb 927b 0e3c 0913 a3bc a0ba 153a
000000c0: 269e cbba 1299 e9bb bd7b 053c 423b 683b
000000d0: 3d7f 003c 05a7 a7bc 603b d63b dd9e a53c
000000e0: 4db5 263b 3ce9 2ebc 7c78 24bc ab32 873c
000000f0: bba4 ba3b f3e9 8e3c dcba 9f3c 0803 5cbc
00000100: f40b 1b3a ae61 c3ba 178d 843c d31f 79bc
00000110: 10e3 24bc 786d 803b 92ff 343c f705 0639
00000120: 9262 99bb dcb4 52bb 80a6 0b3c e1e0 58bc
00000130: af56 9b3a 5ca5 d13b 9a13 103b 3d0c 03bc
00000140: cd64 a5ba 28a5 0c3c 2e2a e5bc 1981 7c3b
00000150: 1484 df3c d776 613c d7bc 183b 736b af3b
00000160: 2b66 04bb 42a8 08bb c39b 8f3c f89e 2dbd
00000170: 07f1 a0bd 2b49 333b 1129 223c 2a6b c4bb
00000180: c4ef 68bb 8114 9cbc f830 debb 5e9a fbbb
00000190: d1be 0ebb 4019 7f3a 41b1 353b 7ebc 633c
000001a0: 7f19 82bc 8e7a a7bb 3e24 413c 7a94 62bb
000001b0: 8f69 033c 7a45 34bc 0d80 32bc 44b8 363c
000001c0: 2d27 053b b64e b2bc 10ec 513b a7e3 b0bc
000001d0: 756b 2a3b d8e2 bc3a 8a82 793c 4048 49bd
000001e0: 6db3 60bc 3f98 c13b 1e2c b93c 6d27 ecbc
000001f0: d78b 6abb 41db b7bb 784a cd3b fa98 d33b
00000200: c713 23bc 6c7c f2bb d50b 99bb f31d 633b
00000210: 59b7 a7bc 1c00 be3c 2b09 3bbd 9191 5abc
00000220: f9cd 883a 28fc 7b3c c31e 73bc 6462 adbc
00000230: 8616 d13b 2fa6 b1bc 358f 4ebb 4554 a3bb
00000240: 2b35 b8bb 2024 8a3c b144 383c 6aa5 06bc
00000250: 02ed 49bc 8302 bd3b b2d4 083b 6dcb 91bb
00000260: d2a3 573b f1b5 75bc 4a1c 6a3b 10f4 313a
00000270: 3d05 343c 98da 6d3c bca0 003c fee7 45bc
00000280: 7d62 783a 82c2 41ba ce8f 67bc 0e0d 1f3c
00000290: df33 993b 3c30 84b9 8aa0 40bc 7ea0 fb3b
000002a0: 0dc7 853c 7815 833b c5fe 53bb 8b0c 57bb
000002b0: 8d66 a1bc fbb7 963b 589b 6bbc f6f1 47bd
000002c0: ee10 d1bd 6c7c 6ebb 3e47 e23b 83af f0ba
000002d0: b905 4cbc ec2a 7d3c 4266 3bbc f105 0c3b
000002e0: 20f2 0abc f375 f13b 19ef 1dbc ff01 8f3a
000002f0: 6bbb 7fbb 745c 82bb d6cf 1ebc 84b7 14bb
00000300: 80d7 f5b9 fd91 80bc f345 b0bb 5920 893b
00000310: 85a3 ae3c 4c1c b7ba 4c2d a4bc ba39 00bc
00000320: f5fb a038 fd04 85bc fedd 31bc cc3d 8dbd
00000330: b002 03be 9ad8 4bbc 110f b439 e395 38bc
00000340: af86 46ba 0add 573c 5ee6 353b 603c 043c
00000350: 7b82 31bc 921c 9d3c c5fb df3b 210c 93bc
00000360: 147b b2bc 057e 013c 7097 45bc 3e20 2ebc
00000370: 0bd1 cb3b 9a65 3dbb 5620 f83c ae11 d43b
00000380: 7a16 c0bb acf8 eebb 2472 49bd 55f2 683a
00000390: d522 cf3c 361d 5a3c 999d aa3a 0703 263d
000003a0: ce1e 0e3d 11f4 22bc dfc2 503c 4021 eebb
000003b0: f083 e43b 677e 3e3c d7a2 8fbb 9308 6f3b
000003c0: 992e a0bc 28d6 683b d47a ea3b 7150 09bc
000003d0: 0ade cf3b 785b 8ebc 0d2c 09bc 0647 ffbc
000003e0: 81fb 3f3c 52e4 ff3b 936b 203c d182 e5bc
000003f0: ff62 8b3c 9b4a 0f3c 79f1 b83c a6a7 3e3b
0.01043407 -0.0026498789 -0.025990982 -0.0012772251 0.0015914628 -0.011462418 -0.0072778766 -0.04607562
-0.08700346 -0.0008435228 -0.01846987 0.016655441 0.0011818187 -0.008261301 0.0112188915 0.012276059
-0.0044085304 0.010049043 0.011691187 0.008167021 -0.007569091 -0.017793171 -0.012165607 -0.0076547884
-0.00031581623 -0.003607132 0.018308243 0.011363743 0.025613941 -0.0017789445 0.021871937 -0.0024054218
-0.011522739 -0.007549032 -0.0058378256 -0.06010681 -0.08776136 -0.005952687 0.0012295166 0.018593866
-0.0029949925 -0.0018570446 0.014289762 0.0015638435 -0.0072034607 0.008696454 -0.019906538 0.0005711708
-0.0015534803 -0.007128843 0.008147177 0.003543571 0.007842836 -0.020465383 0.00653784 0.020217353
0.0025437654 -0.010675725 -0.010038491 0.016503653 0.005695907 0.01744554 0.019498281 -0.013428457
0.0005914562 -0.001490643 0.016180558 -0.015205341 -0.010063902 0.0039192997 0.011047261 0.00012781458
-0.00468094 -0.0032151258 0.008523583 -0.013237209 0.0011851395 0.006397886 0.002198434 -0.007998523
-0.0012618542 0.008584298 -0.027974214 0.0038529097 0.02728466 0.013761244 0.0023305917 0.005353385
-0.0020202498 -0.0020852243 0.017530328 -0.042387933 -0.07858472 0.0027356844 0.009897486 -0.0059942203
-0.0035543302 -0.019052746 -0.00678074 -0.007678314 -0.0021781216 0.00097312406 0.002772406 0.0138999205
-0.015881298 -0.005111045 0.011788426 -0.0034573362 0.008020773 -0.011002893 -0.0108947875 0.011152331
0.002031754 -0.021766048 0.0032031573 -0.021592928 0.002600399 0.0014410866 0.015228877 -0.04914117
-0.013714653 0.0059080417 0.022604045 -0.028827393 -0.0035788917 -0.005610854 0.006264981 0.006457445
-0.009953446 -0.007400086 -0.0046706 0.0034655302 -0.02047317 0.023193412 -0.04566304 -0.01334037
0.0010437361 0.015379943 -0.014838877 -0.02116508 0.006380859 -0.021685688 -0.0031518464 -0.004984411
-0.0056215725 0.016862929 0.011246846 -0.008218149 -0.0123245735 0.0057681217 0.002087873 -0.004449299
0.003290404 -0.0149969915 0.0035722428 0.00067883823 0.010987577 0.014517449 0.007850822 -0.012079237
0.0009475125 -0.00073913496 -0.014133407 0.009707702 0.004675373 -0.0002521294 -0.0117570255 0.0076790443
0.016330266 0.004000362 -0.00323479 -0.0032813873 -0.01970222 0.004599569 -0.014380299 -0.048814736
-0.10208307 -0.003639008 0.0069054654 -0.0018362853 -0.012452536 0.015452128 -0.011437954 0.0021365846
-0.008480579 0.007368797 -0.009639525 0.0010910629 -0.0039021622 -0.0039783064 -0.009693107 -0.0022692392
-0.00046890602 -0.015694613 -0.0053794323 0.0041847643 0.021318207 -0.0013970225 -0.02004113 -0.007826263
7.676325e-05 -0.01623773 -0.01085615 -0.068965524 -0.12793994 -0.012441779 0.000343435 -0.0112662045
-0.000757317 0.013175258 0.0027755718 0.008071035 -0.010834332 0.019178662 0.006835433 -0.01795012
-0.021787204 0.007903581 -0.012060031 -0.010627804 0.006219988 -0.002889967 0.030288856 0.006471834
-0.0058620544 -0.0072928276 -0.04918112 0.0008886208 0.025285164 0.0133126285 0.0013016938 0.04053023
0.034697346 -0.009945885 0.012741773 -0.0072671473 0.006973736 0.011626816 -0.0043834257 0.0036473616
-0.01955347 0.0035528038 0.0071557555 -0.008380995 0.006343608 -0.0173776 -0.008372319 -0.031161796
0.011717678 0.0078092003 0.009791273 -0.02801648 0.017014978 0.008745815 0.02257608 0.0029091625

model.tcn.0.downsample.bias f4 [25]
00000000: 424c 5abd 4f65 103e 3afe 1d3d 410d 493d
00000010: b4f7 363d 6a2d 3f3d f6b6 fcbd 8f33 a8bc
00000020: 8861 0abd 12e8 77bd 451c eabd c638 8cbc
00000030: 4f6f 043a ecec 63bd c3bc f0bc 3a60 3dbd
00000040: ecba 6cbc 5a8c 1cbe 341e 263e 8053 d5bd
00000050: 851b d73d 0c85 26be fdd1 daba b9bd 53bc
00000060: adc8 18be
-0.05329538 0.14101146 0.038572527 0.049084906 0.04466982 0.04667417 -0.123395845 -0.020532398
-0.03378442 -0.060524054 -0.11431173 -0.017116915 0.00050519867 -0.05564587 -0.029386884 -0.046234347
-0.0144488625 -0.15287915 0.16222459 -0.10416317 0.10503296 -0.16261691 -0.0016694661 -0.012923651
-0.14920302

model.tcn.1.conv1.bias f4 [25]
00000000: 6afe 2abd 118e acbc 0971 3dbd b71c 633d
00000010: 1161 7fbd b705 7cbd a9c4 7a3d a7bf 6fbd
00000020: 37a1 59bc 398c a2bc b68e 303d cfb7 9e3d
00000030: 4011 2dbd 3cd1 58bd aa74 103d 372b 033d
00000040: 58df 343d b7ca 333d 10c4 43bd 948f d63c
00000050: e8e1 ebbc 863f 4a3d 120e c33c 1f27 4e3d
00000060: 6f60 acbc
-0.041746534 -0.021063836 -0.046250377 0.055447306 -0.06234843 -0.061528888 0.061222706 -0.058532383
-0.0132830655 -0.019842254 0.04310485 0.077499025 -0.04225278 -0.052933916 0.03526751 0.032023635
0.04415831 0.043894496 -0.0477944 0.02619151 -0.028794244 0.049376987 0.02381042 0.050330278
-0.021042077

model.tcn.1.conv1.weight_g f4 [25, 1, 1]
00000000: eac0 143f a09f 0b3f a567 113f f218 183f
00000010: ffe1 143f 07ae 103f 0315 203f 23cd 183f
00000020: 4ba6 223f 10fb 103f b49f 193f fa7e 153f
00000030: aa34 1c3f ee97 143f 2067 1f3f 2695 183f
00000040: 56b5 173f d813 0e3f 38d6 173f faae 173f
00000050: 4f96 143f e6b0 163f c306 1f3f 0e85 1a3f
00000060: ff91 123f
0.58106863 0.54540443 0.56798774 0.59413064 0.5815734 0.56515545 0.6253206 0.59688014
0.6353499 0.5663309 0.6000931 0.58396876 0.6101786 0.58044326 0.6226673 0.5960258
0.5926107 0.5549903 0.59311247 0.5925137 0.5804185 0.58863676 0.6211969 0.60359275
0.5725402

model.tcn.1.conv1.weight_v f4 [25, 25, 7]
00000000: 5d49 4a3d e3c4 bb3c ac06 e73b 516e 083d
00000010: 04f5 d23c 0e82 0dbc 74b8 00bd da03 fbbc
00000020: 0074 d63c 1321 ebbc 6d7b ef3c ed37 08bd
00000030: 9697 3bbd b54e 9b3d 84b1 34bd 3df7 b73c
00000040: 5894 763d be41 093c 9e81 4b3d 1eb6 35bc
00000050: 80f0 60bd 5657 13bd 6664 c7bc 7784 34bd
00000060: 1143 36bd 8610 073d 7bde 9e3d d366 933d
00000070: 93f4 083d 1daa 4cbd 91a1 77ba e77a 2e3d
00000080: 0eab aa3d b724 a4bc 9c1d 953d e2a6 353d
00000090: aa97 42bc fd03 80bd 69bf 283d 6c59 403d
000000a0: a676 4cbd 7160 943d 9c24 acbb 3eef 5fbd
000000b0: 668f 893b 3a20 1a3d 3216 f53b f64f 33bd
000000c0: cfb6 67bc ae03 0e3d 4b04 e43c 857a 253d
000000d0: 74f0 fa3c 0837 643d 00b5 8e3b 8e82 ab3d
000000e0: bd6a 4b3c e7cf ba3b 61ec 763d 5195 b4bc
000000f0: 11c4 3b3d 97e9 d9bc 8a7b 213d 2e2c 48bc
00000100: ef45 323d baa7 bebc c05d ed3b 9abd 823d
00000110: 6067 233c 0c25 c53c ee0d 14bd 200e 243d
00000120: aeae e83c f27c a6bc 7ae2 a1bc 1da4 933d
00000130: bc88 8d3d bd68 643d ee11 25bd 9a6b edbc
00000140: aabc 42bd 4417 4cbd a26b 713b f79d a73c
00000150: 80cf 15bd fd13 bcbc f9e2 383b 6cb3 48bc
00000160: e4ee 4ebd 5b68 8f3d 6023 59b9 c162 833c
00000170: 9057 0e3d f52c 7abd 0b8b 12bb ddc7 38bd
00000180: 3bbe ab3d 5952 71bb d85d 3f3d 7aa0 3f3b
00000190: f541 febc 2837 f23c 052b 5bbd 21ec 75bc
000001a0: dd1e 603c ab22 8e3d 56ed 7cbd caf5 ee3c
000001b0: 4f07 983d 26cb e4bb 2ecf c1bc 1134 bdbc
000001c0: a276 8bbc ff56 4d3d ffdd 40bd c097 853d
000001d0: 693e 5bbd bc21 923d 7bdb cd3c 29d5 9cbc
000001e0: f43f 64bd 6f87 0abd 19ad 30bd 665e 77bd
000001f0: 9067 b6bc c0a6 2c3d 68c3 77bd 20da 823d
00000200: 1eed cf3c 59e5 463d d81e 8db9 bbc1 cfbc
00000210: 8288 543d 2049 273d d1f7 813c 3509 ee3c
00000220: 4218 863d c687 8c3c 8646 bcbc b0e8 2d3d
00000230: 7b4a 25bd a56a 783d 29cc 453c 9146 103d
00000240: bf93 743c 15fc 8f3d 9faa 553d 05de 433d
00000250: e0cb 13bd 6a3e 3a3c cb16 4a3d f40b 5e3d
00000260: 4a66 7abc 3d3d 9e3d df55 85bd 4060 453d
00000270: 405f e3bc beed 40bd 9d83 813d 7464 833c
00000280: caae a4b9 1812 153d 8e83 4a3d 3648 e93b
00000290: 375f 56bd 3a9c edbc 0eec f9bc dd5d 4e3d
000002a0: 9aef 89bd 3547 1cbd 47c5 8ebd b1a4 163a
000002b0: 7294 543d 8521 db3c d49c e83c 8d6f 183d
000002c0: dfc8 3abd 02df 68bc 9f98 6e3d fa82 6bbd
000002d0: f1ee 8bbd 26e5 a2bc 5c8f 81bd ab59 33bc
000002e0: fe6d 613d 77f0 923b c091 d13c 21ee 8a3c
000002f0: 395c 34bd 378d 0fbd 970e 303c 2119 8a3d
00000300: d53a 53bd a0f4 503d 9377 2ebd 4ec1 79bd
00000310: ea94 9a3c 8382 713d 65fc 923c fe39 553d
00000320: 09b5 433c 9438 67bb 4d86 cd3c e846 b73c
00000330: fb41 82bc fcf1 a63c 5b98 ef3b 948d 84bd
00000340: ce23 6b3d f9bf 88bd ed05 cb3c 56e1 6bbd
00000350: 24fe 53bc 5706 123d 5253 ea3c 6cff 6e3d
00000360: c70b cbbc 9944 9f3c b6c2 ea3c 769f 86bd
00000370: 7a8e 20bd 39c9 123d 10bc 3c3c f909 0ebc
00000380: a1ef 7ebc 2789 0a3d 9d31 6c3d e43c 7c3d
00000390: d512 483d 76d9 e03c f28f 53bd 72a5 403d
000003a0: 8f8a f0bc 91ca 423d 2517 45bd 6b27 f63c
000003b0: 8b51 1c3b 6818 733d 19c5 243c ca6d 173d
000003c0: bb7b 8abd 1cb6 ad3c ab70 8ebd 2132 84bd
000003d0: d3b6 90bd e112 52bd 5c46 edbc 4c90 8d3c
000003e0: 3155 1a3c 6859 a1bc 3f5b ce3c ae6c 85bd
000003f0: 6e06 8f3d 5ae8 16bd 26d8 dcbc 5d5b db3b
0.04938637 0.022921031 0.007050356 0.03330833 0.025751598 -0.0086369645 -0.03142591 -0.030641485
0.02617836 -0.028702294 0.029233659 -0.03325646 -0.04579886 0.075833715 -0.044114605 0.02245676
0.060200065 0.008377491 0.04968416 -0.011090783 -0.05491686 -0.035971962 -0.024339866 -0.04407164
-0.044497553 0.032974742 0.077572785 0.071973465 0.03343637 -0.04996692 -0.00094463775 0.042597678
0.08333407 -0.020037038 0.07281038 0.044348605 -0.01187698 -0.06250761 0.041198168 0.04696028
-0.04991784 0.07244957 -0.0052533876 -0.05467152 0.0041980026 0.03762839 0.0074794525 -0.04377743
-0.014142706 0.034671478 0.027834078 0.040400047 0.030632235 0.055716544 0.004355073 0.08374511
0.012415585 0.0057010534 0.060284022 -0.022043856 0.04584128 -0.026600642 0.039424457 -0.0122175645
0.043523725 -0.023273338 0.007243842 0.0638382 0.009973377 0.024065517 -0.036146097 0.040052533
0.028403606 -0.02032325 -0.019761313 0.072090365 0.06910846 0.05576395 -0.040300302 -0.028981972
-0.047543205 -0.049826875 0.0036837836 0.020461066 -0.03657484 -0.02295875 0.0028211458 -0.012249809
-0.050520793 0.07002326 -0.00020707911 0.0160383 0.034751475 -0.06107803 -0.0022360708 -0.04511248
0.08385893 -0.0036822765 0.046720356 0.0029239939 -0.03103731 0.029567316 -0.053507823 -0.015009911
0.013679233 0.06940206 -0.06174978 0.029169936 0.07423269 -0.006982225 -0.023658361 -0.023096116
-0.017024342 0.050131794 -0.047086712 0.06523085 -0.053526316 0.071353406 0.02512907 -0.019144611
-0.055725053 -0.033820566 -0.04313383 -0.06039276 -0.02226618 0.042151213 -0.06048909 0.0638926
0.025381621 0.048558567 -0.00026916596 -0.025360933 0.051887996 0.04084122 0.015865238 0.029057125
0.065475956 0.017154586 -0.022982847 0.042458236 -0.040354233 0.06064858 0.012072601 0.035223547
0.014927804 0.07030503 0.05216467 0.047819156 -0.036083102 0.01136742 0.049338143 0.05421062
-0.015283177 0.07726524 -0.06510519 0.048187494 -0.02775538 -0.04710173 0.06323931 0.01603911
-0.00031410746 0.03639421 0.049441867 0.007119204 -0.052336898 -0.029005159 -0.030508067 0.050382484
-0.067351535 -0.038153846 -0.069712214 0.0005746587 0.05189938 0.026749382 0.028395094 0.037215758
-0.04560172 -0.014213325 0.05825102 -0.057497956 -0.06832684 -0.019884657 -0.06326172 -0.0109466715
0.055036537 0.004484232 0.025582194 0.016959252 -0.044033263 -0.035046782 0.010745666 0.06743074
-0.05156978 0.051014543 -0.042594504 -0.060975365 0.018869836 0.058962356 0.017942617 0.05205726
0.011945018 -0.0035281526 0.025088454 0.022372678 -0.015900603 0.020379059 0.0073118634 -0.064723164
0.057407193 -0.06677241 0.0247831 -0.057587944 -0.01293901 0.035650577 0.028604183 0.058349058
-0.02478589 0.01944189 0.028657299 -0.065733835 -0.039198376 0.035836432 0.011519447 -0.00866937
-0.015560062 0.033822205 0.057664502 0.061581507 0.048846085 0.027447443 -0.05165095 0.04703278
-0.029362945 0.047556464 -0.048117775 0.030048093 0.0023852314 0.059349447 0.010056757 0.036969937
-0.06761881 0.021205 -0.069550835 -0.06454874 -0.07066121 -0.051287536 -0.028964214 0.01728072
0.009419725 -0.019695953 0.025189994 -0.0651487 0.06983648 -0.03684268 -0.026958536 0.006694241

model.tcn.1.conv2.bias f4 [25]
00000000: 4dd7 ebbc f6d7 e53c 38de 01bd 843b 49bd
00000010: a05b 4b3b b68e 0d3c 34a4 943d 8c23 2f3d
00000020: 985c e0bc 1b25 48bd b7bb 243d b88f 2e3d
00000030: 89cf 883c a29e 3f3b e2b6 8abc 2647 3abd
00000040: 4ce7 31bb c4e4 75bd 2411 5e3c 5567 093a
00000050: 1781 ebbc 3208 eb3c ac2f 4d3d 8664 61bd
00000060: f3ad 9e3c
-0.028789187 0.02805708 -0.031706065 -0.049129024 0.0031029955 0.008639982 0.07257882 0.04275851
-0.027387902 -0.04886351 0.04021808 0.04261753 0.016700523 0.002923884 -0.016932908 -0.04547801
-0.002714592 -0.06003262 0.013553891 0.0005241533 -0.028748078 0.028690431 0.05009429 -0.055027507
0.019370055

model.tcn.1.conv2.weight_g f4 [25, 1, 1]
00000000: c0c4 133f 905f 163f cc6a 0e3f c6a4 193f
00000010: e7c0 153f 32fe 163f a4f5 133f ebe2 0f3f
00000020: 934e 0c3f 7f0e 0c3f cf22 173f b64d 0e3f
00000030: a41b 133f 412e 143f ad34 133f 3c5e 123f
00000040: e517 1c3f f2b7 0b3f 8a22 153f 7a1a 153f
00000050: d2f6 183f 5d7f 0b3f b7ac 153f 30c1 223f
00000060: 0e7c 173f
0.5772209 0.58739567 0.5563171 0.6001705 0.5849747 0.5898162 0.5779669 0.56205624
0.54807395 0.5470962 0.5903749 0.5558733 0.5746405 0.5788308 0.5750225 0.5717504
0.6097396 0.54577553 0.5825583 0.58243525 0.5975162 0.54491216 0.58466667 0.6357603
0.5917367
