etc/ckpts/participants/661_test_30_all/sigmoid/TCN/epochs/TCN-chpkt-pecanstreet-participant-id-661_test_30_all_epoch=061.ckpt (torch, 951053 bytes, 201 tensors)

model.tcn.0.conv1.bias f4 [25]
000000 15 c9 24 3d 2c ec f2 bc ae e8 11 3d e1 bc c1 3c
       0.04023083 -0.029653631 0.03562229 0.023649635
000010 58 d0 84 bd 4f d6 a0 bc fa 93 47 bd c7 ce 4b 3d
       -0.06485051 -0.01963344 -0.048725106 0.049757745
000020 ca 94 c8 3c dc 17 58 3c 61 54 28 bd 09 2a 8b bd
       0.02448501 0.013189282 -0.041096095 -0.06795127
000030 73 f4 88 bc 14 0e 30 bd e9 da 80 bd 29 04 44 bd
       -0.016718125 -0.042982176 -0.06291754 -0.04785553
000040 32 62 41 bd dd e7 82 bd 5d 4c 03 3d 56 59 28 3d
       -0.047212787 -0.06391881 0.032055248 0.041100822
000050 c0 e4 29 3d 60 bf 8f bd 9d 6d 61 3d ac 97 df 3c
       0.04147792 -0.07018924 0.055036176 0.027294002
000060 c7 02 29 3d
       0.041262414

model.tcn.0.conv1.weight_g f4 [25, 1, 1]
000000 0c b9 17 3f 18 1f 15 3f 04 c2 22 3f 95 d0 1d 3f
       0.59266734 0.5825057 0.63577294 0.61646396
000010 bf db 11 3f 52 92 1b 3f 55 c4 1b 3f f0 f6 15 3f
       0.5697593 0.6077014 0.60846454 0.5857992
000020 d0 53 0e 3f 77 63 12 3f d7 9c 11 3f 52 1e 0d 3f
       0.5559664 0.5718302 0.56879944 0.5512439
000030 5d 9e 15 3f 00 0f 15 3f 3c 7d 09 3f 1e 7e 0e 3f
       0.5844477 0.58226013 0.5370672 0.5566119
000040 fe f5 16 3f 9a 9a 0e 3f 66 ac 17 3f 8f f8 0f 3f
       0.58969104 0.55704653 0.59247434 0.56238645
000050 d3 48 18 3f 74 26 0d 3f f5 79 16 3f 38 7e 13 3f
       0.5948612 0.551368 0.5877984 0.5761447
000060 24 7a 14 3f
       0.5799887

model.tcn.0.conv1.weight_v f4 [25, 28, 7]
000000 37 59 43 3c da bb 46 3d 94 c3 2b bd f9 a5 0d bd
       0.011923126 0.048518993 -0.041934565 -0.034582112
000010 21 05 17 bc b1 89 1c 3d 04 89 ce 3c ec b4 31 3d
       -0.009217531 0.03821725 0.025211819 0.04338543
000020 f0 54 82 bc 2e 2f 01 3c 4a 92 f6 bc 57 8a b6 bc
       -0.015909642 0.007884784 -0.030099053 -0.022282762
000030 c9 29 95 bd f8 b9 5b bd 1b 1d e1 bc fd 2a 17 3a
       -0.072833605 -0.05364415 -0.027479699 0.00057665986
000040 e5 9a bc 3c 33 53 1e 3d 61 6e 1d bd fe e3 ba bc
       0.023023078 0.038653564 -0.038435344 -0.022813793
000050 06 a3 c0 3c 44 14 60 3d a6 36 7f bc f1 43 4d 3d
       0.023515236 0.054706827 -0.015576994 0.050113622
000060 8c 97 38 bc b2 11 e6 3b 06 6a 7e 3d 7c 57 7f bd
       -0.0112666 0.0070211524 0.06211283 -0.06233929
000070 7a ec 0a bd 03 ea 16 bc a8 e7 9e bc 62 bf 83 3d
       -0.033916928 -0.009211066 -0.019397572 0.06432988
000080 9a 81 1c bd ae 77 d5 bc ec ee 2f bd 19 4e 81 bd
       -0.038209535 -0.026058044 -0.042952463 -0.06313724
000090 7b f2 21 bd f1 b0 6e 3d d5 19 f7 3c 31 df 06 3d
       -0.039537888 0.058274213 0.030163685 0.032927696
0000a0 4c 06 52 3b b6 1e 10 bd dd 49 68 3c 4f 51 74 bd
       0.003204721 -0.03518554 0.014177767 -0.059647854
0000b0 6c 9d 37 bd ad ef f7 bc 7d 2f 3f 3d 1c 2b 35 3d
       -0.044827864 -0.030265654 0.046676148 0.044230565
0000c0 31 ed c6 bc 6e 44 83 3b 7d a1 13 3d 13 77 53 bc
       -0.024283024 0.00400596 0.03604268 -0.0129068075
0000d0 da 2e 47 bc 07 14 87 bd 78 fb 9d bd ed f1 03 be
       -0.012157166 -0.06595617 -0.077139795 -0.12885256
0000e0 5f a3 13 bb 0d 2b 85 bd ee af 86 bd 7f d7 6c bd
       -0.0022527797 -0.06502352 -0.06576525 -0.0578227
0000f0 d4 67 f5 bb 27 f6 17 bd 20 b9 25 be f1 22 15 3d
       -0.007489184 -0.037099984 -0.16183901 0.036410276
000100 ce 74 56 3d 0c fd e3 3b 95 87 92 3c d2 5c fa 3c
       0.052357487 0.006957656 0.017886916 0.030561838
000110 5d 79 64 3d 87 92 a0 3d 11 81 40 bd 14 61 ac bc
       0.055779804 0.07840448 -0.046998087 -0.021042384
000120 8c fa ea 3c 6b f5 69 3d 9b 26 74 3d 80 4e 75 3d
       0.028683923 0.057118814 0.05960713 0.059889317
000130 a3 95 6e 3c ba ec 94 bd f1 42 a8 bb 80 ad 58 bd
       0.014562043 -0.072717145 -0.005134933 -0.052899837
000140 ac 8a 96 bd c9 c2 55 3d 10 64 33 3d a0 e5 9b bd
       -0.07350668 0.052187715 0.0437966 -0.07612157
000150 39 be 01 3c 4c 4e 81 bc 8d a7 7b bc e3 d1 0e bd
       0.007918888 -0.015784405 -0.015359771 -0.034868132
000160 2a 2d ba 3c f4 74 31 bd c9 13 b5 3c 26 be 0a 3d
       0.022726614 -0.043324426 0.02210416 0.033872746
000170 56 26 42 3d 95 f1 c9 3c 30 37 85 bd 50 78 30 bd
       0.04739984 0.024651328 -0.06504667 -0.04308349
000180 b4 c3 04 3d 0f a3 5d 3c d5 d5 44 bd 3a eb 0b bd
       0.0324132 0.013527646 -0.04805549 -0.034159876
000190 fd 96 8c 3d d7 1d 51 3d 93 60 c0 bc 57 47 30 bc
       0.06864736 0.051053848 -0.02348355 -0.010759196
0001a0 b2 66 6b bd a1 28 17 3c 1f 8e 2b bd 62 81 34 bd
       -0.057470985 0.009225995 -0.041883584 -0.0440687
0001b0 74 68 82 3b c3 c8 8e 3c c3 15 b0 bc a5 e3 3c 3d
       0.003979737 0.017429715 -0.021494752 0.046115536
0001c0 d4 1c 18 bd 5d b1 7c 3d eb 8c 3f 3d b1 a1 59 bd
       -0.037136868 0.061692584 0.04676525 -0.053132717
0001d0 f1 2e 69 bc 16 16 95 3b 56 ed 34 3c 51 09 ac 3c
       -0.014232383 0.004549752 0.011042913 0.021000536
0001e0 b0 67 fd 3c 5f 29 1c 3c 79 52 d2 bc d7 29 17 3d
       0.030933231 0.009531348 -0.025674092 0.036905136
0001f0 27 26 67 bd 1e 74 04 bd bf 86 57 bc 46 01 ef bc
       -0.05643287 -0.0323373 -0.013154685 -0.029175412
000200 64 c6 a9 bc 7b 2c 53 bd d5 2c 40 bc 04 91 80 3c
       -0.020724483 -0.05155609 -0.011729439 0.015694149
000210 49 55 2a bd 53 cf 88 bb 1b e5 43 3d 7f 6e b4 bb
       -0.04158524 -0.0041751056 0.047825914 -0.005506336
000220 01 90 82 3b 4f 61 38 bb 8b 6d 8a 3c cb 3c 41 3d
       0.0039844518 -0.0028134172 0.016897937 0.047177117
000230 cb 0b 6c 3d df 2f 16 3d 23 e5 6d 3d 90 2a 35 bc
       0.057628434 0.036666747 0.05807985 -0.011057511
000240 8a ce 88 bd 2d ee 1a bd 33 54 2a 3d 96 8e c9 3b
       -0.06680019 -0.0378248 0.041584205 0.006151031
000250 45 66 ee bc 94 9f 47 bd db 4d 7d bd 3c 67 66 bd
       -0.0291015 -0.04873617 -0.061841827 -0.056250796
000260 fd 41 59 bc 7b f8 18 3d 50 b2 f6 3c 04 26 94 bd
       -0.013260362 0.037346344 0.030114323 -0.072338134
000270 14 37 1e 3d ca fa 68 bd 80 08 91 bc ea b2 f9 bc
       0.038626745 -0.056879796 -0.017704248 -0.03048082
000280 25 7e 6d bc b6 da 2e bc 64 f9 69 bd fc f4 5c bd
       -0.014495407 -0.010672262 -0.057122603 -0.053944573
000290 68 e9 c7 bb 10 4a b2 3b ef 78 cd bc 52 df ff 3c
       -0.0061008222 0.005440958 -0.02508208 0.031234417
0002a0 3e 73 55 bd e6 c4 fb 3a b2 af 81 3d 74 cb a4 bc
       -0.052111857 0.001920846 0.06332339 -0.020116545
0002b0 8c b8 85 3d ed 87 f4 3c 77 08 56 bd 5d f6 33 3d
       0.0652934 0.02984997 -0.052254166 0.043936122
0002c0 06 67 0b bc 45 80 05 bd c0 a0 4f 3d dc c3 6f bd
       -0.008508449 -0.03259303 0.050690413 -0.058536395
0002d0 72 00 44 3b b4 f5 a1 bc 73 66 46 3d ff f4 a6 3c
       0.0029907492 -0.01977048 0.048437547 0.020380495
0002e0 c0 55 0e 3d 91 a5 dc 3c 73 19 45 bc f8 5d 1e bc
       0.034749746 0.026934417 -0.012029993 -0.009665959
0002f0 ff 44 4a bd 00 18 30 3d 4d 8f 77 3d 60 fa 5d 3d
       -0.049382206 0.04299164 0.060439397 0.054193854
000300 d4 d7 12 bd 50 d9 67 3c 67 93 0b bd b3 31 b7 bc
       -0.03585036 0.014150932 -0.03407612 -0.022362566
000310 85 17 43 bd bb da 9c 3c 6f ee 3b bd ee ac ce bb
       -0.04762985 0.019147268 -0.045881685 -0.006307236
000320 e7 8c e0 3a c6 4f 3d 3d 5d 98 25 bd 2c db 15 bd
       0.0017131836 0.046218656 -0.040428508 -0.03658597
000330 16 30 ee bc 4f 25 76 3d 00 0d 66 bc 4d 88 87 3d
       -0.029075664 0.060094174 -0.014041185 0.06617794
000340 00 00 0c 3d 5f 78 9d 3c 77 f9 48 bb f5 9b 83 bc
       0.034179688 0.019222436 -0.003066627 -0.016065577
000350 55 84 09 3c 9b 6d 84 bc a2 c5 95 3b f2 56 76 3c
       0.008393367 -0.016165545 0.004570679 0.015035378
000360 e2 b6 2e bd 21 78 4f bd 83 09 25 3d 90 e7 8a bd
       -0.04265488 -0.050651673 0.040292274 -0.06782448
000370 8e 33 97 bc 03 86 68 3d bc 51 89 3c 40 13 95 ba
       -0.0184572 0.05676843 0.016762607 -0.0011373535
000380 91 b3 55 bd 55 e3 27 3d aa a0 37 bd 87 c2 90 bc
       -0.0521732 0.040988285 -0.044830956 -0.017670883
000390 58 4b ad bc 77 3b 26 bc 24 17 1e bb a6 4d 6f 3d
       -0.02115409 -0.010146013 -0.002412268 0.05842366
0003a0 4d fc 4c 3c b8 57 81 3d 45 b9 35 3d fb 4e 1b bd
       0.012511325 0.06315559 0.04436614 -0.03791712
0003b0 55 c1 06 3d b2 e6 2a bd 18 f0 36 bd 37 e0 88 3b
       0.03289922 -0.041723914 -0.044662565 0.004177119
0003c0 97 47 04 3c e5 b2 11 3d 61 9e 01 bd 4a b9 15 bc
       0.008073709 0.035570998 -0.031645183 -0.009138415
0003d0 24 7d ed 3c 89 1c b2 bd b8 a8 86 3d 74 b3 c3 bd
       0.028990336 -0.08696849 0.06575149 -0.09555712
0003e0 de 63 2e 3c a8 87 ae bd dd 53 b1 bd 49 44 eb bd
       0.010643927 -0.08521968 -0.08658574 -0.11487634
0003f0 37 d8 7a 3d 29 99 ec bb e3 fe 17 bd e9 d2 af bc
       0.061241355 -0.0072204066 -0.037108313 -0.021462874

model.tcn.0.conv2.bias f4 [25]
000000 26 02 97 bc 21 a7 c7 3a 0d bb 60 bc 93 fa 4d 3d
       -0.018433642 0.0015232303 -0.013716471 0.050287794
000010 2b 4e 9a 3d 7e 2c 51 3d e4 79 e4 3b 43 7f ac bc
       0.075344406 0.05106782 0.0069725383 -0.021056777
000020 9e 54 3c 3c b4 c6 5b bd 5c 99 e7 3b 61 89 9c 3d
       0.011494784 -0.053656295 0.0070678424 0.076433904
000030 aa 3f 22 3a 4f ed 9e 3d 6f 32 e9 bc 7a 10 97 3d
       0.0006189296 0.07760107 -0.028466431 0.073761895
000040 63 fd 57 3d c2 45 16 bd f3 f1 90 bd 60 ea 07 bd
       0.052731883 -0.03668762 -0.07077398 -0.0331825
000050 95 0b 43 3d fa 7b 96 3d 0b 2d 4d bd 22 fe 09 bd
       0.047618467 0.073478654 -0.050091784 -0.033689626
000060 b7 5d 28 3d
       0.041105

model.tcn.0.conv2.weight_g f4 [25, 1, 1]
000000 3f 64 17 3f 74 6f 16 3f 83 ce 0e 3f ea 9c 19 3f
       0.5913734 0.58763814 0.5578386 0.60005057
000010 61 fb 17 3f 62 ce 0e 3f d2 81 1a 3f 8a ce 22 3f
       0.5936795 0.55783665 0.6035434 0.63596404
000020 e2 ca 15 3f b0 c3 1b 3f 9d 23 10 3f 71 18 18 3f
       0.585127 0.6084547 0.5630434 0.59412295
000030 05 52 0b 3f 23 b6 12 3f 34 b9 26 3f e0 55 13 3f
       0.54422027 0.5730917 0.6512635 0.5755291
000040 d4 9d 1b 3f 50 21 10 3f 7d f8 15 3f 44 86 10 3f
       0.607877 0.5630083 0.5858229 0.56454873
000050 98 47 18 3f 8b ad 11 3f 47 bd 1d 3f fb 50 15 3f
       0.59484243 0.5690543 0.6161694 0.5832669
000060 aa 45 1d 3f
       0.61434424

model.tcn.0.conv2.weight_v f4 [25, 25, 7]
000000 3b fa 4d bc 13 85 1b 3d ed c6 7f bd cb 32 03 3d
       -0.012571867 0.037968706 -0.06244557 0.03203086
000010 66 64 89 3d 60 5d 4a 3d e1 43 33 bd e2 40 03 bc
       0.067086026 0.049405456 -0.043765906 -0.008011075
000020 b5 2a f2 3a 36 f4 16 3d bb 09 44 bc 53 ac 9e 3c
       0.0018475862 0.03685399 -0.011965211 0.01936928
000030 f7 54 f2 ba 03 e0 84 3c 25 e8 d4 ba ce a6 22 bd
       -0.0018488456 0.016220098 -0.0016243501 -0.03970986
000040 7c 65 44 bd e7 24 80 3d f5 40 87 3d 04 bd 5d 3c
       -0.047948346 0.062570386 0.066041864 0.013533834
000050 8d cd b2 3d 55 4d 75 3d 84 3c 0f bd 2d a4 8e bc
       0.08730612 0.059888203 -0.03496982 -0.01741227
000060 8d a4 18 bd b5 e1 12 3d d6 55 a7 3c 64 b3 66 3c
       -0.037266303 0.035859782 0.020426672 0.014080856
000070 bf 97 34 3d 9e e7 97 bc 4f 3e f0 bc 1c cc 27 bd
       0.04409003 -0.01854306 -0.029326586 -0.04096614
000080 00 2c d4 bc d1 07 72 3d 38 14 a9 bc bf cd 04 bc
       -0.025899887 0.059089486 -0.020639524 -0.008105694
000090 b7 60 30 3d 5d 20 38 bd 91 29 17 bd d2 2a 64 3d
       0.043060984 -0.04495274 -0.036904875 0.0557049
0000a0 89 d6 f1 bc 76 24 38 bd 46 8a 22 bc 24 1c 22 bc
       -0.029521244 -0.044956647 -0.009920662 -0.009894405
0000b0 61 bb 1d 3c 89 0e b4 3c 12 66 41 bd e3 38 75 3d
       0.009627194 0.021979587 -0.047216482 0.059868705
0000c0 9c fb 6a bd c1 b5 e1 3c 35 81 74 bc b1 39 cb bc
       -0.05736886 0.027552487 -0.0149233835 -0.024807783
0000d0 e9 59 96 3d 78 08 70 bd 75 f8 b1 3c 47 12 91 3d
       0.07341368 -0.058601826 0.021724919 0.07083564
0000e0 3b 2f 78 3d d5 58 36 bd ad 92 74 3c 51 66 89 3d
       0.060591917 -0.04451831 0.014927548 0.067089684
0000f0 11 96 69 bd 67 3f 56 3c 21 e8 2e bd ae 30 a0 3c
       -0.05702788 0.01307664 -0.042701844 0.019554462
000100 14 d5 65 bd 8c 84 27 3d 33 0a ed bb 8a 63 51 3d
       -0.05611141 0.04089789 -0.007233882 0.05112032
000110 f8 9f 7a 3c c6 db 4a 3c 21 2e ef bb e0 ea 5b bd
       0.015296929 0.0123815 -0.0072992 -0.05369079
000120 9a e9 9f bc 58 22 62 3c 7b 27 22 bd e5 63 a1 3d
       -0.01952057 0.0138021335 -0.039588433 0.078803815
000130 59 a8 9f bc 7b 8b c9 bc 32 8f 44 bc 08 c0 46 bd
       -0.019489454 -0.024602642 -0.011997031 -0.04852298
000140 f0 eb 16 bc 3b 3f d2 bc e9 fe 4a bd 9b 12 2e bc
       -0.009211525 -0.025664916 -0.049559508 -0.010624553
000150 9c 4e 56 3d 40 e4 63 3c 2b d4 49 3d 07 47 23 3b
       0.05232106 0.0139093995 0.049274605 0.0024914162
000160 a8 67 7d bc 5b 95 66 3d 6f 4c 9e bc d2 a2 80 bd
       -0.015466608 0.05629478 -0.019323556 -0.062810555
000170 ee e0 85 3c ce 6d 16 3d 42 a5 11 bd 5d 95 11 3d
       0.016342606 0.03672581 -0.035557993 0.035542835
000180 d7 3e ca bb 11 66 b7 3c 35 1c 31 3b 77 54 1a 3b
       -0.006172042 0.022387536 0.002702487 0.002354888
000190 29 18 22 bd 4b ef 97 3c ee f5 81 ba d3 6e 4d 3d
       -0.039573822 0.018546721 -0.0009915212 0.05015452
0001a0 6d 19 81 3c 39 a9 56 bd 73 4d 48 bd 84 6f fd bc
       0.015759194 -0.052407477 -0.048901986 -0.030936964
0001b0 29 5f 1f 3d 6d e0 0d bd 33 72 3d bc bd a2 2c 3d
       0.03890911 -0.034637857 -0.011562872 0.042147387
0001c0 c9 ed cb bc 6d 61 2a bc fe 2c 87 3d 7d b7 4a bc
       -0.024893658 -0.010399205 0.066003785 -0.012372849
0001d0 a5 bc ee 39 bd 20 6b 3d 83 14 0a 3d 80 df 2e 3d
       0.0004553545 0.05740427 0.033710968 0.042693615
0001e0 eb 30 8a bd ab f3 be 3c 9b 53 a9 bc a8 1f 5f bd
       -0.067476116 0.02330955 -0.020669749 -0.05447355
0001f0 c3 ec 2e bd 13 11 a6 bd 31 24 4b 3d 8d 06 36 bc
       -0.042706262 -0.081087254 0.04959506 -0.01110996
000200 0d 43 8a bd 81 99 82 3d 24 57 54 3d 24 8b 29 3d
       -0.0675107 0.06376935 0.051840916 0.04139246
000210 88 7f bf 3d 96 a5 94 3d 47 b6 98 3d 34 0c 96 3d
       0.093504965 0.072581455 0.07456642 0.07326546
000220 2f be 8c 3d 4e 02 01 3d 6d 4c 2e 3c a2 9a ce 3c
       0.06872212 0.03149634 0.0106383385 0.025220219
000230 f5 be bc bc e2 9a 18 3d fa b7 f4 3b 4d 49 d1 3c
       -0.023040274 0.037257083 0.007468221 0.025547648
000240 e3 3c 0c bd 47 06 cf bb fd eb ab 3d ba 9e 8c 3b
       -0.034237754 -0.006317887 0.083946206 0.0042913826
000250 80 ac 90 3c ba 10 7e bd 53 44 0e bd 8b ee 56 bc
       0.01766038 -0.06202767 -0.034733128 -0.0131183965
000260 73 3a c2 bc de b6 20 3c 75 46 70 bc 41 e2 78 3d
       -0.023709511 0.009809224 -0.014665236 0.060762648
000270 16 89 d4 bb 73 54 14 3d 17 61 14 bd 7a be 14 3d
       -0.0064860685 0.03621335 -0.036225405 0.036314465
000280 e3 4d 21 bd 22 2a 55 bd 33 93 16 bd fb 7d f8 3c
       -0.03938092 -0.052042134 -0.036761474 0.03033351
000290 88 6e 8a 3c bb 99 ad 3c 5f 66 33 3c 10 76 b8 3d
       0.016898409 0.021191468 0.0109497 0.09006894
0002a0 15 25 96 3d 9b 75 17 3d bf 45 7e 3d fb 31 fc 3b
       0.073312916 0.03697739 0.062078234 0.007696388
0002b0 32 ea 45 bc 1f 02 14 3d ea 15 a8 3d c5 c0 a8 bb
       -0.012079762 0.036134835 0.08207305 -0.005149933
0002c0 d2 b8 4b bd 00 21 f2 3c 69 ee 29 bc 48 37 c5 bc
       -0.049736805 0.029556751 -0.010371783 -0.024074212
0002d0 d8 14 83 3d b8 6e b8 3c c7 6d ef bc af 42 ff bc
       0.0640046 0.022513732 -0.02922715 -0.031159727
0002e0 b8 32 80 3d 21 2d 39 3d b6 dd 12 bd 72 a0 8e 3c
       0.06259674 0.045209054 -0.03585597 0.01741049
0002f0 66 f1 aa 3c 7f 0b 11 3d 59 00 6c bd d0 73 90 3b
       0.02086706 0.035411354 -0.05761752 0.004408337
000300 d6 84 f8 3c 37 14 3a 3d 7c 48 c2 3c fe 38 60 bc
       0.030336779 0.045429435 0.023716204 -0.013685463
000310 56 47 77 bd c3 61 31 3d 14 a8 8e 3d 94 75 40 bc
       -0.060370766 0.043306123 0.06965652 -0.011746783
000320 f9 44 54 bd bc e6 0f 3d 2a c9 f8 bc 22 bb 18 bd
       -0.05182359 0.035132155 -0.03036936 -0.03728784
000330 e9 53 89 3c 7b 79 67 bb 79 38 2a bb c8 0d 61 3d
       0.016763644 -0.003532021 -0.0025973602 0.054944783
000340 d7 06 f3 bb ae 4d 25 3d e8 7b 67 bc 2b ca 76 3d
       -0.007416587 0.040357284 -0.014128663 0.060251396
000350 2c 7b e9 3c 30 bf 89 3d 5c a6 d6 3c 46 0c ea bc
       0.028501116 0.06725919 0.026202373 -0.028570306
000360 c1 8e af 3c 67 e0 5b 3d 62 03 36 3c 61 17 f1 3c
       0.021430375 0.053680804 0.011109205 0.029430093
000370 9a 3c 39 bd 38 11 17 3d e9 07 75 bd 8c 51 82 3d
       -0.04522381 0.036881655 -0.059821997 0.0636321
000380 54 70 05 3d 2e 7f 0d 3c 0f c2 7f bd cd f9 91 3d
       0.032577828 0.008636279 -0.062440928 0.07127724
000390 8c 7f 5d 3d 40 af a5 3d a8 c7 48 3d 6b fd 58 3c
       0.054076716 0.08090067 0.049018532 0.013244013
0003a0 51 f3 aa bc 7b dd f6 bc 47 39 85 3c 08 8b 44 3c
       -0.020867975 -0.030134907 0.016262664 0.011996038
0003b0 7e 68 58 bc e2 87 d6 bb e1 1a f3 3c dd dc 7f bd
       -0.013208507 -0.00654696 0.029675903 -0.06246649
0003c0 20 3e 67 bd 00 ba 45 bc e8 88 5f 3d 44 c3 3f 3d
       -0.05645573 -0.012068272 0.054573923 0.04681708
0003d0 88 01 4e bd 66 fc 5a bc cf 21 75 3a e9 14 02 3d
       -0.05029443 -0.013365841 0.0009351046 0.031758223
0003e0 c5 ea 8a 3d 5b 6c 80 3c a4 02 19 bd 08 ea fe 3c
       0.0678306 0.015676668 -0.037356034 0.031117454
0003f0 8d 1b 02 bd bc e8 33 bd b8 41 07 3c 73 86 9f bc
       -0.031764556 -0.043923125 0.008255415 -0.01947329

model.tcn.0.net.0.bias f4 [25]
000000 15 c9 24 3d 2c ec f2 bc ae e8 11 3d e1 bc c1 3c
       0.04023083 -0.029653631 0.03562229 0.023649635
000010 58 d0 84 bd 4f d6 a0 bc fa 93 47 bd c7 ce 4b 3d
       -0.06485051 -0.01963344 -0.048725106 0.049757745
000020 ca 94 c8 3c dc 17 58 3c 61 54 28 bd 09 2a 8b bd
       0.02448501 0.013189282 -0.041096095 -0.06795127
000030 73 f4 88 bc 14 0e 30 bd e9 da 80 bd 29 04 44 bd
       -0.016718125 -0.042982176 -0.06291754 -0.04785553
000040 32 62 41 bd dd e7 82 bd 5d 4c 03 3d 56 59 28 3d
       -0.047212787 -0.06391881 0.032055248 0.041100822
000050 c0 e4 29 3d 60 bf 8f bd 9d 6d 61 3d ac 97 df 3c
       0.04147792 -0.07018924 0.055036176 0.027294002
000060 c7 02 29 3d
       0.041262414

model.tcn.0.net.0.weight_g f4 [25, 1, 1]
000000 0c b9 17 3f 18 1f 15 3f 04 c2 22 3f 95 d0 1d 3f
       0.59266734 0.5825057 0.63577294 0.61646396
000010 bf db 11 3f 52 92 1b 3f 55 c4 1b 3f f0 f6 15 3f
       0.5697593 0.6077014 0.60846454 0.5857992
000020 d0 53 0e 3f 77 63 12 3f d7 9c 11 3f 52 1e 0d 3f
       0.5559664 0.5718302 0.56879944 0.5512439
000030 5d 9e 15 3f 00 0f 15 3f 3c 7d 09 3f 1e 7e 0e 3f
       0.5844477 0.58226013 0.5370672 0.5566119
000040 fe f5 16 3f 9a 9a 0e 3f 66 ac 17 3f 8f f8 0f 3f
       0.58969104 0.55704653 0.59247434 0.56238645
000050 d3 48 18 3f 74 26 0d 3f f5 79 16 3f 38 7e 13 3f
       0.5948612 0.551368 0.5877984 0.5761447
000060 24 7a 14 3f
       0.5799887

model.tcn.0.net.0.weight_v f4 [25, 28, 7]
000000 37 59 43 3c da bb 46 3d 94 c3 2b bd f9 a5 0d bd
       0.011923126 0.048518993 -0.041934565 -0.034582112
000010 21 05 17 bc b1 89 1c 3d 04 89 ce 3c ec b4 31 3d
       -0.009217531 0.03821725 0.025211819 0.04338543
000020 f0 54 82 bc 2e 2f 01 3c 4a 92 f6 bc 57 8a b6 bc
       -0.015909642 0.007884784 -0.030099053 -0.022282762
000030 c9 29 95 bd f8 b9 5b bd 1b 1d e1 bc fd 2a 17 3a
       -0.072833605 -0.05364415 -0.027479699 0.00057665986
000040 e5 9a bc 3c 33 53 1e 3d 61 6e 1d bd fe e3 ba bc
       0.023023078 0.038653564 -0.038435344 -0.022813793
000050 06 a3 c0 3c 44 14 60 3d a6 36 7f bc f1 43 4d 3d
       0.023515236 0.054706827 -0.015576994 0.050113622
000060 8c 97 38 bc b2 11 e6 3b 06 6a 7e 3d 7c 57 7f bd
       -0.0112666 0.0070211524 0.06211283 -0.06233929
000070 7a ec 0a bd 03 ea 16 bc a8 e7 9e bc 62 bf 83 3d
       -0.033916928 -0.009211066 -0.019397572 0.06432988
000080 9a 81 1c bd ae 77 d5 bc ec ee 2f bd 19 4e 81 bd
       -0.038209535 -0.026058044 -0.042952463 -0.06313724
000090 7b f2 21 bd f1 b0 6e 3d d5 19 f7 3c 31 df 06 3d
       -0.039537888 0.058274213 0.030163685 0.032927696
0000a0 4c 06 52 3b b6 1e 10 bd dd 49 68 3c 4f 51 74 bd
       0.003204721 -0.03518554 0.014177767 -0.059647854
0000b0 6c 9d 37 bd ad ef f7 bc 7d 2f 3f 3d 1c 2b 35 3d
       -0.044827864 -0.030265654 0.046676148 0.044230565
0000c0 31 ed c6 bc 6e 44 83 3b 7d a1 13 3d 13 77 53 bc
       -0.024283024 0.00400596 0.03604268 -0.0129068075
0000d0 da 2e 47 bc 07 14 87 bd 78 fb 9d bd ed f1 03 be
       -0.012157166 -0.06595617 -0.077139795 -0.12885256
0000e0 5f a3 13 bb 0d 2b 85 bd ee af 86 bd 7f d7 6c bd
       -0.0022527797 -0.06502352 -0.06576525 -0.0578227
0000f0 d4 67 f5 bb 27 f6 17 bd 20 b9 25 be f1 22 15 3d
       -0.007489184 -0.037099984 -0.16183901 0.036410276
000100 ce 74 56 3d 0c fd e3 3b 95 87 92 3c d2 5c fa 3c
       0.052357487 0.006957656 0.017886916 0.030561838
000110 5d 79 64 3d 87 92 a0 3d 11 81 40 bd 14 61 ac bc
       0.055779804 0.07840448 -0.046998087 -0.021042384
000120 8c fa ea 3c 6b f5 69 3d 9b 26 74 3d 80 4e 75 3d
       0.028683923 0.057118814 0.05960713 0.059889317
000130 a3 95 6e 3c ba ec 94 bd f1 42 a8 bb 80 ad 58 bd
       0.014562043 -0.072717145 -0.005134933 -0.052899837
000140 ac 8a 96 bd c9 c2 55 3d 10 64 33 3d a0 e5 9b bd
       -0.07350668 0.052187715 0.0437966 -0.07612157
000150 39 be 01 3c 4c 4e 81 bc 8d a7 7b bc e3 d1 0e bd
       0.007918888 -0.015784405 -0.015359771 -0.034868132
000160 2a 2d ba 3c f4 74 31 bd c9 13 b5 3c 26 be 0a 3d
       0.022726614 -0.043324426 0.02210416 0.033872746
000170 56 26 42 3d 95 f1 c9 3c 30 37 85 bd 50 78 30 bd
       0.04739984 0.024651328 -0.06504667 -0.04308349
000180 b4 c3 04 3d 0f a3 5d 3c d5 d5 44 bd 3a eb 0b bd
       0.0324132 0.013527646 -0.04805549 -0.034159876
000190 fd 96 8c 3d d7 1d 51 3d 93 60 c0 bc 57 47 30 bc
       0.06864736 0.051053848 -0.02348355 -0.010759196
0001a0 b2 66 6b bd a1 28 17 3c 1f 8e 2b bd 62 81 34 bd
       -0.057470985 0.009225995 -0.041883584 -0.0440687
0001b0 74 68 82 3b c3 c8 8e 3c c3 15 b0 bc a5 e3 3c 3d
       0.003979737 0.017429715 -0.021494752 0.046115536
0001c0 d4 1c 18 bd 5d b1 7c 3d eb 8c 3f 3d b1 a1 59 bd
       -0.037136868 0.061692584 0.04676525 -0.053132717
0001d0 f1 2e 69 bc 16 16 95 3b 56 ed 34 3c 51 09 ac 3c
       -0.014232383 0.004549752 0.011042913 0.021000536
0001e0 b0 67 fd 3c 5f 29 1c 3c 79 52 d2 bc d7 29 17 3d
       0.030933231 0.009531348 -0.025674092 0.036905136
0001f0 27 26 67 bd 1e 74 04 bd bf 86 57 bc 46 01 ef bc
       -0.05643287 -0.0323373 -0.013154685 -0.029175412
000200 64 c6 a9 bc 7b 2c 53 bd d5 2c 40 bc 04 91 80 3c
       -0.020724483 -0.05155609 -0.011729439 0.015694149
000210 49 55 2a bd 53 cf 88 bb 1b e5 43 3d 7f 6e b4 bb
       -0.04158524 -0.0041751056 0.047825914 -0.005506336
000220 01 90 82 3b 4f 61 38 bb 8b 6d 8a 3c cb 3c 41 3d
       0.0039844518 -0.0028134172 0.016897937 0.047177117
000230 cb 0b 6c 3d df 2f 16 3d 23 e5 6d 3d 90 2a 35 bc
       0.057628434 0.036666747 0.05807985 -0.011057511
000240 8a ce 88 bd 2d ee 1a bd 33 54 2a 3d 96 8e c9 3b
       -0.06680019 -0.0378248 0.041584205 0.006151031
000250 45 66 ee bc 94 9f 47 bd db 4d 7d bd 3c 67 66 bd
       -0.0291015 -0.04873617 -0.061841827 -0.056250796
000260 fd 41 59 bc 7b f8 18 3d 50 b2 f6 3c 04 26 94 bd
       -0.013260362 0.037346344 0.030114323 -0.072338134
000270 14 37 1e 3d ca fa 68 bd 80 08 91 bc ea b2 f9 bc
       0.038626745 -0.056879796 -0.017704248 -0.03048082
000280 25 7e 6d bc b6 da 2e bc 64 f9 69 bd fc f4 5c bd
       -0.014495407 -0.010672262 -0.057122603 -0.053944573
000290 68 e9 c7 bb 10 4a b2 3b ef 78 cd bc 52 df ff 3c
       -0.0061008222 0.005440958 -0.02508208 0.031234417
0002a0 3e 73 55 bd e6 c4 fb 3a b2 af 81 3d 74 cb a4 bc
       -0.052111857 0.001920846 0.06332339 -0.020116545
0002b0 8c b8 85 3d ed 87 f4 3c 77 08 56 bd 5d f6 33 3d
       0.0652934 0.02984997 -0.052254166 0.043936122
0002c0 06 67 0b bc 45 80 05 bd c0 a0 4f 3d dc c3 6f bd
       -0.008508449 -0.03259303 0.050690413 -0.058536395
0002d0 72 00 44 3b b4 f5 a1 bc 73 66 46 3d ff f4 a6 3c
       0.0029907492 -0.01977048 0.048437547 0.020380495
0002e0 c0 55 0e 3d 91 a5 dc 3c 73 19 45 bc f8 5d 1e bc
       0.034749746 0.026934417 -0.012029993 -0.009665959
0002f0 ff 44 4a bd 00 18 30 3d 4d 8f 77 3d 60 fa 5d 3d
       -0.049382206 0.04299164 0.060439397 0.054193854
000300 d4 d7 12 bd 50 d9 67 3c 67 93 0b bd b3 31 b7 bc
       -0.03585036 0.014150932 -0.03407612 -0.022362566
000310 85 17 43 bd bb da 9c 3c 6f ee 3b bd ee ac ce bb
       -0.04762985 0.019147268 -0.045881685 -0.006307236
000320 e7 8c e0 3a c6 4f 3d 3d 5d 98 25 bd 2c db 15 bd
       0.0017131836 0.046218656 -0.040428508 -0.03658597
000330 16 30 ee bc 4f 25 76 3d 00 0d 66 bc 4d 88 87 3d
       -0.029075664 0.060094174 -0.014041185 0.06617794
000340 00 00 0c 3d 5f 78 9d 3c 77 f9 48 bb f5 9b 83 bc
       0.034179688 0.019222436 -0.003066627 -0.016065577
000350 55 84 09 3c 9b 6d 84 bc a2 c5 95 3b f2 56 76 3c
       0.008393367 -0.016165545 0.004570679 0.015035378
000360 e2 b6 2e bd 21 78 4f bd 83 09 25 3d 90 e7 8a bd
       -0.04265488 -0.050651673 0.040292274 -0.06782448
000370 8e 33 97 bc 03 86 68 3d bc 51 89 3c 40 13 95 ba
       -0.0184572 0.05676843 0.016762607 -0.0011373535
000380 91 b3 55 bd 55 e3 27 3d aa a0 37 bd 87 c2 90 bc
       -0.0521732 0.040988285 -0.044830956 -0.017670883
000390 58 4b ad bc 77 3b 26 bc 24 17 1e bb a6 4d 6f 3d
       -0.02115409 -0.010146013 -0.002412268 0.05842366
0003a0 4d fc 4c 3c b8 57 81 3d 45 b9 35 3d fb 4e 1b bd
       0.012511325 0.06315559 0.04436614 -0.03791712
0003b0 55 c1 06 3d b2 e6 2a bd 18 f0 36 bd 37 e0 88 3b
       0.03289922 -0.041723914 -0.044662565 0.004177119
0003c0 97 47 04 3c e5 b2 11 3d 61 9e 01 bd 4a b9 15 bc
       0.008073709 0.035570998 -0.031645183 -0.009138415
0003d0 24 7d ed 3c 89 1c b2 bd b8 a8 86 3d 74 b3 c3 bd
       0.028990336 -0.08696849 0.06575149 -0.09555712
0003e0 de 63 2e 3c a8 87 ae bd dd 53 b1 bd 49 44 eb bd
       0.010643927 -0.08521968 -0.08658574 -0.11487634
0003f0 37 d8 7a 3d 29 99 ec bb e3 fe 17 bd e9 d2 af bc
       0.061241355 -0.0072204066 -0.037108313 -0.021462874

model.tcn.0.net.4.bias f4 [25]
000000 26 02 97 bc 21 a7 c7 3a 0d bb 60 bc 93 fa 4d 3d
       -0.018433642 0.0015232303 -0.013716471 0.050287794
000010 2b 4e 9a 3d 7e 2c 51 3d e4 79 e4 3b 43 7f ac bc
       0.075344406 0.05106782 0.0069725383 -0.021056777
000020 9e 54 3c 3c b4 c6 5b bd 5c 99 e7 3b 61 89 9c 3d
       0.011494784 -0.053656295 0.0070678424 0.076433904
000030 aa 3f 22 3a 4f ed 9e 3d 6f 32 e9 bc 7a 10 97 3d
       0.0006189296 0.07760107 -0.028466431 0.073761895
000040 63 fd 57 3d c2 45 16 bd f3 f1 90 bd 60 ea 07 bd
       0.052731883 -0.03668762 -0.07077398 -0.0331825
000050 95 0b 43 3d fa 7b 96 3d 0b 2d 4d bd 22 fe 09 bd
       0.047618467 0.073478654 -0.050091784 -0.033689626
000060 b7 5d 28 3d
       0.041105

model.tcn.0.net.4.weight_g f4 [25, 1, 1]
000000 3f 64 17 3f 74 6f 16 3f 83 ce 0e 3f ea 9c 19 3f
       0.5913734 0.58763814 0.5578386 0.60005057
000010 61 fb 17 3f 62 ce 0e 3f d2 81 1a 3f 8a ce 22 3f
       0.5936795 0.55783665 0.6035434 0.63596404
000020 e2 ca 15 3f b0 c3 1b 3f 9d 23 10 3f 71 18 18 3f
       0.585127 0.6084547 0.5630434 0.59412295
000030 05 52 0b 3f 23 b6 12 3f 34 b9 26 3f e0 55 13 3f
       0.54422027 0.5730917 0.6512635 0.5755291
000040 d4 9d 1b 3f 50 21 10 3f 7d f8 15 3f 44 86 10 3f
       0.607877 0.5630083 0.5858229 0.56454873
000050 98 47 18 3f 8b ad 11 3f 47 bd 1d 3f fb 50 15 3f
       0.59484243 0.5690543 0.6161694 0.5832669
000060 aa 45 1d 3f
       0.61434424

model.tcn.0.net.4.weight_v f4 [25, 25, 7]
000000 3b fa 4d bc 13 85 1b 3d ed c6 7f bd cb 32 03 3d
       -0.012571867 0.037968706 -0.06244557 0.03203086
000010 66 64 89 3d 60 5d 4a 3d e1 43 33 bd e2 40 03 bc
       0.067086026 0.049405456 -0.043765906 -0.008011075
000020 b5 2a f2 3a 36 f4 16 3d bb 09 44 bc 53 ac 9e 3c
       0.0018475862 0.03685399 -0.011965211 0.01936928
000030 f7 54 f2 ba 03 e0 84 3c 25 e8 d4 ba ce a6 22 bd
       -0.0018488456 0.016220098 -0.0016243501 -0.03970986
000040 7c 65 44 bd e7 24 80 3d f5 40 87 3d 04 bd 5d 3c
       -0.047948346 0.062570386 0.066041864 0.013533834
000050 8d cd b2 3d 55 4d 75 3d 84 3c 0f bd 2d a4 8e bc
       0.08730612 0.059888203 -0.03496982 -0.01741227
000060 8d a4 18 bd b5 e1 12 3d d6 55 a7 3c 64 b3 66 3c
       -0.037266303 0.035859782 0.020426672 0.014080856
000070 bf 97 34 3d 9e e7 97 bc 4f 3e f0 bc 1c cc 27 bd
       0.04409003 -0.01854306 -0.029326586 -0.04096614
000080 00 2c d4 bc d1 07 72 3d 38 14 a9 bc bf cd 04 bc
       -0.025899887 0.059089486 -0.020639524 -0.008105694
000090 b7 60 30 3d 5d 20 38 bd 91 29 17 bd d2 2a 64 3d
       0.043060984 -0.04495274 -0.036904875 0.0557049
0000a0 89 d6 f1 bc 76 24 38 bd 46 8a 22 bc 24 1c 22 bc
       -0.029521244 -0.044956647 -0.009920662 -0.009894405
0000b0 61 bb 1d 3c 89 0e b4 3c 12 66 41 bd e3 38 75 3d
       0.009627194 0.021979587 -0.047216482 0.059868705
0000c0 9c fb 6a bd c1 b5 e1 3c 35 81 74 bc b1 39 cb bc
       -0.05736886 0.027552487 -0.0149233835 -0.024807783
0000d0 e9 59 96 3d 78 08 70 bd 75 f8 b1 3c 47 12 91 3d
       0.07341368 -0.058601826 0.021724919 0.07083564
0000e0 3b 2f 78 3d d5 58 36 bd ad 92 74 3c 51 66 89 3d
       0.060591917 -0.04451831 0.014927548 0.067089684
0000f0 11 96 69 bd 67 3f 56 3c 21 e8 2e bd ae 30 a0 3c
       -0.05702788 0.01307664 -0.042701844 0.019554462
000100 14 d5 65 bd 8c 84 27 3d 33 0a ed bb 8a 63 51 3d
       -0.05611141 0.04089789 -0.007233882 0.05112032
000110 f8 9f 7a 3c c6 db 4a 3c 21 2e ef bb e0 ea 5b bd
       0.015296929 0.0123815 -0.0072992 -0.05369079
000120 9a e9 9f bc 58 22 62 3c 7b 27 22 bd e5 63 a1 3d
       -0.01952057 0.0138021335 -0.039588433 0.078803815
000130 59 a8 9f bc 7b 8b c9 bc 32 8f 44 bc 08 c0 46 bd
       -0.019489454 -0.024602642 -0.011997031 -0.04852298
000140 f0 eb 16 bc 3b 3f d2 bc e9 fe 4a bd 9b 12 2e bc
       -0.009211525 -0.025664916 -0.049559508 -0.010624553
000150 9c 4e 56 3d 40 e4 63 3c 2b d4 49 3d 07 47 23 3b
       0.05232106 0.0139093995 0.049274605 0.0024914162
000160 a8 67 7d bc 5b 95 66 3d 6f 4c 9e bc d2 a2 80 bd
       -0.015466608 0.05629478 -0.019323556 -0.062810555
000170 ee e0 85 3c ce 6d 16 3d 42 a5 11 bd 5d 95 11 3d
       0.016342606 0.03672581 -0.035557993 0.035542835
000180 d7 3e ca bb 11 66 b7 3c 35 1c 31 3b 77 54 1a 3b
       -0.006172042 0.022387536 0.002702487 0.002354888
000190 29 18 22 bd 4b ef 97 3c ee f5 81 ba d3 6e 4d 3d
       -0.039573822 0.018546721 -0.0009915212 0.05015452
0001a0 6d 19 81 3c 39 a9 56 bd 73 4d 48 bd 84 6f fd bc
       0.015759194 -0.052407477 -0.048901986 -0.030936964
0001b0 29 5f 1f 3d 6d e0 0d bd 33 72 3d bc bd a2 2c 3d
       0.03890911 -0.034637857 -0.011562872 0.042147387
0001c0 c9 ed cb bc 6d 61 2a bc fe 2c 87 3d 7d b7 4a bc
       -0.024893658 -0.010399205 0.066003785 -0.012372849
0001d0 a5 bc ee 39 bd 20 6b 3d 83 14 0a 3d 80 df 2e 3d
       0.0004553545 0.05740427 0.033710968 0.042693615
0001e0 eb 30 8a bd ab f3 be 3c 9b 53 a9 bc a8 1f 5f bd
       -0.067476116 0.02330955 -0.020669749 -0.05447355
0001f0 c3 ec 2e bd 13 11 a6 bd 31 24 4b 3d 8d 06 36 bc
       -0.042706262 -0.081087254 0.04959506 -0.01110996
000200 0d 43 8a bd 81 99 82 3d 24 57 54 3d 24 8b 29 3d
       -0.0675107 0.06376935 0.051840916 0.04139246
000210 88 7f bf 3d 96 a5 94 3d 47 b6 98 3d 34 0c 96 3d
       0.093504965 0.072581455 0.07456642 0.07326546
000220 2f be 8c 3d 4e 02 01 3d 6d 4c 2e 3c a2 9a ce 3c
       0.06872212 0.03149634 0.0106383385 0.025220219
000230 f5 be bc bc e2 9a 18 3d fa b7 f4 3b 4d 49 d1 3c
       -0.023040274 0.037257083 0.007468221 0.025547648
000240 e3 3c 0c bd 47 06 cf bb fd eb ab 3d ba 9e 8c 3b
       -0.034237754 -0.006317887 0.083946206 0.0042913826
000250 80 ac 90 3c ba 10 7e bd 53 44 0e bd 8b ee 56 bc
       0.01766038 -0.06202767 -0.034733128 -0.0131183965
000260 73 3a c2 bc de b6 20 3c 75 46 70 bc 41 e2 78 3d
       -0.023709511 0.009809224 -0.014665236 0.060762648
000270 16 89 d4 bb 73 54 14 3d 17 61 14 bd 7a be 14 3d
       -0.0064860685 0.03621335 -0.036225405 0.036314465
000280 e3 4d 21 bd 22 2a 55 bd 33 93 16 bd fb 7d f8 3c
       -0.03938092 -0.052042134 -0.036761474 0.03033351
000290 88 6e 8a 3c bb 99 ad 3c 5f 66 33 3c 10 76 b8 3d
       0.016898409 0.021191468 0.0109497 0.09006894
0002a0 15 25 96 3d 9b 75 17 3d bf 45 7e 3d fb 31 fc 3b
       0.073312916 0.03697739 0.062078234 0.007696388
0002b0 32 ea 45 bc 1f 02 14 3d ea 15 a8 3d c5 c0 a8 bb
       -0.012079762 0.036134835 0.08207305 -0.005149933
0002c0 d2 b8 4b bd 00 21 f2 3c 69 ee 29 bc 48 37 c5 bc
       -0.049736805 0.029556751 -0.010371783 -0.024074212
0002d0 d8 14 83 3d b8 6e b8 3c c7 6d ef bc af 42 ff bc
       0.0640046 0.022513732 -0.02922715 -0.031159727
0002e0 b8 32 80 3d 21 2d 39 3d b6 dd 12 bd 72 a0 8e 3c
       0.06259674 0.045209054 -0.03585597 0.01741049
0002f0 66 f1 aa 3c 7f 0b 11 3d 59 00 6c bd d0 73 90 3b
       0.02086706 0.035411354 -0.05761752 0.004408337
000300 d6 84 f8 3c 37 14 3a 3d 7c 48 c2 3c fe 38 60 bc
       0.030336779 0.045429435 0.023716204 -0.013685463
000310 56 47 77 bd c3 61 31 3d 14 a8 8e 3d 94 75 40 bc
       -0.060370766 0.043306123 0.06965652 -0.011746783
000320 f9 44 54 bd bc e6 0f 3d 2a c9 f8 bc 22 bb 18 bd
       -0.05182359 0.035132155 -0.03036936 -0.03728784
000330 e9 53 89 3c 7b 79 67 bb 79 38 2a bb c8 0d 61 3d
       0.016763644 -0.003532021 -0.0025973602 0.054944783
000340 d7 06 f3 bb ae 4d 25 3d e8 7b 67 bc 2b ca 76 3d
       -0.007416587 0.040357284 -0.014128663 0.060251396
000350 2c 7b e9 3c 30 bf 89 3d 5c a6 d6 3c 46 0c ea bc
       0.028501116 0.06725919 0.026202373 -0.028570306
000360 c1 8e af 3c 67 e0 5b 3d 62 03 36 3c 61 17 f1 3c
       0.021430375 0.053680804 0.011109205 0.029430093
000370 9a 3c 39 bd 38 11 17 3d e9 07 75 bd 8c 51 82 3d
       -0.04522381 0.036881655 -0.059821997 0.0636321
000380 54 70 05 3d 2e 7f 0d 3c 0f c2 7f bd cd f9 91 3d
       0.032577828 0.008636279 -0.062440928 0.07127724
000390 8c 7f 5d 3d 40 af a5 3d a8 c7 48 3d 6b fd 58 3c
       0.054076716 0.08090067 0.049018532 0.013244013
0003a0 51 f3 aa bc 7b dd f6 bc 47 39 85 3c 08 8b 44 3c
       -0.020867975 -0.030134907 0.016262664 0.011996038
0003b0 7e 68 58 bc e2 87 d6 bb e1 1a f3 3c dd dc 7f bd
       -0.013208507 -0.00654696 0.029675903 -0.06246649
0003c0 20 3e 67 bd 00 ba 45 bc e8 88 5f 3d 44 c3 3f 3d
       -0.05645573 -0.012068272 0.054573923 0.04681708
0003d0 88 01 4e bd 66 fc 5a bc cf 21 75 3a e9 14 02 3d
       -0.05029443 -0.013365841 0.0009351046 0.031758223
0003e0 c5 ea 8a 3d 5b 6c 80 3c a4 02 19 bd 08 ea fe 3c
       0.0678306 0.015676668 -0.037356034 0.031117454
0003f0 8d 1b 02 bd bc e8 33 bd b8 41 07 3c 73 86 9f bc
       -0.031764556 -0.043923125 0.008255415 -0.01947329

model.tcn.0.downsample.weight f4 [25, 28, 1]
000000 13 51 7b 3c 7e 47 bc 39 9e 5c 0b bd 8a 48 08 bb
       0.015339154 0.0003591142 -0.034023874 -0.002079519
000010 77 e1 8a 3b f1 8f 1e bc e5 75 e7 bb 2e a2 c6 bd
       0.0042383033 -0.009677873 -0.0070636147 -0.09698902
000020 de 2a 0a be c9 95 3f bb 01 01 cc bc 29 e2 89 3c
       -0.13492915 -0.0029233566 -0.024902822 0.016831474
000030 11 a9 56 3a 1e 5b 40 bc 4e af 0d 3c 80 22 51 3c
       0.0008188645 -0.011740474 0.008647753 0.012764573
000040 99 8e a3 bb 66 a7 3c 3c 3d 8f 2f 3c 24 fa 2b 3c
       -0.004991364 0.01151452 0.010715303 0.01049665
000050 be 09 f8 bb 8d 0e 92 bc 57 eb 27 bc 0a b8 ee bb
       -0.0075695207 -0.017829204 -0.0102489805 -0.0072851228
000060 a5 e6 af 3a 76 f5 8a bb 5e 34 86 3c e3 f6 8c 3c
       0.0013420178 -0.004240687 0.016382392 0.017207569
000070 28 7d dc 3c bc c2 22 ba f2 9b d7 3c 93 bd 08 bb
       0.026915148 -0.0006208827 0.026319478 -0.0020864948
000080 aa 41 1e bc da 54 ed bb 54 2e 6b bb 52 f0 e9 bd
       -0.00965921 -0.007242781 -0.0035885768 -0.114227906
000090 b7 7d 00 be 74 0c 0c bc 4c 6d b2 bb 21 cc 8a 3c
       -0.12547956 -0.008547891 -0.005445158 0.01694304
0000a0 64 39 1a bb 95 72 ac bb cf e2 48 3c dc 29 97 3a
       -0.0023532743 -0.0052626827 0.012261107 0.0011532861
0000b0 ce 09 1e bc 43 86 df 3b 83 20 b7 bc 34 ba 2f 3a
       -0.009645892 0.006821425 -0.02235437 0.00067034666
0000c0 d2 fb e8 ba 7c d4 e0 bb 5e 3d fb 3b f3 f2 b4 3b
       -0.0017775244 -0.0068612676 0.0076672276 0.005522126
0000d0 a1 11 d0 3b 40 72 9b bc c0 7b e0 3a a2 08 bc 3c
       0.006349758 -0.018975377 0.0017126724 0.022953335
0000e0 d0 ba 9f 3a e9 71 ea bb 8f 78 30 bc 55 87 83 3c
       0.0012186412 -0.0071546924 -0.010770931 0.016055742
0000f0 07 34 0b b9 05 4e b6 3c ed 12 a1 3c 12 a6 47 bc
       -0.00013275455 0.022254 0.019662345 -0.01218559
000100 7b c8 28 3c d8 70 fc ba 78 8e 86 3c 56 a1 5a bc
       0.0103017045 -0.0019259704 0.016425356 -0.01334413
000110 dc 55 c1 bb 36 84 29 3b f9 04 36 3c 21 12 3b bb
       -0.005900128 0.0025866157 0.011109584 -0.0028544741
000120 cf ea 86 bb e9 bd 49 bb 8a 02 12 3c 13 05 20 bc
       -0.004117347 -0.0030783361 0.008911738 -0.009766835
000130 02 61 a8 3b b0 02 9e 3a 7b e9 26 3b 8e f7 22 bc
       0.0051385174 0.0012055244 0.0025468755 -0.009946717
000140 97 04 de ba c6 e1 5c 3b e2 75 de bc 7e 48 6c 3b
       -0.0016938624 0.0033703907 -0.02715582 0.003605395
000150 34 72 1c 3d ee fc 72 3b 4c 35 76 3c 91 54 25 3c
       0.03819485 0.0037077027 0.015027355 0.010090963
000160 f4 90 b9 ba 7f cb 03 bc c3 1d ad 3c f5 f7 05 be
       -0.0014157579 -0.008044123 0.021132356 -0.1308287
000170 a2 95 d8 bd 19 33 f6 3b bd 67 35 3c 19 f3 83 bb
       -0.10575415 0.0075134155 0.011072096 -0.0040267822
000180 d0 b2 e7 bb a6 51 6f bc aa 61 26 bb d6 81 77 bb
       -0.0070708767 -0.014606869 -0.0025387802 -0.0037766597
000190 14 8d a9 ba d9 ab 97 3b 24 56 65 3b 1b ea 48 3c
       -0.0012935721 0.00462864 0.003499397 0.012262846
0001a0 c5 d2 92 bc de 98 ae ba 09 45 73 3c 00 77 f1 ba
       -0.017922768 -0.0013320704 0.014848002 -0.0018422306
0001b0 a8 74 3a 3c a4 3a 2a bc e4 89 32 bb c5 a2 54 3c
       0.011380352 -0.010389958 -0.0027242834 0.01297826
0001c0 22 0d 91 bb 11 fe 83 3a a9 2b 0a 3c d0 74 08 bd
       -0.0044266144 0.0010070225 0.008433261 -0.033314526
0001d0 fb 70 03 bb ab 19 42 bc fe f8 24 bb e0 08 be bd
       -0.0020056355 -0.01184694 -0.0025172825 -0.092790365
0001e0 57 0f d7 3b aa d5 0e bb 13 47 03 3c 4a cb 38 bd
       0.006563108 -0.0021794834 0.008012551 -0.045115747
0001f0 8a 4c 1f 3c 13 7d a7 bc 48 18 4f 3c fa 4d 9f bb
       0.009722838 -0.020445382 0.012640066 -0.0048615905
000200 76 37 96 bc 7f 09 54 bc bb 4f 4f bc 88 e9 b4 3c
       -0.018336993 -0.012941717 -0.012653287 0.022084013
000210 e0 a2 8c bc ae d8 28 39 e9 37 6c bd 09 f6 5c bc
       -0.017167509 0.00016102448 -0.057670508 -0.013486394
000220 d4 4c d9 bb fc 13 ea 3b 28 96 e9 bc a0 55 85 bb
       -0.006631473 0.0071434956 -0.028513983 -0.004069045
000230 2d 92 cf 3b 07 d5 ef bb 2d 97 a7 bb 52 37 2a bc
       0.006334564 -0.007319096 -0.005114457 -0.010389166
000240 94 ce 12 bc 35 4d 12 3c 0a cd c2 39 ef 2c 88 bc
       -0.008960385 0.00892954 0.0003715533 -0.016622989
000250 11 2e 31 3c fc ef b8 3b 35 ec 34 bb 6e ca 62 bc
       0.010814206 0.0056438427 -0.002760661 -0.013842208
000260 cc a9 1b 3c 17 50 a2 bc a8 ef ec 3b c3 f6 46 bb
       0.009500932 -0.01981358 0.0072307177 -0.0030359484
000270 59 d6 1f 3c ad 1f 71 3c 7b c5 df 3b 7e ca 32 ba
       0.009755694 0.014717025 0.0068289614 -0.0006820335
000280 8e ce 35 3b a2 c8 49 bc 81 99 b0 bc 02 b8 c2 3b
       0.0027741524 -0.012315901 -0.021557571 0.0059423456
000290 34 b7 69 3b b4 81 b1 bb b7 87 a2 bc 66 ec 81 3c
       0.0035662176 -0.005417073 -0.019840105 0.015859794
0002a0 2f 7b 94 3c 4b 65 87 3b 15 ac a9 bb 6c ed b3 39
       0.018125145 0.004131948 -0.0051779845 0.00034318434
0002b0 9a 0f a7 bc 4d f3 49 3b db 0f 0b bc 2f 0d 33 be
       -0.020393182 0.0030815185 -0.008487667 -0.17485498
0002c0 a0 fc 3a be a9 0f f2 bb 08 19 03 3b 61 f6 77 ba
       -0.18260431 -0.0073871207 0.0020003933 -0.00094590156
0002d0 a7 0f 2d bc 2c 5a 63 3c d1 13 1b bc 5d ef 11 ba
       -0.010562814 0.013876479 -0.009465174 -0.0005566979
0002e0 6d 9e 4f bc 68 e9 8e 3b 60 d4 66 bc 6d 74 42 3b
       -0.012672049 0.0043613203 -0.01408872 0.0029671446
0002f0 f4 70 e8 bb ca 1a 80 bb 3f 7e cc bb 68 c7 e0 ba
       -0.007093543 -0.0039094435 -0.0062406356 -0.0017149271
000300 18 88 64 bb 96 67 93 bc cf 24 f5 39 14 9c be 3b
       -0.0034871157 -0.01799373 0.00046757466 0.005816946
000310 75 61 ff 3c 0b 0d 21 3c fa da bf bc 76 fa 64 bc
       0.0311744 0.00982977 -0.023419846 -0.01397573
000320 dc 7e 80 bb 73 ef 88 bc f3 9b 8a bc 9f 48 18 be
       -0.003921373 -0.01671574 -0.016920066 -0.14871453
000330 59 90 47 be 7d f6 74 bc 62 56 49 bc 05 c8 9a bc
       -0.19488658 -0.0149513455 -0.012288662 -0.018894205
000340 e0 c9 92 3b 04 7b 0f 3c b2 ef 13 3c 1d 35 e7 3a
       0.004479632 0.008757357 0.009029316 0.001763973
000350 52 e8 73 bc 1c 13 8d 3c ae a7 24 3b 2f da 04 bc
       -0.014886932 0.017221026 0.002512436 -0.00810866
000360 fe 56 12 bc 1b 13 27 bb 0b 57 84 bc 58 d1 23 bc
       -0.008931873 -0.0025493565 -0.016154787 -0.009998642
000370 a5 87 66 3b 17 66 5a bc 03 61 bf 3c 6d 8c 89 3c
       0.0035176065 -0.013330004 0.023361688 0.016790593
000380 a9 31 88 bb 8d b7 84 bb 4d 58 b1 bd c5 99 cd 3a
       -0.0041563106 -0.0040502013 -0.0865942 0.0015686086
000390 45 c8 d0 3c f8 b0 57 3c 1b 4b 86 38 8e 69 4e 3d
       0.025486121 0.013164751 6.4036074e-05 0.050393634
0003a0 d4 c0 3c 3d 82 ad 04 bc e2 68 52 3c a9 62 d0 bb
       0.046082333 -0.008098008 0.012842389 -0.0063594175
0003b0 f8 fe 05 3c d5 3e 61 3c a6 71 c9 bb 11 69 02 3b
       0.008178465 0.0137478905 -0.006147581 0.001989905
0003c0 45 ff 98 bc bf 38 85 3b e4 f4 fd 3b 75 ea c2 bb
       -0.01867641 0.0040656026 0.0077501405 -0.0059483596
0003d0 1e 74 08 3c 88 55 a7 bc 94 09 08 bc 51 01 07 bd
       0.008328466 -0.020426527 -0.008303065 -0.03296024
0003e0 d8 f6 3a 3c ab ae 80 3b 56 36 3b 3c 66 c1 e8 bc
       0.011411391 0.003927072 0.011426529 -0.028412532
0003f0 93 f4 bc 3c 17 b1 e8 3a e1 d3 77 3c 61 24 bb 3b
       0.02306584 0.0017752972 0.015126199 0.005711124

model.tcn.0.downsample.bias f4 [25]
000000 44 28 53 bd 5f 02 12 3e 21 00 16 3d 44 8f 45 3d
       -0.051552072 0.14258717 0.036621217 0.048232332
000010 83 5a 82 3d 77 72 69 3d db 81 f8 bd ef 99 28 bc
       0.0636492 0.056993928 -0.12134143 -0.010290607
000020 7d 8f 0f bd 7c 68 73 bd 82 fd e3 bd ee 41 85 bc
       -0.03504895 -0.059425816 -0.11132337 -0.01626679
000030 87 31 b3 3b 07 0b 58 bd 1b 10 e3 bc 55 eb 29 bd
       0.0054685506 -0.05274489 -0.02771764 -0.041484196
000040 9b ca 95 bb f1 55 1c be b4 e0 2d 3e 0a 10 c9 bd
       -0.0045712716 -0.15267159 0.16980249 -0.09817512
000050 3f 34 de 3d ff d7 25 be 7c e7 28 bb 2b 70 97 bc
       0.10849809 -0.16195677 -0.002577274 -0.018486103
000060 7c ae 12 be
       -0.14324373

model.tcn.1.conv1.bias f4 [25]
000000 38 4f 1c bd d7 a1 a9 3b a5 ca 41 bd 76 2f 98 3d
       -0.038161486 0.0051767635 -0.047312398 0.074309275
000010 a8 d2 76 bd 86 58 75 bd ab 62 81 3d 34 9e 6a bd
       -0.06025949 -0.059898876 0.063176475 -0.05727978
000020 2d 4a 6c bc 11 b8 80 bc bc bd 1d 3d f1 0a b9 3d
       -0.014421982 -0.01571277 0.038511023 0.0903529
000030 ee ba 28 bd 50 60 5b bd dc cf 10 3d ef 18 ed 3c
       -0.041193895 -0.053558648 0.03535448 0.028942553
000040 d6 f1 40 3d c8 45 51 3d d6 99 46 bd 9a f4 0f 3d
       0.047105633 0.05109194 -0.048486553 0.03514538
000050 93 8b 82 bc cf 15 57 3d be ab a5 3c 9d ef 77 3d
       -0.015935695 0.052511033 0.020223495 0.060531247
000060 14 39 8a bc
       -0.01687292

model.tcn.1.conv1.weight_g f4 [25, 1, 1]
000000 cb 7e 14 3f 04 f7 10 3f 1f 38 18 3f 92 71 1b 3f
       0.5800597 0.56626916 0.59460634 0.6072017
000010 93 e9 13 3f 18 a9 0e 3f 7b f0 23 3f ff e2 16 3f
       0.5777828 0.55726767 0.6403882 0.5894012
000020 80 31 21 3f 14 08 10 3f 35 01 1a 3f aa da 1f 3f
       0.62966156 0.56262326 0.6015809 0.6244303
000030 8c 43 1d 3f 0d 59 18 3f 83 0e 20 3f 47 53 16 3f
       0.61431193 0.5951088 0.62522143 0.5872082
000040 56 16 17 3f 7b 32 10 3f ad e7 17 3f a7 6e 1d 3f
       0.59018457 0.5632703 0.59337884 0.6149697
000050 27 f6 18 3f 85 dd 1a 3f 4d 13 1d 3f ef 1a 19 3f
       0.597506 0.6049426 0.61357576 0.5980672
000060 c9 fc 11 3f
       0.57026345
