etc/ckpts/participants/661_test_30_all/sigmoid/TCN/epochs/TCN-chpkt-pecanstreet-participant-id-661_test_30_all_epoch=155.ckpt (torch, 993745 bytes, 201 tensors)

model.tcn.0.conv1.bias f4 [25]
0.042987138 -0.03989186 0.044528447 0.028740184 -0.0641848 0.022761999 -0.056448027 0.05198128
0.044629328 0.009718544 -0.034868218 -0.066414006 -0.014969159 -0.04016759 -0.05955166 -0.050325338
-0.057035472 -0.0559456 0.031651273 0.051037222 0.041426256 -0.06552901 0.050215896 0.0292778
0.042675264
00000000: 4813 303d a665 23bd 7663 363d 8970 eb3c
00000010: 5273 83bd 5f77 ba3c 0c36 67bd 53ea 543d
00000020: 3ecd 363d 873a 1f3c fad1 0ebd 1104 88bd
00000030: 3441 75bc c586 24bd 71ec 73bd f121 4ebd
00000040: 079e 69bd 3727 65bd c4a4 013d 680c 513d
00000050: 94ae 293d 1334 86bd 2faf 4d3d ffd7 ef3c
00000060: 42cc 2e3d

model.tcn.0.conv1.weight_g f4 [25, 1, 1]
0.5819673 0.57342625 0.6395495 0.59832335 0.5668348 0.6092762 0.5842117 0.57360405
0.54871756 0.5550102 0.5541365 0.5443346 0.57750374 0.56612396 0.5366947 0.55146694
0.58536404 0.54487723 0.58112097 0.54231125 0.57726896 0.5372623 0.6340384 0.55150837
0.56009334
00000000: cffb 143f 10cc 123f 84b9 233f b82b 193f
00000010: 161c 113f 86f9 1b3f e68e 153f b7d7 123f
00000020: c178 0c3f 2615 0e3f e4db 0d3f 8359 0b3f
00000030: 49d7 133f 80ed 103f d364 093f f02c 0d3f
00000040: 6bda 153f 137d 0b3f 58c4 143f e9d4 0a3f
00000050: e6c7 133f 068a 093f 5750 223f a72f 0d3f
00000060: 4762 0f3f

model.tcn.0.conv1.weight_v f4 [25, 28, 7]
0.021432715 0.05372193 -0.032596502 -0.028953508 -0.0079194335 0.03211347 0.029894946 0.038902927
-0.017973522 0.0056291865 -0.030156996 -0.022343105 -0.07031303 -0.049999293 -0.034101743 -0.0012387716
0.015222371 0.03407734 -0.028892256 -0.020019546 0.019151807 0.05164003 -0.01681068 0.046972003
-0.014264347 0.0015759217 0.056475747 -0.06278211 -0.027476534 -0.0035777392 -0.013134044 0.06707694
-0.029192245 -0.018823976 -0.035978552 -0.062058844 -0.039360356 0.054884706 0.025786137 0.03016671
0.0016842624 -0.033970594 0.017847914 -0.0541048 -0.039990302 -0.027997125 0.045876607 0.044967555
-0.019395696 -0.035408832 0.075134024 -0.02861705 0.07089599 0.035371322 -0.09774212 -0.1666757
-0.014414755 -0.069216974 -0.07121631 -0.05432127 0.006974043 -0.026433056 -0.16635995 0.044990696
0.06072298 0.016660139 0.028867604 0.042590376 0.06619992 0.08852017 -0.04462739 -0.019314805
0.029270539 0.056707904 0.060415253 0.060459785 0.016709344 -0.070788816 -0.005519766 -0.050553735
-0.07611663 0.04322699 0.036095943 -0.07710919 0.0062848898 -0.014783828 -0.01368711 -0.031310562
0.025629863 -0.03852939 0.024053693 0.033568002 0.047321845 0.024668245 -0.06149142 -0.042224985
0.031268798 0.013377454 -0.05214444 -0.039502554 0.059525732 0.04176771 -0.031385988 -0.019315265
-0.064246655 0.007920462 -0.04199933 -0.0445902 0.0033163112 0.017703222 -0.020785032 0.044541903
-0.03709714 0.058549073 0.044163696 -0.053159658 -0.014699557 0.0029748245 0.010592704 0.019592382
0.02888421 0.008032878 -0.027206097 0.034027103 -0.056865014 -0.03210839 -0.01445721 -0.030072885
-0.022481149 -0.05188709 -0.012393645 0.013718378 -0.04093561 -0.0005862609 0.04849091 -0.0029864744
0.0032435104 -0.005618789 0.013020828 0.043461774 0.050949555 0.02994235 0.049528114 -0.016679632
-0.07144953 -0.04374262 0.032614596 0.0046654856 -0.02996012 -0.049340922 -0.060590938 -0.05461896
-0.013643492 0.03403182 0.032412346 -0.06624805 0.04194903 -0.05464007 -0.020037368 -0.031154139
-0.011940893 -0.0034223967 -0.048428938 -0.04519373 0.00060935214 0.010979171 -0.017571924 0.03907368
-0.05116217 0.0005745629 0.059871778 -0.02237386 0.061456326 0.026367098 -0.051299106 0.043313198
-0.0068349014 -0.031037096 0.051950164 -0.05045208 0.008218076 -0.015707668 0.047467254 0.021633003
0.036154784 0.02748251 -0.011024813 -0.009141079 -0.04492333 0.042809356 0.058735996 0.051957086
-0.037458856 0.008943341 -0.03785279 -0.024002716 -0.029877294 0.032597795 -0.027910342 0.006299655
0.013174569 0.052661274 -0.029153408 -0.027938696 -0.022876823 0.06334912 -0.009128239 0.065670386
0.031552527 0.017611947 -0.0022473044 -0.0064281058 0.015202035 -0.0101171825 0.014926881 0.022778133
-0.027740985 -0.06690756 0.024329102 -0.08189242 -0.031988524 0.042684797 0.0034242847 -0.0067366087
-0.025837915 0.059877932 -0.02353084 -0.0010501174 -0.0021073164 0.0039787022 0.009155847 0.06328526
0.020976549 0.06918633 0.04907351 -0.026127731 0.03834752 -0.031776328 -0.060952332 -0.010169155
-0.006923004 0.021214979 -0.04197798 -0.020564549 0.023492973 -0.11886219 0.09423377 -0.114591405
0.044463575 -0.07575507 -0.092189275 -0.14970641 0.036689486 -0.014042934 -0.05227429 -0.020948417
00000000: a993 af3c 870b 5c3d e983 05bd e82f edbc
00000010: 83c0 01bc 6a89 033d 3fe6 f43c ad58 1f3d
00000020: 353d 93bc 0a75 b83b ce0b f7bc e308 b7bc
00000030: 4700 90bd 0fcc 4cbd 45ae 0bbd 475e a2ba
00000040: 4067 793c ae94 0b3d 74af ecbc 0800 a4bc
00000050: 40e4 9c3c 7f84 533d 8db6 89bc b765 403d
00000060: 02b5 69bc 288f ce3a 1d53 673d e893 80bd
00000070: 7816 e1bc 8178 6abb 2c30 57bc a25f 893d
00000080: 9324 efbc bd34 9abc 3f5e 13bd 6a31 7ebd
00000090: 5338 21bd c9ce 603d 733d d33c 2d20 f73c
000000a0: 78c2 dc3a c024 0bbd ca35 923c ff9c 5dbd
000000b0: dfcc 23bd 3a5a e5bc 1ce9 3b3d e62f 383d
000000c0: b9e3 9ebc da08 11bd dedf 993d 4e6e eabc
000000d0: eb31 913d 85e1 103d 052d c8bd 09ad 2abe
000000e0: dd2b 6cbc a1c1 8dbd dbd9 91bd fb7f 5ebd
000000f0: 8386 e43b 238a d8bc 435a 2abe 2a48 383d
00000100: a9b8 783d d87a 883c c17b ec3c 3f73 2e3d
00000110: d393 873d 104a b53d 36cb 36bd 153a 9ebc
00000120: c5c8 ef3c 8c46 683d fc75 773d aea4 773d
00000130: 09e2 883c baf9 90bd 27df b4bb 6f11 4fbd
00000140: 09e3 9bbd c90e 313d 57d9 133d 6ceb 9dbd
00000150: 7af1 cd3b de37 72bc e63f 60bc 813f 00bd
00000160: b8f5 d13c fed0 1dbd 400c c53c 9a7e 093d
00000170: 8dd4 413d 0f15 ca3c 6dde 7bbd 1bf4 2cbd
00000180: b613 003d 1c2d 5b3c 6995 55bd 6ecd 21bd
00000190: 41d1 733d 9e14 2b3d 988e 00bd 0c3b 9ebc
000001a0: c093 83bd d3c4 013c 7d07 2cbd 37a4 36bd
000001b0: 7856 593b 5906 913c 5f45 aabc 9271 363d
000001c0: 2cf3 17bd 27d1 6f3d fee4 343d f1bd 59bd
000001d0: 69d6 70bc 46f5 423b 058d 2d3c 3480 a03c
000001e0: 949e ec3c 559c 033c 52df debc 0160 0b3d
000001f0: 4aeb 68bd 1684 03bd efdd 6cbc 695b f6bc
00000200: 632a b8bc 8f87 54bd b70e 4bbc 0cc3 603c
00000210: 19ac 27bd 4eaf 19ba 689e 463d bab8 43bb
00000220: 1391 543b d11d b8bb 5055 553c f904 323d
00000230: 7bb0 503d a949 f53c fedd 4a3d b9a3 88bc
00000240: 2254 92bd 762b 33bd e296 053d eee0 983b
00000250: ed6e f5bc b519 4abd 342e 78bd 21b8 5fbd
00000260: f488 5fbc f364 0b3d cfc2 043d 0fad 87bd
00000270: bfd2 2b3d 44ce 5fbd 6825 a4bc f736 ffbc
00000280: bca3 43bc 4a4a 60bb 6c5d 46bd 101d 39bd
00000290: eebc 1f3a fbe1 333c fff2 8fbc b90b 203d
000002a0: 6c8f 51bd 439e 163a 1c3c 753d 6349 b7bc
000002b0: a1b9 7b3d d0ff d73c 031f 52bd 2e69 313d
000002c0: 4ff7 dfbb 8241 febc b2c9 543d d7a6 4ebd
000002d0: 1ca5 063c 5ead 80bc 066d 423d b237 b13c
000002e0: 0a17 143d 0023 e13c 6ba1 34bc 77c4 15bc
000002f0: 8701 38bd dd58 2f3d 2895 703d f4d0 543d
00000300: 756e 19bd 1787 123c 870b 1bbd 58a1 c4bc
00000310: 3ac1 f4bc 4485 053d 3ba4 e4bc 566d ce3b
00000320: 26da 573c 59b3 573d 21d3 eebc b1df e4bc
00000330: 2d68 bbbc 2fbd 813d 9c8e 15bc 327e 863d
00000340: 393d 013d ee46 903c 8347 13bb dca2 d2bb
00000350: f511 793c 8ac2 25bc e08f 743c 3599 ba3c
00000360: 1041 e3bc d506 89bd d34d c73c 37b7 a7bd
00000370: 6606 03bd 41d6 2e3d f769 603b c5be dcbb
00000380: 09aa d3bc 9042 753d c0c3 c0bc 18a4 89ba
00000390: e71a 0abb c65f 823b 6802 163c b49b 813d
000003a0: 03d7 ab3c 90b1 8d3d 4e01 493d d309 d6bc
000003b0: 4a12 1d3d e527 02bd 27a9 79bd 879c 26bc
000003c0: 5eda e2bb 09cb ad3c 1af1 2bbd fc76 a8bc
000003d0: 5674 c03c 056e f3bd a3fd c03d e6ae eabd
000003e0: 701f 363d 7925 9bbd bbcd bcbd a34c 19be
000003f0: b747 163d 5614 66bc 911d 56bd 049c abbc

model.tcn.0.conv2.bias f4 [25]
-0.018866835 0.006706018 -0.010632164 0.050331537 0.086147465 0.057944596 -0.0026322454 0.0007923374
0.011909656 -0.0496054 0.0041265176 0.06662908 0.009545617 0.0817497 -0.0027579442 0.08279055
0.07585273 -0.03770573 -0.06618136 -0.029746076 0.053473428 0.070968755 -0.05259911 -0.038841296
0.045082882
00000000: 9f8e 9abc 28be db3b 8732 2ebc 7128 4e3d
00000010: 156e b03d 5057 6d3d c081 2cbb ddb4 4f3a
00000020: b820 433c 082f 4bbd bd37 873b d474 883d
00000030: 3865 1c3c 636c a73d a0be 34bb 188e a93d
00000040: ad58 9b3d 5371 1abd 188a 87bd 0bae f3bc
00000050: f406 5b3d 1158 913d 2a72 57bd 0d18 1fbd
00000060: d4a8 383d

model.tcn.0.conv2.weight_g f4 [25, 1, 1]
0.578121 0.56652397 0.5492872 0.58186567 0.5775331 0.5434978 0.5865881 0.6653204
0.5720117 0.59518343 0.55879104 0.59367913 0.527114 0.554637 0.67449564 0.5579015
0.60345083 0.5471816 0.5938778 0.5581441 0.58076376 0.55330205 0.5960116 0.5745232
0.6688132
00000000: bdff 133f b707 113f 169e 0c3f 26f5 143f
00000010: 36d9 133f ac22 0b3f a32a 163f 7052 2a3f
00000020: 5c6f 123f f15d 183f ee0c 0f3f 5bfb 173f
00000030: f1f0 063f b1fc 0d3f bfab 2c3f a2d2 0e3f
00000040: c17b 1a3f 1814 0c3f 6008 183f 88e2 0e3f
00000050: efac 143f 34a5 0d3f 3794 183f f413 133f
00000060: 5837 2b3f

model.tcn.0.conv2.weight_v f4 [25, 25, 7]
-0.0048724995 0.041514084 -0.05601707 0.03490442 0.06313808 0.04787272 -0.030840091 0.006355831
0.019804826 0.049884725 0.0019941537 0.017998822 0.005488639 0.020060193 -0.0009814666 -0.03379333
-0.046722125 0.061323207 0.052164838 0.016958706 0.094168134 0.060278155 -0.034228653 -0.016147219
-0.03759499 0.034333505 0.017042665 0.016471734 0.045642186 -0.019317215 -0.03022166 -0.038893778
-0.026717614 0.051933855 -0.016975887 -0.010784024 0.03754583 -0.047762 -0.03975718 0.055515066
-0.03347134 -0.052641172 0.0049047763 0.006460091 0.023096697 0.035917476 -0.029624408 0.06617769
-0.03944139 0.019571858 -0.017636366 -0.030527407 0.066754274 -0.06325678 0.01662908 0.07109874
0.056786336 -0.04601406 0.013882572 0.06259029 -0.048331674 0.011802869 -0.0484798 0.024255535
-0.051240064 0.041273933 -0.008448914 0.04099207 0.014008543 0.017365042 -0.0016921242 -0.047497347
-0.016801387 0.016283564 -0.042910594 0.07166516 -0.018695984 -0.019519942 -0.0074880575 -0.045811586
-0.0053129266 -0.012995371 -0.051836416 -0.018592497 0.055898666 0.02545349 0.055042576 0.010674447
-0.012297831 0.06173909 -0.0072737434 -0.06359513 0.013405291 0.031279504 -0.04049898 0.02249673
-0.011549339 0.022454614 0.004721224 0.0025639494 -0.041885488 0.019351209 -0.0012165002 0.05080622
0.019568373 -0.05405106 -0.049261022 -0.034391627 0.031726606 -0.05034261 -0.015135403 0.04615498
-0.024936678 -0.013814339 0.05870959 -0.01590576 -0.009521631 0.047224216 0.026482157 0.04199881
-0.06311891 0.02536945 -0.015966475 -0.046734456 -0.038164232 -0.08292823 0.048344802 -0.009486144
-0.06436794 0.06467107 0.047247503 0.03650322 0.10668354 0.075045764 0.07586157 0.07186792
0.06433854 0.026136138 0.0076376223 0.025380136 -0.035054605 0.023718715 -0.009656291 0.011422531
-0.04918103 -0.01705838 0.066195495 0.0035797216 0.011341001 -0.06321804 -0.03347307 -0.010004907
-0.02483488 -0.0024088863 -0.01667903 0.057545066 -0.0037179159 0.03270609 -0.040351313 0.034889344
-0.02044872 -0.055187263 -0.040987555 0.022895876 0.00869435 0.013100048 0.0026328021 0.08616092
0.07064521 0.037159715 0.054395683 0.010202899 -0.017778661 0.030121425 0.078797616 0.0034383456
-0.043499645 0.03396045 -0.008515574 -0.02612481 0.061700057 0.033721562 -0.019325126 -0.020811265
0.07961635 0.056686062 -0.0375242 0.022464482 0.02312571 0.033393256 -0.05199827 0.0062839533
0.028081257 0.035478808 0.025658498 -0.008207576 -0.054990184 0.04469683 0.07159515 -0.011758494
-0.050767586 0.03261318 -0.027784215 -0.027476668 0.013364199 -0.0095939925 -0.008102048 0.048294675
-0.009618554 0.042913392 -0.01315946 0.05769345 0.024865724 0.06481366 0.028144967 -0.030391308
0.014882338 0.061467774 0.020531986 0.0375264 -0.039451223 0.045312718 -0.056855857 0.07294881
0.02909405 0.008655827 -0.063181825 0.067785196 0.045399386 0.07716643 0.052252676 0.01046956
-0.023898363 -0.03264201 0.015179829 0.01649571 -0.0133077465 -0.011137136 0.03330256 -0.059331425
-0.054415606 -0.015098925 0.040759493 0.03934447 -0.049519725 -0.013142984 0.004903251 0.035073347
0.07008078 0.011821934 -0.04475031 0.029002452 -0.032033447 -0.04612912 0.010486728 -0.01679048
00000000: 7da9 9fbb ac0a 2a3d 2872 65bd f0f7 0e3d
00000010: 8a4e 813d 2f16 443d 5ca4 fcbc 9344 d03b
00000020: bb3d a23c ed53 4c3d 59b0 023b 4472 933c
00000030: 0bda b33b 4655 a43c 8ea4 80ba e06a 0abd
00000040: b35f 3fbd 0b2e 7b3d ccaa 553d fcec 8a3c
00000050: 39db c03d 3ae6 763d 5833 0cbd 2c47 84bc
00000060: 34fd 19bd 4aa1 0c3d 0f9d 8b3c bbef 863c
00000070: 4df3 3a3d 233f 9ebc 6a93 f7bc 154f 1fbd
00000080: e6de dabc 98b8 543d 0411 8bbc 7aaf 30bc
00000090: a8c9 193d 16a2 43bd 6dd8 22bd c463 633d
000000a0: 3e19 09bd 459e 57bd 3fb8 a03b 2caf d33b
000000b0: 4935 bd3c 341e 133d e3ae f2bc 2b88 873d
000000c0: 4c8d 21bd 2955 a03c 247a 90bc 9d14 fabc
000000d0: 77b6 883d c58c 81bd b539 883c 379c 913d
000000e0: ca98 683d 3d79 3cbd ba73 633c 572f 803d
000000f0: 6ff7 45bd d260 413c c192 46bd 8bb3 c63c
00000100: 1ae1 51bd db0e 293d 506d 0abc 4de7 273d
00000110: 1784 653c 2241 8e3c 44ca ddba 948c 42bd
00000120: 10a3 89bc 1c65 853c 05c3 2fbd 2fc5 923d
00000130: 5228 99bc 49e8 9fbc 615e f5bb eea4 3bbd
00000140: 0f18 aebb 89ea 54bc 6c52 54bd 4b4f 98bc
00000150: 00f6 643d d683 d03c 5374 613d e0e3 2e3c
00000160: d77c 49bc 21e2 7c3d 9558 eebb 2a3e 82bd
00000170: dea1 5b3c f01e 003d 42e2 25bd 104b b83c
00000180: 7039 3dbc bdf2 b73c 7fb4 9a3b ef07 283b
00000190: 1e90 2bbd 6d86 9e3c f972 9fba 2f1a 503d
000001a0: da4d a03c a564 5dbd edc5 49bd 3cde 0cbd
000001b0: c2f3 013d 0d34 4ebd 7bfa 77bc 010d 3d3d
000001c0: 0148 ccbc 8a55 62bc 7879 703d cc4c 82bc
000001d0: 9d00 1cbc 2e6e 413d 1cf1 d83c f206 2c3d
000001e0: 7d44 81bd 98d3 cf3c 20cc 82bc a16c 3fbd
000001f0: 1952 1cbd 47d6 a9bd 3305 463d c66b 1bbc
00000200: 57d3 83bd 4472 843d 9986 413d 6784 153d
00000210: e67c da3d 98b1 993d 505d 9b3d 7d2f 933d
00000220: edc3 833d 741b d63c 0545 fa3b 01ea cf3c
00000230: 6b95 0fbd c04d c23c 6c35 1ebc 9125 3b3c
00000240: 0c72 49bd 04be 8bbc 8191 873d c399 6a3b
00000250: 9bcf 393c 7678 81bd 0f1b 09bd 9feb 23bc
00000260: 8572 cbbc 68de 1dbb 76a2 88bc 60b4 6b3d
00000270: 47a8 73bb d2f6 053d 6b47 25bd 21e8 0e3d
00000280: 1384 a7bc 0a0c 62bd 91e2 27bd 2290 bb3c
00000290: bf72 0e3c 95a1 563c 178b 2c3b 2375 b03d
000002a0: 70ae 903d c934 183d 02ce 5e3d 0f2a 273c
000002b0: 8ea4 91bc 35c1 f63c a560 a13d de55 613b
000002c0: af2c 32bd 1d1a 0b3d e884 0bbc b303 d6bc
000002d0: 33b9 7c3d 9f1f 0a3d ba4f 9ebc 637c aabc
000002e0: e60d a33d a52f 683d fab2 19bd 6f07 b83c
000002f0: 2172 bd3c 5ec7 083d 23fc 54bd 9fe9 cd3b
00000300: aa0a e63c 3a52 113d c531 d23c 1279 06bc
00000310: 633d 61bd 0614 373d 7aa0 923d b3a6 40bc
00000320: acf1 4fbd 6695 053d b99b e3bc c016 e1bc
00000330: 83f5 5a3c 1f30 1dbc 74be 04bc a3d0 453d
00000340: 2497 1dbc f4c5 2f3d c79a 57bc f84f 6c3d
00000350: 34b3 cb3c 06bd 843d 4690 e63c 31f7 f8bc
00000360: 0dd5 733c a2c5 7b3d b232 a83c 48b5 193d
00000370: 9b97 21bd d499 393d b0e1 68bd 3066 953d
00000380: a556 ee3c 2bd1 0d3c 7965 81bd f7d2 8a3d
00000390: b5f4 393d 6f09 9e3d e706 563d 8488 2b3c
000003a0: 80c6 c3bc a1b3 05bd d1b4 783c 0322 873c
000003b0: bc08 5abc 8978 36bc 4468 083d 8205 73bd
000003c0: e6e2 5ebd 7b61 77bc 6df3 263d ab27 213d
000003d0: 32d5 4abd ac55 57bc 73ab a03b 12a9 0f3d
000003e0: 8386 8f3d c9b0 413c 1a4c 37bd 8d96 ed3c
000003f0: 8135 03bd e3f1 3cbd 86d0 2b3c 308c 89bc

model.tcn.0.net.0.bias f4 [25]
0.042987138 -0.03989186 0.044528447 0.028740184 -0.0641848 0.022761999 -0.056448027 0.05198128
0.044629328 0.009718544 -0.034868218 -0.066414006 -0.014969159 -0.04016759 -0.05955166 -0.050325338
-0.057035472 -0.0559456 0.031651273 0.051037222 0.041426256 -0.06552901 0.050215896 0.0292778
0.042675264
00000000: 4813 303d a665 23bd 7663 363d 8970 eb3c
00000010: 5273 83bd 5f77 ba3c 0c36 67bd 53ea 543d
00000020: 3ecd 363d 873a 1f3c fad1 0ebd 1104 88bd
00000030: 3441 75bc c586 24bd 71ec 73bd f121 4ebd
00000040: 079e 69bd 3727 65bd c4a4 013d 680c 513d
00000050: 94ae 293d 1334 86bd 2faf 4d3d ffd7 ef3c
00000060: 42cc 2e3d

model.tcn.0.net.0.weight_g f4 [25, 1, 1]
0.5819673 0.57342625 0.6395495 0.59832335 0.5668348 0.6092762 0.5842117 0.57360405
0.54871756 0.5550102 0.5541365 0.5443346 0.57750374 0.56612396 0.5366947 0.55146694
0.58536404 0.54487723 0.58112097 0.54231125 0.57726896 0.5372623 0.6340384 0.55150837
0.56009334
00000000: cffb 143f 10cc 123f 84b9 233f b82b 193f
00000010: 161c 113f 86f9 1b3f e68e 153f b7d7 123f
00000020: c178 0c3f 2615 0e3f e4db 0d3f 8359 0b3f
00000030: 49d7 133f 80ed 103f d364 093f f02c 0d3f
00000040: 6bda 153f 137d 0b3f 58c4 143f e9d4 0a3f
00000050: e6c7 133f 068a 093f 5750 223f a72f 0d3f
00000060: 4762 0f3f

model.tcn.0.net.0.weight_v f4 [25, 28, 7]
0.021432715 0.05372193 -0.032596502 -0.028953508 -0.0079194335 0.03211347 0.029894946 0.038902927
-0.017973522 0.0056291865 -0.030156996 -0.022343105 -0.07031303 -0.049999293 -0.034101743 -0.0012387716
0.015222371 0.03407734 -0.028892256 -0.020019546 0.019151807 0.05164003 -0.01681068 0.046972003
-0.014264347 0.0015759217 0.056475747 -0.06278211 -0.027476534 -0.0035777392 -0.013134044 0.06707694
-0.029192245 -0.018823976 -0.035978552 -0.062058844 -0.039360356 0.054884706 0.025786137 0.03016671
0.0016842624 -0.033970594 0.017847914 -0.0541048 -0.039990302 -0.027997125 0.045876607 0.044967555
-0.019395696 -0.035408832 0.075134024 -0.02861705 0.07089599 0.035371322 -0.09774212 -0.1666757
-0.014414755 -0.069216974 -0.07121631 -0.05432127 0.006974043 -0.026433056 -0.16635995 0.044990696
0.06072298 0.016660139 0.028867604 0.042590376 0.06619992 0.08852017 -0.04462739 -0.019314805
0.029270539 0.056707904 0.060415253 0.060459785 0.016709344 -0.070788816 -0.005519766 -0.050553735
-0.07611663 0.04322699 0.036095943 -0.07710919 0.0062848898 -0.014783828 -0.01368711 -0.031310562
0.025629863 -0.03852939 0.024053693 0.033568002 0.047321845 0.024668245 -0.06149142 -0.042224985
0.031268798 0.013377454 -0.05214444 -0.039502554 0.059525732 0.04176771 -0.031385988 -0.019315265
-0.064246655 0.007920462 -0.04199933 -0.0445902 0.0033163112 0.017703222 -0.020785032 0.044541903
-0.03709714 0.058549073 0.044163696 -0.053159658 -0.014699557 0.0029748245 0.010592704 0.019592382
0.02888421 0.008032878 -0.027206097 0.034027103 -0.056865014 -0.03210839 -0.01445721 -0.030072885
-0.022481149 -0.05188709 -0.012393645 0.013718378 -0.04093561 -0.0005862609 0.04849091 -0.0029864744
0.0032435104 -0.005618789 0.013020828 0.043461774 0.050949555 0.02994235 0.049528114 -0.016679632
-0.07144953 -0.04374262 0.032614596 0.0046654856 -0.02996012 -0.049340922 -0.060590938 -0.05461896
-0.013643492 0.03403182 0.032412346 -0.06624805 0.04194903 -0.05464007 -0.020037368 -0.031154139
-0.011940893 -0.0034223967 -0.048428938 -0.04519373 0.00060935214 0.010979171 -0.017571924 0.03907368
-0.05116217 0.0005745629 0.059871778 -0.02237386 0.061456326 0.026367098 -0.051299106 0.043313198
-0.0068349014 -0.031037096 0.051950164 -0.05045208 0.008218076 -0.015707668 0.047467254 0.021633003
0.036154784 0.02748251 -0.011024813 -0.009141079 -0.04492333 0.042809356 0.058735996 0.051957086
-0.037458856 0.008943341 -0.03785279 -0.024002716 -0.029877294 0.032597795 -0.027910342 0.006299655
0.013174569 0.052661274 -0.029153408 -0.027938696 -0.022876823 0.06334912 -0.009128239 0.065670386
0.031552527 0.017611947 -0.0022473044 -0.0064281058 0.015202035 -0.0101171825 0.014926881 0.022778133
-0.027740985 -0.06690756 0.024329102 -0.08189242 -0.031988524 0.042684797 0.0034242847 -0.0067366087
-0.025837915 0.059877932 -0.02353084 -0.0010501174 -0.0021073164 0.0039787022 0.009155847 0.06328526
0.020976549 0.06918633 0.04907351 -0.026127731 0.03834752 -0.031776328 -0.060952332 -0.010169155
-0.006923004 0.021214979 -0.04197798 -0.020564549 0.023492973 -0.11886219 0.09423377 -0.114591405
0.044463575 -0.07575507 -0.092189275 -0.14970641 0.036689486 -0.014042934 -0.05227429 -0.020948417
00000000: a993 af3c 870b 5c3d e983 05bd e82f edbc
00000010: 83c0 01bc 6a89 033d 3fe6 f43c ad58 1f3d
00000020: 353d 93bc 0a75 b83b ce0b f7bc e308 b7bc
00000030: 4700 90bd 0fcc 4cbd 45ae 0bbd 475e a2ba
00000040: 4067 793c ae94 0b3d 74af ecbc 0800 a4bc
00000050: 40e4 9c3c 7f84 533d 8db6 89bc b765 403d
00000060: 02b5 69bc 288f ce3a 1d53 673d e893 80bd
00000070: 7816 e1bc 8178 6abb 2c30 57bc a25f 893d
00000080: 9324 efbc bd34 9abc 3f5e 13bd 6a31 7ebd
00000090: 5338 21bd c9ce 603d 733d d33c 2d20 f73c
000000a0: 78c2 dc3a c024 0bbd ca35 923c ff9c 5dbd
000000b0: dfcc 23bd 3a5a e5bc 1ce9 3b3d e62f 383d
000000c0: b9e3 9ebc da08 11bd dedf 993d 4e6e eabc
000000d0: eb31 913d 85e1 103d 052d c8bd 09ad 2abe
000000e0: dd2b 6cbc a1c1 8dbd dbd9 91bd fb7f 5ebd
000000f0: 8386 e43b 238a d8bc 435a 2abe 2a48 383d
00000100: a9b8 783d d87a 883c c17b ec3c 3f73 2e3d
00000110: d393 873d 104a b53d 36cb 36bd 153a 9ebc
00000120: c5c8 ef3c 8c46 683d fc75 773d aea4 773d
00000130: 09e2 883c baf9 90bd 27df b4bb 6f11 4fbd
00000140: 09e3 9bbd c90e 313d 57d9 133d 6ceb 9dbd
00000150: 7af1 cd3b de37 72bc e63f 60bc 813f 00bd
00000160: b8f5 d13c fed0 1dbd 400c c53c 9a7e 093d
00000170: 8dd4 413d 0f15 ca3c 6dde 7bbd 1bf4 2cbd
00000180: b613 003d 1c2d 5b3c 6995 55bd 6ecd 21bd
00000190: 41d1 733d 9e14 2b3d 988e 00bd 0c3b 9ebc
000001a0: c093 83bd d3c4 013c 7d07 2cbd 37a4 36bd
000001b0: 7856 593b 5906 913c 5f45 aabc 9271 363d
000001c0: 2cf3 17bd 27d1 6f3d fee4 343d f1bd 59bd
000001d0: 69d6 70bc 46f5 423b 058d 2d3c 3480 a03c
000001e0: 949e ec3c 559c 033c 52df debc 0160 0b3d
000001f0: 4aeb 68bd 1684 03bd efdd 6cbc 695b f6bc
00000200: 632a b8bc 8f87 54bd b70e 4bbc 0cc3 603c
00000210: 19ac 27bd 4eaf 19ba 689e 463d bab8 43bb
00000220: 1391 543b d11d b8bb 5055 553c f904 323d
00000230: 7bb0 503d a949 f53c fedd 4a3d b9a3 88bc
00000240: 2254 92bd 762b 33bd e296 053d eee0 983b
00000250: ed6e f5bc b519 4abd 342e 78bd 21b8 5fbd
00000260: f488 5fbc f364 0b3d cfc2 043d 0fad 87bd
00000270: bfd2 2b3d 44ce 5fbd 6825 a4bc f736 ffbc
00000280: bca3 43bc 4a4a 60bb 6c5d 46bd 101d 39bd
00000290: eebc 1f3a fbe1 333c fff2 8fbc b90b 203d
000002a0: 6c8f 51bd 439e 163a 1c3c 753d 6349 b7bc
000002b0: a1b9 7b3d d0ff d73c 031f 52bd 2e69 313d
000002c0: 4ff7 dfbb 8241 febc b2c9 543d d7a6 4ebd
000002d0: 1ca5 063c 5ead 80bc 066d 423d b237 b13c
000002e0: 0a17 143d 0023 e13c 6ba1 34bc 77c4 15bc
000002f0: 8701 38bd dd58 2f3d 2895 703d f4d0 543d
00000300: 756e 19bd 1787 123c 870b 1bbd 58a1 c4bc
00000310: 3ac1 f4bc 4485 053d 3ba4 e4bc 566d ce3b
00000320: 26da 573c 59b3 573d 21d3 eebc b1df e4bc
00000330: 2d68 bbbc 2fbd 813d 9c8e 15bc 327e 863d
00000340: 393d 013d ee46 903c 8347 13bb dca2 d2bb
00000350: f511 793c 8ac2 25bc e08f 743c 3599 ba3c
00000360: 1041 e3bc d506 89bd d34d c73c 37b7 a7bd
00000370: 6606 03bd 41d6 2e3d f769 603b c5be dcbb
00000380: 09aa d3bc 9042 753d c0c3 c0bc 18a4 89ba
00000390: e71a 0abb c65f 823b 6802 163c b49b 813d
000003a0: 03d7 ab3c 90b1 8d3d 4e01 493d d309 d6bc
000003b0: 4a12 1d3d e527 02bd 27a9 79bd 879c 26bc
000003c0: 5eda e2bb 09cb ad3c 1af1 2bbd fc76 a8bc
000003d0: 5674 c03c 056e f3bd a3fd c03d e6ae eabd
000003e0: 701f 363d 7925 9bbd bbcd bcbd a34c 19be
000003f0: b747 163d 5614 66bc 911d 56bd 049c abbc

model.tcn.0.net.4.bias f4 [25]
-0.018866835 0.006706018 -0.010632164 0.050331537 0.086147465 0.057944596 -0.0026322454 0.0007923374
0.011909656 -0.0496054 0.0041265176 0.06662908 0.009545617 0.0817497 -0.0027579442 0.08279055
0.07585273 -0.03770573 -0.06618136 -0.029746076 0.053473428 0.070968755 -0.05259911 -0.038841296
0.045082882
00000000: 9f8e 9abc 28be db3b 8732 2ebc 7128 4e3d
00000010: 156e b03d 5057 6d3d c081 2cbb ddb4 4f3a
00000020: b820 433c 082f 4bbd bd37 873b d474 883d
00000030: 3865 1c3c 636c a73d a0be 34bb 188e a93d
00000040: ad58 9b3d 5371 1abd 188a 87bd 0bae f3bc
00000050: f406 5b3d 1158 913d 2a72 57bd 0d18 1fbd
00000060: d4a8 383d

model.tcn.0.net.4.weight_g f4 [25, 1, 1]
0.578121 0.56652397 0.5492872 0.58186567 0.5775331 0.5434978 0.5865881 0.6653204
0.5720117 0.59518343 0.55879104 0.59367913 0.527114 0.554637 0.67449564 0.5579015
0.60345083 0.5471816 0.5938778 0.5581441 0.58076376 0.55330205 0.5960116 0.5745232
0.6688132
00000000: bdff 133f b707 113f 169e 0c3f 26f5 143f
00000010: 36d9 133f ac22 0b3f a32a 163f 7052 2a3f
00000020: 5c6f 123f f15d 183f ee0c 0f3f 5bfb 173f
00000030: f1f0 063f b1fc 0d3f bfab 2c3f a2d2 0e3f
00000040: c17b 1a3f 1814 0c3f 6008 183f 88e2 0e3f
00000050: efac 143f 34a5 0d3f 3794 183f f413 133f
00000060: 5837 2b3f

model.tcn.0.net.4.weight_v f4 [25, 25, 7]
-0.0048724995 0.041514084 -0.05601707 0.03490442 0.06313808 0.04787272 -0.030840091 0.006355831
0.019804826 0.049884725 0.0019941537 0.017998822 0.005488639 0.020060193 -0.0009814666 -0.03379333
-0.046722125 0.061323207 0.052164838 0.016958706 0.094168134 0.060278155 -0.034228653 -0.016147219
-0.03759499 0.034333505 0.017042665 0.016471734 0.045642186 -0.019317215 -0.03022166 -0.038893778
-0.026717614 0.051933855 -0.016975887 -0.010784024 0.03754583 -0.047762 -0.03975718 0.055515066
-0.03347134 -0.052641172 0.0049047763 0.006460091 0.023096697 0.035917476 -0.029624408 0.06617769
-0.03944139 0.019571858 -0.017636366 -0.030527407 0.066754274 -0.06325678 0.01662908 0.07109874
0.056786336 -0.04601406 0.013882572 0.06259029 -0.048331674 0.011802869 -0.0484798 0.024255535
-0.051240064 0.041273933 -0.008448914 0.04099207 0.014008543 0.017365042 -0.0016921242 -0.047497347
-0.016801387 0.016283564 -0.042910594 0.07166516 -0.018695984 -0.019519942 -0.0074880575 -0.045811586
-0.0053129266 -0.012995371 -0.051836416 -0.018592497 0.055898666 0.02545349 0.055042576 0.010674447
-0.012297831 0.06173909 -0.0072737434 -0.06359513 0.013405291 0.031279504 -0.04049898 0.02249673
-0.011549339 0.022454614 0.004721224 0.0025639494 -0.041885488 0.019351209 -0.0012165002 0.05080622
0.019568373 -0.05405106 -0.049261022 -0.034391627 0.031726606 -0.05034261 -0.015135403 0.04615498
-0.024936678 -0.013814339 0.05870959 -0.01590576 -0.009521631 0.047224216 0.026482157 0.04199881
-0.06311891 0.02536945 -0.015966475 -0.046734456 -0.038164232 -0.08292823 0.048344802 -0.009486144
-0.06436794 0.06467107 0.047247503 0.03650322 0.10668354 0.075045764 0.07586157 0.07186792
0.06433854 0.026136138 0.0076376223 0.025380136 -0.035054605 0.023718715 -0.009656291 0.011422531
-0.04918103 -0.01705838 0.066195495 0.0035797216 0.011341001 -0.06321804 -0.03347307 -0.010004907
-0.02483488 -0.0024088863 -0.01667903 0.057545066 -0.0037179159 0.03270609 -0.040351313 0.034889344
-0.02044872 -0.055187263 -0.040987555 0.022895876 0.00869435 0.013100048 0.0026328021 0.08616092
0.07064521 0.037159715 0.054395683 0.010202899 -0.017778661 0.030121425 0.078797616 0.0034383456
-0.043499645 0.03396045 -0.008515574 -0.02612481 0.061700057 0.033721562 -0.019325126 -0.020811265
0.07961635 0.056686062 -0.0375242 0.022464482 0.02312571 0.033393256 -0.05199827 0.0062839533
0.028081257 0.035478808 0.025658498 -0.008207576 -0.054990184 0.04469683 0.07159515 -0.011758494
-0.050767586 0.03261318 -0.027784215 -0.027476668 0.013364199 -0.0095939925 -0.008102048 0.048294675
-0.009618554 0.042913392 -0.01315946 0.05769345 0.024865724 0.06481366 0.028144967 -0.030391308
0.014882338 0.061467774 0.020531986 0.0375264 -0.039451223 0.045312718 -0.056855857 0.07294881
0.02909405 0.008655827 -0.063181825 0.067785196 0.045399386 0.07716643 0.052252676 0.01046956
-0.023898363 -0.03264201 0.015179829 0.01649571 -0.0133077465 -0.011137136 0.03330256 -0.059331425
-0.054415606 -0.015098925 0.040759493 0.03934447 -0.049519725 -0.013142984 0.004903251 0.035073347
0.07008078 0.011821934 -0.04475031 0.029002452 -0.032033447 -0.04612912 0.010486728 -0.01679048
00000000: 7da9 9fbb ac0a 2a3d 2872 65bd f0f7 0e3d
00000010: 8a4e 813d 2f16 443d 5ca4 fcbc 9344 d03b
00000020: bb3d a23c ed53 4c3d 59b0 023b 4472 933c
00000030: 0bda b33b 4655 a43c 8ea4 80ba e06a 0abd
00000040: b35f 3fbd 0b2e 7b3d ccaa 553d fcec 8a3c
00000050: 39db c03d 3ae6 763d 5833 0cbd 2c47 84bc
00000060: 34fd 19bd 4aa1 0c3d 0f9d 8b3c bbef 863c
00000070: 4df3 3a3d 233f 9ebc 6a93 f7bc 154f 1fbd
00000080: e6de dabc 98b8 543d 0411 8bbc 7aaf 30bc
00000090: a8c9 193d 16a2 43bd 6dd8 22bd c463 633d
000000a0: 3e19 09bd 459e 57bd 3fb8 a03b 2caf d33b
000000b0: 4935 bd3c 341e 133d e3ae f2bc 2b88 873d
000000c0: 4c8d 21bd 2955 a03c 247a 90bc 9d14 fabc
000000d0: 77b6 883d c58c 81bd b539 883c 379c 913d
000000e0: ca98 683d 3d79 3cbd ba73 633c 572f 803d
000000f0: 6ff7 45bd d260 413c c192 46bd 8bb3 c63c
00000100: 1ae1 51bd db0e 293d 506d 0abc 4de7 273d
00000110: 1784 653c 2241 8e3c 44ca ddba 948c 42bd
00000120: 10a3 89bc 1c65 853c 05c3 2fbd 2fc5 923d
00000130: 5228 99bc 49e8 9fbc 615e f5bb eea4 3bbd
00000140: 0f18 aebb 89ea 54bc 6c52 54bd 4b4f 98bc
00000150: 00f6 643d d683 d03c 5374 613d e0e3 2e3c
00000160: d77c 49bc 21e2 7c3d 9558 eebb 2a3e 82bd
00000170: dea1 5b3c f01e 003d 42e2 25bd 104b b83c
00000180: 7039 3dbc bdf2 b73c 7fb4 9a3b ef07 283b
00000190: 1e90 2bbd 6d86 9e3c f972 9fba 2f1a 503d
000001a0: da4d a03c a564 5dbd edc5 49bd 3cde 0cbd
000001b0: c2f3 013d 0d34 4ebd 7bfa 77bc 010d 3d3d
000001c0: 0148 ccbc 8a55 62bc 7879 703d cc4c 82bc
000001d0: 9d00 1cbc 2e6e 413d 1cf1 d83c f206 2c3d
000001e0: 7d44 81bd 98d3 cf3c 20cc 82bc a16c 3fbd
000001f0: 1952 1cbd 47d6 a9bd 3305 463d c66b 1bbc
00000200: 57d3 83bd 4472 843d 9986 413d 6784 153d
00000210: e67c da3d 98b1 993d 505d 9b3d 7d2f 933d
00000220: edc3 833d 741b d63c 0545 fa3b 01ea cf3c
00000230: 6b95 0fbd c04d c23c 6c35 1ebc 9125 3b3c
00000240: 0c72 49bd 04be 8bbc 8191 873d c399 6a3b
00000250: 9bcf 393c 7678 81bd 0f1b 09bd 9feb 23bc
00000260: 8572 cbbc 68de 1dbb 76a2 88bc 60b4 6b3d
00000270: 47a8 73bb d2f6 053d 6b47 25bd 21e8 0e3d
00000280: 1384 a7bc 0a0c 62bd 91e2 27bd 2290 bb3c
00000290: bf72 0e3c 95a1 563c 178b 2c3b 2375 b03d
000002a0: 70ae 903d c934 183d 02ce 5e3d 0f2a 273c
000002b0: 8ea4 91bc 35c1 f63c a560 a13d de55 613b
000002c0: af2c 32bd 1d1a 0b3d e884 0bbc b303 d6bc
000002d0: 33b9 7c3d 9f1f 0a3d ba4f 9ebc 637c aabc
000002e0: e60d a33d a52f 683d fab2 19bd 6f07 b83c
000002f0: 2172 bd3c 5ec7 083d 23fc 54bd 9fe9 cd3b
00000300: aa0a e63c 3a52 113d c531 d23c 1279 06bc
00000310: 633d 61bd 0614 373d 7aa0 923d b3a6 40bc
00000320: acf1 4fbd 6695 053d b99b e3bc c016 e1bc
00000330: 83f5 5a3c 1f30 1dbc 74be 04bc a3d0 453d
00000340: 2497 1dbc f4c5 2f3d c79a 57bc f84f 6c3d
00000350: 34b3 cb3c 06bd 843d 4690 e63c 31f7 f8bc
00000360: 0dd5 733c a2c5 7b3d b232 a83c 48b5 193d
00000370: 9b97 21bd d499 393d b0e1 68bd 3066 953d
00000380: a556 ee3c 2bd1 0d3c 7965 81bd f7d2 8a3d
00000390: b5f4 393d 6f09 9e3d e706 563d 8488 2b3c
000003a0: 80c6 c3bc a1b3 05bd d1b4 783c 0322 873c
000003b0: bc08 5abc 8978 36bc 4468 083d 8205 73bd
000003c0: e6e2 5ebd 7b61 77bc 6df3 263d ab27 213d
000003d0: 32d5 4abd ac55 57bc 73ab a03b 12a9 0f3d
000003e0: 8386 8f3d c9b0 413c 1a4c 37bd 8d96 ed3c
000003f0: 8135 03bd e3f1 3cbd 86d0 2b3c 308c 89bc

model.tcn.0.downsample.weight f4 [25, 28, 1]
0.019289518 -0.005512019 -0.029892204 0.002936872 0.0045347484 -0.0059760874 0.00041489754 -0.122942515
-0.15457574 0.00020125438 -0.023471069 0.020438435 0.0021270972 -0.008575441 0.010252605 0.013887985
-0.0037791394 0.014970207 0.010197291 0.018102065 -0.0014393164 -0.01769073 -0.0031042912 -0.018925829
0.003999336 -0.0061262995 0.03179078 0.025231386 0.024279742 -0.001241436 0.023806985 -0.0034591216
-0.0025970058 -0.004132221 -0.0011141414 -0.13145368 -0.14080314 -0.0044201263 -0.0004575393 0.012235719
-0.00392807 -0.005550422 0.020270914 0.0014636273 -0.008219309 0.006964293 -0.021699475 0.00018708513
-0.0040043625 -0.0076635494 0.009192114 0.0008772666 0.0056713056 -0.014880328 0.0016768043 0.021319486
0.00402694 0.00044661103 0.0045977593 0.018885909 -0.007431107 0.023729902 0.016708117 0.0011331142
0.028707664 -0.0151002165 0.007282611 -0.010528173 -0.0049967575 -0.015464478 0.012388063 -0.0047192723
-0.008911347 -0.0070481366 0.005646539 -0.010148303 0.020488873 0.0012240729 0.00405866 0.0050688116
-0.0047740894 -0.00050570833 -0.03112748 0.0074015837 0.057490136 -0.012963616 0.022154061 0.00988338
-0.0052998206 -0.039041806 0.014962557 -0.22375484 -0.13714924 0.013967719 0.010687235 0.004276472
0.0021627913 -0.022694396 -0.0029744483 -0.018691763 -0.013322209 -0.004287944 -0.009823318 0.02868191
-0.009380228 -0.021402797 0.023468342 0.01806323 0.0014302704 -0.017509991 -0.010910732 0.029187663
0.009311934 0.0038717673 0.014850005 -0.04002209 -0.011144029 -0.008399907 -0.009423785 -0.045531858
0.027929744 -0.009401852 0.012708271 -0.044451132 0.006436293 -0.019204225 0.021280065 0.0011817698
-0.010431592 -0.008390279 -0.0010412204 0.026055556 -0.018317042 -0.0059906966 -0.04130829 -0.018813249
-0.0017849572 -0.000403383 -0.004429297 0.009459952 0.017668372 -0.0051676575 -0.0025070156 -0.017356878
-0.020134702 0.009566653 -0.00848056 0.021424029 0.031491764 -0.0014452869 -0.0056878137 -0.014602168
0.0073235505 -0.019891107 0.009696389 0.0011704427 0.014123743 0.01619085 0.01430517 -0.0005498717
0.0011331874 -0.0147305755 -0.014792609 0.006452926 0.006001806 -0.00779235 -0.0030245038 0.021849496
0.0073472583 -0.0046803504 -0.0041938457 0.0114670275 -0.031228686 -0.0045252694 0.006238363 -0.31176555
-0.21966378 -0.006146507 0.021048931 0.008423159 -0.022519061 0.02805403 0.01390049 0.0023249926
-0.00823673 0.008633702 -0.010959005 0.017090121 0.0080284 -0.0019010847 0.011589391 -0.016040912
0.001068807 -0.021954441 0.014140103 0.014717762 0.018254256 0.0013072722 -0.027804192 -0.017592605
0.0137668615 -0.012433753 -0.018210128 -0.16909315 -0.21119314 -0.005933698 0.0038905307 -0.043007724
-0.01551394 0.008288349 0.0098170405 0.017277153 -0.011065975 0.0150755765 0.009620873 -0.027784161
-0.016328808 0.015970154 -0.025453748 -0.014059532 0.0012396378 0.0020452307 0.03593362 -0.00030619008
0.0020545619 -0.009307558 -0.07043223 0.0075994134 0.021881834 0.0049977074 0.0012497853 0.07319554
0.05648429 -0.01305465 0.0027005768 -0.0037815946 0.00923758 0.015411856 -0.022085162 0.0016844902
-0.018443499 0.002174535 0.008258864 -0.013582077 -0.0003870463 -0.018582825 -0.010879926 -0.027946256
0.009312975 0.0071854866 0.017953116 -0.03567848 0.027507834 -0.006843091 0.014312909 0.0034623342
00000000: 0d05 9e3c 2b9e b4bb 7fe0 f4bc 8978 403b
00000010: 3a98 943b 0ed3 c3bb 9b86 d939 49c9 fbbd
00000020: 1a49 1ebe d007 5339 6646 c0bc 816e a73c
00000030: c566 0b3b 0280 0cbc 8bfa 273c 6e8a 633c
00000040: 70ab 77bb 9945 753c 8a12 273c c84a 943c
00000050: 72a7 bcba 26ec 90bc 5d71 4bbb 570a 9bbc
00000060: dd0c 833b 20bf c8bb 0d37 023d 0db2 ce3c
00000070: 4fe6 c63c aeb7 a2ba de06 c33c 6eb2 62bb
00000080: 8732 2abb 9567 87bb 6208 92ba cb9b 06be
00000090: b32e 10be b5d6 90bb e3e1 efb9 5378 483c
000000a0: 0ab7 80bb 50e0 b5bb 300f a63c 2fd7 bf3a
000000b0: 48aa 06bc b934 e43b 19c3 b1bc 482c 4439
000000c0: 0737 83bb 831e fbbb 859a 163c 5df8 653a
000000d0: 5cd6 b93b 9fcc 73bc 37c8 db3a 34a6 ae3c
000000e0: 6cf4 833b 1e27 ea39 cda8 963b 9fb6 9a3c
000000f0: a580 f3bb 3665 c23c 76df 883c 0185 943a
00000100: 562c eb3c e666 77bc f8a2 ee3b 5c7e 2cbc
00000110: d7bb a3bb b95e 7dbc 4df7 4a3c 20a4 9abb
00000120: e600 12bc 0ef4 e6bb 9a06 b93b 1145 26bc
00000130: 48d8 a73c 1271 a03a 82fe 843b 4618 a63b
00000140: f76f 9cbb 8391 04ba 0fff febc fc88 f23b
00000150: c77a 6b3d 5965 54bc 6f7c b53c e6ed 213c
00000160: 1eaa adbb 4dea 1fbd 8325 753c fd1f 65be
00000170: da70 0cbe dcd8 643c 8319 2f3c a621 8c3b
00000180: 9ebd 0d3b 99e9 b9bc f6ee 42bb 781f 99bc
00000190: 6545 5abc e281 8cbb fbf1 20bc 53f6 ea3c
000001a0: 87af 19bc eb54 afbc ae40 c03c 57f9 933c
000001b0: e977 bb3a 1d71 8fbc edc2 32bc f71a ef3c
000001c0: 1591 183c 7abd 7d3b 6f4d 733c 34ee 23bd
000001d0: 7295 36bc c39f 09bc 3866 1abc 9d7f 3abd
000001e0: ebcc e43c 3a0a 1abc 5a36 503c 6412 36bd
000001f0: 8ae7 d23b 2e52 9dbc 8853 ae3c 9de5 9a3a
00000200: 45e9 2abc 6177 09bc 8f79 88ba 7672 d53c
00000210: 9f0d 96bc 9b4d c4bb e232 29bd 3e1e 9abc
00000220: 3af5 e9ba 267d d3b9 a323 91bb eafd 1a3c
00000230: 43bd 903c 7455 a9bb be4c 24bb 0330 8ebc
00000240: 88f1 a4bc 73bd 1c3c 0cf2 0abc 7281 af3c
00000250: 82fd 003d c86f bdba d760 babb ef3d 6fbc
00000260: 65fa ef3b adf2 a2bc 9add 1e3c 8a69 993a
00000270: 4667 673c aca2 843c 3b60 6a3c 4425 10ba
00000280: 7687 943a 8358 71bc b35c 72bc 1173 d33b
00000290: ccaa c43b f856 ffbb c136 46bb b7fd b23c
000002a0: 45c1 f03b a05d 99bb 876c 89bb 33e0 3b3c
000002b0: 4dd3 ffbc b648 94bb 2f6b cc3b bc9f 9fbe
000002c0: 8bef 60be a368 c9bb cf6e ac3c 4a01 0a3c
000002d0: e579 b8bc 91d1 e53c e1be 633c e75e 183b
000002e0: 59f3 06bc 5f74 0d3c 668d 33bc 9500 8c3c
000002f0: 8d89 033c d12d f9ba 6ee1 3d3c 3b68 83bc
00000300: 3617 8c3a cdd9 b3bc e4ab 673c c522 713c
00000310: f389 953c c758 ab3a 9ec5 e3bc 5e1e 90bc
00000320: 678e 613c f1b6 4bbc 682d 95bc c126 2dbe
00000330: 0443 58be 776f c2bb 46f8 7e3b de28 30bd
00000340: 2e2e 7ebc dbcb 073c a7d7 203c d188 8d3c
00000350: 104e 35bc 8dff 763c dea0 1d3c 9c9b e3bc
00000360: fec3 85bc d7d3 823c 6184 d0bc f459 66bc
00000370: 587b a23a 4709 063b 222f 133d 2388 a0b9
00000380: d4a5 063b ba7e 18bc c63e 90bd 8004 f93b
00000390: 8841 b33c cfc3 a33b d6cf a33a 8be7 953d
000003a0: 125c 673d 2ce3 55bc 29fc 303b a1d4 77bb
000003b0: 3859 173c 0282 7c3c f1eb b4bc 1dca dc3a
000003c0: d216 97bc a582 0e3b 3050 073c 5c87 5ebc
000003d0: 7aec cab9 023b 98bc b841 32bc 8cef e4bc
000003e0: 7395 183c 3b74 eb3b 6a12 933c 9923 12bd
000003f0: 1c58 e13c 023c e0bb b180 6a3c 54e8 623b

model.tcn.0.downsample.bias f4 [25]
-0.05035006 0.14400323 0.03342129 0.03756627 0.06946552 0.060496215 -0.12737153 0.016589716
-0.03328585 -0.056798555 -0.10962619 -0.024478424 0.014334397 -0.04566819 -0.003139585 -0.030064024
0.020131784 -0.15246417 0.18549223 -0.07766934 0.11239571 -0.15853329 -0.018431889 -0.030809093
-0.13635471
00000000: dd3b 4ebd 9575 133e c3e4 083d 17df 193d
00000010: f043 8e3d e1ca 773d af6d 02be 28e7 873c
00000020: be56 08bd 9aa5 68bd b283 e0bd fa86 c8bc
00000030: d2da 6a3c 910e 3bbd 7fc1 4dbb d448 f6bc
00000040: 69eb a43c 911f 1cbe adf1 3d3e 1a11 9fbd
00000050: b92f e63d 8d56 22be 79fe 96bc 5a63 fcbc
00000060: 92a0 0bbe

model.tcn.1.conv1.bias f4 [25]
-0.0526153 0.018129084 -0.048418753 0.08750116 -0.061940305 -0.060333543 0.07030894 -0.059438128
-0.013153162 -0.008993363 0.048198007 0.15392609 -0.039328165 -0.055607077 0.04637803 0.016888987
0.050722025 0.076246604 -0.04713664 0.05347178 0.009275757 0.06269097 0.013661492 0.085587494
-0.02030969
00000000: 2483 57bd 7283 943c be52 46bd cf33 b33d
00000010: 1eb5 7dbd 4e20 77bd 22fe 8f3d 6575 73bd
00000020: 5c80 57bc e658 13bc 466b 453d cd9e 1d3e
00000030: 9216 21bd 3fc4 63bd e4f6 3d3d c65a 8a3c
00000040: e6c1 4f3d 2e27 9c3d 5912 41bd 3a05 5b3d
00000050: 58f9 173c 2064 803d 73d4 5f3c 7f48 af3d
00000060: 8260 a6bc

model.tcn.1.conv1.weight_g f4 [25, 1, 1]
0.5742229 0.5672181 0.70848703 0.59717333 0.5616895 0.5365792 0.6461906 0.5703524
0.6137388 0.5433386 0.6429877 0.71815157 0.61584353 0.61870545 0.62201416 0.56957686
0.57472676 0.5743078 0.5825736 0.61326265 0.61640507 0.61257726 0.6072258 0.5845938
0.5573368
00000000: 4600 133f 3535 113f 685f 353f 5ae0 183f
00000010: e2ca 0f3f 415d 093f bf6c 253f 9d02 123f
00000020: fc1d 1d3f 3d18 0b3f d89a 243f c8d8 373f
00000030: eca7 1d3f 7b63 1e3f 523c 1f3f cacf 113f
00000040: 4b21 133f d605 133f 8b23 153f c8fe 1c3f
00000050: b9cc 1d3f ddd1 1c3f 2673 1b3f f0a7 153f
00000060: a0ad 0e3f

model.tcn.1.conv1.weight_v f4 [25, 25, 7]
0.04181851 0.017605722 0.009983169 0.022242479 0.0037063311 -0.047546163 -0.02319834 -0.032684334
0.032986034 -0.020093093 0.023996606 -0.040565524 -0.055473838 0.073058836 -0.0421152 0.022782326
0.041664656 -0.012859683 0.02371672 -0.01895555 -0.06146215 -0.037308343 -0.02071718 -0.03679366
-0.048642904 0.001302895 0.021190457 0.08635879 0.029597592 -0.039320257 0.0017738601 0.03981557
0.070393205 -0.010387364 0.06536067 0.03924159 -0.00872589 -0.057464536 0.03932435 0.039383017
-0.041120365 0.066747606 -0.0034030052 -0.054247033 0.0018058132 0.017054169 -0.015621569 -0.08411627
0.01254561 0.01669171 0.027748432 0.044647247 0.012943945 0.014572234 -0.04297085 0.111219324
0.017069256 0.006732368 0.050495405 -0.017053667 0.042624466 -0.008647421 0.00879931 -0.021724276
0.028100811 -0.022132121 -0.0016771224 0.03144537 -0.04447109 0.03781061 -0.032234695 0.037582688
0.028279621 -0.027006404 -0.02468547 0.019665783 0.117614195 0.050194282 -0.03173421 -0.017001348
-0.048016574 -0.05496623 -0.040943466 0.054971814 -0.03698846 -0.020790432 0.0051349844 -0.020239204
-0.061454177 0.011685502 0.005730132 0.005567908 0.026206091 -0.053834815 -0.01107842 -0.060487323
0.025943946 -0.011597412 0.039973434 0.0063326624 -0.02244404 0.018140504 -0.06011032 -0.058920424
0.034429014 0.060754873 -0.04930727 0.03034895 0.05916396 -0.022752948 -0.053754818 -0.02235375
-0.019809648 0.053568956 -0.037187465 0.0573921 -0.06350864 0.030077428 0.03395877 -0.02229955
-0.048613667 -0.027481785 -0.03899043 -0.058561645 -0.027898612 0.009746451 -0.05843774 0.09407069
0.0397315 0.050476365 -0.011845223 -0.02231754 0.06957086 0.023016127 -0.0009204385 0.007000359
0.047273573 0.0018718471 -0.015226731 0.025019938 -0.042012893 0.060888298 0.011341495 0.03159111
0.00282562 0.05575232 0.043326396 0.044553183 -0.033547822 0.013677089 0.043048408 0.04224375
-0.045891587 0.08359244 -0.06543461 0.027644442 -0.026066609 -0.05154301 0.03413132 -0.025388937
0.04317619 0.029436858 0.051229585 0.016024321 -0.056383062 -0.04537276 -0.07176643 0.081135646
-0.0667594 -0.03289321 -0.05774332 -0.012123037 0.022560392 -0.022858107 0.07252019 0.019751804
-0.050024107 -0.02559878 0.027150061 -0.06868711 -0.08635813 -0.050007455 -0.0652649 -0.019589739
0.036620032 -0.006485766 0.012271263 0.0026728797 -0.049456872 -0.014951988 0.019858848 0.059420332
-0.023204178 0.050382037 -0.013820456 -0.026074972 0.019822378 0.044218183 0.013673862 0.03771806
0.0036188625 -0.023275351 -0.009054713 0.042507518 0.005918778 0.039709296 0.028835721 -0.036767837
0.0836693 -0.031030538 0.033772085 -0.04271498 -0.0010248042 0.0451853 0.04112349 0.073411636
-2.1667602e-05 0.033076245 0.035635818 -0.0502537 -0.035349187 0.019123953 -0.018428305 -0.03884569
-0.016813187 0.023890333 0.04353192 0.047039837 0.039833706 0.013446569 -0.05064762 0.052298885
-0.011722509 0.058275517 -0.024241444 0.047172405 0.030609636 0.08708224 0.017118808 0.034364723
-0.056683287 0.015013006 -0.06127345 -0.068350054 -0.07599569 -0.012802359 0.0026430117 0.03739457
0.023357816 -0.007279758 0.014498942 -0.057574347 0.049085237 -0.04170905 -0.03395776 -0.00942839
00000000: e349 2b3d e039 903c 7290 233c dc35 b63c
00000010: ebe5 723b c4bf 42bd 720a bebc 02e0 05bd
00000020: 5d1c 073d 459a a4bc 8894 c43c 0928 26bd
00000030: 8938 63bd df9f 953d fd80 2cbd 00a2 ba3c
00000040: 8fa8 2a3d 6bb1 52bc 9149 c23c ab48 9bbc
00000050: bcbf 7bbd a2d0 18bd 13b7 a9bc f3b4 16bd
00000060: c83d 47bd e7c5 aa3a 9c97 ad3c e1dc b03d
00000070: a676 f23c 470e 21bd de80 e83a a715 233d
00000080: 502a 903d c32f 2abc d1db 853d cabb 203d
00000090: 09f7 0ebc ef5f 6bbd 9212 213d 1650 213d
000000a0: d46d 28bd f8b2 883d f404 5fbb 2332 5ebd
000000b0: 09b1 ec3a 2fb5 8b3c 9cf1 7fbc 2745 acbd
000000c0: 1a8c 4d3c 0ebd 883c ae50 e33c 08e0 363d
000000d0: d712 543c 61c0 6e3c 3402 30bd f5c6 e33d
000000e0: d3d4 8b3c 329b dc3b 45d4 4e3d 22b4 8bbc
000000f0: fe96 2e3d eaad 0dbc fb2a 103c 1cf7 b1bc
00000100: ac33 e63c 6c4e b5bc e4d2 dbba dccc 003d
00000110: 5127 36bd 4cdf 1a3d 8708 04bd 4ef0 193d
00000120: aaaa e73c 893c ddbc 2f39 cabc 231a a13c
00000130: b6df f03d 8598 4d3d bbfb 01bd 6946 8bbc
00000140: 07ad 44bd 4524 61bd 56b4 27bd 202a 613d
00000150: 3681 17bd b250 aabc 5f43 a83b b0cc a5bc
00000160: 60b7 7bbd 8c74 3f3c d5c3 bb3b ff72 b63b
00000170: 28ae d63c e581 5cbd 4382 35bc 8ec1 77bd
00000180: 6688 d43c 1203 3ebc 2fbb 233d 3982 cf3b
00000190: 90dc b7bc 659b 943c 3d36 76bd 8b56 71bd
000001a0: 7005 0d3d 1ada 783d 6cf6 49bd 5c9e f83c
000001b0: e955 723d 6464 babc 032e 5cbd 361f b7bc
000001c0: d847 a2bc 1f6b 5b3d e251 18bd fb13 6b3d
000001d0: d110 82bd f064 f63c 5a18 0b3d 8cad b6bc
000001e0: 201f 47bd 7b21 e1bc 6eb4 1fbd 56de 6fbd
000001f0: a18b e4bc 94af 1f3c 695c 6fbd 22a8 c03d
00000200: 7fbd 223d 4ec0 4e3d 7712 42bc 46d3 b6bc
00000210: 2b7b 8e3d 518c bc3c 9549 71ba 4463 e53b
00000220: efa1 413d c458 f53a 8a79 79bc 9df6 cc3c
00000230: b615 2cbd 0266 793d aed1 393c ae65 013d
00000240: 092e 393b 8b5c 643d 0577 313d 667d 363d
00000250: 7169 09bd de15 603c 8753 303d c807 2d3d
00000260: d1f8 3bbd 8332 ab3d 9502 86bd 9976 e23c
00000270: a489 d5bc c31e 53bd 48cd 0b3d 76fc cfbc
00000280: 84d9 303d 9125 f13c 1dd6 513d 7045 833c
00000290: edf1 66bd cad8 39bd 47fa 92bd 722a a63d
000002a0: 27b9 88bd 08bb 06bd 4284 6cbd b49f 46bc
000002b0: 92d0 b83c ed40 bbbc 7785 943d 89ce a13c
000002c0: 14e6 4cbd 88b4 d1bc ce69 de3c d4ab 8cbd
000002d0: 88dc b0bd 9ed4 4cbd 9ba9 85bd a97a a0bc
000002e0: e3fe 153d 8c86 d4bb 680d 493c 7b2b 2f3b
000002f0: 4a93 4abd 2ff9 74bc 06af a23c bc62 733d
00000300: b016 bebc 655d 4e3d 326f 62bc 2e9b d5bc
00000310: 8a62 a23c 201e 353d 5608 603c 417e 1a3d
00000320: 702a 6d3b f3ab bebc 385a 14bc 5d1c 2e3d
00000330: 4ff2 c13b 37a6 223d e438 ec3c df99 16bd
00000340: cf5a ab3d c133 febc 9954 0a3d e7f5 2ebd
00000350: b952 86ba 3914 393d 1b71 283d d758 963d
00000360: d2c2 b5b7 f57a 073d ddf6 113d d3d6 4dbd
00000370: 4fca 10bd d6a9 9c3c f5f6 96bc a91c 1fbd
00000380: cfbb 89bc a9b5 c33c 874e 323d d8ac 403d
00000390: ab28 233d 004f 5c3c e173 4fbd 5b37 563d
000003a0: c40f 40bc 4fb2 6e3d fe95 c6bc da37 413d
000003b0: 0fc1 fa3c 2c58 b23d be3c 8c3c 06c2 0c3d
000003c0: bc2c 68bd 1cf9 753c def9 7abd 1dfb 8bbd
000003d0: a1a3 9bbd fcc0 51bc 6136 2d3b 0c2b 193d
000003e0: e458 bf3c 098b eebb f88c 6d3c 14d3 6bbd
000003f0: 9a0d 493d 1cd7 2abd 4b17 0bbd 8979 1abc

model.tcn.1.conv2.bias f4 [25]
-0.031254623 0.018745553 -0.034363262 -0.047571428 0.01640124 0.016524618 0.0841708 0.07187647
-0.025863381 -0.04283802 0.035888843 0.051114827 0.025196128 0.05071231 0.013606252 -0.039004758
0.016429873 -0.04717807 0.020715192 -0.0047601555 -0.022254888 0.02842483 0.057070967 -0.054519955
0.02424965
00000000: d904 00bd 4690 993c 7ec0 0cbd 42da 42bd
00000010: e55b 863c a35e 873c be61 ac3d f933 933d
00000020: 71df d3bc eb76 2fbd 2e00 133d c85d 513d
00000030: 1c68 ce3c b6b7 4f3d c2ec 5e3c 74c3 1fbd
00000040: f197 863c cb3d 41bd e8b2 a93c 14fb 9bbb
00000050: e24f b6bc 30db e83c 3fc3 693d 5150 5fbd
00000060: 34a7 c63c

model.tcn.1.conv2.weight_g f4 [25, 1, 1]
0.63348824 0.598943 0.54182076 0.5749658 0.57443625 0.60106415 0.5912706 0.6493326
0.52788544 0.54119897 0.5842291 0.6004134 0.59284186 0.70589566 0.67278373 0.558687
0.5984935 0.56107527 0.5809784 0.56063586 0.58554757 0.52313876 0.5752978 0.68388826
0.5918101
00000000: 492c 223f 5454 193f c4b4 0a3f f530 133f
00000010: 410e 133f 57df 193f 835d 173f a93a 263f
00000020: 8023 073f 048c 0a3f 0a90 153f b1b4 193f
00000030: 7cc4 173f 94b5 343f 8e3b 2c3f 1c06 0f3f
00000040: df36 193f a1a2 0f3f 00bb 143f d585 0f3f
00000050: 72e6 153f 6cec 053f b746 133f 4d13 2f3f
00000060: de80 173f
