etc/ckpts/participants/661_test_30_all/sigmoid/TCN/epochs/TCN-chpkt-pecanstreet-participant-id-661_test_30_all_epoch=000.ckpt (torch, 923271 bytes, 201 tensors)

model.tcn.0.conv1.bias f4 [25]
00000000: 9fdd 173d 74f5 0bbd a5ba 043d c691 583c
00000010: ada8 76bd 1b8d 21bd 7cf1 38bd 3b80 3b3d
00000020: 653c 583c 18e1 983b 22c4 3ebd 497a 96bd
00000030: f283 b1bc de94 43bd 6fc0 84bd 9e69 76bd
00000040: fca5 36bd 8e66 80bd 5dc1 ff3c c3e8 063d
00000050: f9d8 143d f748 97bd 5f31 4f3d 142c b53c
00000060: 1523 293d
0.03707659 -0.03416963 0.03240456 0.013218349 -0.060219456 -0.03944121 -0.045152172 0.045776587
0.013197993 0.004665505 -0.046573766 -0.07347543 -0.021669362 -0.047749393 -0.06482016 -0.06015932
-0.04459189 -0.06269561 0.031220132 0.032936823 0.036339734 -0.07386964 0.050584193 0.022115745
0.041293222

model.tcn.0.conv1.weight_g f4 [25, 1, 1]
00000000: 2a91 163f 1ecd 103f 0984 193f 69cd 1d3f
00000010: 147b 143f 425b 133f 9030 1d3f ba8f 173f
00000020: 3c35 0d3f e5e5 123f 2ef9 0f3f dcbc 0b3f
00000030: 7ef7 143f b2f4 163f 49cf 083f 436c 0e3f
00000040: b063 163f 77ea 0f3f d27d 183f d70c 113f
00000050: 26df 193f 2e1e 0b3f 0314 153f d5a1 143f
00000060: 11da 123f
0.5881525 0.56562984 0.59967095 0.61641556 0.580003 0.57561123 0.61402225 0.59203684
0.55159354 0.5738204 0.56239593 0.5458505 0.58190143 0.58967125 0.5344129 0.55633944
0.5874586 0.5621714 0.59566987 0.5666022 0.6010612 0.54342926 0.5823366 0.58059436
0.5736399

model.tcn.0.conv1.weight_v f4 [25, 28, 7]
00000000: 631e ca3b 6a06 363d 89e9 51bd fffc 38bd
00000010: 736f a7bc 2896 d13c 8dde ad3b 3278 683d
00000020: fee4 a1bb 1dc5 a13c 73af a3bc cbf0 4dbc
00000030: 8897 86bd 9a39 39bd 0fed e4bc 7c55 143b
00000040: b9c3 d73c 391b 243d 2cbc 3ebd acb0 f7bc
00000050: 7d06 bf3c 4196 603d cab2 9abc d66c 483d
00000060: 77b3 81bc f53a 4d3b cdf4 753d fe24 90bd
00000070: 7d78 41bd f48d a9bc c8d9 f8bc 8981 6e3d
00000080: cd6e 47bd c72a 11bd 0024 56bd cc4c 8bbd
00000090: a4cf 30bd 625d 713d 1689 f23c a574 043d
000000a0: f362 e53a fcb3 1cbd 0753 0b3c 9a7a 8ebd
000000b0: 2a09 60bd 7268 24bd 9240 283d 575c 1b3d
000000c0: 3997 0fbd e6d8 093b 6b0f 2b3d efbe 853d
000000d0: 34b4 f33c 383c 613c 3963 363d 6d22 15bd
000000e0: 5a38 443b 5172 87bd 57f5 76bd 1a62 43bd
000000f0: 8394 b23c c964 943c e75f 5abd a907 c23c
00000100: 85d6 273d 34bb cabb bfde ae3b 07e8 9a3c
00000110: ecde 3c3d d423 8f3d 98a9 5fbd e831 d8bc
00000120: bfb7 da3c 2348 6a3d 723e 763d 13cf 793d
00000130: 6265 563c 5f20 8abd 228b 873a f465 4dbd
00000140: e889 93bd 4968 6c3d 92fe 463d 8a21 9dbd
00000150: ec36 8e3c 6e33 febb 8332 f4bb d5eb e6bc
00000160: 06fa 003d d061 1abd 4bb1 f73c 34ae 0c3d
00000170: 97ff 483d 7fdd cd3c eccb 8fbd 5622 3ebd
00000180: 7908 0b3d d31d 5f3c c9ff 6dbd 7908 33bd
00000190: a5fe 813d 9dba 363d 87c8 0abd c624 abbc
000001a0: cb52 90bd 2bb4 96ba 6bf8 58bd 795a 5ebd
000001b0: 1af4 78bb 6e2b 2f3c 14bf ebbc 8b09 2c3d
000001c0: 69c6 22bd b4c8 863d 5d70 4e3d 206f 66bd
000001d0: 6638 70bc c47b c03b 1698 533c 415f 963c
000001e0: cdd0 ee3c 43ab c63b f058 03bd a895 0e3d
000001f0: d1e9 84bd 1b36 21bd 59f1 6bbc 3792 fdbc
00000200: 6b08 afbc 9873 5ebd bee1 40bc f0cd 933c
00000210: b118 2ebd 35ac d3bb b352 433d cc19 26bc
00000220: 2b8d 78ba 2cb5 13bc 995f 3a3c 3f38 2c3d
00000230: 1ac4 813d cdb4 283d 44fb 813d d004 15bc
00000240: 17bc 8abd df41 1abd 507c 353d a756 76bb
00000250: 5ee2 1dbd 9c2d 6cbd 6dd8 8ebd 1a90 81bd
00000260: e0bc 91bc d565 113d 0c1c 083d 92a7 97bd
00000270: 5d1a 203d 729f 7abd e221 a8bc 32b7 0cbd
00000280: 20f9 9cbc dbf9 73bc 478e 83bd 9077 7dbd
00000290: d253 46bc 10df 4eb9 6fc8 07bd b824 d03c
000002a0: 5200 77bd ffa6 1dbb f6e7 813d 1f21 d6bc
000002b0: b166 853d bc5d e13c 3e5d 78bd 084f 4a3d
000002c0: 5c62 74bb 5a12 dfbc dba7 7b3d 2194 58bd
000002d0: b5d9 483c cb52 28bc fac7 573d b505 b53c
000002e0: 9bbb 143d 6022 e03c 9b40 6ebc 4c44 4bbc
000002f0: 364b 64bd 3015 193d 3ac6 613d af24 423d
00000300: 6cfe 4dbd 7317 1a3b 3219 4ebd beb6 21bd
00000310: 601f 27bd 705b e73c 08d1 2abd de44 cbb9
00000320: 9b7e c83b 7eda 483d d8b5 51bd f9bb 4bbd
00000330: caa1 2cbd c734 573d 30b0 d7bc f978 763d
00000340: 97d0 d33c 126b 143c 957d 98b9 8586 69bc
00000350: 1934 483c 45c4 82bc 7402 2f3b d77d 4b3c
00000360: ad84 57bd 3eb7 13bd 7a38 7e3d 7141 67bd
00000370: f888 61bb 6575 9a3d 728b fd3c 959e e83b
00000380: e657 81bd 66a7 183d be7a 55bd acbc afbc
00000390: 4729 babc 5cd0 15bc bf1d e53a a538 803d
000003a0: 38ad 4c3c 06dd 8a3d f772 423d f765 28bd
000003b0: 33ad 133d eb52 3fbd e293 eebc f21e ce3c
000003c0: e64a e43c 0335 6d3d 1b2f 94bc e2fb a63b
000003d0: 6139 2a3d cecb 97bd 05dd 513d ec61 83bd
000003e0: 9b6a 85ba 48d9 8bbc ff88 2fbd 8fe7 923b
000003f0: 580b 843d 287d 96bc 24a8 22bd 138d c1bc
0.006168173 0.04443971 -0.051248107 -0.04516315 -0.020438885 0.025584295 0.005306071 0.056755252
-0.004940628 0.019747311 -0.019981122 -0.012569617 -0.06571871 -0.04522095 -0.02794507 0.002263396
0.026338445 0.040065024 -0.046566173 -0.03023561 0.023318524 0.054830793 -0.018884081 0.04893192
-0.015832646 0.0031315659 0.060047913 -0.07038306 -0.047234047 -0.020697571 -0.030377284 0.058229003
-0.048689652 -0.035441186 -0.052280426 -0.06801757 -0.04316677 0.058926947 0.029606383 0.032337803
0.0017500803 -0.038257584 0.008503682 -0.06956978 -0.05469624 -0.04013867 0.041077204 0.03792986
-0.035056327 0.0021033823 0.04176275 0.06530558 0.029749013 0.013747267 0.04452822 -0.036409784
0.0029940815 -0.06613601 -0.060292568 -0.04770098 0.021799332 0.018114464 -0.053314116 0.023685293
0.040976066 -0.006186867 0.005336612 0.018909467 0.046111032 0.069892555 -0.054605097 -0.026390985
0.026698945 0.0571977 0.060118146 0.060988497 0.013085695 -0.067444555 0.0010341147 -0.05014606
-0.07204038 0.05771664 0.04858262 -0.07672413 0.017360173 -0.0077575957 -0.0074523105 -0.028188625
0.03148844 -0.037690938 0.030235907 0.03434582 0.049071874 0.025130032 -0.07021317 -0.046419464
0.033943627 0.0136179505 -0.058105264 -0.043709252 0.06347398 0.044611562 -0.033882644 -0.020891558
-0.070470415 -0.0011497786 -0.052971285 -0.0542855 -0.0037987293 0.010691507 -0.028777637 0.04200129
-0.03974 0.0658125 0.050400127 -0.05625832 -0.014661884 0.005874129 0.012914678 0.018355967
0.029152298 0.0060628965 -0.03206724 0.034810692 -0.064899094 -0.03935824 -0.0144008035 -0.03095351
-0.021366319 -0.054309458 -0.011772571 0.018042535 -0.042504016 -0.0064597377 0.04768629 -0.010137986
-0.0009481485 -0.009015363 0.011375331 0.042045828 0.063362315 0.04118805 0.06346753 -0.009095386
-0.067741565 -0.037660476 0.044308007 -0.003758827 -0.03854596 -0.057660684 -0.06974874 -0.06326313
-0.017790258 0.035497505 0.033229873 -0.074050084 0.039087642 -0.061187215 -0.02052397 -0.034354396
-0.01916176 -0.014891113 -0.064236216 -0.0618816 -0.012104945 -0.00019728788 -0.033150133 0.025408134
-0.06030304 -0.0024055836 0.06343071 -0.02613884 0.065137275 0.027510516 -0.060635798 0.049391776
-0.0037290072 -0.02723043 0.061439376 -0.05287564 0.012258937 -0.010273646 0.052680947 0.022097448
0.036311727 0.027360141 -0.01454177 -0.01240642 -0.05573579 0.03737372 0.055120684 0.047398265
-0.050291464 0.0023512512 -0.050316997 -0.039480917 -0.040801406 0.028241843 -0.041703254 -0.00038770487
0.006118608 0.049036495 -0.05119881 -0.04973981 -0.04214648 0.052540567 -0.02632913 0.060173962
0.0258563 0.009058731 -0.00029085265 -0.014253263 0.012219452 -0.01596273 0.0026704343 0.012420139
-0.052616764 -0.036063425 0.06206558 -0.056458894 -0.0034413915 0.075419225 0.030950282 0.0070989826
-0.063155934 0.03726902 -0.05211901 -0.02145227 -0.02272476 -0.009143915 0.0017480179 0.06260804
0.01249247 0.06780438 0.04747292 -0.041112866 0.036053848 -0.046709936 -0.02912325 0.02516124
0.027867746 0.057911884 -0.018088868 0.0050959447 0.041558627 -0.074119195 0.05123617 -0.064151615
-0.0010178866 -0.017071381 -0.04285526 0.0044831703 0.06447476 -0.018370226 -0.039711133 -0.02362684

model.tcn.0.conv2.bias f4 [25]
00000000: c41a 99bc acb4 753b d783 3ebc 36f3 783d
00000010: 9089 fc3c 974f 083d 1545 953b 49f4 22bd
00000020: 9077 323a d770 66bd d650 093c 3d82 a93d
00000030: 25d7 11bc 7a39 9e3d bcf7 23bd 5db8 8b3d
00000040: 8ed8 0f3d 2f0f 0ebd ef48 99bd 2d28 12bd
00000050: e81b 2b3d 4ff7 a53d 9c24 61bd 1508 cebc
00000060: f059 e73c
-0.01868952 0.0037491722 -0.011628113 0.06077882 0.030827314 0.033279028 0.0045553544 -0.03978375
0.00068079773 -0.056259956 0.008381089 0.08276794 -0.008901392 0.077258065 -0.04003118 0.06822274
0.035118632 -0.03468245 -0.07484614 -0.035682846 0.04177466 0.08103811 -0.054966554 -0.025150338
0.028241128

model.tcn.0.conv2.weight_g f4 [25, 1, 1]
00000000: d2e7 173f 7584 163f 3914 0f3f 1991 193f
00000010: 90c4 103f 0584 0c3f f1ac 193f ae34 1b3f
00000020: d122 153f fa24 1b3f 9c18 123f 2d19 153f
00000030: 025e 093f 1a67 123f a80f 1d3f aaf6 123f
00000040: f159 143f 5c36 133f a232 143f cbee 133f
00000050: f319 183f bbfc 123f b334 1e3f 90cf 123f
00000060: 1c4c 0f3f
0.59338105 0.58795863 0.5589023 0.59987026 0.5654993 0.54888946 0.6002951 0.6062726
0.5825625 0.60603297 0.570688 0.5824154 0.5365907 0.5718857 0.61352015 0.5740763
0.5794974 0.5750482 0.5788976 0.57786244 0.59414595 0.57416886 0.6179916 0.57347965
0.5597551

model.tcn.0.conv2.weight_v f4 [25, 25, 7]
00000000: 2d22 08bc 230f 3f3d 82bc 7abd 89be 133d
00000010: 7ff5 8f3d 2638 2d3d 7b41 77bd ba81 25bc
00000020: 0237 623a f78d 193d 0c3c 8cbc 54a6 5f3c
00000030: 4ae4 77bc 0423 d3ba 57ca c63b b357 10bd
00000040: 5ecd 34bd 2fde 8e3d dd43 913d 7036 b83b
00000050: 1978 953d be19 7d3d 0691 19bd 42c3 a6bc
00000060: bc5c 2bbd afe5 fc3c 0a59 293c 0e3e b8ba
00000070: ecc0 4e3d 8740 afbc 640b 05bd 57f8 36bd
00000080: fc0a f4bc a6d0 873d cd9e e6bc 84f6 5fbc
00000090: f937 263d 6195 4dbd 6f61 1cbd 0c33 803d
000000a0: b8f4 acbc be4e 00bd f8b5 61bb 0440 8fbb
000000b0: 4182 973c 678d 013d c831 4cbd fc6c 903d
000000c0: a472 81bd 4875 0b3d 6d4c 3ebc 157c b6bc
000000d0: c9fb 9f3d 74df 80bd 7add 683c 691e 673d
000000e0: 8a7d 713d 14d9 5fbd fb11 fa3b 16a1 883d
000000f0: 57b3 84bd e738 7e3c 5383 21bd 2ad6 9b3c
00000100: 6105 70bd 3899 313d 7db4 03bc 451a 533d
00000110: 740a e93b 765a 0dbb a253 59bc 56ef 7ebd
00000120: 8845 d8bc 56c4 dc3b 7ffb 53bd 3d6c 893d
00000130: c542 2fbd 5aea a1bc cd43 02bb 52ba 50bd
00000140: e08b 7d3a fa11 d8bc 4044 58bd a519 d039
00000150: 667d 793d bf85 8d3c a3af 693d 80f1 233b
00000160: 6aa1 9cbc c26a 653d 6ac1 03bd 363c 79bd
00000170: a331 c23c 7ddf 343d 78a3 15bd 706f 093d
00000180: 3385 97bc 7cdd 97ba 562a efbb 574f e3bb
00000190: 9599 51bd 6bba 323c 7ccb 2bbc 5e21 423d
000001a0: fa0c b73b ff36 52bd 3fed 40bd 3339 f0bc
000001b0: ad62 263d 9d25 1ebd b23b cabc 9b18 a43c
000001c0: cdc7 31bd 67e8 ebbc 2d69 763d 8fc1 01bd
000001d0: 6a63 92bc bfde 413d 77a5 823c 41dd 723d
000001e0: e628 7bbd 22d9 203d 09cd 01bc 9305 33bd
000001f0: edb3 e4bc e06c 8abd 1267 753d ef1e c4bb
00000200: cc78 85bd 1d78 943d b980 693d 546b 213d
00000210: f530 a73d 4fb3 9e3d 45b3 a33d 01c0 9d3d
00000220: 3b30 913d ec6f f03c 4122 5a3b 9bb8 4f3c
00000230: 0a3b b3bc 69ab 343d 77b6 393c 2e2b dc3c
00000240: bea8 1ebd b99e 9abc 2595 843d 0874 173c
00000250: 1482 cd3c 85df 6ebd 67f7 d5bc 7bc2 b83a
00000260: a44c 77bb c776 2f3d af57 5ebc 40bb 903d
00000270: 71c5 abbb 699f 1b3d f1b2 32bd 2f9f af3c
00000280: 1639 83bd 17ff 59bd 87a6 15bd 92fe 083d
00000290: 9d9f 943c 71a4 a13c 4d42 863b 1bfd 9b3d
000002a0: 9556 a43d 4a7b 233d 23e4 893d a6ae 923b
000002b0: eb2d 9fbc 7f52 b53c e798 653d 182a 3fbb
000002c0: 8e1e 49bd 8ef6 093d b8e6 29bc 95ab e0bc
000002d0: f457 673d 1591 d03b 020c 03bd ef67 0bbd
000002e0: ab5c 893d e3dd 3e3d c07c 30bd 6e2f 023c
000002f0: a8c9 dd3b 6374 2c3d a841 6dbd 861c f63b
00000300: 6ca6 003d 70c5 363d 5f38 6a3c 071f fcbc
00000310: 1fec 82bd 85f7 3c3d 9cf8 953d dbbd 6fbc
00000320: 6f51 71bd 3fdf e33c 0a50 36bd 8707 2bbd
00000330: 3bbb 9b3c 9b03 caba 009d 7a39 94ee 813d
00000340: 5319 efbb 8caf 303d 68b3 91bc 97f5 7a3d
00000350: 7511 e93c b032 943d 3436 023d 8b5c abbc
00000360: 4d31 1d3d 0d65 8b3d 3b0e a03c 0f0a 223d
00000370: a5ef 3ebd 8cc0 3a3d 2e57 84bd 700f 913d
00000380: a459 1e3d e83e 503c bec0 7ebd 1292 9b3d
00000390: 7ac5 633d f8b1 9d3d dcd8 183d 391e b83c
000003a0: 7d59 87bc c9e6 dcbc 24b9 d43c 8b23 ba3c
000003b0: b295 c9ba cb66 343c d070 003d b39f 84bd
000003c0: e614 70bd 737e 4bbc 927a 673d aa87 2d3d
000003d0: 94c5 82bd 18e3 99bc abff 8fbb 717c e23c
000003e0: 526b 823d 5ff7 a63b 6617 5ebd b0f7 033c
000003f0: 3625 a6bc 4b78 17bd d7c4 053d 8f35 53bb
-0.008308929 0.046645295 -0.06121493 0.03607038 0.070292465 0.042289875 -0.06036518 -0.01010173
0.00086294126 0.037488904 -0.017118476 0.013650496 -0.015130112 -0.0016108458 0.0060666013 -0.035239886
-0.044141166 0.06975972 0.07093022 0.005621724 0.072982974 0.061792128 -0.03749182 -0.020356778
-0.041836485 0.03087124 0.01033617 -0.001405658 0.050476953 -0.021393074 -0.032481566 -0.04467043
-0.029790394 0.066315934 -0.028151894 -0.013669614 0.040580723 -0.050191287 -0.038178857 0.062597364
-0.021112785 -0.031325094 -0.0034440737 -0.004371645 0.018494727 0.031628992 -0.049852163 0.07052037
-0.06320694 0.034047395 -0.011614901 -0.022275964 0.07811696 -0.0629262 0.01421296 0.056425486
0.058957614 -0.05465038 0.007631538 0.0667135 -0.06479519 0.015516496 -0.03943188 0.01902302
-0.05859888 0.04335901 -0.008038637 0.051538724 0.007111842 -0.0021568811 -0.0132645685 -0.062239967
-0.026400343 0.0067372723 -0.051753517 0.06710098 -0.042788286 -0.019765068 -0.0019876838 -0.05095894
0.0009672027 -0.02637576 -0.052799463 0.00039691958 0.060910605 0.01727569 0.057052266 0.0025015771
-0.019119937 0.056010015 -0.032166876 -0.060848437 0.02370531 0.044158448 -0.03653285 0.03355354
-0.018496132 -0.0011586393 -0.007298748 -0.0069369483 -0.051171858 0.010908703 -0.010485526 0.047395103
0.0055862637 -0.05132198 -0.047101256 -0.02932415 0.04062145 -0.03861009 -0.024686668 0.020031264
-0.043403435 -0.028797342 0.060158897 -0.031678732 -0.01786967 0.047331568 0.01594804 0.059293035
-0.0613183 0.039269574 -0.007922419 -0.043706488 -0.027917827 -0.067590475 0.05991275 -0.005985133
-0.06517181 0.07249472 0.057007525 0.039408997 0.08163635 0.07749044 0.07993177 0.077026375
0.07089277 0.029350244 0.0033284577 0.012678291 -0.021878738 0.044108782 0.011335007 0.026876058
-0.038735144 -0.018874513 0.064737596 0.009243973 0.02508644 -0.058318634 -0.026118947 0.0014096046
-0.003773489 0.042837884 -0.01357071 0.07066965 -0.0052420427 0.037993822 -0.043627683 0.02143821
-0.06407373 -0.05322179 -0.036535766 0.033445902 0.018142516 0.019731732 0.004097259 0.076166354
0.08024327 0.0399125 0.06732967 0.004476386 -0.019431075 0.022134064 0.056054022 -0.0029169377
-0.049101405 0.0336824 -0.010369949 -0.027425567 0.056480363 0.0063649514 -0.031993873 -0.034034666
0.06707128 0.046598326 -0.04308772 0.007945878 0.006768424 0.042103183 -0.057923943 0.0075107245
0.031408712 0.044621885 0.0142956665 -0.030776514 -0.06392693 0.04613449 0.07322809 -0.014632667
-0.05891555 0.027816413 -0.044509925 -0.041755226 0.019010177 -0.0015412451 0.00023900345 0.06344333
-0.00729672 0.043136165 -0.017785743 0.06126937 0.028450707 0.072362304 0.031789973 -0.020918151
0.038377095 0.06806383 0.019538036 0.039560374 -0.04661526 0.045593783 -0.06461941 0.070830226
0.038659707 0.0127103105 -0.062195532 0.0759622 0.05560825 0.076999605 0.03731619 0.022475349
-0.016522164 -0.026965516 0.025967188 0.022722026 -0.0015379696 0.011010836 0.031357586 -0.06475773
-0.05861368 -0.012420285 0.056513377 0.042365707 -0.06385341 -0.018785045 -0.0043944917 0.027647229
0.06368126 0.005095407 -0.054221533 0.008054659 -0.020281415 -0.036979955 0.032658424 -0.0032227968

model.tcn.0.net.0.bias f4 [25]
00000000: 9fdd 173d 74f5 0bbd a5ba 043d c691 583c
00000010: ada8 76bd 1b8d 21bd 7cf1 38bd 3b80 3b3d
00000020: 653c 583c 18e1 983b 22c4 3ebd 497a 96bd
00000030: f283 b1bc de94 43bd 6fc0 84bd 9e69 76bd
00000040: fca5 36bd 8e66 80bd 5dc1 ff3c c3e8 063d
00000050: f9d8 143d f748 97bd 5f31 4f3d 142c b53c
00000060: 1523 293d
0.03707659 -0.03416963 0.03240456 0.013218349 -0.060219456 -0.03944121 -0.045152172 0.045776587
0.013197993 0.004665505 -0.046573766 -0.07347543 -0.021669362 -0.047749393 -0.06482016 -0.06015932
-0.04459189 -0.06269561 0.031220132 0.032936823 0.036339734 -0.07386964 0.050584193 0.022115745
0.041293222

model.tcn.0.net.0.weight_g f4 [25, 1, 1]
00000000: 2a91 163f 1ecd 103f 0984 193f 69cd 1d3f
00000010: 147b 143f 425b 133f 9030 1d3f ba8f 173f
00000020: 3c35 0d3f e5e5 123f 2ef9 0f3f dcbc 0b3f
00000030: 7ef7 143f b2f4 163f 49cf 083f 436c 0e3f
00000040: b063 163f 77ea 0f3f d27d 183f d70c 113f
00000050: 26df 193f 2e1e 0b3f 0314 153f d5a1 143f
00000060: 11da 123f
0.5881525 0.56562984 0.59967095 0.61641556 0.580003 0.57561123 0.61402225 0.59203684
0.55159354 0.5738204 0.56239593 0.5458505 0.58190143 0.58967125 0.5344129 0.55633944
0.5874586 0.5621714 0.59566987 0.5666022 0.6010612 0.54342926 0.5823366 0.58059436
0.5736399

model.tcn.0.net.0.weight_v f4 [25, 28, 7]
00000000: 631e ca3b 6a06 363d 89e9 51bd fffc 38bd
00000010: 736f a7bc 2896 d13c 8dde ad3b 3278 683d
00000020: fee4 a1bb 1dc5 a13c 73af a3bc cbf0 4dbc
00000030: 8897 86bd 9a39 39bd 0fed e4bc 7c55 143b
00000040: b9c3 d73c 391b 243d 2cbc 3ebd acb0 f7bc
00000050: 7d06 bf3c 4196 603d cab2 9abc d66c 483d
00000060: 77b3 81bc f53a 4d3b cdf4 753d fe24 90bd
00000070: 7d78 41bd f48d a9bc c8d9 f8bc 8981 6e3d
00000080: cd6e 47bd c72a 11bd 0024 56bd cc4c 8bbd
00000090: a4cf 30bd 625d 713d 1689 f23c a574 043d
000000a0: f362 e53a fcb3 1cbd 0753 0b3c 9a7a 8ebd
000000b0: 2a09 60bd 7268 24bd 9240 283d 575c 1b3d
000000c0: 3997 0fbd e6d8 093b 6b0f 2b3d efbe 853d
000000d0: 34b4 f33c 383c 613c 3963 363d 6d22 15bd
000000e0: 5a38 443b 5172 87bd 57f5 76bd 1a62 43bd
000000f0: 8394 b23c c964 943c e75f 5abd a907 c23c
00000100: 85d6 273d 34bb cabb bfde ae3b 07e8 9a3c
00000110: ecde 3c3d d423 8f3d 98a9 5fbd e831 d8bc
00000120: bfb7 da3c 2348 6a3d 723e 763d 13cf 793d
00000130: 6265 563c 5f20 8abd 228b 873a f465 4dbd
00000140: e889 93bd 4968 6c3d 92fe 463d 8a21 9dbd
00000150: ec36 8e3c 6e33 febb 8332 f4bb d5eb e6bc
00000160: 06fa 003d d061 1abd 4bb1 f73c 34ae 0c3d
00000170: 97ff 483d 7fdd cd3c eccb 8fbd 5622 3ebd
00000180: 7908 0b3d d31d 5f3c c9ff 6dbd 7908 33bd
00000190: a5fe 813d 9dba 363d 87c8 0abd c624 abbc
000001a0: cb52 90bd 2bb4 96ba 6bf8 58bd 795a 5ebd
000001b0: 1af4 78bb 6e2b 2f3c 14bf ebbc 8b09 2c3d
000001c0: 69c6 22bd b4c8 863d 5d70 4e3d 206f 66bd
000001d0: 6638 70bc c47b c03b 1698 533c 415f 963c
000001e0: cdd0 ee3c 43ab c63b f058 03bd a895 0e3d
000001f0: d1e9 84bd 1b36 21bd 59f1 6bbc 3792 fdbc
00000200: 6b08 afbc 9873 5ebd bee1 40bc f0cd 933c
00000210: b118 2ebd 35ac d3bb b352 433d cc19 26bc
00000220: 2b8d 78ba 2cb5 13bc 995f 3a3c 3f38 2c3d
00000230: 1ac4 813d cdb4 283d 44fb 813d d004 15bc
00000240: 17bc 8abd df41 1abd 507c 353d a756 76bb
00000250: 5ee2 1dbd 9c2d 6cbd 6dd8 8ebd 1a90 81bd
00000260: e0bc 91bc d565 113d 0c1c 083d 92a7 97bd
00000270: 5d1a 203d 729f 7abd e221 a8bc 32b7 0cbd
00000280: 20f9 9cbc dbf9 73bc 478e 83bd 9077 7dbd
00000290: d253 46bc 10df 4eb9 6fc8 07bd b824 d03c
000002a0: 5200 77bd ffa6 1dbb f6e7 813d 1f21 d6bc
000002b0: b166 853d bc5d e13c 3e5d 78bd 084f 4a3d
000002c0: 5c62 74bb 5a12 dfbc dba7 7b3d 2194 58bd
000002d0: b5d9 483c cb52 28bc fac7 573d b505 b53c
000002e0: 9bbb 143d 6022 e03c 9b40 6ebc 4c44 4bbc
000002f0: 364b 64bd 3015 193d 3ac6 613d af24 423d
00000300: 6cfe 4dbd 7317 1a3b 3219 4ebd beb6 21bd
00000310: 601f 27bd 705b e73c 08d1 2abd de44 cbb9
00000320: 9b7e c83b 7eda 483d d8b5 51bd f9bb 4bbd
00000330: caa1 2cbd c734 573d 30b0 d7bc f978 763d
00000340: 97d0 d33c 126b 143c 957d 98b9 8586 69bc
00000350: 1934 483c 45c4 82bc 7402 2f3b d77d 4b3c
00000360: ad84 57bd 3eb7 13bd 7a38 7e3d 7141 67bd
00000370: f888 61bb 6575 9a3d 728b fd3c 959e e83b
00000380: e657 81bd 66a7 183d be7a 55bd acbc afbc
00000390: 4729 babc 5cd0 15bc bf1d e53a a538 803d
000003a0: 38ad 4c3c 06dd 8a3d f772 423d f765 28bd
000003b0: 33ad 133d eb52 3fbd e293 eebc f21e ce3c
000003c0: e64a e43c 0335 6d3d 1b2f 94bc e2fb a63b
000003d0: 6139 2a3d cecb 97bd 05dd 513d ec61 83bd
000003e0: 9b6a 85ba 48d9 8bbc ff88 2fbd 8fe7 923b
000003f0: 580b 843d 287d 96bc 24a8 22bd 138d c1bc
0.006168173 0.04443971 -0.051248107 -0.04516315 -0.020438885 0.025584295 0.005306071 0.056755252
-0.004940628 0.019747311 -0.019981122 -0.012569617 -0.06571871 -0.04522095 -0.02794507 0.002263396
0.026338445 0.040065024 -0.046566173 -0.03023561 0.023318524 0.054830793 -0.018884081 0.04893192
-0.015832646 0.0031315659 0.060047913 -0.07038306 -0.047234047 -0.020697571 -0.030377284 0.058229003
-0.048689652 -0.035441186 -0.052280426 -0.06801757 -0.04316677 0.058926947 0.029606383 0.032337803
0.0017500803 -0.038257584 0.008503682 -0.06956978 -0.05469624 -0.04013867 0.041077204 0.03792986
-0.035056327 0.0021033823 0.04176275 0.06530558 0.029749013 0.013747267 0.04452822 -0.036409784
0.0029940815 -0.06613601 -0.060292568 -0.04770098 0.021799332 0.018114464 -0.053314116 0.023685293
0.040976066 -0.006186867 0.005336612 0.018909467 0.046111032 0.069892555 -0.054605097 -0.026390985
0.026698945 0.0571977 0.060118146 0.060988497 0.013085695 -0.067444555 0.0010341147 -0.05014606
-0.07204038 0.05771664 0.04858262 -0.07672413 0.017360173 -0.0077575957 -0.0074523105 -0.028188625
0.03148844 -0.037690938 0.030235907 0.03434582 0.049071874 0.025130032 -0.07021317 -0.046419464
0.033943627 0.0136179505 -0.058105264 -0.043709252 0.06347398 0.044611562 -0.033882644 -0.020891558
-0.070470415 -0.0011497786 -0.052971285 -0.0542855 -0.0037987293 0.010691507 -0.028777637 0.04200129
-0.03974 0.0658125 0.050400127 -0.05625832 -0.014661884 0.005874129 0.012914678 0.018355967
0.029152298 0.0060628965 -0.03206724 0.034810692 -0.064899094 -0.03935824 -0.0144008035 -0.03095351
-0.021366319 -0.054309458 -0.011772571 0.018042535 -0.042504016 -0.0064597377 0.04768629 -0.010137986
-0.0009481485 -0.009015363 0.011375331 0.042045828 0.063362315 0.04118805 0.06346753 -0.009095386
-0.067741565 -0.037660476 0.044308007 -0.003758827 -0.03854596 -0.057660684 -0.06974874 -0.06326313
-0.017790258 0.035497505 0.033229873 -0.074050084 0.039087642 -0.061187215 -0.02052397 -0.034354396
-0.01916176 -0.014891113 -0.064236216 -0.0618816 -0.012104945 -0.00019728788 -0.033150133 0.025408134
-0.06030304 -0.0024055836 0.06343071 -0.02613884 0.065137275 0.027510516 -0.060635798 0.049391776
-0.0037290072 -0.02723043 0.061439376 -0.05287564 0.012258937 -0.010273646 0.052680947 0.022097448
0.036311727 0.027360141 -0.01454177 -0.01240642 -0.05573579 0.03737372 0.055120684 0.047398265
-0.050291464 0.0023512512 -0.050316997 -0.039480917 -0.040801406 0.028241843 -0.041703254 -0.00038770487
0.006118608 0.049036495 -0.05119881 -0.04973981 -0.04214648 0.052540567 -0.02632913 0.060173962
0.0258563 0.009058731 -0.00029085265 -0.014253263 0.012219452 -0.01596273 0.0026704343 0.012420139
-0.052616764 -0.036063425 0.06206558 -0.056458894 -0.0034413915 0.075419225 0.030950282 0.0070989826
-0.063155934 0.03726902 -0.05211901 -0.02145227 -0.02272476 -0.009143915 0.0017480179 0.06260804
0.01249247 0.06780438 0.04747292 -0.041112866 0.036053848 -0.046709936 -0.02912325 0.02516124
0.027867746 0.057911884 -0.018088868 0.0050959447 0.041558627 -0.074119195 0.05123617 -0.064151615
-0.0010178866 -0.017071381 -0.04285526 0.0044831703 0.06447476 -0.018370226 -0.039711133 -0.02362684

model.tcn.0.net.4.bias f4 [25]
00000000: c41a 99bc acb4 753b d783 3ebc 36f3 783d
00000010: 9089 fc3c 974f 083d 1545 953b 49f4 22bd
00000020: 9077 323a d770 66bd d650 093c 3d82 a93d
00000030: 25d7 11bc 7a39 9e3d bcf7 23bd 5db8 8b3d
00000040: 8ed8 0f3d 2f0f 0ebd ef48 99bd 2d28 12bd
00000050: e81b 2b3d 4ff7 a53d 9c24 61bd 1508 cebc
00000060: f059 e73c
-0.01868952 0.0037491722 -0.011628113 0.06077882 0.030827314 0.033279028 0.0045553544 -0.03978375
0.00068079773 -0.056259956 0.008381089 0.08276794 -0.008901392 0.077258065 -0.04003118 0.06822274
0.035118632 -0.03468245 -0.07484614 -0.035682846 0.04177466 0.08103811 -0.054966554 -0.025150338
0.028241128

model.tcn.0.net.4.weight_g f4 [25, 1, 1]
00000000: d2e7 173f 7584 163f 3914 0f3f 1991 193f
00000010: 90c4 103f 0584 0c3f f1ac 193f ae34 1b3f
00000020: d122 153f fa24 1b3f 9c18 123f 2d19 153f
00000030: 025e 093f 1a67 123f a80f 1d3f aaf6 123f
00000040: f159 143f 5c36 133f a232 143f cbee 133f
00000050: f319 183f bbfc 123f b334 1e3f 90cf 123f
00000060: 1c4c 0f3f
0.59338105 0.58795863 0.5589023 0.59987026 0.5654993 0.54888946 0.6002951 0.6062726
0.5825625 0.60603297 0.570688 0.5824154 0.5365907 0.5718857 0.61352015 0.5740763
0.5794974 0.5750482 0.5788976 0.57786244 0.59414595 0.57416886 0.6179916 0.57347965
0.5597551

model.tcn.0.net.4.weight_v f4 [25, 25, 7]
00000000: 2d22 08bc 230f 3f3d 82bc 7abd 89be 133d
00000010: 7ff5 8f3d 2638 2d3d 7b41 77bd ba81 25bc
00000020: 0237 623a f78d 193d 0c3c 8cbc 54a6 5f3c
00000030: 4ae4 77bc 0423 d3ba 57ca c63b b357 10bd
00000040: 5ecd 34bd 2fde 8e3d dd43 913d 7036 b83b
00000050: 1978 953d be19 7d3d 0691 19bd 42c3 a6bc
00000060: bc5c 2bbd afe5 fc3c 0a59 293c 0e3e b8ba
00000070: ecc0 4e3d 8740 afbc 640b 05bd 57f8 36bd
00000080: fc0a f4bc a6d0 873d cd9e e6bc 84f6 5fbc
00000090: f937 263d 6195 4dbd 6f61 1cbd 0c33 803d
000000a0: b8f4 acbc be4e 00bd f8b5 61bb 0440 8fbb
000000b0: 4182 973c 678d 013d c831 4cbd fc6c 903d
000000c0: a472 81bd 4875 0b3d 6d4c 3ebc 157c b6bc
000000d0: c9fb 9f3d 74df 80bd 7add 683c 691e 673d
000000e0: 8a7d 713d 14d9 5fbd fb11 fa3b 16a1 883d
000000f0: 57b3 84bd e738 7e3c 5383 21bd 2ad6 9b3c
00000100: 6105 70bd 3899 313d 7db4 03bc 451a 533d
00000110: 740a e93b 765a 0dbb a253 59bc 56ef 7ebd
00000120: 8845 d8bc 56c4 dc3b 7ffb 53bd 3d6c 893d
00000130: c542 2fbd 5aea a1bc cd43 02bb 52ba 50bd
00000140: e08b 7d3a fa11 d8bc 4044 58bd a519 d039
00000150: 667d 793d bf85 8d3c a3af 693d 80f1 233b
00000160: 6aa1 9cbc c26a 653d 6ac1 03bd 363c 79bd
00000170: a331 c23c 7ddf 343d 78a3 15bd 706f 093d
00000180: 3385 97bc 7cdd 97ba 562a efbb 574f e3bb
00000190: 9599 51bd 6bba 323c 7ccb 2bbc 5e21 423d
000001a0: fa0c b73b ff36 52bd 3fed 40bd 3339 f0bc
000001b0: ad62 263d 9d25 1ebd b23b cabc 9b18 a43c
000001c0: cdc7 31bd 67e8 ebbc 2d69 763d 8fc1 01bd
000001d0: 6a63 92bc bfde 413d 77a5 823c 41dd 723d
000001e0: e628 7bbd 22d9 203d 09cd 01bc 9305 33bd
000001f0: edb3 e4bc e06c 8abd 1267 753d ef1e c4bb
00000200: cc78 85bd 1d78 943d b980 693d 546b 213d
00000210: f530 a73d 4fb3 9e3d 45b3 a33d 01c0 9d3d
00000220: 3b30 913d ec6f f03c 4122 5a3b 9bb8 4f3c
00000230: 0a3b b3bc 69ab 343d 77b6 393c 2e2b dc3c
00000240: bea8 1ebd b99e 9abc 2595 843d 0874 173c
00000250: 1482 cd3c 85df 6ebd 67f7 d5bc 7bc2 b83a
00000260: a44c 77bb c776 2f3d af57 5ebc 40bb 903d
00000270: 71c5 abbb 699f 1b3d f1b2 32bd 2f9f af3c
00000280: 1639 83bd 17ff 59bd 87a6 15bd 92fe 083d
00000290: 9d9f 943c 71a4 a13c 4d42 863b 1bfd 9b3d
000002a0: 9556 a43d 4a7b 233d 23e4 893d a6ae 923b
000002b0: eb2d 9fbc 7f52 b53c e798 653d 182a 3fbb
000002c0: 8e1e 49bd 8ef6 093d b8e6 29bc 95ab e0bc
000002d0: f457 673d 1591 d03b 020c 03bd ef67 0bbd
000002e0: ab5c 893d e3dd 3e3d c07c 30bd 6e2f 023c
000002f0: a8c9 dd3b 6374 2c3d a841 6dbd 861c f63b
00000300: 6ca6 003d 70c5 363d 5f38 6a3c 071f fcbc
00000310: 1fec 82bd 85f7 3c3d 9cf8 953d dbbd 6fbc
00000320: 6f51 71bd 3fdf e33c 0a50 36bd 8707 2bbd
00000330: 3bbb 9b3c 9b03 caba 009d 7a39 94ee 813d
00000340: 5319 efbb 8caf 303d 68b3 91bc 97f5 7a3d
00000350: 7511 e93c b032 943d 3436 023d 8b5c abbc
00000360: 4d31 1d3d 0d65 8b3d 3b0e a03c 0f0a 223d
00000370: a5ef 3ebd 8cc0 3a3d 2e57 84bd 700f 913d
00000380: a459 1e3d e83e 503c bec0 7ebd 1292 9b3d
00000390: 7ac5 633d f8b1 9d3d dcd8 183d 391e b83c
000003a0: 7d59 87bc c9e6 dcbc 24b9 d43c 8b23 ba3c
000003b0: b295 c9ba cb66 343c d070 003d b39f 84bd
000003c0: e614 70bd 737e 4bbc 927a 673d aa87 2d3d
000003d0: 94c5 82bd 18e3 99bc abff 8fbb 717c e23c
000003e0: 526b 823d 5ff7 a63b 6617 5ebd b0f7 033c
000003f0: 3625 a6bc 4b78 17bd d7c4 053d 8f35 53bb
-0.008308929 0.046645295 -0.06121493 0.03607038 0.070292465 0.042289875 -0.06036518 -0.01010173
0.00086294126 0.037488904 -0.017118476 0.013650496 -0.015130112 -0.0016108458 0.0060666013 -0.035239886
-0.044141166 0.06975972 0.07093022 0.005621724 0.072982974 0.061792128 -0.03749182 -0.020356778
-0.041836485 0.03087124 0.01033617 -0.001405658 0.050476953 -0.021393074 -0.032481566 -0.04467043
-0.029790394 0.066315934 -0.028151894 -0.013669614 0.040580723 -0.050191287 -0.038178857 0.062597364
-0.021112785 -0.031325094 -0.0034440737 -0.004371645 0.018494727 0.031628992 -0.049852163 0.07052037
-0.06320694 0.034047395 -0.011614901 -0.022275964 0.07811696 -0.0629262 0.01421296 0.056425486
0.058957614 -0.05465038 0.007631538 0.0667135 -0.06479519 0.015516496 -0.03943188 0.01902302
-0.05859888 0.04335901 -0.008038637 0.051538724 0.007111842 -0.0021568811 -0.0132645685 -0.062239967
-0.026400343 0.0067372723 -0.051753517 0.06710098 -0.042788286 -0.019765068 -0.0019876838 -0.05095894
0.0009672027 -0.02637576 -0.052799463 0.00039691958 0.060910605 0.01727569 0.057052266 0.0025015771
-0.019119937 0.056010015 -0.032166876 -0.060848437 0.02370531 0.044158448 -0.03653285 0.03355354
-0.018496132 -0.0011586393 -0.007298748 -0.0069369483 -0.051171858 0.010908703 -0.010485526 0.047395103
0.0055862637 -0.05132198 -0.047101256 -0.02932415 0.04062145 -0.03861009 -0.024686668 0.020031264
-0.043403435 -0.028797342 0.060158897 -0.031678732 -0.01786967 0.047331568 0.01594804 0.059293035
-0.0613183 0.039269574 -0.007922419 -0.043706488 -0.027917827 -0.067590475 0.05991275 -0.005985133
-0.06517181 0.07249472 0.057007525 0.039408997 0.08163635 0.07749044 0.07993177 0.077026375
0.07089277 0.029350244 0.0033284577 0.012678291 -0.021878738 0.044108782 0.011335007 0.026876058
-0.038735144 -0.018874513 0.064737596 0.009243973 0.02508644 -0.058318634 -0.026118947 0.0014096046
-0.003773489 0.042837884 -0.01357071 0.07066965 -0.0052420427 0.037993822 -0.043627683 0.02143821
-0.06407373 -0.05322179 -0.036535766 0.033445902 0.018142516 0.019731732 0.004097259 0.076166354
0.08024327 0.0399125 0.06732967 0.004476386 -0.019431075 0.022134064 0.056054022 -0.0029169377
-0.049101405 0.0336824 -0.010369949 -0.027425567 0.056480363 0.0063649514 -0.031993873 -0.034034666
0.06707128 0.046598326 -0.04308772 0.007945878 0.006768424 0.042103183 -0.057923943 0.0075107245
0.031408712 0.044621885 0.0142956665 -0.030776514 -0.06392693 0.04613449 0.07322809 -0.014632667
-0.05891555 0.027816413 -0.044509925 -0.041755226 0.019010177 -0.0015412451 0.00023900345 0.06344333
-0.00729672 0.043136165 -0.017785743 0.06126937 0.028450707 0.072362304 0.031789973 -0.020918151
0.038377095 0.06806383 0.019538036 0.039560374 -0.04661526 0.045593783 -0.06461941 0.070830226
0.038659707 0.0127103105 -0.062195532 0.0759622 0.05560825 0.076999605 0.03731619 0.022475349
-0.016522164 -0.026965516 0.025967188 0.022722026 -0.0015379696 0.011010836 0.031357586 -0.06475773
-0.05861368 -0.012420285 0.056513377 0.042365707 -0.06385341 -0.018785045 -0.0043944917 0.027647229
0.06368126 0.005095407 -0.054221533 0.008054659 -0.020281415 -0.036979955 0.032658424 -0.0032227968

model.tcn.0.downsample.weight f4 [25, 28, 1]
00000000: 8817 c7bb 716a 1fbb c037 d6bc 28c2 fabb
00000010: 2de5 1fbb 0f55 51bc a32e 72bc 15bd c53b
00000020: abe3 cbbc e5aa 773a b4b0 9dbc c26e 4c3c
00000030: bed7 d73b 529b abbb 2965 523c 0ec6 453c
00000040: 0e2a 6938 e932 383c 35dd 863c fc83 a23b
00000050: 17e6 02bc 3c39 93bc bc0e 8dbc e2e5 53bc
00000060: a567 453a 1f3f 073c 112e 9c3c c5ac 2d3b
00000070: a2d6 333b 30bb f8bb 0485 623c bdb8 21bc
00000080: 660b 0cbc dc05 f4bb b1f1 7abc 3479 72ba
00000090: c263 a1bc ddf5 223a bbe0 393b 7a7c ef3b
000000a0: 1357 413b 42ea cc3a e100 893c 06d8 ba3b
000000b0: 53b6 a8ba abca 1f3c 369a 5fbc 5c7d 44bc
000000c0: 7567 85bb 6f74 00ba 4c3f 73bb 89df 50b9
000000d0: de30 123c 8ff3 9abb d4e3 dc3a 65ba 163b
000000e0: 7d1c 7c3b 1c9c 0ebb 2e29 96bb 99e0 293c
000000f0: e164 bd3a 6e56 853b dd94 dc3b fbdd 41bc
00000100: 2fb0 a2bb a4c1 19bc c628 2c3c 1a23 3abc
00000110: 0121 0fbc 223c b43a b75e 913b 9466 8abb
00000120: 94f0 8bbb 868a 26bb 1367 1a3c 53d5 69bc
00000130: 175c 7c3b 2dd8 59bb fbd7 893b 0aa6 8ebb
00000140: eb35 6cb9 8196 d63b 6b53 f9bc 82e8 ec3b
00000150: 5468 5f3b 2515 793c 0aa7 f1b6 5b5a a2bb
00000160: 67a0 00ba a1ce cebb 5893 6c3b 0c71 c23c
00000170: 7e67 31bc 7cc9 c93b 10b5 143c 4833 8dbc
00000180: 102f 0d3b da19 93bc 3bfe 0cbc 7c79 cabb
00000190: af92 8d3a abbb 6aba 8cfa da3b 78e3 913b
000001a0: 1aae 97bc 75c0 0bb8 f615 0fb9 dab9 fbbb
000001b0: 6fa7 d43b a6ad 343b 8bdf 97bc f3d8 88bb
000001c0: 35f4 dd3c f483 dd3b f187 2c3c d911 4fbc
000001d0: ec87 81bb 57a6 3dbc b1ee 8d3c 0f0a 4dba
000001e0: 793a 8e3c 5c24 12bc d2c4 913c cd98 18bb
000001f0: f75f f7bb 72ac 05bb 6131 adbb 23b7 e9ba
00000200: 82b6 18bc 896c 5abb dac3 8cbb d9cc b03c
00000210: a324 5fbc edc8 2a3c 890f abbc aa2b 07bc
00000220: f331 a73b 8dbe 09bc 273a e7ba 5aa4 8db9
00000230: 65cd 413c 5673 2ab9 5ee4 793b b786 2ebc
00000240: 297f b0bb b4a6 ef3b eb23 d839 c582 8a3c
00000250: a742 2cbc ae77 64ba 52bd 8aba b65e 1bb9
00000260: ee8d 2f3b 022d 65bc 3ec7 78bb bd13 0abb
00000270: f3a8 563c 84eb 7e3c 5a2d 2a3c 9582 02bc
00000280: d057 483b b55c eabb 8e6c 39bc ecb2 0d3c
00000290: 9aeb d53b e8e0 82bb 904d 6ebc 5254 573c
000002a0: 7bdc 583a ee30 8c3b 1de2 a139 03f1 22bb
000002b0: bc05 d5bc 0897 843b 9799 80bc 5bee a03c
000002c0: e9a1 1ebc 6772 1abb 0726 883b ec1f 67bb
000002d0: 116b 30bc 82a1 9a3c 13e4 69bc aac3 863b
000002e0: 5896 64bb e915 183c d834 93bb e178 89bb
000002f0: 4955 fab9 2bb8 5339 8ba9 47bc b82a c1bb
00000300: 4cae df3a 428c 1bbc cc0c 18bc 8973 a2bb
00000310: fd68 fb3b 08f4 833b 19d4 80bc 062a 3abc
00000320: 7a71 e8bb 46f2 94bc 1d07 8abc c628 aa3b
00000330: e33f 92bc 7c77 a3bc e2a0 e0bb 1ec4 f7bb
00000340: ee5b f13b a4b1 1c3c 934a 833a 8be9 183b
00000350: ca8d 3dbc bcf5 813c 2516 db3b 8d0e 98bc
00000360: 45cb b0bc 25ba 973b 1728 25bc 388a a2bb
00000370: 4e47 553b 78a7 2c3b 1379 c63c 2b27 013b
00000380: e60f 1f3c e8ff 963a 2258 9fbc 4da6 063c
00000390: baab 333c 1446 1d3c e3c6 e53b d7dd 0d3c
000003a0: 0af4 c53b 4fee 9dbc fd02 0b3c e595 c23b
000003b0: 81a8 be3b 3876 b23b 056e eabb b480 033b
000003c0: 63c7 bcbc 2480 963b 37f9 7a3b 2a66 393b
000003d0: dcf2 b13b 5676 aebc d2a0 a63b 85c4 b2bc
000003e0: 3555 503c 536c 1cbc e047 503c 3e3a 64bc
000003f0: 0da8 55bb 6167 563c 0c8f 063d c5bf 07bc
-0.006075803 -0.0024324919 -0.02614963 -0.0076525398 -0.0024398074 -0.012776627 -0.014781627 0.006034503
-0.024888834 0.00094477675 -0.019249298 0.012477579 0.006586998 -0.0052370215 0.012841501 0.012071146
5.5590695e-05 0.011242607 0.016462902 0.0049595814 -0.007989428 -0.017971627 -0.01721894 -0.012933226
0.0007530398 0.008254795 0.019064935 0.0026500684 0.0027441164 -0.007590674 0.013825659 -0.009870705
-0.0085476395 -0.0074469876 -0.015316413 -0.0009249628 -0.019700889 0.0006216446 0.002836271 0.00730854
0.0029501363 0.0015633779 0.016724052 0.0057020215 -0.001287172 0.00975291 -0.013647607 -0.011992779
-0.004071171 -0.00049001625 -0.0037116585 -0.00019919699 0.008922784 -0.0047287415 0.0016852566 0.0022999283
0.0038469129 -0.002176053 -0.0045825457 0.01036849 0.001444962 0.004069141 0.006731613 -0.011832709
-0.0049648504 -0.009384546 0.010507768 -0.011360908 -0.008735896 0.0013750831 0.0044363397 -0.004223654
-0.0042706225 -0.0025412156 0.009423989 -0.014272052 0.0038507038 -0.0033240423 0.004206655 -0.0043532895
-0.000225268 0.006548703 -0.030435285 0.0072298655 0.0034089284 0.015202795 -7.2018056e-06 -0.004954619
-0.00049067143 -0.006311253 0.0036098566 0.023735546 -0.010827897 0.006158052 0.009076372 -0.017236367
0.0021542944 -0.017956663 -0.008605535 -0.006179033 0.0010801161 -0.00089543563 0.0066826995 0.004452165
-0.018515635 -3.3319422e-05 -0.00013645724 -0.0076820673 0.006489686 0.0027569323 -0.01853921 -0.004176253
0.027093986 0.006760115 0.010530458 -0.012638533 -0.0039529707 -0.011575303 0.017325731 -0.0007821628
0.017361866 -0.008919802 0.017794047 -0.0023284436 -0.0075492817 -0.0020396975 -0.0052854274 -0.0017831068
-0.009320857 -0.0033328852 -0.0042958083 0.021582054 -0.013619575 0.010423881 -0.020881431 -0.008250156
0.00510239 -0.008407247 -0.0017641232 -0.00027016067 0.011828755 -0.0001625543 0.0038130502 -0.010652236
-0.0053862524 0.0073135737 0.0004122549 0.016908059 -0.010513938 -0.00087153434 -0.0010584986 -0.00014817234
0.0026787478 -0.0139877815 -0.0037960554 -0.0021068894 0.013101804 0.015559081 0.010386789 -0.0079657035
0.0030569918 -0.007152165 -0.011317385 0.008648615 0.00652833 -0.003994096 -0.0145448595 0.013142662
0.00082726 0.004278294 0.0003087678 -0.0024862892 -0.02600371 0.0040463246 -0.015698237 0.019644907
-0.009682157 -0.0023566724 0.004154924 -0.003526683 -0.010767714 0.018875841 -0.014275569 0.0041126804
-0.003487965 0.009282568 -0.0044923835 -0.004195318 -0.00047747258 0.00020191136 -0.012186418 -0.005894985
0.0017065494 -0.009493889 -0.009280395 -0.0049576205 0.0076724277 0.0040268935 -0.015726136 -0.011362558
-0.0070936056 -0.018181931 -0.016849095 0.005192849 -0.01785273 -0.019954436 -0.006855116 -0.007561221
0.007365695 0.009563837 0.0010016732 0.0023332562 -0.01156945 0.015864246 0.0066859894 -0.018561626
-0.021581301 0.0046303445 -0.010080359 -0.0049603246 0.0032543722 0.0026344936 0.024227655 0.0019707184
0.00970838 0.0011520358 -0.019451205 0.00821836 0.010966236 0.009599227 0.0070122345 0.008658848
0.0060410546 -0.019278673 0.008484599 0.005938279 0.005818427 0.0054462217 -0.0071542286 0.0020065727
-0.023044294 0.0045929123 0.0038295516 0.0028289654 0.0054305624 -0.021296661 0.0050850892 -0.021822223
0.012715627 -0.009547311 0.012712449 -0.013929902 -0.0032601387 0.013086171 0.032851264 -0.0082854675

model.tcn.0.downsample.bias f4 [25]
00000000: 1111 58bd 4586 1a3e 35c1 153d 1df0 6c3d
00000010: b4a5 933c f99e 2d3d 0b86 01be 5db1 e1bc
00000020: c453 39bd 0aba 7cbd c7c1 e6bd a0aa 35bc
00000030: 6d3d 47bb 9f91 68bd c2a7 20bd 2408 49bd
00000040: 4b8b bfbc 4940 1cbe e784 253e e016 d2bd
00000050: a90a d63d 020a 22be 622c 25bb 5696 0abc
00000060: 9425 23be
-0.05275065 0.15090282 0.03656121 0.057846177 0.01802335 0.042387936 -0.1264879 -0.027550394
-0.0452459 -0.06170086 -0.11267429 -0.011088043 -0.0030401603 -0.0567795 -0.039222486 -0.04908003
-0.02338185 -0.15258898 0.1616398 -0.10258269 0.10451252 -0.1582413 -0.0025203456 -0.008458694
-0.15932304

model.tcn.1.conv1.bias f4 [25]
00000000: 0a4c 0fbd b524 d1bc 748d 1bbd 11e1 5b3d
00000010: 98e1 6dbd 655b 61bd 165d 963d 46b9 74bd
00000020: 687b 14bd 0bc9 35bc d912 573d 47be a63d
00000030: 6e8c 4ebd 3ea2 64bd 6ffc 573c f7ff c13c
00000040: 2b1f 543d fb95 523d 5751 25bd 6f0c a03c
00000050: 2257 1cbd 1366 743d 3ace d43b 3ebb 6d3d
00000060: 2d22 75bc
-0.034984626 -0.025530199 -0.037976697 0.053681437 -0.05807647 -0.0550188 0.073419735 -0.059747003
-0.036250502 -0.011095296 0.05250821 0.08141761 -0.050426893 -0.05581879 0.013182743 0.023681624
0.051787537 0.051412564 -0.040360775 0.019537179 -0.038169034 0.059667658 0.0064943107 0.058039896
-0.014961761

model.tcn.1.conv1.weight_g f4 [25, 1, 1]
00000000: 1329 163f e9eb 0b3f 1596 133f 1b10 153f
00000010: 5b58 163f ed16 113f a249 1a3f 3df3 173f
00000020: 1a9c 173f cab8 113f bcf5 193f 6340 163f
00000030: fb47 163f da44 133f f72f 183f 0098 133f
00000040: 8a9e 193f 6f08 0d3f 9bd7 173f 9382 173f
00000050: 22c8 133f ef30 123f 7b6a 0f3f a068 1c3f
00000060: 1181 133f
0.58656424 0.54656845 0.5765088 0.582277 0.5872857 0.56675607 0.60268605 0.5935553
0.5922257 0.5692259 0.60140586 0.58691996 0.58703583 0.57526934 0.5944819 0.5765381
0.60007536 0.55090994 0.5931336 0.59183615 0.57727253 0.57105917 0.5602185 0.61097145
0.57618815

model.tcn.1.conv1.weight_v f4 [25, 25, 7]
00000000: 3666 813d 9e39 103d 086c 923c 78c5 323d
00000010: 1174 f93c 20c2 50bc ef53 39bd 9da9 c6bc
00000020: 887f 113d 1939 b2bc 1c83 1a3d 1262 f8bc
00000030: 1264 44bd d73a 803d 6550 24bd ca3e f13c
00000040: 49fa 8a3d 0574 3a3c ede3 573d c733 4ebc
00000050: ebdd 6abd 560d e8bc 1c55 7dbc 70e8 13bd
00000060: 3ef6 19bd e09c 273d 6f40 9f3d cbff 643d
00000070: ecb1 ec3c b805 5cbd bdb9 ebbb 6f67 003d
00000080: b2d5 893d 3251 00bd ef7a 413d 76bf 4e3d
00000090: 3669 16bc 2b43 7dbd 6616 2c3d abb8 3b3d
000000a0: 3d0d 57bd 0641 873d cd1c 103b 0fa9 44bd
000000b0: eb3e 443c db5a 353d 4d07 0f3c 3afe 4bbd
000000c0: 1528 04bd 5c81 3a3d f610 183d 7d08 4c3d
000000d0: 88cd 0d3d 8e7c 523d e2cd d9bb f1d1 283d
000000e0: 7501 5e3c 5f24 ea3b 803f 713d b660 aabc
000000f0: 783b 493d 0642 aabc 8d13 563d 4ded 8abb
00000100: 0dbc 5f3d 38a4 84bc 712a 523c a9ff 823d
00000110: 72a7 b93a d152 e43a 8e79 cdbc 33cd 703d
00000120: f78f 383d 52d7 26bc 1ffa 5ebc 4b02 943d
00000130: 1b57 523d c47c 8e3d 9b53 00bd fe27 a4bc
00000140: e5ec 27bd b549 41bd d003 6439 6e38 b53b
00000150: 1dbe f6bc e926 83bc 9956 1c3c f501 ffbb
00000160: e491 4dbd ffd5 673d c9e1 90bc afab a73c
00000170: 6eba 273d c6ed 70bd 50da e139 9824 42bd
00000180: 55a2 8e3d d7ee c2bc 861f 6d3d 5fc6 493c
00000190: 436c bebc 233d 193d 401e 52bd a1d8 97bc
000001a0: 7785 c9b9 bdba 9f3d 9b57 67bd 607b 163d
000001b0: c39a a43d 0562 e7bb 0866 fcbc d7c4 24bd
000001c0: 8667 27bc 73f8 733d c841 2bbd 773f 8f3d
000001d0: ee99 5abd 6b68 7b3d 6388 053c 69e1 54bc
000001e0: cbc5 58bd 1e7e edbc 2311 20bd 17f4 6cbd
000001f0: b955 8abc 1607 403d 3a4f 70bd 353f 8b3d
00000200: c37c e83c cc87 4f3d 10d2 bcb8 7ad9 e0bc
00000210: 066d 2e3d 22cf 403d b918 7c3c 2407 f03c
00000220: 709c 893d 7a9f 203c c28d f3bc 5b5f 073d
00000230: 8d94 08bd 80dd 913d 5be0 a13c f447 2d3d
00000240: ab74 9d3c 71c5 923d a398 443d 9984 743d
00000250: e22f e2bc eb62 b03c 56ab 753d 906d 7a3d
00000260: 9d55 84bc e3d8 853d 12b1 73bd bc9a 6d3d
00000270: 4f6d acbc 993b 2fbd fd6f 823d 347a f43b
00000280: e412 a6bc 9d65 443d 1584 7e3d 99c1 8d3c
00000290: 5b56 3bbd 2579 d0bc bbd0 07bd 9b8d 103d
000002a0: e40f 80bd 0fed 04bd b906 84bd 7489 7e39
000002b0: 60ae 733d d052 7d3c 3b86 993a ceb5 0f3d
000002c0: 15b2 44bd b50b 88bc 8a11 733d 6e00 81bd
000002d0: 05a7 96bd 5b55 cabc ac34 8abd 91c2 7ebc
000002e0: 8fff 4e3d 3e13 06ba 9953 a43c 6bc8 2e3c
000002f0: 2c28 53bd 87b4 1abd ad00 163c 8c0d 883d
00000300: bf8d 61bd 0b63 4c3d 3163 3cbd d778 85bd
00000310: 834e 6d3c 4923 5e3d 4048 463c b39c 3e3d
00000320: 2c0a c63b e51e 26bc dbbf 973c a06c 973c
00000330: 146a a2bc 7ff1 8f3c 5224 9b3b 2847 8bbd
00000340: 79cb 633d 80ef 8fbd 7109 c83c 1687 70bd
00000350: b231 6bbc 094c 0f3d 38ef e33c 17b0 6c3d
00000360: d8ba e1bc ded5 bb3c 32f8 083d 6e8f 8ebd
00000370: fc77 32bd dafb 1e3d fc75 543c 3a41 4abc
00000380: 1ba2 9fbc 03ed f73c ba1f 5b3d da4f 673d
00000390: 3b7a 303d 737c b13c 788c 6fbd b8b4 323d
000003a0: b7d5 05bd d3ea 2f3d c17a 56bd 4a4e cf3c
000003b0: e968 efba a1d8 5e3d 9203 0b3c 095c 193d
000003c0: dc9a 8fbd 03f7 be3c 9328 97bd 5aa3 8cbd
000003d0: 46a8 98bd d1e0 5dbd b246 00bd 6ad8 9f3c
000003e0: afae 243c 8dd2 b4bc e46b e63c 6796 8ebd
000003f0: af8a 8c3d 1cb6 23bd cdc3 ffbc 40ee 403b
0.06318323 0.035211198 0.017873779 0.043645352 0.030450853 -0.0127415955 -0.04524606 -0.0242508
0.035522014 -0.021755742 0.037722692 -0.030320201 -0.047946997 0.06261223 -0.040115733 0.029448885
0.06786019 0.0113802 0.0527076 -0.012585587 -0.057340544 -0.028326672 -0.015462186 -0.03611034
-0.03758835 0.040921092 0.077759616 0.055908006 0.028893434 -0.05371639 -0.0071937726 0.031348642
0.06730212 -0.031327434 0.04723638 0.05047556 -0.009180358 -0.061831634 0.04201355 0.04583041
-0.05250286 0.06604199 0.0021989823 -0.04801279 0.011977891 0.0442761 0.008729768 -0.049802996
-0.032264788 0.045533523 0.03712555 0.049812783 0.034619838 0.051388316 -0.0066468576 0.04121584
0.013550152 0.007145449 0.05889845 -0.020798068 0.04912898 -0.020783436 0.05226474 -0.0042397142
0.0546227 -0.016191587 0.012827502 0.063964196 0.0014164282 0.0017419701 -0.025082376 0.058789443
0.04505917 -0.010183172 -0.013609438 0.07227 0.0513526 0.06957391 -0.031329732 -0.020038601
-0.040997405 -0.047189433 0.00021745195 0.0055304086 -0.03011995 -0.016009765 0.009542131 -0.0077822157
-0.05018796 0.056600567 -0.017685788 0.020467607 0.040949278 -0.05882051 0.00043078 -0.04739818
0.06964556 -0.023795528 0.05789139 0.012315362 -0.023244983 0.03741182 -0.05129838 -0.018535914
-0.00038437147 0.077992894 -0.05648003 0.036738753 0.08037331 -0.0070612454 -0.030810371 -0.040226784
-0.010217553 0.05956311 -0.04181078 0.06994527 -0.053369455 0.061378878 0.008150193 -0.012993195
-0.052923005 -0.028990801 -0.039078843 -0.05784997 -0.016886579 0.046881758 -0.058669306 0.06799165
0.028379804 0.050666615 -9.003666e-05 -0.02744745 0.04258444 0.047072537 0.015386754 0.02930028
0.06719291 0.009803647 -0.029730681 0.033049922 -0.033344794 0.07122326 0.019760301 0.042304948
0.01922067 0.07166565 0.04799713 0.059696767 -0.027610723 0.021531543 0.05997785 0.061139643
-0.016154105 0.065355085 -0.05949504 0.058008894 -0.021048216 -0.042781446 0.06369016 0.007460857
-0.02027268 0.04794847 0.062137682 0.017304229 -0.045736652 -0.025448391 -0.033158045 0.035291295
-0.06253031 -0.03245264 -0.06446595 0.00024274533 0.05949247 0.015461639 0.0011712977 0.03508549
-0.048021395 -0.016607145 0.0593429 -0.0629891 -0.07356075 -0.024698904 -0.067483276 -0.015549318
0.05053669 -0.00051145616 0.020059394 0.010667901 -0.051551983 -0.03776982 0.009155435 0.06643209
-0.05506682 0.049899142 -0.045993034 -0.06517189 0.014484051 0.05423287 0.012102187 0.04653616
0.006043693 -0.010139202 0.018524101 0.018484414 -0.019825973 0.017571209 0.0047345543 -0.06800681
0.05561397 -0.07028103 0.024418565 -0.058722578 -0.01435511 0.034984622 0.02782403 0.05778512
-0.027554914 0.022929128 0.033439822 -0.06960951 -0.043571457 0.038814403 0.012967583 -0.012344653
-0.019486478 0.030264383 0.053497054 0.056472637 0.043085318 0.021665787 -0.05848357 0.043629378
-0.032674517 0.042948555 -0.05236316 0.025305886 -0.0018265519 0.054405812 0.008484738 0.037441287
-0.07011959 0.023311144 -0.07380786 -0.06867094 -0.074539706 -0.05416948 -0.03131742 0.019512374
0.010051413 -0.022073055 0.028127618 -0.06962281 0.06862389 -0.039968595 -0.031221295 0.0029438883

model.tcn.1.conv2.bias f4 [25]
00000000: 149e a6bc d550 1d3d 2c8e f9bc 5374 1dbd
00000010: ecd0 c3bc 641b dbbb 5a5f 9f3d 042d 1a3d
00000020: 181e e3bc 8c7c 4abd 1560 4d3d 1df9 533d
00000030: b272 da3c 9d77 373c d3e3 98bc 9c06 11bd
00000040: eb8f abbb 303b 85bd 95f5 383c a42c 9b3b
00000050: 1900 d2bc 5433 2e3d 9b26 7a3d 1003 4bbd
00000060: 2354 db3c
-0.02033905 0.038407166 -0.0304633 -0.038441014 -0.023903333 -0.006686615 0.07781859 0.037640586
-0.02772431 -0.049435183 0.05014046 0.051751245 0.02666602 0.011197952 -0.018663323 -0.035406694
-0.005235662 -0.0650543 0.01128902 0.004735546 -0.025634812 0.04252942 0.061071973 -0.049563468
0.026773518

model.tcn.1.conv2.weight_g f4 [25, 1, 1]
00000000: 13f5 143f 6c4b 163f 84f5 0f3f 3b44 1b3f
00000010: eb31 0e3f 3bd1 103f 34fe 123f a6ee 0c3f
00000020: 53af 0d3f c874 0d3f f9aa 183f 09bc 0f3f
00000030: 115c 123f d858 153f c3f3 123f 4af9 103f
00000040: ff24 1d3f 594c 0b3f 0b6c 163f c330 173f
00000050: 640a 183f b851 0c3f 1e83 143f b208 1d3f
00000060: d112 163f
0.58186454 0.58708835 0.56234 0.60650986 0.5554492 0.5656926 0.57419133 0.5505165
0.5534565 0.5525632 0.59635884 0.56146294 0.5717173 0.5833869 0.574032 0.56630385
0.61384577 0.5441337 0.5875861 0.5905878 0.59390855 0.5481219 0.5801257 0.61341393
0.5862246
