etc/ckpts/participants/661_test_30_all/sigmoid/TCN/epochs/TCN-chpkt-pecanstreet-participant-id-661_test_30_all_epoch=013.ckpt (torch, 929197 bytes, 201 tensors)

model.tcn.0.conv1.bias f4 [25]
00000000: ae07 143d 344c 0ebd 7da2 c63c e6d0 8c3c
00000010: 6d2f 82bd 62cc 32bd 13e7 49bd 780e 3d3d
00000020: 64f1 3a3c 9c3f dd3b 3773 42bd 6a36 8abd
00000030: a35e a9bc 02cf 46bd f72d 83bd 6388 63bd
00000040: 9ca4 32bd 4fc8 8abd 66a9 fc3c d58c 003d
00000050: 3481 193d d5d6 8ebd 82b6 543d 397a d93c
00000060: fd32 153d
0.036140136 -0.03474064 0.024247402 0.017189454 -0.06356702 -0.043651946 -0.049292635 0.046156377
0.011410091 0.0067519676 -0.04747316 -0.0674866 -0.02067501 -0.04853726 -0.064052515 -0.05554999
-0.043614015 -0.06776487 0.030842494 0.031384308 0.037476733 -0.0697457 0.051931866 0.026547538
0.03642558

model.tcn.0.conv1.weight_g f4 [25, 1, 1]
00000000: d289 163f 8e0a 113f f0e9 163f cd8a 1d3f
00000010: 4861 133f f69e 103f 27ea 1b3f 79d5 173f
00000020: de82 0b3f 402a 133f 9ddf 103f fac7 0d3f
00000030: 1c62 143f de7a 173f 13cc 083f 5ad7 0e3f
00000040: fa74 173f 702e 0e3f c765 173f a790 103f
00000050: dff7 193f 1768 0e3f 58f4 143f 3811 153f
00000060: d97b 123f
0.5880405 0.5665673 0.5895071 0.6153992 0.57570314 0.56492555 0.60904163 0.5931011
0.5449656 0.57486343 0.56591207 0.55383265 0.57962203 0.59171855 0.5343639 0.5579735
0.5916287 0.5553961 0.59139675 0.5647072 0.60143846 0.5562758 0.5818534 0.582294
0.57220227

model.tcn.0.conv1.weight_v f4 [25, 28, 7]
00000000: 0359 743c 2248 593d 5075 26bd 8ea0 0bbd
00000010: e890 18bc bc12 153d 48bd 8a3c 4043 6c3d
00000020: 6d22 4ebb ffb5 ae3c abe1 91bc 4cb2 2abc
00000030: 297a 80bd 8b29 2ebd 1859 eebc 6e5f 4cba
00000040: 1bb5 b33c b5fd 103d 2198 41bd 6199 fbbc
00000050: 735c ac3c 55d0 6f3d cad1 6bbc 5917 593d
00000060: a151 35bc b2b7 fc3b 0167 833d f774 85bd
00000070: 196b 2ebd ce22 87bc 7791 d6bc e84c 7b3d
00000080: 6584 36bd 2b26 01bd 3a54 45bd a9f7 7ebd
00000090: f27b 1abd e979 813d ee34 0c3d f53e 173d
000000a0: 0b5b d83b 36d6 06bd 8d55 763c f547 7ebd
000000b0: f7f8 40bd ef99 05bd 7a03 433d 5b94 363d
000000c0: d001 e1bc bce5 c5bb 6b75 ae3c 1aba 143d
000000d0: 8776 4c3c 5119 94ba 785d a83c 8845 31bd
000000e0: 6b21 95bc 7fa5 babd 2210 b0bd c3a4 96bd
000000f0: d10e 28bb 3751 febb 9b5a acbd 6322 d43c
00000100: 40c7 2f3d be82 7dbb d4d7 f23b f012 aa3c
00000110: c651 423d 964f 913d 54f4 4ebd 678b b8bc
00000120: 9003 f83c 2555 783d b90c 823d 549f 833d
00000130: 0f94 883c ee6f 89bd 73ea 993a 1dfd 49bd
00000140: 1205 91bd bbb8 6d3d 1dde 483d 75c8 99bd
00000150: 6f65 683c f34e 30bc 2d42 2cbc 0b8a ffbc
00000160: 0746 e53c d2c7 26bd a9c9 d93c 33df 013d
00000170: 4668 3d3d 3ad8 b83c 08a6 92bd cf7a 45bd
00000180: 934a fe3c c061 343c b5d0 5dbd f1d2 23bd
00000190: 675f 873d 3356 423d dfd2 f7bc aab7 8ebc
000001a0: 156b 88bd daf5 2b3b 704e 49bd 4104 4fbd
000001b0: 610c 83b9 db87 683c b30b cfbc aafa 393d
000001c0: b564 27bd e79d 823d 0cb0 463d d735 69bd
000001d0: 227e 80bc f6b8 983b 9917 413c 7a34 983c
000001e0: 4694 f03c 17c1 d93b 4b6a fdbc 1830 113d
000001f0: 3294 81bd 17e0 1abd 76e2 80bc 3658 03bd
00000200: 83bf b8bc 0354 61bd a668 52bc a09a 883c
00000210: 0400 31bd 9cba bdbb 21eb 433d 3cce 13bc
00000220: 4b01 a539 a7f0 f2bb 98f6 523c 14c2 313d
00000230: 2dbe 7d3d 9e22 243d 87ca 7e3d f868 1dbc
00000240: e5ab 8abd 32f2 1abd 57a9 323d 9d83 a73a
00000250: b82a 0abd ebfc 58bd 5fb4 85bd 1e73 71bd
00000260: a055 60bc 70c8 213d 5333 0c3d 4249 93bd
00000270: f032 263d 55c2 6fbd 8a60 95bc 595d 02bd
00000280: afab 87bc 7f0a 4ebc 0376 7cbd ec95 72bd
00000290: b70b 1fbc bbf9 0a3b f282 fabc 1fa8 e13c
000002a0: 5b74 73bd 46ee 04bb 5799 813d 09a2 cebc
000002b0: d9b6 853d 04cd e53c 3def 71bd dae8 323d
000002c0: 74cb 12bc ed81 04bd c21e 613d 17cd 6cbd
000002d0: 0841 d43b 1a33 82bc 96db 4b3d 26d2 a13c
000002e0: 0d76 0b3d 7bfa cf3c 3705 83bc 21e1 60bc
000002f0: 8d66 67bd 5c56 1f3d 71f3 673d fcc3 493d
00000300: 80c3 3ebd 0118 b73b 7777 3cbd eacf 0fbd
00000310: fc83 21bd eb2e ed3c fcdf 24bd e95d 613a
00000320: 66d7 f33b 2e2a 4d3d 49f1 46bd e447 49bd
00000330: 7dec 2abd 8d95 533d e2ff d5bc 6e11 723d
00000340: c2f5 cd3c 0e1f 0f3c e0e7 dab9 0fbf 58bc
00000350: 7df1 433c 7a46 6cbc 161d 7a3b 972a 5e3c
00000360: d38f 46bd 8094 02bd acc1 823d ea8c 53bd
00000370: 3f86 8eb7 52dd 9d3d e224 093d dc98 2d3c
00000380: 19d0 5cbd afac 373d 87cc 30bd 691a 54bc
00000390: 0a5f 6abc 464a 84ba eeba 1f3c 2a27 793d
000003a0: d907 453c 520c 873d e0fb 3c3d 69c1 25bd
000003b0: c966 0f3d 9734 3cbd fdb4 d5bc 5b2b d83c
000003c0: 5c6a ee3c c0c0 6d3d 89ba 7abc 8a62 e53b
000003d0: 4db5 2e3d f7fc 98bd 1c03 103d bb24 85bd
000003e0: f8e0 b2bb 97ba b1bc 2352 3bbd 44a7 8abb
000003f0: 661b 523d 69a4 08bd 4de7 63bd e3f6 23bd
0.0149138 0.053047307 -0.04063922 -0.034088664 -0.009311892 0.03639482 0.01693596 0.057681322
-0.0031453625 0.021327017 -0.017807802 -0.010418486 -0.062733 -0.042520087 -0.029095218 -0.00077962026
0.021936944 0.035398204 -0.047264222 -0.030712785 0.021040177 0.05854829 -0.014393279 0.05300078
-0.011066825 0.007712328 0.06416131 -0.0651645 -0.042582605 -0.016496088 -0.02619241 0.06135264
-0.044559855 -0.03153054 -0.048176028 -0.062247906 -0.03771586 0.06322081 0.034230165 0.036925275
0.00660265 -0.03291913 0.015035045 -0.062080342 -0.04711243 -0.032617506 0.047610737 0.044575077
-0.027466685 -0.0060393494 0.021296224 0.036310293 0.012479431 -0.0011299049 0.020552382 -0.0432792
-0.018204411 -0.09113597 -0.08596827 -0.073556446 -0.0025643597 -0.0077611464 -0.08415719 0.025895303
0.04291463 -0.0038682665 0.0074109826 0.020760983 0.047441266 0.07095258 -0.05052598 -0.02252741
0.030275136 0.060628075 0.06350083 0.06426874 0.016672162 -0.06710802 0.0011742845 -0.049313653
-0.07081045 0.0580375 0.04903995 -0.07508937 0.01418434 -0.01076101 -0.010513824 -0.031193754
0.027987493 -0.040717907 0.026585417 0.031707 0.04624202 0.022564042 -0.07160574 -0.048212823
0.03104142 0.011009634 -0.054154117 -0.03999609 0.066099934 0.047445487 -0.030251918 -0.017421562
-0.06661049 0.0026239068 -0.04914707 -0.050541166 -0.0002499549 0.014192547 -0.025274133 0.045405068
-0.040867526 0.06377774 0.048507735 -0.05693611 -0.015685145 0.004660721 0.011785411 0.01857971
0.029367577 0.0066453326 -0.030934473 0.035446256 -0.06327094 -0.037811365 -0.015732985 -0.032066546
-0.022552257 -0.05501176 -0.012842333 0.016675293 -0.043212906 -0.005790068 0.04783166 -0.009021338
0.00031472216 -0.007413942 0.012876175 0.043397978 0.061948944 0.040072076 0.062204864 -0.009607546
-0.067710675 -0.03782863 0.043618526 0.0012780313 -0.033732146 -0.052975576 -0.06528544 -0.058947675
-0.01369229 0.039497793 0.034228634 -0.07191707 0.04057592 -0.05853494 -0.01823451 -0.031827305
-0.016561357 -0.012575745 -0.061635982 -0.059225008 -0.009707383 0.002120598 -0.030580018 0.027545987
-0.059437137 -0.0020283624 0.063280754 -0.025223749 0.06529016 0.02805186 -0.059066046 0.043679096
-0.00895964 -0.03235047 0.054960974 -0.057812776 0.006477479 -0.015893508 0.04976996 0.019753527
0.03404813 0.025387993 -0.015993698 -0.01372555 -0.056494284 0.038900718 0.05662865 0.04925917
-0.046573162 0.0055875783 -0.046012368 -0.03511039 -0.03943251 0.028953036 -0.04025267 0.00085970626
0.007441449 0.050089054 -0.04856995 -0.049140826 -0.04172944 0.051656295 -0.026122991 0.059098653
0.0251416 0.008735431 -0.0004175296 -0.013229146 0.011959431 -0.0144211 0.003816431 0.013559959
-0.048477005 -0.031879902 0.06384596 -0.051648058 -1.6990232e-05 0.07708229 0.03348244 0.010595527
-0.053909395 0.04484242 -0.043163802 -0.01294575 -0.014304886 -0.0010092936 0.009749157 0.060828365
0.012025797 0.06594147 0.046138644 -0.040467653 0.035010133 -0.04594859 -0.026087279 0.026387861
0.02910345 0.05804515 -0.0153032625 0.007000272 0.04265337 -0.07470124 0.035159215 -0.065011464
-0.0054589473 -0.021695418 -0.04573263 -0.0042313654 0.05129566 -0.03335992 -0.055640507 -0.04003037

model.tcn.0.conv2.bias f4 [25]
00000000: 311c b1bc 3e3a 66b9 04f8 54bc cec3 5e3d
00000010: 963e 093d 1fc5 d83c f110 9d3b 382f 28bd
00000020: 7ff2 1a3c d0f5 67bd cc97 603b 0bf5 993d
00000030: 2238 07bc aed1 963d 8bb3 26bd 2a61 883d
00000040: cdf6 0a3d 42cc 03bd 349a 94bd 5e0e eebc
00000050: 37a3 0a3d 8b8f 983d 6b31 5cbd 1e4b f4bc
00000060: 29e6 f63c
-0.021619888 -0.00021956206 -0.012998585 0.054385953 0.033506952 0.026461182 0.0047932793 -0.041060656
0.00945723 -0.05663091 0.0034270165 0.07517441 -0.008253129 0.07364212 -0.04069857 0.066591576
0.033926774 -0.032177217 -0.072559744 -0.029059585 0.03384706 0.07449254 -0.053758066 -0.029820975
0.030139046

model.tcn.0.conv2.weight_g f4 [25, 1, 1]
00000000: 7490 173f fd7f 173f 0bcf 0c3f dda4 1a3f
00000010: 3313 103f 5b0e 0b3f 2ce4 1a3f 96ce 1b3f
00000020: b330 163f 6e03 1b3f a8ad 113f 7f7c 153f
00000030: 5ebe 093f 860f 143f 2e67 1d3f dc14 143f
00000040: aef2 133f a76b 133f 5269 143f a65b 143f
00000050: a42c 173f ff4e 123f 7d76 1f3f 82f0 123f
00000060: 9b7b 0f3f
0.5920479 0.5917967 0.5500342 0.6040781 0.56279296 0.5431878 0.6050441 0.608621
0.5866806 0.6055211 0.56905603 0.5839309 0.538061 0.57836187 0.61485565 0.5784433
0.57792175 0.5758614 0.57973206 0.57952344 0.5905249 0.5715179 0.62290174 0.57398236
0.5604798

model.tcn.0.conv2.weight_v f4 [25, 25, 7]
00000000: a3c4 01bc 2f29 403d 9c4c 76bd f4b1 173d
00000010: 5c77 923d 4c4f 343d 98e1 6dbd 5b56 11bc
00000020: 0a65 0e3b 0ce5 1f3d 0959 80bc 0688 773c
00000030: c11c 5fbc 4ab5 1cb7 765c b93a ef5f 20bd
00000040: 091e 44bd 41c5 813d cc0b 843d 7f43 4f3a
00000050: 9e91 883d e49c 793d 4f02 18bd 8bae a2bc
00000060: c71c 28bd 9732 013d cc9c 3b3c 4236 2637
00000070: 7f2f 553d f8c5 9dbc 670c fabc 1623 30bd
00000080: 76bd e5bc 960e 893d 7580 d5bc a3b9 8cbc
00000090: 6a72 123d c767 5bbd 147e 2cbd 8529 673d
000000a0: 6768 d3bc 29af 13bd 95db e5bb c759 00bc
000000b0: 5a44 6a3c 9811 de3c f464 54bd 8608 863d
000000c0: 9aaf 84bd 8517 133d 0b97 1abc e5f9 a1bc
000000d0: eae7 a53d 5deb 73bd a6f4 933c 0b62 793d
000000e0: 59d0 823d 6fec 49bd 8cb7 683c 7cab 903d
000000f0: 0e4f 77bd 9cd6 a93c e7ef 0fbd c744 c33c
00000100: b388 5ebd 114a 453d b6cc 63bb a391 673d
00000110: 206a 463c e4fb 4f3b 3e3f f2bb 27dc 69bd
00000120: 2203 a9bc 9638 573c 0cd4 3bbd b77a 983d
00000130: 5206 14bd f6cb bdbc 34b3 14bc adc4 55bd
00000140: 5833 e7bb 739c edbc 6087 5dbd 5946 d9bb
00000150: 7ec4 6d3d 699b 803c 106b 5f3d c236 b43a
00000160: f332 a3bc 61b3 5c3d 055d 05bd eca7 63bd
00000170: 57d4 f13c 7136 4e3d 122c fabc 8b75 253d
00000180: 8ad6 3fbc 2924 cb3b 1da5 c7bb cd13 b6bb
00000190: 4c97 4ebd a64d 5c3c 36f3 0fbc b932 463d
000001a0: beba 103c 26d3 47bd ac49 36bd 3a68 d8bc
000001b0: ce6a 343d d7bb 0fbd 3e99 a9bc a33b cb3c
000001c0: 222c 1dbd 6df5 bcbc 6060 883d 5374 d3bc
000001d0: 62ca 39bc d24d 613d 171d c63c 0a5a 4c3d
000001e0: 11aa 89bd f31d f63c 8d01 82bc 0999 4fbd
000001f0: 48a7 11bd 5d0a 98bd 2dc4 633d beff 15bc
00000200: 3d3e 8abd ec75 8c3d fbfc 5a3d 164a 153d
00000210: 2be6 a03d e497 9d3d c6bf a23d 8a2b 9d3d
00000220: 4d06 913d dac4 f23c 8c0d 813b 3c15 5e3c
00000230: 442a a1bc 7b97 3e3d 575e 623c be86 f23c
00000240: 2748 13bd 34a3 82bc df73 8b3d 0e1c 72bb
00000250: 38f5 313c 326c 8ebd de8f 20bd fa10 5dbc
00000260: 5d38 9cbc 9080 c93c 99fd 44bc b42e 953d
00000270: 3c28 4bbb fe63 273d efd4 27bd 1e50 cb3c
00000280: 076c 78bd 8067 51bd a6a2 0cbd 6446 133d
00000290: 873c ab3c aecb ba3c 8f9c f43b ce5d a43d
000002a0: fe12 a53d 704f 263d 6ab6 8b3d 88aa c03b
000002b0: 9176 91bc f8fa c53c e3ad 6f3d 9a29 d9b9
000002c0: d2a6 3bbd ef27 143d d05d ecbb 37dd c2bc
000002d0: a64e 733d cb32 273c b541 f0bc 52b0 ffbc
000002e0: 0934 883d ff8f 3f3d d473 23bd 4aa4 1f3c
000002f0: 19f8 0f3c e63e 163d d898 76bd 9faa 503b
00000300: 0acf d63c 999c 1f3d 15a2 1c3c a8bc 0bbd
00000310: 6380 7cbd a327 3a3d 38e8 923d 93e3 50bc
00000320: ef02 65bd b604 ef3c 3523 29bd 34c3 25bd
00000330: e504 923c e6ea e7ba ac58 8fb8 b6ba 743d
00000340: 1f9a f5bb 7ced 253d b348 b7bc 4f84 5c3d
00000350: a2ba b43c e695 833d 7773 cb3c 075a d8bc
00000360: 5118 fd3c 2c94 7c3d 4fca 863c 325b 103d
00000370: 4776 3cbd 83ae 283d 0ead 81bd 3b39 863d
00000380: f3f5 1e3d 60b1 5e3c a0a1 75bd adbf 9c3d
00000390: 85ac 683d 36a7 a03d b6b7 223d 225b 9f3c
000003a0: b6a3 8ebc c1f3 e0bc 4db4 b63c be9c 9c3c
000003b0: a86a 84bb 63bb f83b 2894 0e3d e714 75bd
000003c0: e97c 5bbd 7262 00bc d4d5 763d 0979 3f3d
000003d0: 165f 6dbd 2f98 57bc 3dbe 9c3a 2ffc 053d
000003e0: 5851 8b3d 63eb 373c b434 40bd be6f 723c
000003f0: de18 e0bc c2af 29bd 8349 883c 2d5a 78bc
-0.007920417 0.046914276 -0.060131654 0.037034944 0.07151672 0.044020936 -0.05807647 -0.008870686
0.0021727704 0.039036795 -0.015667455 0.015108114 -0.013617695 -9.340534e-06 0.0014141935 -0.03915399
-0.047880206 0.06336451 0.064475626 0.0007906481 0.06668399 0.06094064 -0.037111577 -0.01985862
-0.04104307 0.031542387 0.0114509575 9.907004e-06 0.05204725 -0.019259438 -0.030523492 -0.04300221
-0.028044444 0.06692235 -0.02606223 -0.017178362 0.035753645 -0.053565767 -0.042112425 0.05643608
-0.025806619 -0.036055718 -0.0070147016 -0.007833905 0.014298523 0.027107999 -0.05185409 0.065445945
-0.06478806 0.0359111 -0.0094354255 -0.01977248 0.08100875 -0.05955063 0.018060993 0.060884517
0.063873954 -0.049297746 0.014203917 0.07063958 -0.060378127 0.020732217 -0.035140898 0.023836507
-0.054329585 0.04816634 -0.0034759468 0.056535374 0.012110263 0.0031735832 -0.007392793 -0.05709472
-0.020631377 0.01313605 -0.04585652 0.07445281 -0.03613884 -0.023168545 -0.0090759285 -0.052189518
-0.007055681 -0.029005265 -0.05408418 -0.0066307005 0.058048718 0.015699105 0.054545462 0.0013749229
-0.019921755 0.053882007 -0.032559413 -0.055580065 0.029520197 0.050344888 -0.030538592 0.0403953
-0.011708865 0.006199379 -0.006092681 -0.0055565597 -0.050437257 0.013446247 -0.008786013 0.048388217
0.008833585 -0.04878535 -0.044503853 -0.026416887 0.04404717 -0.035091247 -0.020702954 0.02480871
-0.038372166 -0.023066247 0.06659007 -0.025812304 -0.011339756 0.055005856 0.024183793 0.049890555
-0.06721891 0.030043578 -0.01586988 -0.050683055 -0.035559922 -0.07423852 0.05560701 -0.009155212
-0.06750152 0.06858429 0.053463917 0.036447607 0.07856401 0.076949865 0.07946734 0.0767432
0.0708128 0.029634882 0.0039383825 0.013554867 -0.019673474 0.04653118 0.013816438 0.029605266
-0.03595748 -0.015946962 0.0680921 -0.0036942991 0.010861687 -0.0695423 -0.039199702 -0.013492817
-0.019069845 0.024597436 -0.012023353 0.072842985 -0.0030999323 0.040866844 -0.040974554 0.024818476
-0.060649898 -0.051124096 -0.0343348 0.0359558 0.020902885 0.0228022 0.0074649523 0.08025704
0.08060263 0.0406031 0.06821902 0.005879704 -0.017756732 0.024167523 0.05851544 -0.0004142046
-0.04581339 0.036170896 -0.0072133318 -0.023787124 0.059401177 0.010204981 -0.029328207 -0.031212006
0.0665055 0.046768185 -0.039905384 0.009743759 0.008787178 0.03668108 -0.060204357 0.003183998
0.02622177 0.038967703 0.009560128 -0.034115463 -0.061645877 0.045447957 0.071731985 -0.01274957
-0.055911 0.029177051 -0.04129334 -0.040469363 0.0178246 -0.0017693907 -6.835288e-05 0.059748374
-0.0074951793 0.040509686 -0.022373533 0.053837117 0.02206165 0.06425075 0.024835331 -0.026410116
0.030895384 0.061664745 0.01645389 0.03524322 -0.046011236 0.041182052 -0.06331836 0.065538846
0.038808774 0.013592094 -0.05996859 0.07653747 0.056805152 0.07844393 0.03972598 0.019452635
-0.017412048 -0.02745998 0.022302771 0.01911771 -0.0040410347 0.0075906976 0.03480926 -0.059834387
-0.05358592 -0.007835971 0.060262516 0.046746287 -0.05795201 -0.013158842 0.0011958551 0.032711204
0.068026245 0.011225554 -0.04692526 0.014797149 -0.027355608 -0.04142738 0.016636616 -0.015158218

model.tcn.0.net.0.bias f4 [25]
00000000: ae07 143d 344c 0ebd 7da2 c63c e6d0 8c3c
00000010: 6d2f 82bd 62cc 32bd 13e7 49bd 780e 3d3d
00000020: 64f1 3a3c 9c3f dd3b 3773 42bd 6a36 8abd
00000030: a35e a9bc 02cf 46bd f72d 83bd 6388 63bd
00000040: 9ca4 32bd 4fc8 8abd 66a9 fc3c d58c 003d
00000050: 3481 193d d5d6 8ebd 82b6 543d 397a d93c
00000060: fd32 153d
0.036140136 -0.03474064 0.024247402 0.017189454 -0.06356702 -0.043651946 -0.049292635 0.046156377
0.011410091 0.0067519676 -0.04747316 -0.0674866 -0.02067501 -0.04853726 -0.064052515 -0.05554999
-0.043614015 -0.06776487 0.030842494 0.031384308 0.037476733 -0.0697457 0.051931866 0.026547538
0.03642558

model.tcn.0.net.0.weight_g f4 [25, 1, 1]
00000000: d289 163f 8e0a 113f f0e9 163f cd8a 1d3f
00000010: 4861 133f f69e 103f 27ea 1b3f 79d5 173f
00000020: de82 0b3f 402a 133f 9ddf 103f fac7 0d3f
00000030: 1c62 143f de7a 173f 13cc 083f 5ad7 0e3f
00000040: fa74 173f 702e 0e3f c765 173f a790 103f
00000050: dff7 193f 1768 0e3f 58f4 143f 3811 153f
00000060: d97b 123f
0.5880405 0.5665673 0.5895071 0.6153992 0.57570314 0.56492555 0.60904163 0.5931011
0.5449656 0.57486343 0.56591207 0.55383265 0.57962203 0.59171855 0.5343639 0.5579735
0.5916287 0.5553961 0.59139675 0.5647072 0.60143846 0.5562758 0.5818534 0.582294
0.57220227

model.tcn.0.net.0.weight_v f4 [25, 28, 7]
00000000: 0359 743c 2248 593d 5075 26bd 8ea0 0bbd
00000010: e890 18bc bc12 153d 48bd 8a3c 4043 6c3d
00000020: 6d22 4ebb ffb5 ae3c abe1 91bc 4cb2 2abc
00000030: 297a 80bd 8b29 2ebd 1859 eebc 6e5f 4cba
00000040: 1bb5 b33c b5fd 103d 2198 41bd 6199 fbbc
00000050: 735c ac3c 55d0 6f3d cad1 6bbc 5917 593d
00000060: a151 35bc b2b7 fc3b 0167 833d f774 85bd
00000070: 196b 2ebd ce22 87bc 7791 d6bc e84c 7b3d
00000080: 6584 36bd 2b26 01bd 3a54 45bd a9f7 7ebd
00000090: f27b 1abd e979 813d ee34 0c3d f53e 173d
000000a0: 0b5b d83b 36d6 06bd 8d55 763c f547 7ebd
000000b0: f7f8 40bd ef99 05bd 7a03 433d 5b94 363d
000000c0: d001 e1bc bce5 c5bb 6b75 ae3c 1aba 143d
000000d0: 8776 4c3c 5119 94ba 785d a83c 8845 31bd
000000e0: 6b21 95bc 7fa5 babd 2210 b0bd c3a4 96bd
000000f0: d10e 28bb 3751 febb 9b5a acbd 6322 d43c
00000100: 40c7 2f3d be82 7dbb d4d7 f23b f012 aa3c
00000110: c651 423d 964f 913d 54f4 4ebd 678b b8bc
00000120: 9003 f83c 2555 783d b90c 823d 549f 833d
00000130: 0f94 883c ee6f 89bd 73ea 993a 1dfd 49bd
00000140: 1205 91bd bbb8 6d3d 1dde 483d 75c8 99bd
00000150: 6f65 683c f34e 30bc 2d42 2cbc 0b8a ffbc
00000160: 0746 e53c d2c7 26bd a9c9 d93c 33df 013d
00000170: 4668 3d3d 3ad8 b83c 08a6 92bd cf7a 45bd
00000180: 934a fe3c c061 343c b5d0 5dbd f1d2 23bd
00000190: 675f 873d 3356 423d dfd2 f7bc aab7 8ebc
000001a0: 156b 88bd daf5 2b3b 704e 49bd 4104 4fbd
000001b0: 610c 83b9 db87 683c b30b cfbc aafa 393d
000001c0: b564 27bd e79d 823d 0cb0 463d d735 69bd
000001d0: 227e 80bc f6b8 983b 9917 413c 7a34 983c
000001e0: 4694 f03c 17c1 d93b 4b6a fdbc 1830 113d
000001f0: 3294 81bd 17e0 1abd 76e2 80bc 3658 03bd
00000200: 83bf b8bc 0354 61bd a668 52bc a09a 883c
00000210: 0400 31bd 9cba bdbb 21eb 433d 3cce 13bc
00000220: 4b01 a539 a7f0 f2bb 98f6 523c 14c2 313d
00000230: 2dbe 7d3d 9e22 243d 87ca 7e3d f868 1dbc
00000240: e5ab 8abd 32f2 1abd 57a9 323d 9d83 a73a
00000250: b82a 0abd ebfc 58bd 5fb4 85bd 1e73 71bd
00000260: a055 60bc 70c8 213d 5333 0c3d 4249 93bd
00000270: f032 263d 55c2 6fbd 8a60 95bc 595d 02bd
00000280: afab 87bc 7f0a 4ebc 0376 7cbd ec95 72bd
00000290: b70b 1fbc bbf9 0a3b f282 fabc 1fa8 e13c
000002a0: 5b74 73bd 46ee 04bb 5799 813d 09a2 cebc
000002b0: d9b6 853d 04cd e53c 3def 71bd dae8 323d
000002c0: 74cb 12bc ed81 04bd c21e 613d 17cd 6cbd
000002d0: 0841 d43b 1a33 82bc 96db 4b3d 26d2 a13c
000002e0: 0d76 0b3d 7bfa cf3c 3705 83bc 21e1 60bc
000002f0: 8d66 67bd 5c56 1f3d 71f3 673d fcc3 493d
00000300: 80c3 3ebd 0118 b73b 7777 3cbd eacf 0fbd
00000310: fc83 21bd eb2e ed3c fcdf 24bd e95d 613a
00000320: 66d7 f33b 2e2a 4d3d 49f1 46bd e447 49bd
00000330: 7dec 2abd 8d95 533d e2ff d5bc 6e11 723d
00000340: c2f5 cd3c 0e1f 0f3c e0e7 dab9 0fbf 58bc
00000350: 7df1 433c 7a46 6cbc 161d 7a3b 972a 5e3c
00000360: d38f 46bd 8094 02bd acc1 823d ea8c 53bd
00000370: 3f86 8eb7 52dd 9d3d e224 093d dc98 2d3c
00000380: 19d0 5cbd afac 373d 87cc 30bd 691a 54bc
00000390: 0a5f 6abc 464a 84ba eeba 1f3c 2a27 793d
000003a0: d907 453c 520c 873d e0fb 3c3d 69c1 25bd
000003b0: c966 0f3d 9734 3cbd fdb4 d5bc 5b2b d83c
000003c0: 5c6a ee3c c0c0 6d3d 89ba 7abc 8a62 e53b
000003d0: 4db5 2e3d f7fc 98bd 1c03 103d bb24 85bd
000003e0: f8e0 b2bb 97ba b1bc 2352 3bbd 44a7 8abb
000003f0: 661b 523d 69a4 08bd 4de7 63bd e3f6 23bd
0.0149138 0.053047307 -0.04063922 -0.034088664 -0.009311892 0.03639482 0.01693596 0.057681322
-0.0031453625 0.021327017 -0.017807802 -0.010418486 -0.062733 -0.042520087 -0.029095218 -0.00077962026
0.021936944 0.035398204 -0.047264222 -0.030712785 0.021040177 0.05854829 -0.014393279 0.05300078
-0.011066825 0.007712328 0.06416131 -0.0651645 -0.042582605 -0.016496088 -0.02619241 0.06135264
-0.044559855 -0.03153054 -0.048176028 -0.062247906 -0.03771586 0.06322081 0.034230165 0.036925275
0.00660265 -0.03291913 0.015035045 -0.062080342 -0.04711243 -0.032617506 0.047610737 0.044575077
-0.027466685 -0.0060393494 0.021296224 0.036310293 0.012479431 -0.0011299049 0.020552382 -0.0432792
-0.018204411 -0.09113597 -0.08596827 -0.073556446 -0.0025643597 -0.0077611464 -0.08415719 0.025895303
0.04291463 -0.0038682665 0.0074109826 0.020760983 0.047441266 0.07095258 -0.05052598 -0.02252741
0.030275136 0.060628075 0.06350083 0.06426874 0.016672162 -0.06710802 0.0011742845 -0.049313653
-0.07081045 0.0580375 0.04903995 -0.07508937 0.01418434 -0.01076101 -0.010513824 -0.031193754
0.027987493 -0.040717907 0.026585417 0.031707 0.04624202 0.022564042 -0.07160574 -0.048212823
0.03104142 0.011009634 -0.054154117 -0.03999609 0.066099934 0.047445487 -0.030251918 -0.017421562
-0.06661049 0.0026239068 -0.04914707 -0.050541166 -0.0002499549 0.014192547 -0.025274133 0.045405068
-0.040867526 0.06377774 0.048507735 -0.05693611 -0.015685145 0.004660721 0.011785411 0.01857971
0.029367577 0.0066453326 -0.030934473 0.035446256 -0.06327094 -0.037811365 -0.015732985 -0.032066546
-0.022552257 -0.05501176 -0.012842333 0.016675293 -0.043212906 -0.005790068 0.04783166 -0.009021338
0.00031472216 -0.007413942 0.012876175 0.043397978 0.061948944 0.040072076 0.062204864 -0.009607546
-0.067710675 -0.03782863 0.043618526 0.0012780313 -0.033732146 -0.052975576 -0.06528544 -0.058947675
-0.01369229 0.039497793 0.034228634 -0.07191707 0.04057592 -0.05853494 -0.01823451 -0.031827305
-0.016561357 -0.012575745 -0.061635982 -0.059225008 -0.009707383 0.002120598 -0.030580018 0.027545987
-0.059437137 -0.0020283624 0.063280754 -0.025223749 0.06529016 0.02805186 -0.059066046 0.043679096
-0.00895964 -0.03235047 0.054960974 -0.057812776 0.006477479 -0.015893508 0.04976996 0.019753527
0.03404813 0.025387993 -0.015993698 -0.01372555 -0.056494284 0.038900718 0.05662865 0.04925917
-0.046573162 0.0055875783 -0.046012368 -0.03511039 -0.03943251 0.028953036 -0.04025267 0.00085970626
0.007441449 0.050089054 -0.04856995 -0.049140826 -0.04172944 0.051656295 -0.026122991 0.059098653
0.0251416 0.008735431 -0.0004175296 -0.013229146 0.011959431 -0.0144211 0.003816431 0.013559959
-0.048477005 -0.031879902 0.06384596 -0.051648058 -1.6990232e-05 0.07708229 0.03348244 0.010595527
-0.053909395 0.04484242 -0.043163802 -0.01294575 -0.014304886 -0.0010092936 0.009749157 0.060828365
0.012025797 0.06594147 0.046138644 -0.040467653 0.035010133 -0.04594859 -0.026087279 0.026387861
0.02910345 0.05804515 -0.0153032625 0.007000272 0.04265337 -0.07470124 0.035159215 -0.065011464
-0.0054589473 -0.021695418 -0.04573263 -0.0042313654 0.05129566 -0.03335992 -0.055640507 -0.04003037

model.tcn.0.net.4.bias f4 [25]
00000000: 311c b1bc 3e3a 66b9 04f8 54bc cec3 5e3d
00000010: 963e 093d 1fc5 d83c f110 9d3b 382f 28bd
00000020: 7ff2 1a3c d0f5 67bd cc97 603b 0bf5 993d
00000030: 2238 07bc aed1 963d 8bb3 26bd 2a61 883d
00000040: cdf6 0a3d 42cc 03bd 349a 94bd 5e0e eebc
00000050: 37a3 0a3d 8b8f 983d 6b31 5cbd 1e4b f4bc
00000060: 29e6 f63c
-0.021619888 -0.00021956206 -0.012998585 0.054385953 0.033506952 0.026461182 0.0047932793 -0.041060656
0.00945723 -0.05663091 0.0034270165 0.07517441 -0.008253129 0.07364212 -0.04069857 0.066591576
0.033926774 -0.032177217 -0.072559744 -0.029059585 0.03384706 0.07449254 -0.053758066 -0.029820975
0.030139046

model.tcn.0.net.4.weight_g f4 [25, 1, 1]
00000000: 7490 173f fd7f 173f 0bcf 0c3f dda4 1a3f
00000010: 3313 103f 5b0e 0b3f 2ce4 1a3f 96ce 1b3f
00000020: b330 163f 6e03 1b3f a8ad 113f 7f7c 153f
00000030: 5ebe 093f 860f 143f 2e67 1d3f dc14 143f
00000040: aef2 133f a76b 133f 5269 143f a65b 143f
00000050: a42c 173f ff4e 123f 7d76 1f3f 82f0 123f
00000060: 9b7b 0f3f
0.5920479 0.5917967 0.5500342 0.6040781 0.56279296 0.5431878 0.6050441 0.608621
0.5866806 0.6055211 0.56905603 0.5839309 0.538061 0.57836187 0.61485565 0.5784433
0.57792175 0.5758614 0.57973206 0.57952344 0.5905249 0.5715179 0.62290174 0.57398236
0.5604798

model.tcn.0.net.4.weight_v f4 [25, 25, 7]
00000000: a3c4 01bc 2f29 403d 9c4c 76bd f4b1 173d
00000010: 5c77 923d 4c4f 343d 98e1 6dbd 5b56 11bc
00000020: 0a65 0e3b 0ce5 1f3d 0959 80bc 0688 773c
00000030: c11c 5fbc 4ab5 1cb7 765c b93a ef5f 20bd
00000040: 091e 44bd 41c5 813d cc0b 843d 7f43 4f3a
00000050: 9e91 883d e49c 793d 4f02 18bd 8bae a2bc
00000060: c71c 28bd 9732 013d cc9c 3b3c 4236 2637
00000070: 7f2f 553d f8c5 9dbc 670c fabc 1623 30bd
00000080: 76bd e5bc 960e 893d 7580 d5bc a3b9 8cbc
00000090: 6a72 123d c767 5bbd 147e 2cbd 8529 673d
000000a0: 6768 d3bc 29af 13bd 95db e5bb c759 00bc
000000b0: 5a44 6a3c 9811 de3c f464 54bd 8608 863d
000000c0: 9aaf 84bd 8517 133d 0b97 1abc e5f9 a1bc
000000d0: eae7 a53d 5deb 73bd a6f4 933c 0b62 793d
000000e0: 59d0 823d 6fec 49bd 8cb7 683c 7cab 903d
000000f0: 0e4f 77bd 9cd6 a93c e7ef 0fbd c744 c33c
00000100: b388 5ebd 114a 453d b6cc 63bb a391 673d
00000110: 206a 463c e4fb 4f3b 3e3f f2bb 27dc 69bd
00000120: 2203 a9bc 9638 573c 0cd4 3bbd b77a 983d
00000130: 5206 14bd f6cb bdbc 34b3 14bc adc4 55bd
00000140: 5833 e7bb 739c edbc 6087 5dbd 5946 d9bb
00000150: 7ec4 6d3d 699b 803c 106b 5f3d c236 b43a
00000160: f332 a3bc 61b3 5c3d 055d 05bd eca7 63bd
00000170: 57d4 f13c 7136 4e3d 122c fabc 8b75 253d
00000180: 8ad6 3fbc 2924 cb3b 1da5 c7bb cd13 b6bb
00000190: 4c97 4ebd a64d 5c3c 36f3 0fbc b932 463d
000001a0: beba 103c 26d3 47bd ac49 36bd 3a68 d8bc
000001b0: ce6a 343d d7bb 0fbd 3e99 a9bc a33b cb3c
000001c0: 222c 1dbd 6df5 bcbc 6060 883d 5374 d3bc
000001d0: 62ca 39bc d24d 613d 171d c63c 0a5a 4c3d
000001e0: 11aa 89bd f31d f63c 8d01 82bc 0999 4fbd
000001f0: 48a7 11bd 5d0a 98bd 2dc4 633d beff 15bc
00000200: 3d3e 8abd ec75 8c3d fbfc 5a3d 164a 153d
00000210: 2be6 a03d e497 9d3d c6bf a23d 8a2b 9d3d
00000220: 4d06 913d dac4 f23c 8c0d 813b 3c15 5e3c
00000230: 442a a1bc 7b97 3e3d 575e 623c be86 f23c
00000240: 2748 13bd 34a3 82bc df73 8b3d 0e1c 72bb
00000250: 38f5 313c 326c 8ebd de8f 20bd fa10 5dbc
00000260: 5d38 9cbc 9080 c93c 99fd 44bc b42e 953d
00000270: 3c28 4bbb fe63 273d efd4 27bd 1e50 cb3c
00000280: 076c 78bd 8067 51bd a6a2 0cbd 6446 133d
00000290: 873c ab3c aecb ba3c 8f9c f43b ce5d a43d
000002a0: fe12 a53d 704f 263d 6ab6 8b3d 88aa c03b
000002b0: 9176 91bc f8fa c53c e3ad 6f3d 9a29 d9b9
000002c0: d2a6 3bbd ef27 143d d05d ecbb 37dd c2bc
000002d0: a64e 733d cb32 273c b541 f0bc 52b0 ffbc
000002e0: 0934 883d ff8f 3f3d d473 23bd 4aa4 1f3c
000002f0: 19f8 0f3c e63e 163d d898 76bd 9faa 503b
00000300: 0acf d63c 999c 1f3d 15a2 1c3c a8bc 0bbd
00000310: 6380 7cbd a327 3a3d 38e8 923d 93e3 50bc
00000320: ef02 65bd b604 ef3c 3523 29bd 34c3 25bd
00000330: e504 923c e6ea e7ba ac58 8fb8 b6ba 743d
00000340: 1f9a f5bb 7ced 253d b348 b7bc 4f84 5c3d
00000350: a2ba b43c e695 833d 7773 cb3c 075a d8bc
00000360: 5118 fd3c 2c94 7c3d 4fca 863c 325b 103d
00000370: 4776 3cbd 83ae 283d 0ead 81bd 3b39 863d
00000380: f3f5 1e3d 60b1 5e3c a0a1 75bd adbf 9c3d
00000390: 85ac 683d 36a7 a03d b6b7 223d 225b 9f3c
000003a0: b6a3 8ebc c1f3 e0bc 4db4 b63c be9c 9c3c
000003b0: a86a 84bb 63bb f83b 2894 0e3d e714 75bd
000003c0: e97c 5bbd 7262 00bc d4d5 763d 0979 3f3d
000003d0: 165f 6dbd 2f98 57bc 3dbe 9c3a 2ffc 053d
000003e0: 5851 8b3d 63eb 373c b434 40bd be6f 723c
000003f0: de18 e0bc c2af 29bd 8349 883c 2d5a 78bc
-0.007920417 0.046914276 -0.060131654 0.037034944 0.07151672 0.044020936 -0.05807647 -0.008870686
0.0021727704 0.039036795 -0.015667455 0.015108114 -0.013617695 -9.340534e-06 0.0014141935 -0.03915399
-0.047880206 0.06336451 0.064475626 0.0007906481 0.06668399 0.06094064 -0.037111577 -0.01985862
-0.04104307 0.031542387 0.0114509575 9.907004e-06 0.05204725 -0.019259438 -0.030523492 -0.04300221
-0.028044444 0.06692235 -0.02606223 -0.017178362 0.035753645 -0.053565767 -0.042112425 0.05643608
-0.025806619 -0.036055718 -0.0070147016 -0.007833905 0.014298523 0.027107999 -0.05185409 0.065445945
-0.06478806 0.0359111 -0.0094354255 -0.01977248 0.08100875 -0.05955063 0.018060993 0.060884517
0.063873954 -0.049297746 0.014203917 0.07063958 -0.060378127 0.020732217 -0.035140898 0.023836507
-0.054329585 0.04816634 -0.0034759468 0.056535374 0.012110263 0.0031735832 -0.007392793 -0.05709472
-0.020631377 0.01313605 -0.04585652 0.07445281 -0.03613884 -0.023168545 -0.0090759285 -0.052189518
-0.007055681 -0.029005265 -0.05408418 -0.0066307005 0.058048718 0.015699105 0.054545462 0.0013749229
-0.019921755 0.053882007 -0.032559413 -0.055580065 0.029520197 0.050344888 -0.030538592 0.0403953
-0.011708865 0.006199379 -0.006092681 -0.0055565597 -0.050437257 0.013446247 -0.008786013 0.048388217
0.008833585 -0.04878535 -0.044503853 -0.026416887 0.04404717 -0.035091247 -0.020702954 0.02480871
-0.038372166 -0.023066247 0.06659007 -0.025812304 -0.011339756 0.055005856 0.024183793 0.049890555
-0.06721891 0.030043578 -0.01586988 -0.050683055 -0.035559922 -0.07423852 0.05560701 -0.009155212
-0.06750152 0.06858429 0.053463917 0.036447607 0.07856401 0.076949865 0.07946734 0.0767432
0.0708128 0.029634882 0.0039383825 0.013554867 -0.019673474 0.04653118 0.013816438 0.029605266
-0.03595748 -0.015946962 0.0680921 -0.0036942991 0.010861687 -0.0695423 -0.039199702 -0.013492817
-0.019069845 0.024597436 -0.012023353 0.072842985 -0.0030999323 0.040866844 -0.040974554 0.024818476
-0.060649898 -0.051124096 -0.0343348 0.0359558 0.020902885 0.0228022 0.0074649523 0.08025704
0.08060263 0.0406031 0.06821902 0.005879704 -0.017756732 0.024167523 0.05851544 -0.0004142046
-0.04581339 0.036170896 -0.0072133318 -0.023787124 0.059401177 0.010204981 -0.029328207 -0.031212006
0.0665055 0.046768185 -0.039905384 0.009743759 0.008787178 0.03668108 -0.060204357 0.003183998
0.02622177 0.038967703 0.009560128 -0.034115463 -0.061645877 0.045447957 0.071731985 -0.01274957
-0.055911 0.029177051 -0.04129334 -0.040469363 0.0178246 -0.0017693907 -6.835288e-05 0.059748374
-0.0074951793 0.040509686 -0.022373533 0.053837117 0.02206165 0.06425075 0.024835331 -0.026410116
0.030895384 0.061664745 0.01645389 0.03524322 -0.046011236 0.041182052 -0.06331836 0.065538846
0.038808774 0.013592094 -0.05996859 0.07653747 0.056805152 0.07844393 0.03972598 0.019452635
-0.017412048 -0.02745998 0.022302771 0.01911771 -0.0040410347 0.0075906976 0.03480926 -0.059834387
-0.05358592 -0.007835971 0.060262516 0.046746287 -0.05795201 -0.013158842 0.0011958551 0.032711204
0.068026245 0.011225554 -0.04692526 0.014797149 -0.027355608 -0.04142738 0.016636616 -0.015158218

model.tcn.0.downsample.weight f4 [25, 28, 1]
00000000: d10b ee3b 965f 0cbb 48c1 bfbc 872c 7f39
00000010: 69fb 1fba ae27 12bc 40da adbb 9ba4 15bc
00000020: f858 54bd 88de 173b b0bf 6bbc aa86 843c
00000030: e056 e83a e0fe b6bb 9012 803c e098 643c
00000040: a24c efba c41e 3c3c 848e 6b3c f81b 0f3c
00000050: c3f9 f0bb 63c4 74bc b2af 4dbc d7ad 1abc
00000060: 2db7 633a b116 16ba 84eb a03c 170d 043c
00000070: 6578 b33c aa02 2fbb 7457 a63c 1586 e5ba
00000080: 389e 31bc 5816 a3bb 846a a7bb 582a aabc
00000090: aad0 4dbd 6220 49bb 8cae 813b 628a 893c
000000a0: 4897 fcba 0139 74ba 589d 853c a308 823b
000000b0: 6de5 99bb a5a6 1f3c b5ae 8ebc 7d5d 0cbb
000000c0: 678e ddba f779 10bb 57f8 d63b 823f 833b
000000d0: 2bc2 0d3c e166 8dbc cb3e ca3b d87c 6d3c
000000e0: 36fd 8e3c 0109 5dbb 2e11 09bb 510b 913c
000000f0: 6c55 103b 62aa 273c 5b21 933c 0c72 d1bc
00000100: 4c30 b8bc bdb0 27bc a627 4a3c 2acc 9dbb
00000110: 68c1 4bbc 02c2 093b a944 033c e536 d2bb
00000120: 053c 2dbc 176d d1bb 9904 363b 2307 bcbb
00000130: 9457 393b 7caf 50bb 710f 3e3c ff01 c2b7
00000140: 563d 91bb 0b2c 83bb 30a8 dbbc 81b0 883c
00000150: 0faf b63c 9406 a43c f85a 393b 55ce 443b
00000160: 00e2 1cbb b2e9 57bb c71f 633c 6f20 843b
00000170: 8da4 2fbd da53 5b3b 2023 343c 6d9f 06bc
00000180: d68b 51bb 6873 a2bc 2f8d 09bc 7df9 e4bb
00000190: 58f8 ceba 1d0a 67b9 6974 6b3b 5205 643c
000001a0: 7963 81bc 63bf 85ba b249 1d3c 6bed 8dbb
000001b0: 23b7 e13b 80d7 17bc a913 64bc 2f4e fa3b
000001c0: 9d14 153d a3f5 bd3b a8ca b13b bd85 3dbc
000001d0: 9d9e 1fbb 4679 6dbb 308d b83c 91e1 1ebc
000001e0: 9bc1 dfbb 2caa 08bc d7e8 ab3c 7a84 58bb
000001f0: 4357 2abc 57db e7bb 203f 27bb 2b4c 043a
00000200: 14c0 44bc eb0d b4bb 2061 e1bb 905d a93c
00000210: 8486 60bc 4e42 633c 2170 aebc d39b 88bb
00000220: df5b 533b e0bb 27bc 3247 cbbb 5d89 603a
00000230: 2943 de3c 32b5 143b 8922 833b ad4d 42bb
00000240: 95e3 debb 2aea 2a3c 75cd 2a3c 5deb 08ba
00000250: 50ed 0abd d0f4 3fbb 7a7c 873a 6761 ee3b
00000260: 3922 0ebb f3ca 82bc c8be 67bb 1a9b 2ebb
00000270: f9e5 1a3c 4594 6f3c 9f1a d33b a154 07ba
00000280: b8ff a93b 7450 d4bb 5aac 47bb 2c8e 4a3c
00000290: 2b54 b23b e156 74bc 8bc1 32bc 6f2a b73c
000002a0: 27a4 4b3c 291d 863b c536 c0bb 85ca 1739
000002b0: 07ab b3bc 8a6f b53b 58f9 3cbc 1ba7 b93b
000002c0: 8deb 2cbd b506 36bb 4cc2 d33b d35a 36bb
000002d0: 1610 4dbc 77b7 7b3c d9e2 55bc 51c3 453b
000002e0: 011f 14bc 4ea6 b23b a1d1 23bc a26c 02ba
000002f0: 2319 2abb beac 6d3a 8d6e 2cbc 5435 19bb
00000300: 1d5e 16bb 8d0d 59bc 7eb3 c5bb fb68 10ba
00000310: 5750 c53c 6c72 9d3b 48d7 78bc 87e6 bbbb
00000320: 1b26 c8bb 595e 7cbc 3b92 16bc 3829 11bc
00000330: e1dc 46bd 6c31 90bc 826d 0aba 67c0 95bb
00000340: 509c 2d3a a396 213c 2ed7 1b3b 1453 9f3b
00000350: 464b 4bbc 6b53 8c3c 54cd b43b 9e60 6abc
00000360: ff13 b6bc 113b f23b 18f4 bdbb 78f0 81bb
00000370: 9711 8a3b c2b3 bdbb b4bb e53c 527c 013c
00000380: 745b ed3a e34a 6cba 4b70 0ebd 6b62 cd3a
00000390: e9ed bd3c 4a7e 123c 5ab2 753a a098 c73c
000003a0: 8816 963c 1abd 87bc 7f74 0d3c 880c 49bb
000003b0: 141f 0f3c a634 003c fa44 09bc a4d6 5a3a
000003c0: 4cfc b3bc 1240 5d3b 4e00 a23b b17a 9dbb
000003d0: 4395 9d3b c4e2 bdbc de4a 92bb 94fb e4bc
000003e0: c5df 413c 6226 003b 5137 143c 49de a6bc
000003f0: 36c9 493c f2b9 1f3c 7ec3 de3c 7f06 d3b9
0.007264592 -0.0021419278 -0.023407593 0.00024335283 -0.00061028317 -0.008920593 -0.0053055584 -0.009133483
-0.05184266 0.002317341 -0.014388964 0.016177494 0.0017726086 -0.0055845827 0.015633851 0.013952464
-0.0018257091 0.0114819445 0.01437724 0.008734696 -0.0073539927 -0.0149394 -0.012554096 -0.009440861
0.0008686658 -0.0005725427 0.019643553 0.0080597615 0.021907995 -0.0026704469 0.020305373 -0.0017511273
-0.010840945 -0.004977029 -0.005109133 -0.020772144 -0.050247826 -0.0030689468 0.003957575 0.016789619
-0.001927116 -0.00093163556 0.016310379 0.0039683147 -0.004696539 0.009744321 -0.017417291 -0.0021418028
-0.0016903401 -0.0022045353 0.006560366 0.0040053735 0.00865225 -0.01726097 0.0061720363 0.014495097
0.017454725 -0.003372729 -0.002091478 0.017705591 0.0022023572 0.0102334935 0.017960241 -0.025567077
-0.022483967 -0.010235009 0.0123385545 -0.004815598 -0.012436248 0.0021020179 0.008011975 -0.0064152353
-0.010573392 -0.0063911784 0.0027773737 -0.0057381555 0.002828096 -0.0031842878 0.011600361 -2.3127532e-05
-0.0044323606 -0.004003053 -0.026813596 0.016685726 0.022300271 0.020022668 0.0028282981 0.003003021
-0.0023938417 -0.003294569 0.013862557 0.0040321867 -0.042881537 0.0033466727 0.010994703 -0.008216721
-0.0031974218 -0.01983042 -0.008395477 -0.006987749 -0.0015790565 -0.00022033644 0.003592754 0.013917284
-0.015794503 -0.0010204132 0.00960009 -0.004331281 0.0068882867 -0.009267688 -0.013920703 0.0076387147
0.03639661 0.0057971044 0.00542577 -0.01156753 -0.0024356015 -0.0036235615 0.022528261 -0.009697334
-0.0068284995 -0.008341353 0.02098505 -0.0033037947 -0.010396781 -0.007075708 -0.0025519803 0.00050467503
-0.012008686 -0.005494823 -0.0068780333 0.020674497 -0.013703946 0.013870789 -0.021293702 -0.0041689663
0.0032250804 -0.010237664 -0.0062035555 0.00085653906 0.027131634 0.0022691009 0.0040019196 -0.002964835
-0.0068020322 0.010431806 0.010424961 -0.000522306 -0.033917725 -0.0029290207 0.001033678 0.007274795
-0.0021687879 -0.015965914 -0.0035361517 -0.002664274 0.009454244 0.014622753 0.0064423825 -0.0005162452
0.0051879548 -0.0064793173 -0.003046772 0.012362998 0.0054421625 -0.014913292 -0.010910402 0.022359101
0.012429274 0.0040928316 -0.005865904 0.00014475927 -0.021932138 0.005536978 -0.011534058 0.0056656725
-0.042216826 -0.0027774994 0.006462371 -0.0027825132 -0.012516042 0.015363566 -0.013054573 0.0030176232
-0.009040595 0.005451954 -0.00999871 -0.0004975294 -0.0025954924 0.0009066573 -0.010524404 -0.0023377733
-0.002294428 -0.01324786 -0.00603336 -0.00055088074 0.02408616 0.0048049 -0.015188046 -0.005734268
-0.006108058 -0.015403354 -0.0091901375 -0.008859925 -0.04855049 -0.017601691 -0.00052806 -0.0045700553
0.00066227186 0.009862575 0.002377938 0.0048621986 -0.012408083 0.01712962 0.005517641 -0.014305262
-0.022226332 0.007392295 -0.0057969205 -0.0039654337 0.0042135227 -0.005789251 0.028043605 0.007903175
0.001810892 -0.00090138445 -0.03477506 0.001566959 0.023184733 0.0089412425 0.0009372585 0.02436477
0.01832129 -0.016569663 0.008633732 -0.0030677635 0.008735437 0.007825052 -0.008378262 0.0008348024
-0.02197089 0.0033760113 0.004943884 -0.0048058857 0.004809053 -0.02317942 -0.0044644913 -0.027951993
0.011833136 0.0019554128 0.009046392 -0.020369666 0.012316039 0.009748923 0.027192827 -0.00040249896

model.tcn.0.downsample.bias f4 [25]
00000000: cd3b 63bd 7d00 113e c4a0 fa3c a03a 4a3d
00000010: 1296 a23c a69b 113d 4fb4 00be 62e3 f3bc
00000020: 5591 14bd 7cf7 7ebd d3bb efbd 241c 98bc
00000030: eb0d 56bb 77ec 73bd 3125 23bd e611 4ebd
00000040: f810 c7bc d443 19be d81b 1d3e 5baf c3bd
00000050: 4c05 c53d d1e6 27be ee39 87bb b6fe 5ebc
00000060: 4681 20be
-0.055476952 0.14160343 0.030594237 0.049372315 0.01984695 0.03554883 -0.12568782 -0.02977151
-0.036271412 -0.06224774 -0.117057465 -0.018568106 -0.0032662104 -0.059551682 -0.03983039 -0.050310038
-0.024300084 -0.1496728 0.15342653 -0.09554931 0.09620151 -0.16396643 -0.004126779 -0.0136105325
-0.15674314

model.tcn.1.conv1.bias f4 [25]
00000000: 0c49 34bd 8eeb d1bc 279e 3ebd bdcf 343d
00000010: 4ecf 85bd 458b 82bd ecf0 7f3d 3183 71bd
00000020: c3d3 5abc 7e2f a6bc 6175 323d a1bf 923d
00000030: b091 38bd 9937 5abd 33bf f73c 8c2b 003d
00000040: b156 2d3d 362a 2b3d ae84 43bd 89e5 323c
00000050: 0f4f 3abd decb 4b3d 3610 c23c 50ca 453d
00000060: bf25 c5bc
-0.044014975 -0.025625017 -0.046537545 0.044143427 -0.06533681 -0.0637422 0.06248562 -0.058963004
-0.013356152 -0.020286318 0.043568972 0.071654566 -0.045060813 -0.05327568 0.030242538 0.03129153
0.042319003 0.041788302 -0.047733955 0.010918983 -0.045485552 0.04975497 0.02368937 0.048288643
-0.02406585

model.tcn.1.conv1.weight_g f4 [25, 1, 1]
00000000: 8230 153f c74e 0b3f c574 123f d1d7 153f
00000010: 78d1 153f 6593 103f 0347 193f 3a49 193f
00000020: 15c2 1e3f 3e88 113f b5ec 193f d608 163f
00000030: 1e76 173f 7671 143f 9d47 1a3f 3de2 163f
00000040: 1c08 193f e5c8 0c3f 98df 173f 0be9 163f
00000050: 6659 133f 5659 133f 2583 183f 8975 1b3f
00000060: ad10 133f
0.5827714 0.5441708 0.57209426 0.58532435 0.5852275 0.56474906 0.5987398 0.5987736
0.62014896 0.56848514 0.6012681 0.5860723 0.5916461 0.5798563 0.60265523 0.5893896
0.59778 0.5499404 0.5932555 0.58949345 0.57558286 0.5755819 0.5957511 0.6072622
0.5744732

model.tcn.1.conv1.weight_v f4 [25, 25, 7]
00000000: 2a09 793d e0ac 0b3d 4745 923c 2670 393d
00000010: 45ef 073d c0ed 1abc c6f6 28bd f02c d6bc
00000020: 1e6c 0b3d e54b b7bc f8cf 1b3d e2ad efbc
00000030: c947 3cbd c730 893d 7dbc 34bd 1380 c93c
00000040: 0f0f 833d 088e 023c fd57 4d3d 1c10 71bc
00000050: 523e 71bd 96a2 fcbc 3c45 8ebc 552d 18bd
00000060: d9d1 1abd 3fb4 2c3d 7313 a63d 04e5 763d
00000070: 9e99 003d 4cc0 5bbd d26f a9bb c032 173d
00000080: 69e7 983d 0c25 e4bc 0379 6d3d 7392 383d
00000090: a540 53bc 9423 84bd 9fda 203d 2686 343d
000000a0: 6501 5bbd 58cf 883d 9c38 bc3b a6f5 37bd
000000b0: 8c94 973c a19f 5f3d 6f71 943c 4cbc 2abd
000000c0: 5c39 b2bc 3b0d 483d d075 2e3d 4b14 6b3d
000000d0: d5c4 313d 2e7d 823d 8082 133a 9a5a 693d
000000e0: 7239 033c 2ca2 453a 1cad 633d 1888 d3bc
000000f0: 3ff8 363d 751a d6bc f2d6 413d ff5b b1bb
00000100: 782c 683d e947 80bc ca3f 803c 2c70 933d
00000110: 2451 d13b cce3 073c 71b3 e7bc 34a5 623d
00000120: adcb 303d 3190 32bc d36d 58bc 31d7 9a3d
00000130: 3b7d 643d fc3b 853d f4e8 0abd 52d7 b3bc
00000140: d433 2cbd 707e 41bd 2f73 a33a efd7 fe3b
00000150: 8980 00bd 2a35 86bc 5f66 323c 6451 c9bb
00000160: e795 47bd c4c5 843d 6125 59bc 196e c63c
00000170: 47a8 3f3d c723 61bd 2120 e63b 65bd 28bd
00000180: 94b8 ac3d 871a 62bc f5fc 633d 39ba 373c
00000190: 864c c0bc 32e3 1e3d 3564 4bbd 61f1 7dbc
000001a0: b47e 8c3b da64 a53d 6e91 63bd 1763 263d
000001b0: 7b52 b53d 0e09 efba b3ea cabc c2f6 06bd
000001c0: 7ba5 54bc 5620 6a3d b4b2 2fbd b128 923d
000001d0: ee4d 58bd 06aa 873d d4b7 473c bc9c 85bc
000001e0: fba5 61bd 9f9e 01bd 9b0a 2abd 8c5f 75bd
000001f0: 6269 a1bc ecd7 3e3d f189 81bd 3d1d 743d
00000200: 5795 b33c 554a 333d 1256 abbb 3e29 02bd
00000210: 3d92 183d 8ef4 333d 9e86 8f3c 965f fe3c
00000220: 6c80 8a3d 26c6 8b3c 76a0 d6bc 91a1 283d
00000230: 4818 1fbd 6c2b 833d 2ad0 673c 2806 173d
00000240: 7b5e 703c eda4 893d b6a1 363d 34d4 613d
00000250: ca4e f9bc 5592 9c3c 96ca 6e3d 7216 783d
00000260: 0517 81bc 69b8 893d b1a7 70bd bcd2 823d
00000270: 4a7c 90bc b5ce 1ebd e2cc 9b3d 9071 883c
00000280: c84f 33bc 9c83 353d 1f39 733d a7e4 813c
00000290: 0467 3dbd 01f4 cbbc 0082 01bd 2f59 1f3d
000002a0: 956d 7fbd 7096 fdbc 8803 83bd 2659 223c
000002b0: 384f 823d d2f8 cb3c 234d 493c 2bad 073d
000002c0: 25c5 4cbd cd5c 8fbc 80ae 723d 2c6a 7fbd
000002d0: 167b 95bd d5e1 c4bc 9de1 8bbd 5306 86bc
000002e0: b1e6 4a3d fb66 89ba 3677 a33c f8e0 363c
000002f0: f1dc 4fbd d497 1bbd 586e 0e3c b3c0 873d
00000300: 63ec 5fbd 516b 4a3d f430 3cbd 3a9f 84bd
00000310: 4ff3 573c a58c 593d ae2e 3e3c 0806 3d3d
00000320: da39 c13b ab67 22bc 8491 983c a61b 993c
00000330: 1c6b 9fbc 475f 8e3c fd9e 903b ad66 8cbd
00000340: 851a 613d 80c8 90bd 0237 bc3c a705 76bd
00000350: c89c 7bbc b2b4 093d a35b d83c c4c7 663d
00000360: 9f36 e5bc 5e1e a23c a7f7 fc3c 509e 90bd
00000370: 1019 34bd bdc1 1e3d ead2 5a3c 2ef7 42bc
00000380: cacd b0bc 3b33 e83c 7cc1 553d 3334 623d
00000390: 528f 2d3d ec83 ad3c 4d72 6ebd 9015 343d
000003a0: 25f4 07bd f09f 333d a2ae 56bd 8ee9 d63c
000003b0: a2b1 e7ba 9298 633d f69b bc3b 5c4d 143d
000003c0: 25e0 92bd 04eb b63c 0529 98bd 89f2 8dbd
000003d0: 3fec 99bd 742d 64bd 6d25 09bd 71e4 8d3c
000003e0: 7eaa 083c f3d7 bfbc f87a dc3c 50a2 8ebd
000003f0: 8742 883d 3b72 29bd f3f9 03bd b63e f63a
0.060799755 0.034100413 0.0178553 0.04527297 0.03318717 -0.009456098 -0.041250966 -0.026144475
0.034038655 -0.022375057 0.03804013 -0.029257718 -0.045966897 0.06698757 -0.04412507 0.024597203
0.063993566 0.007968433 0.05013274 -0.014713313 -0.058897324 -0.030839246 -0.017366998 -0.037152607
-0.037797783 0.042164084 0.081091784 0.060277 0.0313965 -0.053650185 -0.0051708007 0.036913633
0.07466013 -0.027849697 0.057976734 0.04506154 -0.01289383 -0.064520985 0.039270993 0.044073246
-0.053468127 0.06680173 0.005744053 -0.044912003 0.01850345 0.054595593 0.018120496 -0.04168348
-0.021755867 0.048840743 0.042592824 0.0573924 0.043400604 0.063715324 0.0005627051 0.05697117
0.0080093015 0.0007539119 0.05558501 -0.02582173 0.04467034 -0.026135663 0.04732413 -0.005412578
0.056683034 -0.01565929 0.015655417 0.071991295 0.0063878465 0.008294057 -0.028283807 0.05533333
0.04316299 -0.010898636 -0.013209778 0.07560576 0.05578349 0.06505582 -0.033913568 -0.021953259
-0.042041615 -0.04723972 0.001247024 0.007777206 -0.03137258 -0.016382772 0.010888665 -0.0061437357
-0.048726942 0.06483033 -0.013253541 0.02422242 0.04679134 -0.05496576 0.007022873 -0.041196246
0.08433643 -0.01380027 0.05566116 0.011213833 -0.02347399 0.03879089 -0.04965611 -0.015499444
0.004287565 0.080758765 -0.055558614 0.040621843 0.088536225 -0.0018236951 -0.024770116 -0.03295017
-0.012978907 0.057159744 -0.042895034 0.071366675 -0.052808695 0.06624226 0.012189824 -0.016310088
-0.055089932 -0.031645413 -0.04151402 -0.059905574 -0.01970357 0.046592638 -0.06325138 0.059598196
0.021921797 0.04377206 -0.0052287662 -0.031777613 0.03724884 0.043934397 0.017520245 0.031051438
0.06762776 0.017062258 -0.02619956 0.041169707 -0.038841516 0.064047664 0.014148751 0.036871105
0.014670963 0.0672091 0.044587813 0.055134013 -0.030433077 0.019112745 0.05829867 0.06056828
-0.015758047 0.067246266 -0.058753673 0.06387851 -0.01763739 -0.03877135 0.07607438 0.016655713
-0.010944314 0.044314966 0.059380647 0.0158561 -0.04624082 -0.024896624 -0.03161812 0.03890341
-0.062360365 -0.030955523 -0.06397158 0.00990895 0.06362766 0.02489892 0.012286457 0.03312413
-0.0499927 -0.017500306 0.059248447 -0.062357113 -0.072988674 -0.024033466 -0.06830142 -0.016360437
0.04953641 -0.0010482961 0.019954305 0.011162035 -0.050747816 -0.03798659 0.0086933 0.06628551
-0.054668795 0.04941875 -0.045945123 -0.064756826 0.013180568 0.053112645 0.011607809 0.04614833
0.005896789 -0.009912412 0.018624075 0.018689942 -0.019460253 0.017379416 0.004413484 -0.06855521
0.05495693 -0.07069492 0.022975449 -0.060063984 -0.015357204 0.03361959 0.026410883 0.056342855
-0.027980147 0.01978987 0.030879809 -0.07061446 -0.043969214 0.038758982 0.01335595 -0.011899753
-0.021582503 0.028344741 0.052186474 0.055225562 0.04237301 0.02118107 -0.058214474 0.043965876
-0.03319182 0.0438537 -0.052412637 0.026234414 -0.001767684 0.055565424 0.0057558967 0.03620659
-0.071716584 0.022328861 -0.07429699 -0.069310255 -0.075157635 -0.05570741 -0.033482958 0.017320843
0.00834143 -0.023418402 0.026914105 -0.069645524 0.06653314 -0.041368704 -0.032220792 0.0018787

model.tcn.1.conv2.bias f4 [25]
00000000: fa6c e1bc 41c8 f13c 17a0 fabc 76bc 40bd
00000010: a45a 4abc bd8b febb bca6 8b3d 499f f13c
00000020: 7cff e1bc ffc7 49bd f393 273d 53c4 283d
00000030: 2867 733c 3590 7e3b c69b edbc cbda 37bd
00000040: f811 5dbc 893b 82bd f3fb 213b c738 0a3a
00000050: 1c57 11bd 1b82 053d 3afa 533d 2cea 6bbd
00000060: 75e3 8c3c
-0.027517784 0.029514434 -0.030593915 -0.04705473 -0.012350712 -0.007768123 0.068189114 0.029494898
-0.027587645 -0.049262997 0.04091258 0.041202854 0.014856137 0.0038843278 -0.029004943 -0.04488639
-0.013493054 -0.06359012 0.0024716824 0.0005272743 -0.035483465 0.03259478 0.051752307 -0.05759637
0.017198304

model.tcn.1.conv2.weight_g f4 [25, 1, 1]
00000000: 109e 143f 8aa9 153f afb9 0f3f afe6 1a3f
00000010: 3c55 113f c6ce 0f3f 7a07 133f 77ac 0d3f
00000020: 0520 0d3f f1df 0c3f 954d 183f ceb3 0e3f
00000030: 0a81 123f 5ec4 143f d84a 113f 3702 113f
00000040: df8a 1c3f 4f66 0b3f 98db 153f eceb 153f
00000050: d3cc 193f adf8 0b3f 65b2 143f 6784 1d3f
00000060: b7a7 153f
0.58053684 0.5846182 0.56142706 0.60508245 0.5677068 0.56174886 0.57433283 0.55341285
0.5512698 0.5502921 0.5949338 0.5574311 0.5722815 0.5811213 0.5675483 0.56644005
0.611494 0.54452986 0.585382 0.58563113 0.6007816 0.54676324 0.5808471 0.61530155
0.5845904
