etc/ckpts/participants/661_test_30_all/sigmoid/TCN/epochs/TCN-chpkt-pecanstreet-participant-id-661_test_30_all_epoch=066.ckpt (torch, 953347 bytes, 201 tensors)

model.tcn.0.conv1.bias f4 [25]
0	0x3d26f434	0.040760234
1	0xbcfa5aac	-0.030560814
2	0x3d153b81	0.0364337
3	0x3cc38652	0.02386776
4	0xbd8598bc	-0.065232724
5	0xbc88c669	-0.016696172
6	0xbd464294	-0.048403338
7	0x3d4c3676	0.049856625
8	0x3cd3fba7	0.025876833
9	0x3c5d50e4	0.013508055
10	0xbd28b486	-0.041187786
11	0xbd8bed94	-0.06832424
12	0xbc853985	-0.016262779
13	0xbd2e2adc	-0.042521343
14	0xbd80a9fb	-0.06282421
15	0xbd43fc2a	-0.047847904
16	0xbd437fe8	-0.047729403
17	0xbd823daa	-0.06359418
18	0x3d03806a	0.032104887
19	0x3d2b8120	0.04187119
20	0x3d2a17af	0.041526493
21	0xbd8f489d	-0.06996272
22	0x3d630697	0.055426206
23	0x3cde0d4c	0.02710595
24	0x3d2a7be8	0.041622072

model.tcn.0.conv1.weight_g f4 [25, 1, 1]
0	0x3f178842	0.5919229
1	0x3f150f85	0.58226806
2	0x3f23729c	0.63846755
3	0x3f1d8b65	0.61540824
4	0x3f1184fe	0.56843555
5	0x3f1c6fc7	0.6110806
6	0x3f1b6a10	0.60708714
7	0x3f15b343	0.58476657
8	0x3f0e32fa	0.55546534
9	0x3f120b0b	0.570481
10	0x3f116a36	0.5680269
11	0x3f0cf1e0	0.5505657
12	0x3f15a842	0.58459866
13	0x3f14d012	0.5812999
14	0x3f093d23	0.5360891
15	0x3f0e4790	0.55577946
16	0x3f16c89a	0.58899844
17	0x3f0e93c8	0.55694246
18	0x3f17783d	0.59167844
19	0x3f0fa98c	0.56118083
20	0x3f17ed8f	0.5934686
21	0x3f0cfcfe	0.55073535
22	0x3f174c17	0.5910048
23	0x3f13258c	0.57479167
24	0x3f1455ac	0.57943225

model.tcn.0.conv1.weight_v f4 [25, 28, 7]
0	0x3c4bf757	0.012449107
1	0x3d48380c	0.048881575
2	0xbd29d320	-0.04146111
3	0xbd0db3b8	-0.03459522
4	0xbc1f8ebb	-0.009738619
5	0x3d198f36	0.037490092
6	0x3ccedae0	0.025250852
7	0x3d326e1c	0.04356204
8	0xbc7edfcc	-0.015556287
9	0x3c08135c	0.008305397
10	0xbcf15a55	-0.029462019
11	0xbcb0bbdf	-0.021573959
12	0xbd93680d	-0.071975805
13	0xbd588ce9	-0.052868757
14	0xbce977d6	-0.028499525
15	0xb99a1a90	-0.0002939296
16	0x3cb65840	0.022258878
17	0x3d1c471a	0.038153745
18	0xbd1e8650	-0.03870231
19	0xbcbeb5ca	-0.023280043
20	0x3cb9eb82	0.022695307
21	0x3d5f22e1	0.054476622
22	0xbc800a4e	-0.015629914
23	0x3d4cd1bd	0.05000471
24	0xbc3a73dd	-0.011380163
25	0x3bddffb6	0.006774868
26	0x3d7cfee2	0.061766513
27	0xbd7ff56c	-0.062489912
28	0xbd096832	-0.033546634
29	0xbc13783a	-0.009000832
30	0xbc9dfbc0	-0.019285083
31	0x3d8388b3	0.06422558
32	0xbd1bf12e	-0.038071804
33	0xbcd47110	-0.025932819
34	0xbd2f51d1	-0.042802636
35	0xbd817732	-0.06321563
36	0xbd2276c0	-0.03966403
37	0x3d6d7824	0.057975903
38	0x3cf4ded7	0.029891415
39	0x3d0633f5	0.032764394
40	0x3b44d58c	0.003003451
41	0xbd10ad34	-0.03532143
42	0x3c69c390	0.014267817
43	0xbd7337ce	-0.05937939
44	0xbd366de8	-0.04453841
45	0xbcf665dd	-0.03007787
46	0x3d3f5ad0	0.046717465
47	0x3d351590	0.044210017
48	0xbcc60868	-0.02417393
49	0x3b9b6d78	0.0047432743
50	0x3d3dc819	0.046333406
51	0xbc267497	-0.010159633
52	0xbb97a511	-0.0046278317
53	0xbd850944	-0.06495908
54	0xbda665a9	-0.08124859
55	0xbe0ad3ff	-0.13557433
56	0xbb6d3ec6	-0.0036200746
57	0xbd846fa0	-0.06466603
58	0xbd8452d1	-0.064611085
59	0xbd625bfb	-0.0552635
60	0xbba75640	-0.0051067173
61	0xbd12ca6d	-0.03583758
62	0xbe278a61	-0.16361381
63	0x3d191ae6	0.037379168
64	0x3d59c67e	0.053167813
65	0x3bfc4509	0.0076986593
66	0x3c997afb	0.0187354
67	0x3d00be33	0.031431388
68	0x3d681cd4	0.056668118
69	0x3da26fdd	0.079314925
70	0xbd3ebaf2	-0.046565004
71	0xbcaa06df	-0.02075523
72	0x3cebe7b0	0.028797
73	0x3d6a4b56	0.057200752
74	0x3d749452	0.05971176
75	0x3d75f735	0.060050208
76	0x3c731170	0.0148357
77	0xbd95e341	-0.07318736
78	0xbbb34a28	-0.0054714866
79	0xbd58a4b0	-0.052891433
80	0xbd96e21f	-0.07367348
81	0x3d536db2	0.051618285
82	0x3d307330	0.0430786
83	0xbd9cfcae	-0.07665382
84	0x3c0038c8	0.007826038
85	0xbc811b30	-0.015760034
86	0xbc7b613e	-0.015343009
87	0xbd0e73d4	-0.03477843
88	0x3cbaaa1f	0.022786198
89	0xbd311143	-0.043229353
90	0x3cb48be2	0.022039358
91	0x3d08d047	0.033401754
92	0x3d3fd868	0.04683724
93	0x3cc4fa0e	0.024045017
94	0xbd85dd0b	-0.06536301
95	0xbd328a36	-0.04358884
96	0x3d01e0cc	0.031708524
97	0x3c533e8f	0.012893333
98	0xbd45a054	-0.048248604
99	0xbd0cf15f	-0.034409877
100	0x3d8ba63b	0.06818815
101	0x3d4f1d2e	0.050564937
102	0xbcc3a7f0	-0.02388379
103	0xbc376e73	-0.011195767
104	0xbd6c8144	-0.057740465
105	0x3c1cb959	0.009565675
106	0xbd2a73af	-0.04161423
107	0xbd33fbb2	-0.043941207
108	0x3b85f94b	0.004088556
109	0x3c8fc40e	0.01754954
110	0xbcae8bb9	-0.02130686
111	0x3d3d15ab	0.046163242
112	0xbd17590f	-0.036950167
113	0x3d7c4812	0.06159217
114	0x3d3ede23	0.046598565
115	0xbd595958	-0.05306372
116	0xbc6a2f3c	-0.014293488
117	0x3b906019	0.004405987
118	0x3c32374c	0.010877442
119	0x3cab8f69	0.020942407
120	0x3cfc639e	0.03080922
121	0x3c1a192c	0.0094054155
122	0xbcd2cbe3	-0.025731986
123	0x3d1608f5	0.036629636
124	0xbd67bdf1	-0.056577627
125	0xbd055c57	-0.032558765
126	0xbc53e850	-0.012933806
127	0xbceda093	-0.029007232
128	0xbca981cd	-0.020691777
129	0xbd52904d	-0.051407147
130	0xbc3f96ac	-0.011693638
131	0x3c804398	0.015657231
132	0xbd2a1db1	-0.041532222
133	0xbb6f23df	-0.0036489887
134	0x3d458c88	0.048229724
135	0xbba14715	-0.0049218037
136	0x3b8ef150	0.004362263
137	0xbb29ba6b	-0.0025898467
138	0x3c8a44ed	0.01687857
139	0x3d40e081	0.047089104
140	0x3d666bc3	0.056255113
141	0x3d10a051	0.03530914
142	0x3d68207d	0.05667161
143	0xbc48ab62	-0.012247892
144	0xbd8ae33e	-0.06781624
145	0xbd1f0719	-0.03882513
146	0x3d25f44d	0.040516187
147	0x3bd84a0c	0.006600624
148	0xbcebb468	-0.028772548
149	0xbd46a62c	-0.048498318
150	0xbd7c3700	-0.06157589
151	0xbd6515a8	-0.055928856
152	0xbc53f4b5	-0.012936761
153	0x3d19d22d	0.037553955
154	0x3cf497d5	0.029857555
155	0xbd93d7a1	-0.07218862
156	0x3d1f0bf2	0.03882975
157	0xbd67f0c2	-0.05662609
158	0xbc915cff	-0.01774454
159	0xbcfb3ffe	-0.030670162
160	0xbc6f76ce	-0.014615728
161	0xbc1b3394	-0.009472746
162	0xbd64113b	-0.055680495
163	0xbd565663	-0.05232848
164	0xbb96dc9d	-0.004603936
165	0x3be1c0fd	0.006889461
166	0xbcc0cb6a	-0.023534495
167	0x3d066464	0.032810584
168	0xbd549757	-0.05190214
169	0x3aff5162	0.001947921
170	0x3d814cd7	0.06313484
171	0xbca4f50f	-0.020136384
172	0x3d852f07	0.065031104
173	0x3cf25a91	0.029584201
174	0xbd565512	-0.052327223
175	0x3d35fa31	0.044428054
176	0xbc05a792	-0.008157628
177	0xbd04c61d	-0.032415498
178	0x3d4febe5	0.050762076
179	0xbd6dc837	-0.058052268
180	0x3b613e25	0.0034369316
181	0xbc9ef1d4	-0.019402422
182	0x3d46a87f	0.048500534
183	0x3ca90b91	0.020635398
184	0x3d0fa6f0	0.035071313
185	0x3cdf377a	0.027248133
186	0xbc3e5b0c	-0.011618387
187	0xbc1a1776	-0.009405008
188	0xbd482ed8	-0.0488728
189	0x3d3075d3	0.043081116
190	0x3d77e51f	0.06052124
191	0x3d5e7322	0.054309018
192	0xbd122e6a	-0.035688795
193	0x3c65b4c3	0.014020148
194	0xbd0c84e2	-0.034306414
195	0xbcb91194	-0.02259139
196	0xbd3f8e8b	-0.0467668
197	0x3ca1fba1	0.019773306
198	0xbd37a2be	-0.044832937
199	0xbbc0107a	-0.005861339
200	0x3af1b7b2	0.0018441586
201	0x3d3d77f6	0.04625698
202	0xbd220876	-0.03955885
203	0xbd0ea57a	-0.03482578
204	0xbce193a5	-0.027536223
205	0x3d7a5889	0.06111959
206	0xbc555882	-0.01302159
207	0x3d88eea9	0.06686146
208	0x3d0d612d	0.034516502
209	0x3c9fba2c	0.019497953
210	0xbad2eba4	-0.0016091955
211	0xbc72c1ae	-0.014816685
212	0x3c1b3e2a	0.00947527
213	0xbc77d215	-0.015125771
214	0x3bbe8edf	0.0058153714
215	0x3c8375f5	0.016047457
216	0xbd293ecc	-0.041319653
217	0xbd54d1c4	-0.05195786
218	0x3d1fad1a	0.038983442
219	0xbd8cb9cb	-0.06871375
220	0xbc9e6032	-0.019332979
221	0x3d64a5b3	0.055822086
222	0x3c820027	0.015869213
223	0xbab1f5b4	-0.0013577254
224	0xbd48ce38	-0.04902479
225	0x3d332201	0.0437336
226	0xbd2cac71	-0.04215664
227	0xbc7d8f71	-0.015476094
228	0xbc9d611c	-0.019211344
229	0xbc0d193d	-0.008611974
230	0xba8bbb57	-0.001066069
231	0x3d6a4659	0.057195995
232	0x3c3ce20f	0.011528506
233	0x3d7e124f	0.06202918
234	0x3d31393a	0.043267466
235	0xbd200d61	-0.03907526
236	0x3d00490e	0.03131967
237	0xbd2f0b81	-0.04273558
238	0xbd3ea3d1	-0.046542946
239	0x3b1f2597	0.002428388
240	0x3bd727dc	0.006566031
241	0x3d0bcf3f	0.034133192
242	0xbd06f363	-0.032946955
243	0xbc2d1c25	-0.010565792
244	0x3ce6cace	0.028172877
245	0xbdb9a31c	-0.09064314
246	0x3d933746	0.07188277
247	0xbdc8853f	-0.0979104
248	0x3c94f41f	0.018182812
249	0xbdb578fb	-0.08860966
250	0xbdb29200	-0.087192535
251	0xbdfd1af0	-0.123586535
252	0x3d6e8538	0.058232516
253	0xbbf0fc44	-0.007354291
254	0xbd1b2310	-0.037875235
255	0xbc9f4b68	-0.019445136

model.tcn.0.conv2.bias f4 [25]
0	0xbc943c44	-0.018095143
1	0x3b03c220	0.0020104721
2	0xbc6000fd	-0.013672111
3	0x3d4e20ea	0.050324358
4	0x3d9ccd6a	0.07656367
5	0x3d559a3d	0.052149046
6	0x3bd01ceb	0.0063511035
7	0xbc9ca824	-0.019123144
8	0x3c3bc563	0.011460635
9	0xbd5aeb08	-0.0534468
10	0x3bee46d6	0.007271628
11	0x3d9bddfb	0.07610699
12	0x3add736f	0.0016895364
13	0x3d9f3f96	0.077758
14	0xbce332e0	-0.02773422
15	0x3d9917fb	0.07475277
16	0x3d627dae	0.05529564
17	0xbd1697fe	-0.036766045
18	0xbd91fe9b	-0.0712864
19	0xbd046440	-0.03232217
20	0x3d44d0f1	0.048050825
21	0x3d95f47f	0.073220246
22	0xbd4f0457	-0.05054125
23	0xbd0d41fc	-0.034486756
24	0x3d2ded72	0.042462774

model.tcn.0.conv2.weight_g f4 [25, 1, 1]
0	0x3f174535	0.59089977
1	0x3f164872	0.5870429
2	0x3f0eb2a5	0.5574134
3	0x3f194dbf	0.59884256
4	0x3f17df9c	0.59325576
5	0x3f0eb99a	0.55751956
6	0x3f1a37a3	0.60241145
7	0x3f234a60	0.6378536
8	0x3f1594a9	0.5842996
9	0x3f1b9c24	0.60785127
10	0x3f0fee4b	0.5622298
11	0x3f183723	0.5945913
12	0x3f0b23d3	0.5435154
13	0x3f12678e	0.5718926
14	0x3f2717b5	0.6527055
15	0x3f1312c7	0.57450527
16	0x3f1bcc0e	0.6085824
17	0x3f0fd81e	0.56189144
18	0x3f15f398	0.5857482
19	0x3f105265	0.56375724
20	0x3f180e8b	0.5939719
21	0x3f11785f	0.56824297
22	0x3f1d51bc	0.6145284
23	0x3f15325e	0.5827998
24	0x3f1ed1f0	0.6203909

model.tcn.0.conv2.weight_v f4 [25, 25, 7]
0	0xbc457354	-0.012051422
1	0x3d1b2041	0.037872557
2	0xbd7f99d1	-0.06240255
3	0x3d0157f2	0.03157801
4	0x3d879101	0.06619454
5	0x3d4aaa56	0.04947885
6	0xbd2f9a2e	-0.042871647
7	0xbbdcb84f	-0.0067358385
8	0x3b3881d2	0.002815355
9	0x3d1aa420	0.037754178
10	0xbc396ae2	-0.011316987
11	0x3ca314a3	0.019907301
12	0xba53811d	-0.00080682506
13	0x3c8fd1b8	0.017556056
14	0xba886a34	-0.0010407628
15	0xbd210599	-0.03931198
16	0xbd43f8c2	-0.047844656
17	0x3d801bf5	0.062553324
18	0x3d86337a	0.06552787
19	0x3c6d207a	0.014473075
20	0x3db613b9	0.088904805
21	0x3d7556f0	0.059897363
22	0xbd0f138a	-0.034930743
23	0xbc8f670b	-0.01750519
24	0xbd196f76	-0.037459813
25	0x3d116f80	0.035506725
26	0x3ca70604	0.02038861
27	0x3c6ed24c	0.014576506
28	0x3d3478a3	0.04406036
29	0xbc958c59	-0.0182554
30	0xbcf02eff	-0.029319284
31	0xbd2858ad	-0.041100193
32	0xbcd62732	-0.026141737
33	0x3d6f0561	0.05835474
34	0xbca5b41c	-0.020227484
35	0xbbfd3ed5	-0.0077284374
36	0x3d328895	0.043587286
37	0xbd34f9e3	-0.044183623
38	0xbd142914	-0.036171988
39	0x3d672c97	0.05643901
40	0xbcf0a001	-0.02937317
41	0xbd398b94	-0.045299128
42	0xbc2ce99c	-0.010553744
43	0xbc2beb8d	-0.010493171
44	0x3c0e166e	0.00867234
45	0x3cac87e3	0.02106089
46	0xbd410ebf	-0.047133204
47	0x3d72bcfb	0.059262257
48	0xbd69ae05	-0.057050724
49	0x3cdf1b87	0.027234806
50	0xbc77f6c3	-0.015134516
51	0xbccec95e	-0.025242504
52	0x3d94e5dd	0.072704054
53	0xbd71a6fe	-0.058997147
54	0x3caf7ab7	0.02142082
55	0x3d90e130	0.07074201
56	0x3d75e412	0.060031958
57	0xbd364f3e	-0.044509165
58	0x3c74bc84	0.014937524
59	0x3d89309e	0.06698726
60	0xbd672874	-0.056435063
61	0x3c564b55	0.013079484
62	0xbd2f3859	-0.042778347
63	0x3ca3f96e	0.020016398
64	0xbd650e19	-0.055921648
65	0x3d267043	0.040634405
66	0xbc002d05	-0.0078232335
67	0x3d4c9c93	0.04995401
68	0x3c73ee5f	0.014888375
69	0x3c4bb71c	0.012433793
70	0xbbe96eb5	-0.007123793
71	0xbd5a9e94	-0.053373888
72	0xbca00904	-0.019535549
73	0x3c60ab32	0.013712691
74	0xbd229396	-0.03969153
75	0x3da09a0f	0.07841884
76	0xbc9c9ea3	-0.019118613
77	0xbcc34484	-0.023836382
78	0xbc35df92	-0.011100667
79	0xbd4352d9	-0.04768643
80	0xbc03f568	-0.008054115
81	0xbcc6c071	-0.024261685
82	0xbd46d7a4	-0.048545495
83	0xbc1d87c4	-0.009614889
84	0x3d58babb	0.052912455
85	0x3c71e008	0.014762886
86	0x3d4b9f31	0.049712364
87	0x3b4fd9d6	0.0031715534
88	0xbc7556ae	-0.014974279
89	0x3d69377d	0.056937683
90	0xbc9448e7	-0.018101169
91	0xbd8105eb	-0.06299957
92	0x3c80cff7	0.015724165
93	0x3d128135	0.035767753
94	0xbd14c534	-0.03632088
95	0x3d0c5d7f	0.034268852
96	0xbbdaaedb	-0.0066736764
97	0x3cba4e4e	0.022742417
98	0x3b222ba4	0.002474525
99	0x3b04f6f7	0.0020288804
100	0xbd21ad25	-0.039471764
101	0x3c9527cc	0.018207453
102	0xbab4b680	-0.0013787299
103	0x3d4c73aa	0.049914993
104	0x3c7b53f0	0.0153398365
105	0xbd54930f	-0.05189806
106	0xbd47ba5e	-0.048761718
107	0xbcfe7ca4	-0.031065293
108	0x3d1cae40	0.038252115
109	0xbd10f4a9	-0.035389576
110	0xbc37fcc0	-0.011229694
111	0x3d30c27d	0.04315423
112	0xbcc8b490	-0.024500161
113	0xbc29bd60	-0.010360092
114	0x3d8628e0	0.06550765
115	0xbc4c9ab7	-0.012488059
116	0xb9c3118c	-0.00037206372
117	0x3d684791	0.056708876
118	0x3d07f52b	0.033192795
119	0x3d2b9cb8	0.041897506
120	0xbd8a87c4	-0.067641765
121	0x3cbbc3cd	0.022920514
122	0xbcab7458	-0.0209295
123	0xbd605a43	-0.05477358
124	0xbd31c7af	-0.043403324
125	0xbda80bf0	-0.08205402
126	0x3d4987d2	0.049201794
127	0xbc3a1fb7	-0.0113601005
128	0xbd8b0154	-0.06787363
129	0x3d809ea4	0.06280258
130	0x3d4f663d	0.05063461
131	0x3d26d93f	0.040734526
132	0x3dc090ae	0.094025955
133	0x3d95dcfa	0.073175386
134	0x3d998654	0.07496324
135	0x3d968940	0.07350397
136	0x3d8cb393	0.068701886
137	0x3d00f74f	0.03148585
138	0x3c32e5bd	0.010919032
139	0x3cd4b81e	0.0259667
140	0xbcc0f560	-0.023554504
141	0x3d12bf83	0.03582717
142	0x3bc685ac	0.0060584154
143	0x3cc4ce54	0.024024166
144	0xbd116c0e	-0.03550344
145	0xbbdfd8cd	-0.0068312646
146	0x3daa1b8a	0.08306034
147	0x3b8bb5ef	0.0042636315
148	0x3c90219a	0.017594147
149	0xbd7cc7ad	-0.061713863
150	0xbd0d2a89	-0.034464393
151	0xbc522fd5	-0.012828787
152	0xbcc2e037	-0.023788555
153	0x3c12e6e6	0.008966183
154	0xbc70595f	-0.014669745
155	0x3d75662b	0.059911888
156	0xbbe63dda	-0.0070264162
157	0x3d10059f	0.03516161
158	0xbd15a07a	-0.036529996
159	0x3d15ddfd	0.036588658
160	0xbd1aae4b	-0.037763875
161	0xbd5536fb	-0.052054387
162	0xbd178afe	-0.036997788
163	0x3cf2b8cc	0.029629134
164	0x3c83934d	0.01606145
165	0x3ca62500	0.020281315
166	0x3c295e6d	0.010337454
167	0x3db8248d	0.089913465
168	0x3d9705a1	0.073741205
169	0x3d187ce9	0.0372285
170	0x3d7c9e00	0.061674118
171	0x3bfca2e4	0.0077098478
172	0xbc481965	-0.012213086
173	0x3d15296f	0.036416467
174	0x3daa2bd8	0.08309144
175	0xbb9737ec	-0.0046148207
176	0xbd4aafbc	-0.049484
177	0x3cf066b8	0.029345855
178	0xbc2e9d77	-0.01065766
179	0xbcc83df9	-0.024443613
180	0x3d82fc34	0.0639576
181	0x3cbe791f	0.023251114
182	0xbce5862d	-0.028018082
183	0xbcf6c340	-0.0301224
184	0x3d8216ce	0.06352006
185	0x3d3bf5c6	0.045888685
186	0xbd103463	-0.03520621
187	0x3c969287	0.018380417
188	0x3cb4678e	0.022022035
189	0x3d119eec	0.03555195
190	0xbd6b1369	-0.057391558
191	0x3b8ae205	0.0042383694
192	0x3cf78e58	0.030219242
193	0x3d3847c3	0.044990312
194	0x3cc758db	0.024334362
195	0xbc4da1da	-0.012550795
196	0xbd750f26	-0.0598289
197	0x3d322662	0.043493636
198	0x3d8eb2d0	0.069676995
199	0xbc40433e	-0.011734782
200	0xbd53976f	-0.05165809
201	0x3d1054af	0.03523701
202	0xbcf330d6	-0.029686373
203	0xbd154a3e	-0.036447756
204	0x3c89087b	0.016727677
205	0xbb83fd29	-0.004027982
206	0xbb6e4192	-0.0036355
207	0x3d5c1852	0.05373413
208	0xbc033e81	-0.008010508
209	0x3d234fe1	0.0398711
210	0xbc60c86d	-0.01371966
211	0x3d78cea4	0.060743943
212	0x3ceed9ee	0.029156651
213	0x3d8aeae0	0.0678308
214	0x3cdbd5f7	0.026835425
215	0xbce8bdb8	-0.028410777
216	0x3cac16c8	0.021006957
217	0x3d5a268d	0.05325942
218	0x3c3186a3	0.010835323
219	0x3cee0fd4	0.029060282
220	0xbd385416	-0.045002066
221	0x3d159943	0.036523115
222	0xbd7349b7	-0.05939647
223	0x3d820f53	0.06350579
224	0x3d0526aa	0.032507576
225	0x3c0c15d1	0.008550123
226	0xbd8020dc	-0.062562674
227	0x3d90e4de	0.07074903
228	0x3d5a8444	0.053348795
229	0x3da4effa	0.080535844
230	0x3d492401	0.0491066
231	0x3c4fd60a	0.012685308
232	0xbcad49a8	-0.021153286
233	0xbcf73caa	-0.030180294
234	0x3c84d848	0.016216412
235	0x3c4732f5	0.012158145
236	0xbc57fc6f	-0.013182743
237	0xbbdd8b75	-0.0067610093
238	0x3cf3f56e	0.029780116
239	0xbd7ff168	-0.062486082
240	0xbd682eaa	-0.056685127
241	0xbc52e5b9	-0.012872153
242	0x3d59814d	0.053101826
243	0x3d3bbf6f	0.045836862
244	0xbd4ef284	-0.05052425
245	0xbc55a286	-0.013039237
246	0x3aa55ecd	0.0012616754
247	0x3d0269e6	0.031839274
248	0x3d8ac4a3	0.06775787
249	0x3c7fb58b	0.015607248
250	0xbd18593c	-0.037194476
251	0x3d00dcc0	0.031460524
252	0xbd003495	-0.031300146
253	0xbd323af5	-0.043513257
254	0x3c0efb55	0.008726914
255	0xbc99a71b	-0.01875644

model.tcn.0.net.0.bias f4 [25]
0	0x3d26f434	0.040760234
1	0xbcfa5aac	-0.030560814
2	0x3d153b81	0.0364337
3	0x3cc38652	0.02386776
4	0xbd8598bc	-0.065232724
5	0xbc88c669	-0.016696172
6	0xbd464294	-0.048403338
7	0x3d4c3676	0.049856625
8	0x3cd3fba7	0.025876833
9	0x3c5d50e4	0.013508055
10	0xbd28b486	-0.041187786
11	0xbd8bed94	-0.06832424
12	0xbc853985	-0.016262779
13	0xbd2e2adc	-0.042521343
14	0xbd80a9fb	-0.06282421
15	0xbd43fc2a	-0.047847904
16	0xbd437fe8	-0.047729403
17	0xbd823daa	-0.06359418
18	0x3d03806a	0.032104887
19	0x3d2b8120	0.04187119
20	0x3d2a17af	0.041526493
21	0xbd8f489d	-0.06996272
22	0x3d630697	0.055426206
23	0x3cde0d4c	0.02710595
24	0x3d2a7be8	0.041622072

model.tcn.0.net.0.weight_g f4 [25, 1, 1]
0	0x3f178842	0.5919229
1	0x3f150f85	0.58226806
2	0x3f23729c	0.63846755
3	0x3f1d8b65	0.61540824
4	0x3f1184fe	0.56843555
5	0x3f1c6fc7	0.6110806
6	0x3f1b6a10	0.60708714
7	0x3f15b343	0.58476657
8	0x3f0e32fa	0.55546534
9	0x3f120b0b	0.570481
10	0x3f116a36	0.5680269
11	0x3f0cf1e0	0.5505657
12	0x3f15a842	0.58459866
13	0x3f14d012	0.5812999
14	0x3f093d23	0.5360891
15	0x3f0e4790	0.55577946
16	0x3f16c89a	0.58899844
17	0x3f0e93c8	0.55694246
18	0x3f17783d	0.59167844
19	0x3f0fa98c	0.56118083
20	0x3f17ed8f	0.5934686
21	0x3f0cfcfe	0.55073535
22	0x3f174c17	0.5910048
23	0x3f13258c	0.57479167
24	0x3f1455ac	0.57943225

model.tcn.0.net.0.weight_v f4 [25, 28, 7]
0	0x3c4bf757	0.012449107
1	0x3d48380c	0.048881575
2	0xbd29d320	-0.04146111
3	0xbd0db3b8	-0.03459522
4	0xbc1f8ebb	-0.009738619
5	0x3d198f36	0.037490092
6	0x3ccedae0	0.025250852
7	0x3d326e1c	0.04356204
8	0xbc7edfcc	-0.015556287
9	0x3c08135c	0.008305397
10	0xbcf15a55	-0.029462019
11	0xbcb0bbdf	-0.021573959
12	0xbd93680d	-0.071975805
13	0xbd588ce9	-0.052868757
14	0xbce977d6	-0.028499525
15	0xb99a1a90	-0.0002939296
16	0x3cb65840	0.022258878
17	0x3d1c471a	0.038153745
18	0xbd1e8650	-0.03870231
19	0xbcbeb5ca	-0.023280043
20	0x3cb9eb82	0.022695307
21	0x3d5f22e1	0.054476622
22	0xbc800a4e	-0.015629914
23	0x3d4cd1bd	0.05000471
24	0xbc3a73dd	-0.011380163
25	0x3bddffb6	0.006774868
26	0x3d7cfee2	0.061766513
27	0xbd7ff56c	-0.062489912
28	0xbd096832	-0.033546634
29	0xbc13783a	-0.009000832
30	0xbc9dfbc0	-0.019285083
31	0x3d8388b3	0.06422558
32	0xbd1bf12e	-0.038071804
33	0xbcd47110	-0.025932819
34	0xbd2f51d1	-0.042802636
35	0xbd817732	-0.06321563
36	0xbd2276c0	-0.03966403
37	0x3d6d7824	0.057975903
38	0x3cf4ded7	0.029891415
39	0x3d0633f5	0.032764394
40	0x3b44d58c	0.003003451
41	0xbd10ad34	-0.03532143
42	0x3c69c390	0.014267817
43	0xbd7337ce	-0.05937939
44	0xbd366de8	-0.04453841
45	0xbcf665dd	-0.03007787
46	0x3d3f5ad0	0.046717465
47	0x3d351590	0.044210017
48	0xbcc60868	-0.02417393
49	0x3b9b6d78	0.0047432743
50	0x3d3dc819	0.046333406
51	0xbc267497	-0.010159633
52	0xbb97a511	-0.0046278317
53	0xbd850944	-0.06495908
54	0xbda665a9	-0.08124859
55	0xbe0ad3ff	-0.13557433
56	0xbb6d3ec6	-0.0036200746
57	0xbd846fa0	-0.06466603
58	0xbd8452d1	-0.064611085
59	0xbd625bfb	-0.0552635
60	0xbba75640	-0.0051067173
61	0xbd12ca6d	-0.03583758
62	0xbe278a61	-0.16361381
63	0x3d191ae6	0.037379168
64	0x3d59c67e	0.053167813
65	0x3bfc4509	0.0076986593
66	0x3c997afb	0.0187354
67	0x3d00be33	0.031431388
68	0x3d681cd4	0.056668118
69	0x3da26fdd	0.079314925
70	0xbd3ebaf2	-0.046565004
71	0xbcaa06df	-0.02075523
72	0x3cebe7b0	0.028797
73	0x3d6a4b56	0.057200752
74	0x3d749452	0.05971176
75	0x3d75f735	0.060050208
76	0x3c731170	0.0148357
77	0xbd95e341	-0.07318736
78	0xbbb34a28	-0.0054714866
79	0xbd58a4b0	-0.052891433
80	0xbd96e21f	-0.07367348
81	0x3d536db2	0.051618285
82	0x3d307330	0.0430786
83	0xbd9cfcae	-0.07665382
84	0x3c0038c8	0.007826038
85	0xbc811b30	-0.015760034
86	0xbc7b613e	-0.015343009
87	0xbd0e73d4	-0.03477843
88	0x3cbaaa1f	0.022786198
89	0xbd311143	-0.043229353
90	0x3cb48be2	0.022039358
91	0x3d08d047	0.033401754
92	0x3d3fd868	0.04683724
93	0x3cc4fa0e	0.024045017
94	0xbd85dd0b	-0.06536301
95	0xbd328a36	-0.04358884
96	0x3d01e0cc	0.031708524
97	0x3c533e8f	0.012893333
98	0xbd45a054	-0.048248604
99	0xbd0cf15f	-0.034409877
100	0x3d8ba63b	0.06818815
101	0x3d4f1d2e	0.050564937
102	0xbcc3a7f0	-0.02388379
103	0xbc376e73	-0.011195767
104	0xbd6c8144	-0.057740465
105	0x3c1cb959	0.009565675
106	0xbd2a73af	-0.04161423
107	0xbd33fbb2	-0.043941207
108	0x3b85f94b	0.004088556
109	0x3c8fc40e	0.01754954
110	0xbcae8bb9	-0.02130686
111	0x3d3d15ab	0.046163242
112	0xbd17590f	-0.036950167
113	0x3d7c4812	0.06159217
114	0x3d3ede23	0.046598565
115	0xbd595958	-0.05306372
116	0xbc6a2f3c	-0.014293488
117	0x3b906019	0.004405987
118	0x3c32374c	0.010877442
119	0x3cab8f69	0.020942407
120	0x3cfc639e	0.03080922
121	0x3c1a192c	0.0094054155
122	0xbcd2cbe3	-0.025731986
123	0x3d1608f5	0.036629636
124	0xbd67bdf1	-0.056577627
125	0xbd055c57	-0.032558765
126	0xbc53e850	-0.012933806
127	0xbceda093	-0.029007232
128	0xbca981cd	-0.020691777
129	0xbd52904d	-0.051407147
130	0xbc3f96ac	-0.011693638
131	0x3c804398	0.015657231
132	0xbd2a1db1	-0.041532222
133	0xbb6f23df	-0.0036489887
134	0x3d458c88	0.048229724
135	0xbba14715	-0.0049218037
136	0x3b8ef150	0.004362263
137	0xbb29ba6b	-0.0025898467
138	0x3c8a44ed	0.01687857
139	0x3d40e081	0.047089104
140	0x3d666bc3	0.056255113
141	0x3d10a051	0.03530914
142	0x3d68207d	0.05667161
143	0xbc48ab62	-0.012247892
144	0xbd8ae33e	-0.06781624
145	0xbd1f0719	-0.03882513
146	0x3d25f44d	0.040516187
147	0x3bd84a0c	0.006600624
148	0xbcebb468	-0.028772548
149	0xbd46a62c	-0.048498318
150	0xbd7c3700	-0.06157589
151	0xbd6515a8	-0.055928856
152	0xbc53f4b5	-0.012936761
153	0x3d19d22d	0.037553955
154	0x3cf497d5	0.029857555
155	0xbd93d7a1	-0.07218862
156	0x3d1f0bf2	0.03882975
157	0xbd67f0c2	-0.05662609
158	0xbc915cff	-0.01774454
159	0xbcfb3ffe	-0.030670162
160	0xbc6f76ce	-0.014615728
161	0xbc1b3394	-0.009472746
162	0xbd64113b	-0.055680495
163	0xbd565663	-0.05232848
164	0xbb96dc9d	-0.004603936
165	0x3be1c0fd	0.006889461
166	0xbcc0cb6a	-0.023534495
167	0x3d066464	0.032810584
168	0xbd549757	-0.05190214
169	0x3aff5162	0.001947921
170	0x3d814cd7	0.06313484
171	0xbca4f50f	-0.020136384
172	0x3d852f07	0.065031104
173	0x3cf25a91	0.029584201
174	0xbd565512	-0.052327223
175	0x3d35fa31	0.044428054
176	0xbc05a792	-0.008157628
177	0xbd04c61d	-0.032415498
178	0x3d4febe5	0.050762076
179	0xbd6dc837	-0.058052268
180	0x3b613e25	0.0034369316
181	0xbc9ef1d4	-0.019402422
182	0x3d46a87f	0.048500534
183	0x3ca90b91	0.020635398
184	0x3d0fa6f0	0.035071313
185	0x3cdf377a	0.027248133
186	0xbc3e5b0c	-0.011618387
187	0xbc1a1776	-0.009405008
188	0xbd482ed8	-0.0488728
189	0x3d3075d3	0.043081116
190	0x3d77e51f	0.06052124
191	0x3d5e7322	0.054309018
192	0xbd122e6a	-0.035688795
193	0x3c65b4c3	0.014020148
194	0xbd0c84e2	-0.034306414
195	0xbcb91194	-0.02259139
196	0xbd3f8e8b	-0.0467668
197	0x3ca1fba1	0.019773306
198	0xbd37a2be	-0.044832937
199	0xbbc0107a	-0.005861339
200	0x3af1b7b2	0.0018441586
201	0x3d3d77f6	0.04625698
202	0xbd220876	-0.03955885
203	0xbd0ea57a	-0.03482578
204	0xbce193a5	-0.027536223
205	0x3d7a5889	0.06111959
206	0xbc555882	-0.01302159
207	0x3d88eea9	0.06686146
208	0x3d0d612d	0.034516502
209	0x3c9fba2c	0.019497953
210	0xbad2eba4	-0.0016091955
211	0xbc72c1ae	-0.014816685
212	0x3c1b3e2a	0.00947527
213	0xbc77d215	-0.015125771
214	0x3bbe8edf	0.0058153714
215	0x3c8375f5	0.016047457
216	0xbd293ecc	-0.041319653
217	0xbd54d1c4	-0.05195786
218	0x3d1fad1a	0.038983442
219	0xbd8cb9cb	-0.06871375
220	0xbc9e6032	-0.019332979
221	0x3d64a5b3	0.055822086
222	0x3c820027	0.015869213
223	0xbab1f5b4	-0.0013577254
224	0xbd48ce38	-0.04902479
225	0x3d332201	0.0437336
226	0xbd2cac71	-0.04215664
227	0xbc7d8f71	-0.015476094
228	0xbc9d611c	-0.019211344
229	0xbc0d193d	-0.008611974
230	0xba8bbb57	-0.001066069
231	0x3d6a4659	0.057195995
232	0x3c3ce20f	0.011528506
233	0x3d7e124f	0.06202918
234	0x3d31393a	0.043267466
235	0xbd200d61	-0.03907526
236	0x3d00490e	0.03131967
237	0xbd2f0b81	-0.04273558
238	0xbd3ea3d1	-0.046542946
239	0x3b1f2597	0.002428388
240	0x3bd727dc	0.006566031
241	0x3d0bcf3f	0.034133192
242	0xbd06f363	-0.032946955
243	0xbc2d1c25	-0.010565792
244	0x3ce6cace	0.028172877
245	0xbdb9a31c	-0.09064314
246	0x3d933746	0.07188277
247	0xbdc8853f	-0.0979104
248	0x3c94f41f	0.018182812
249	0xbdb578fb	-0.08860966
250	0xbdb29200	-0.087192535
251	0xbdfd1af0	-0.123586535
252	0x3d6e8538	0.058232516
253	0xbbf0fc44	-0.007354291
254	0xbd1b2310	-0.037875235
255	0xbc9f4b68	-0.019445136

model.tcn.0.net.4.bias f4 [25]
0	0xbc943c44	-0.018095143
1	0x3b03c220	0.0020104721
2	0xbc6000fd	-0.013672111
3	0x3d4e20ea	0.050324358
4	0x3d9ccd6a	0.07656367
5	0x3d559a3d	0.052149046
6	0x3bd01ceb	0.0063511035
7	0xbc9ca824	-0.019123144
8	0x3c3bc563	0.011460635
9	0xbd5aeb08	-0.0534468
10	0x3bee46d6	0.007271628
11	0x3d9bddfb	0.07610699
12	0x3add736f	0.0016895364
13	0x3d9f3f96	0.077758
14	0xbce332e0	-0.02773422
15	0x3d9917fb	0.07475277
16	0x3d627dae	0.05529564
17	0xbd1697fe	-0.036766045
18	0xbd91fe9b	-0.0712864
19	0xbd046440	-0.03232217
20	0x3d44d0f1	0.048050825
21	0x3d95f47f	0.073220246
22	0xbd4f0457	-0.05054125
23	0xbd0d41fc	-0.034486756
24	0x3d2ded72	0.042462774

model.tcn.0.net.4.weight_g f4 [25, 1, 1]
0	0x3f174535	0.59089977
1	0x3f164872	0.5870429
2	0x3f0eb2a5	0.5574134
3	0x3f194dbf	0.59884256
4	0x3f17df9c	0.59325576
5	0x3f0eb99a	0.55751956
6	0x3f1a37a3	0.60241145
7	0x3f234a60	0.6378536
8	0x3f1594a9	0.5842996
9	0x3f1b9c24	0.60785127
10	0x3f0fee4b	0.5622298
11	0x3f183723	0.5945913
12	0x3f0b23d3	0.5435154
13	0x3f12678e	0.5718926
14	0x3f2717b5	0.6527055
15	0x3f1312c7	0.57450527
16	0x3f1bcc0e	0.6085824
17	0x3f0fd81e	0.56189144
18	0x3f15f398	0.5857482
19	0x3f105265	0.56375724
20	0x3f180e8b	0.5939719
21	0x3f11785f	0.56824297
22	0x3f1d51bc	0.6145284
23	0x3f15325e	0.5827998
24	0x3f1ed1f0	0.6203909

model.tcn.0.net.4.weight_v f4 [25, 25, 7]
0	0xbc457354	-0.012051422
1	0x3d1b2041	0.037872557
2	0xbd7f99d1	-0.06240255
3	0x3d0157f2	0.03157801
4	0x3d879101	0.06619454
5	0x3d4aaa56	0.04947885
6	0xbd2f9a2e	-0.042871647
7	0xbbdcb84f	-0.0067358385
8	0x3b3881d2	0.002815355
9	0x3d1aa420	0.037754178
10	0xbc396ae2	-0.011316987
11	0x3ca314a3	0.019907301
12	0xba53811d	-0.00080682506
13	0x3c8fd1b8	0.017556056
14	0xba886a34	-0.0010407628
15	0xbd210599	-0.03931198
16	0xbd43f8c2	-0.047844656
17	0x3d801bf5	0.062553324
18	0x3d86337a	0.06552787
19	0x3c6d207a	0.014473075
20	0x3db613b9	0.088904805
21	0x3d7556f0	0.059897363
22	0xbd0f138a	-0.034930743
23	0xbc8f670b	-0.01750519
24	0xbd196f76	-0.037459813
25	0x3d116f80	0.035506725
26	0x3ca70604	0.02038861
27	0x3c6ed24c	0.014576506
28	0x3d3478a3	0.04406036
29	0xbc958c59	-0.0182554
30	0xbcf02eff	-0.029319284
31	0xbd2858ad	-0.041100193
32	0xbcd62732	-0.026141737
33	0x3d6f0561	0.05835474
34	0xbca5b41c	-0.020227484
35	0xbbfd3ed5	-0.0077284374
36	0x3d328895	0.043587286
37	0xbd34f9e3	-0.044183623
38	0xbd142914	-0.036171988
39	0x3d672c97	0.05643901
40	0xbcf0a001	-0.02937317
41	0xbd398b94	-0.045299128
42	0xbc2ce99c	-0.010553744
43	0xbc2beb8d	-0.010493171
44	0x3c0e166e	0.00867234
45	0x3cac87e3	0.02106089
46	0xbd410ebf	-0.047133204
47	0x3d72bcfb	0.059262257
48	0xbd69ae05	-0.057050724
49	0x3cdf1b87	0.027234806
50	0xbc77f6c3	-0.015134516
51	0xbccec95e	-0.025242504
52	0x3d94e5dd	0.072704054
53	0xbd71a6fe	-0.058997147
54	0x3caf7ab7	0.02142082
55	0x3d90e130	0.07074201
56	0x3d75e412	0.060031958
57	0xbd364f3e	-0.044509165
58	0x3c74bc84	0.014937524
59	0x3d89309e	0.06698726
60	0xbd672874	-0.056435063
61	0x3c564b55	0.013079484
62	0xbd2f3859	-0.042778347
63	0x3ca3f96e	0.020016398
64	0xbd650e19	-0.055921648
65	0x3d267043	0.040634405
66	0xbc002d05	-0.0078232335
67	0x3d4c9c93	0.04995401
68	0x3c73ee5f	0.014888375
69	0x3c4bb71c	0.012433793
70	0xbbe96eb5	-0.007123793
71	0xbd5a9e94	-0.053373888
72	0xbca00904	-0.019535549
73	0x3c60ab32	0.013712691
74	0xbd229396	-0.03969153
75	0x3da09a0f	0.07841884
76	0xbc9c9ea3	-0.019118613
77	0xbcc34484	-0.023836382
78	0xbc35df92	-0.011100667
79	0xbd4352d9	-0.04768643
80	0xbc03f568	-0.008054115
81	0xbcc6c071	-0.024261685
82	0xbd46d7a4	-0.048545495
83	0xbc1d87c4	-0.009614889
84	0x3d58babb	0.052912455
85	0x3c71e008	0.014762886
86	0x3d4b9f31	0.049712364
87	0x3b4fd9d6	0.0031715534
88	0xbc7556ae	-0.014974279
89	0x3d69377d	0.056937683
90	0xbc9448e7	-0.018101169
91	0xbd8105eb	-0.06299957
92	0x3c80cff7	0.015724165
93	0x3d128135	0.035767753
94	0xbd14c534	-0.03632088
95	0x3d0c5d7f	0.034268852
96	0xbbdaaedb	-0.0066736764
97	0x3cba4e4e	0.022742417
98	0x3b222ba4	0.002474525
99	0x3b04f6f7	0.0020288804
100	0xbd21ad25	-0.039471764
101	0x3c9527cc	0.018207453
102	0xbab4b680	-0.0013787299
103	0x3d4c73aa	0.049914993
104	0x3c7b53f0	0.0153398365
105	0xbd54930f	-0.05189806
106	0xbd47ba5e	-0.048761718
107	0xbcfe7ca4	-0.031065293
108	0x3d1cae40	0.038252115
109	0xbd10f4a9	-0.035389576
110	0xbc37fcc0	-0.011229694
111	0x3d30c27d	0.04315423
112	0xbcc8b490	-0.024500161
113	0xbc29bd60	-0.010360092
114	0x3d8628e0	0.06550765
115	0xbc4c9ab7	-0.012488059
116	0xb9c3118c	-0.00037206372
117	0x3d684791	0.056708876
118	0x3d07f52b	0.033192795
119	0x3d2b9cb8	0.041897506
120	0xbd8a87c4	-0.067641765
121	0x3cbbc3cd	0.022920514
122	0xbcab7458	-0.0209295
123	0xbd605a43	-0.05477358
124	0xbd31c7af	-0.043403324
125	0xbda80bf0	-0.08205402
126	0x3d4987d2	0.049201794
127	0xbc3a1fb7	-0.0113601005
128	0xbd8b0154	-0.06787363
129	0x3d809ea4	0.06280258
130	0x3d4f663d	0.05063461
131	0x3d26d93f	0.040734526
132	0x3dc090ae	0.094025955
133	0x3d95dcfa	0.073175386
134	0x3d998654	0.07496324
135	0x3d968940	0.07350397
136	0x3d8cb393	0.068701886
137	0x3d00f74f	0.03148585
138	0x3c32e5bd	0.010919032
139	0x3cd4b81e	0.0259667
140	0xbcc0f560	-0.023554504
141	0x3d12bf83	0.03582717
142	0x3bc685ac	0.0060584154
143	0x3cc4ce54	0.024024166
144	0xbd116c0e	-0.03550344
145	0xbbdfd8cd	-0.0068312646
146	0x3daa1b8a	0.08306034
147	0x3b8bb5ef	0.0042636315
148	0x3c90219a	0.017594147
149	0xbd7cc7ad	-0.061713863
150	0xbd0d2a89	-0.034464393
151	0xbc522fd5	-0.012828787
152	0xbcc2e037	-0.023788555
153	0x3c12e6e6	0.008966183
154	0xbc70595f	-0.014669745
155	0x3d75662b	0.059911888
156	0xbbe63dda	-0.0070264162
157	0x3d10059f	0.03516161
158	0xbd15a07a	-0.036529996
159	0x3d15ddfd	0.036588658
160	0xbd1aae4b	-0.037763875
161	0xbd5536fb	-0.052054387
162	0xbd178afe	-0.036997788
163	0x3cf2b8cc	0.029629134
164	0x3c83934d	0.01606145
165	0x3ca62500	0.020281315
166	0x3c295e6d	0.010337454
167	0x3db8248d	0.089913465
168	0x3d9705a1	0.073741205
169	0x3d187ce9	0.0372285
170	0x3d7c9e00	0.061674118
171	0x3bfca2e4	0.0077098478
172	0xbc481965	-0.012213086
173	0x3d15296f	0.036416467
174	0x3daa2bd8	0.08309144
175	0xbb9737ec	-0.0046148207
176	0xbd4aafbc	-0.049484
177	0x3cf066b8	0.029345855
178	0xbc2e9d77	-0.01065766
179	0xbcc83df9	-0.024443613
180	0x3d82fc34	0.0639576
181	0x3cbe791f	0.023251114
182	0xbce5862d	-0.028018082
183	0xbcf6c340	-0.0301224
184	0x3d8216ce	0.06352006
185	0x3d3bf5c6	0.045888685
186	0xbd103463	-0.03520621
187	0x3c969287	0.018380417
188	0x3cb4678e	0.022022035
189	0x3d119eec	0.03555195
190	0xbd6b1369	-0.057391558
191	0x3b8ae205	0.0042383694
192	0x3cf78e58	0.030219242
193	0x3d3847c3	0.044990312
194	0x3cc758db	0.024334362
195	0xbc4da1da	-0.012550795
196	0xbd750f26	-0.0598289
197	0x3d322662	0.043493636
198	0x3d8eb2d0	0.069676995
199	0xbc40433e	-0.011734782
200	0xbd53976f	-0.05165809
201	0x3d1054af	0.03523701
202	0xbcf330d6	-0.029686373
203	0xbd154a3e	-0.036447756
204	0x3c89087b	0.016727677
205	0xbb83fd29	-0.004027982
206	0xbb6e4192	-0.0036355
207	0x3d5c1852	0.05373413
208	0xbc033e81	-0.008010508
209	0x3d234fe1	0.0398711
210	0xbc60c86d	-0.01371966
211	0x3d78cea4	0.060743943
212	0x3ceed9ee	0.029156651
213	0x3d8aeae0	0.0678308
214	0x3cdbd5f7	0.026835425
215	0xbce8bdb8	-0.028410777
216	0x3cac16c8	0.021006957
217	0x3d5a268d	0.05325942
218	0x3c3186a3	0.010835323
219	0x3cee0fd4	0.029060282
220	0xbd385416	-0.045002066
221	0x3d159943	0.036523115
222	0xbd7349b7	-0.05939647
223	0x3d820f53	0.06350579
224	0x3d0526aa	0.032507576
225	0x3c0c15d1	0.008550123
226	0xbd8020dc	-0.062562674
227	0x3d90e4de	0.07074903
228	0x3d5a8444	0.053348795
229	0x3da4effa	0.080535844
230	0x3d492401	0.0491066
231	0x3c4fd60a	0.012685308
232	0xbcad49a8	-0.021153286
233	0xbcf73caa	-0.030180294
234	0x3c84d848	0.016216412
235	0x3c4732f5	0.012158145
236	0xbc57fc6f	-0.013182743
237	0xbbdd8b75	-0.0067610093
238	0x3cf3f56e	0.029780116
239	0xbd7ff168	-0.062486082
240	0xbd682eaa	-0.056685127
241	0xbc52e5b9	-0.012872153
242	0x3d59814d	0.053101826
243	0x3d3bbf6f	0.045836862
244	0xbd4ef284	-0.05052425
245	0xbc55a286	-0.013039237
246	0x3aa55ecd	0.0012616754
247	0x3d0269e6	0.031839274
248	0x3d8ac4a3	0.06775787
249	0x3c7fb58b	0.015607248
250	0xbd18593c	-0.037194476
251	0x3d00dcc0	0.031460524
252	0xbd003495	-0.031300146
253	0xbd323af5	-0.043513257
254	0x3c0efb55	0.008726914
255	0xbc99a71b	-0.01875644

model.tcn.0.downsample.weight f4 [25, 28, 1]
0	0x3c7d07c1	0.015443743
1	0x3a11b3ea	0.00055581203
2	0xbd0d3376	-0.034472905
3	0xbb1ad10c	-0.0023623137
4	0x3bb2009f	0.005432203
5	0xbc16eb2d	-0.009211344
6	0xbbea5340	-0.0071510375
7	0xbdcf6da6	-0.10128336
8	0xbe0d466f	-0.137964
9	0xbb23f168	-0.0025015716
10	0xbcd00c66	-0.025396537
11	0x3c8841c5	0.016632924
12	0x3a3efc03	0.00072854775
13	0xbc42d1f1	-0.011890874
14	0x3c09634d	0.008385492
15	0x3c51f298	0.0128141865
16	0xbba090d0	-0.0049000755
17	0x3c41c61a	0.011827016
18	0x3c30bab9	0.010786706
19	0x3c39abbd	0.0113324495
20	0xbbe8c99b	-0.0071041114
21	0xbc9345f2	-0.017977688
22	0xbc26c6b2	-0.010179209
23	0xbbf7468e	-0.0075462526
24	0x3adb9a6e	0.0016754398
25	0xbb890e2b	-0.004182597
26	0x3c85f36e	0.016351428
27	0x3c94d2b0	0.01816687
28	0x3cdac72c	0.0267063
29	0x351ce8e0	5.8453406e-07
30	0x3cd2a18a	0.025711793
31	0xbb035a44	-0.0020042816
32	0xbc14ac57	-0.009074292
33	0xbbde9bc2	-0.00679347
34	0xbb555103	-0.0032549507
35	0xbdf3f396	-0.11911695
36	0xbe031079	-0.12799253
37	0xbc0342dc	-0.008011546
38	0xbbbc6f16	-0.005750547
39	0x3c872e9a	0.016501714
40	0xbaf4010b	-0.0018616033
41	0xbba836cb	-0.005133485
42	0x3c515aba	0.012777979
43	0x3aae3c23	0.0013293069
44	0xbc18e5ce	-0.009332133
45	0x3beb3d0e	0.007178909
46	0xbcb44d20	-0.022009432
47	0x3ab1adcf	0.0013555827
48	0xbad5b03b	-0.0016303131
49	0xbbe6bef8	-0.007041808
50	0x3bf58c0c	0.0074935015
51	0x3bb9685c	0.0056581926
52	0x3bdd24c0	0.0067487657
53	0xbc95ed6b	-0.018301686
54	0x3a86ed3a	0.0010294088
55	0x3cc1895d	0.02362507
56	0x3a17511d	0.00057722797
57	0xbbffd67d	-0.0078075514
58	0xbbea3bf8	-0.007148262
59	0x3c7d352a	0.01545457
60	0xbad87f7e	-0.0016517488
61	0x3cbbfc19	0.022947358
62	0x3c9dc1cb	0.019257447
63	0xbc392a87	-0.011301643
64	0x3c391dfe	0.011298655
65	0xbb4f8065	-0.0031662222
66	0x3c80ea5e	0.015736755
67	0xbc5c5310	-0.013447538
68	0xbbbcb1ad	-0.0057584853
69	0x3ae2cb40	0.0017303005
70	0x3c32e351	0.010918454
71	0xbb6c98ab	-0.003610174
72	0xbb9ae731	-0.004727267
73	0xbb7bd700	-0.003842771
74	0x3c0859c1	0.00832218
75	0xbc2a8352	-0.010407286
76	0x3bb62886	0.00555903
77	0x39c5d787	0.00037735348
78	0x3b1a61db	0.0023556862
79	0xbc1c7819	-0.009550118
80	0xbb22b014	-0.002482419
81	0x3b4513d5	0.0030071635
82	0xbcdfd971	-0.027325364
83	0x3b37059e	0.0027926932
84	0x3d1f1698	0.038839906
85	0x3b61d55e	0.0034459452
86	0x3c8696fc	0.016429417
87	0x3c27f097	0.010250232
88	0xba837afe	-0.0010031161
89	0xbc28f6c9	-0.010312744
90	0x3ca73e29	0.020415382
91	0xbe11c00b	-0.14233415
92	0xbdde7cfd	-0.108636834
93	0x3c09e4fc	0.008416411
94	0x3c3c4963	0.011492106
95	0xbb8dbdf7	-0.004325624
96	0xbbe8c130	-0.007103108
97	0xbc74c2d9	-0.014939033
98	0xbb0576f0	-0.0020365082
99	0xbb71d9dc	-0.0036903536
100	0xbae0a4cf	-0.001713896
101	0x3b8b6cd6	0.0042549176
102	0x3b4df0ea	0.0031424114
103	0x3c3b2ad9	0.01142379
104	0xbc92331b	-0.017846635
105	0xba6144ad	-0.00085933023
106	0x3c6eaa7b	0.014567013
107	0xba834f20	-0.0010018088
108	0x3c348aa8	0.011019386
109	0xbc1f65f9	-0.009728902
110	0xbb1471fe	-0.0022650952
111	0x3c49da6d	0.012320143
112	0xbba51be2	-0.0050387243
113	0x3a7a7856	0.00095546746
114	0x3c0fbd6d	0.00877319
115	0xbd0a876a	-0.033820547
116	0xbb6b1f07	-0.0035876648
117	0xbc5d2104	-0.013496641
118	0xbb774bf8	-0.003773449
119	0xbdc2ca8d	-0.0951129
120	0x3c09a75f	0.008401721
121	0xbb2b7bb2	-0.0026166257
122	0x3c04d58e	0.008107556
123	0xbd3cb49f	-0.04607069
124	0x3c2433be	0.010022102
125	0xbca9e560	-0.020739257
126	0x3c6ab396	0.014325043
127	0xbbc67197	-0.0060560214
128	0xbc9d2334	-0.019181825
129	0xbc620541	-0.013795198
130	0xbc58693c	-0.013208684
131	0x3cbf291f	0.023335038
132	0xbc81a8d1	-0.015827568
133	0xbb19d767	-0.0023474337
134	0xbd6b3017	-0.05741891
135	0xbc5b75e3	-0.013394806
136	0xbbfa75b5	-0.0076434263
137	0x3bb2de44	0.005458625
138	0xbce22188	-0.02760388
139	0xbb67ed56	-0.0035389266
140	0x3bce012e	0.0062867617
141	0xbbf0d43c	-0.007349519
142	0xbbb10690	-0.0054023936
143	0xbc3159fa	-0.010824675
144	0xbc24fc69	-0.010069945
145	0x3bfc710a	0.007703905
146	0xba3abb6e	-0.0007123266
147	0xbc91c81e	-0.017795619
148	0x3c4661c8	0.012108274
149	0x3bbad52c	0.0057016816
150	0xbb12130f	-0.0022289192
151	0xbc6ef4c0	-0.01458472
152	0x3c160932	0.009157466
153	0xbca0f492	-0.01964787
154	0x3c01f630	0.007932231
155	0xbb688347	-0.0035478638
156	0x3c1a692a	0.009424487
157	0x3c69e5bc	0.014275964
158	0x3bdb317d	0.006689249
159	0xb909b52f	-0.00013132834
160	0x3b741e5d	0.0037249543
161	0xbc5fd01d	-0.013660458
162	0xbcb1624f	-0.021653323
163	0x3bbe1c0c	0.0058016833
164	0x3b4813e2	0.003052943
165	0xbbd8e6cc	-0.00661931
166	0xbc9cd6ea	-0.019145448
167	0x3c812b42	0.015767697
168	0x3c94bba8	0.018155888
169	0x3b6978c0	0.003562495
170	0xbbd5b288	-0.0065215267
171	0x3acb9d9c	0.0015534642
172	0xbca9e483	-0.020738846
173	0x3b87fbbe	0.004149883
174	0xbbce7816	-0.0063009365
175	0xbe46904a	-0.1939098
176	0xbe3f824e	-0.18702051
177	0xbbe5acf6	-0.007009144
178	0x3b2e1d02	0.0026567583
179	0xb9c0cc18	-0.00036773155
180	0xbc2cef50	-0.010555103
181	0x3c6f7a80	0.014616609
182	0xbc0273ae	-0.0079621505
183	0xba28197b	-0.00064124883
184	0xbc4a6f62	-0.012355657
185	0x3b97c27c	0.0046313386
186	0xbc62241c	-0.013802554
187	0x3b600ad1	0.0034186135
188	0xbbe2e4f5	-0.0069242665
189	0xbb876129	-0.0041314554
190	0xbba6bd7f	-0.0050885077
191	0xbb2b7daa	-0.002616743
192	0xbb508916	-0.003181999
193	0xbc93a803	-0.01802445
194	0x3afe2407	0.0019389399
195	0x3bc624f7	0.006046887
196	0x3cfb820f	0.030701665
197	0x3c04ec21	0.008112938
198	0xbcc0e3af	-0.023546068
199	0xbc6b2699	-0.014352464
200	0xbb8f4db3	-0.004373276
201	0xbc829196	-0.015938561
202	0xbc8ab5b0	-0.016932338
203	0xbe206419	-0.15663184
204	0xbe4b81e2	-0.19873765
205	0xbc764826	-0.01503185
206	0xbc491717	-0.012273571
207	0xbca67ab6	-0.020322185
208	0x3b8d8d83	0.004319848
209	0x3c0bd6f8	0.008535139
210	0x3c2fb7e4	0.010724995
211	0x3ab3dc96	0.0013722356
212	0xbc823214	-0.01589302
213	0x3c81cab2	0.015843723
214	0x3ae4356a	0.0017410938
215	0xbc160165	-0.009155606
216	0xbbf285ca	-0.007401203
217	0xbb1bf333	-0.002379608
218	0xbc887044	-0.016655095
219	0xbc1072e9	-0.008816459
220	0x3b0c37a5	0.0021395471
221	0xbc67d910	-0.014150873
222	0x3cba83b1	0.022767873
223	0x3c77eb20	0.015131742
224	0xbb70255a	-0.0036643357
225	0xbb8d93b7	-0.0043205875
226	0xbdb67914	-0.089098126
227	0x3ae2857d	0.0017282214
228	0x3cce6e16	0.025198977
229	0x3c52435d	0.0128334435
230	0x382bfb73	4.1003757e-05
231	0x3d53ee84	0.051741138
232	0x3d40ea74	0.047098592
233	0xbc09fd5e	-0.008422224
234	0x3c4bd991	0.012442009
235	0xbbcebbff	-0.006309032
236	0x3c0a4317	0.008438847
237	0x3c64a816	0.01395609
238	0xbbe41f3c	-0.0069617312
239	0x3ae1d1c7	0.0017228656
240	0xbc99831e	-0.01873928
241	0x3b7db72c	0.0038713915
242	0x3bfb1639	0.0076625613
243	0xbbd67396	-0.0065445406
244	0x3bfbc055	0.00768284
245	0xbcaa8c38	-0.020818815
246	0xbc082c09	-0.00831128
247	0xbd06a335	-0.03287049
248	0x3c3628a7	0.011118091
249	0x3b53a15f	0.003229223
250	0x3c41ac1d	0.01182082
251	0xbcee9a86	-0.029126417
252	0x3cbfbfb4	0.02340684
253	0x3a2b68d1	0.0006538751
254	0x3c73ff53	0.014892417
255	0x3bc50bf9	0.00601339

model.tcn.0.downsample.bias f4 [25]
0	0xbd5189cd	-0.051156808
1	0x3e12547d	0.14290042
2	0x3d16491b	0.036690813
3	0x3d46ed6d	0.04856627
4	0x3d84a3aa	0.06476529
5	0x3d6c9dca	0.057767667
6	0xbdf94943	-0.12172177
7	0xbc0f1cc7	-0.008734888
8	0xbd0fd1ba	-0.03511212
9	0xbd72aec1	-0.05924869
10	0xbde31cbd	-0.11089466
11	0xbc878724	-0.016543932
12	0x3bd70b56	0.0065626306
13	0xbd55d1c5	-0.052202005
14	0xbcdce4d3	-0.02696458
15	0xbd256a04	-0.040384308
16	0xbaf8a09a	-0.0018968761
17	0xbe1c631c	-0.15272182
18	0x3e2eeda5	0.17082842
19	0xbdc70713	-0.09718146
20	0x3ddee05d	0.10882638
21	0xbe25c91c	-0.16189998
22	0xbb51cd2f	-0.0032013168
23	0xbc9e966e	-0.01935884
24	0xbe1103d2	-0.14161614

model.tcn.1.conv1.bias f4 [25]
0	0xbd1cf95b	-0.03832374
1	0x3bd679de	0.0065452894
2	0xbd43b38a	-0.047778644
3	0x3d9afa12	0.075672284
4	0xbd776460	-0.06039846
5	0xbd75e703	-0.060034763
6	0x3d81ab7b	0.063315354
7	0xbd6a490c	-0.05719857
8	0xbc6bcf17	-0.014392636
9	0xbc701ac8	-0.014654823
10	0x3d1dc987	0.03852227
11	0x3dc03b09	0.0938626
12	0xbd24e160	-0.040253997
13	0xbd5811de	-0.052751414
14	0x3d12e023	0.035858285
15	0x3ce8c839	0.028415786
16	0x3d427f39	0.04748461
17	0x3d56bd7a	0.052426793
18	0xbd45865a	-0.04822383
19	0x3d150631	0.036382858
20	0xbc6da764	-0.014505241
21	0x3d58be4b	0.052915853
22	0x3ca19edb	0.019729069
23	0x3d80590d	0.06266985
24	0xbc8865ab	-0.016650042

model.tcn.1.conv1.weight_g f4 [25, 1, 1]
0	0x3f14644a	0.5796553
1	0x3f1128dc	0.5670297
2	0x3f1b0030	0.6054716
3	0x3f1b0e28	0.60568476
4	0x3f13bde3	0.5771162
5	0x3f0e51e0	0.5559368
6	0x3f240fa6	0.6408638
7	0x3f16a23f	0.5884132
8	0x3f20f084	0.62867
9	0x3f0fcedc	0.5617502
10	0x3f1aee73	0.60520095
11	0x3f222801	0.6334229
12	0x3f1d8058	0.6152396
13	0x3f19143f	0.5979652
14	0x3f200ce5	0.62519675
15	0x3f161969	0.5863252
16	0x3f16e47b	0.58942384
17	0x3f1026d0	0.56309223
18	0x3f17ef83	0.5934984
19	0x3f1dbb2e	0.6161374
20	0x3f196b6e	0.5992955
21	0x3f1acc85	0.6046832
22	0x3f1ccf7f	0.61254114
23	0x3f18fbdd	0.5975931
24	0x3f11d1bd	0.5696066

model.tcn.1.conv1.weight_v f4 [25, 25, 7]
0	0x3d51c86e	0.051216535
1	0x3ccf1ba3	0.025281733
2	0x3bf770b5	0.0075512775
3	0x3cd71814	0.026256599
4	0x3c4ecf0a	0.012622604
5	0xbc997c4b	-0.018736025
6	0xbcbf8aea	-0.02338167
7	0xbcddfe12	-0.02709869
8	0x3cf83a30	0.030301183
9	0xbcd51f0c	-0.02601578
10	0x3ccbd7ec	0.024883233
11	0xbd1eb0d1	-0.038742844
12	0xbd4615eb	-0.048360746
13	0x3da3a1fe	0.07989882
14	0xbd3a6db5	-0.04551478
15	0x3c87730b	0.016534349
16	0x3d3979e5	0.045282263
17	0x39b15f7f	0.0003383122
18	0x3d065954	0.032800034
19	0xbc68c8d7	-0.01420804
20	0xbd5e1810	-0.054222167
21	0xbd06de28	-0.03292671
22	0xbcb15c1a	-0.021650363
23	0xbd354971	-0.044259492
24	0xbd48dbae	-0.049037628
25	0x3c853d35	0.016264537
26	0x3d7aed4d	0.061261464
27	0x3da4ffb5	0.08056585
28	0x3d0ac885	0.033882637
29	0xbd40922c	-0.0470144
30	0xb9caea8c	-0.00038703193
31	0x3d293213	0.04130752
32	0x3da89ecd	0.08233414
33	0xbc7d15b0	-0.015447065
34	0x3d9bc020	0.07605004
35	0x3d339a79	0.04384849
36	0xbc2fc712	-0.010728614
37	0xbd78b11e	-0.060715787
38	0x3d2861b1	0.04110879
39	0x3d440c85	0.047863502
40	0xbd39dbc0	-0.045375586
41	0x3d94a073	0.07257166
42	0xba4564c6	-0.000752997
43	0xbd50a74e	-0.050940804
44	0x3b0e35f6	0.0021699644
45	0x3cdba609	0.02681257
46	0xbc017d5d	-0.007903424
47	0xbd606927	-0.05478778
48	0xbc0de6b2	-0.008660959
49	0x3d0ac009	0.033874545
50	0x3ce4f3a9	0.027948217
51	0x3d11b13c	0.035569414
52	0x3c869c1e	0.016431864
53	0x3d001167	0.031266596
54	0xbc006ad8	-0.007837974
55	0x3dd8edd8	0.1059224
56	0x3c4513b4	0.012028623
57	0x3bdc8d3e	0.0067307046
58	0x3d786382	0.060641773
59	0xbc97835a	-0.01849525
60	0x3d45a183	0.048249733
61	0xbcc49493	-0.023996627
62	0x3cf314c8	0.029672995
63	0xbc3b2633	-0.011422682
64	0x3d21361a	0.039358236
65	0xbcd660b0	-0.026169151
66	0xbb0271d3	-0.001990427
67	0x3d2e1457	0.042499866
68	0xba6d9e24	-0.00090643973
69	0x3d2b2aca	0.041788854
70	0xbcf2d178	-0.029640898
71	0x3d355bbf	0.04427695
72	0x3ce1e7b1	0.0275763
73	0xbcceb4bb	-0.025232663
74	0xbce7d6b0	-0.028300613
75	0x3d703dbd	0.05865263
76	0x3db3389f	0.08751034
77	0x3d71ea02	0.059061058
78	0xbd0dbc9e	-0.034603707
79	0xbcd8b199	-0.026451873
80	0xbd4f27cc	-0.050575063
81	0xbd6b2ea4	-0.057417527
82	0xbb81f650	-0.0039661303
83	0x3d16326c	0.03666918
84	0xbd05bc68	-0.03265038
85	0xbc9d3e0c	-0.019194625
86	0x3b4489bc	0.0029989323
87	0xbc951a82	-0.018201116
88	0xbd7482eb	-0.059695166
89	0x3d5ba3ca	0.053623
90	0x3c049d0c	0.0080940835
91	0x3c66f69c	0.014096882
92	0x3d02a25a	0.03189311
93	0xbd7b715b	-0.0613874
94	0xbc34e0eb	-0.011039953
95	0xbd5ffae6	-0.054682635
96	0x3d82b9e3	0.06383111
97	0xba1d3e29	-0.00059983373
98	0x3d4c9a6c	0.049951956
99	0x3be8f0f6	0.007108803
100	0xbcedb4c8	-0.029016867
101	0x3cc00c12	0.023443256
102	0xbd7cff12	-0.06176669
103	0xbcc1dd79	-0.023665177
104	0x3cc51d40	0.024061799
105	0x3d8ee0e8	0.06976491
106	0xbd6d7d86	-0.057981037
107	0x3cddf3d7	0.027093811
108	0x3d80bd70	0.06286132
109	0xbc92db3e	-0.017926808
110	0xbd037453	-0.032093357
111	0xbc952097	-0.018204017
112	0xbc625351	-0.0138138095
113	0x3d58f4c8	0.052967817
114	0xbd388d37	-0.045056548
115	0x3d6e65c4	0.05820252
116	0xbd793ec1	-0.060850862
117	0x3d7baaa8	0.061442047
118	0x3d0f18c6	0.034935735
119	0xbca66a77	-0.020314438
120	0xbd568a3e	-0.05237793
121	0xbcfcc5cb	-0.030856034
122	0xbd23317b	-0.03984211
123	0xbd66e4cc	-0.05637054
124	0xbc9b4089	-0.018951671
125	0x3d272370	0.04080528
126	0xbd6c22b8	-0.057650298
127	0x3d90ade0	0.07064414
128	0x3ce83250	0.028344303
129	0x3d3186d9	0.04334149
130	0xbb61f95a	-0.00344809
131	0xbca1d64b	-0.019755503
132	0x3d9a8ecc	0.075467676
133	0x3d1cc3f5	0.038272817
134	0x3c789068	0.015171148
135	0x3cda2757	0.026630087
136	0x3d7bd83e	0.06148552
137	0x3c81e017	0.015853925
138	0xbc7eaac0	-0.01554364
139	0x3d25c2f1	0.040469114
140	0xbd217617	-0.03941926
141	0x3d77743a	0.060413577
142	0x3c3dcd7e	0.011584638
143	0x3d0297e6	0.031883143
144	0x3c2d9e72	0.010596858
145	0x3d88165f	0.06644892
146	0x3d5dce43	0.054151785
147	0x3d4fad9a	0.05070267
148	0xbd049806	-0.032371543
149	0x3c437846	0.011930531
150	0x3d341877	0.043968644
151	0x3d331b97	0.043727484
152	0xbcb70269	-0.022340016
153	0x3da8fbaa	0.08251126
154	0xbd7d68fe	-0.061867706
155	0x3d42fec2	0.047606237
156	0xbcef0288	-0.029176012
157	0xbd5c47c2	-0.05377937
158	0x3d212f06	0.039351486
159	0xb972c39f	-0.00023151793
160	0x3bf30f34	0.007417584
161	0x3d257b76	0.040400945
162	0x3d5b445c	0.05353199
163	0x3c0e29d9	0.008676969
164	0xbd642b2b	-0.05570523
165	0xbd1f9d58	-0.038968414
166	0xbd2355be	-0.039876692
167	0x3d6efabc	0.058344588
168	0xbd7c0ed5	-0.061537582
169	0xbd07d4b2	-0.033161826
170	0xbd8ba018	-0.06817645
171	0xbc0fd5a6	-0.008778965
172	0x3cf67f2e	0.03008994
173	0x3c44c9d8	0.012011014
174	0x3d441a20	0.047876477
175	0x3d12fa68	0.035883337
176	0xbd2f64cd	-0.04282074
177	0xbc893f39	-0.01675378
178	0x3d32e190	0.043672144
179	0xbd8429cb	-0.06453284
180	0xbd9bb23a	-0.076023534
181	0xbcfe65da	-0.031054426
182	0xbd74b7be	-0.059745543
183	0xbc38599c	-0.011251833
184	0x3d479b5d	0.04873215
185	0x39ad9052	0.00033104658
186	0x3c91fda7	0.017821146
187	0x3c11baf1	0.008894668
188	0xbd42394d	-0.047417928
189	0xbc78413f	-0.015152275
190	0x3cd57fc6	0.026061904
191	0x3d9adb2d	0.07561336
192	0xbcd0603d	-0.025436515
193	0x3d8534be	0.065042004
194	0xbc78f17a	-0.015194291
195	0xbcfe5e44	-0.031050809
196	0x3c824c3c	0.015905492
197	0x3d412246	0.047151826
198	0x3c12ed5e	0.008967726
199	0x3d0ba59f	0.034093495
200	0xbba6694b	-0.00507847
201	0xbcb23bd3	-0.021757042
202	0x39c9ce4b	0.00038491408
203	0x3d21e467	0.039524462
204	0x3b12eb73	0.002241817
205	0x3d1c942c	0.038227245
206	0x3cdc3514	0.026880778
207	0xbd2ac939	-0.041695807
208	0x3da5b27c	0.08090684
209	0xbd1fd3e6	-0.03902044
210	0x3d14f911	0.03637034
211	0xbd308f62	-0.04310549
212	0x3a80f9f3	0.0009840116
213	0x3d4a9dc1	0.049466852
214	0x3d37f7b4	0.044913962
215	0x3d9d12f2	0.07669629
216	0xbb07c6dd	-0.0020717897
217	0x3ca614b2	0.02027354
218	0x3cc6db72	0.024274562
219	0xbd8b9df9	-0.0681724
220	0xbd507ee2	-0.050902255
221	0x3c229325	0.009922777
222	0xbc8d70cf	-0.017265705
223	0xbd13d1b4	-0.03608866
224	0xbc71f950	-0.014768913
225	0x3cf201c6	0.029541861
226	0x3d4c03b2	0.04980821
227	0x3d4df13e	0.050278895
228	0x3d168dfe	0.036756508
229	0x3c8f5eff	0.017501352
230	0xbd5097e9	-0.050926123
231	0x3d6b8430	0.05749911
232	0xbc5e7243	-0.013577047
233	0x3d7c3599	0.061574552
234	0xbce0b0a5	-0.02742798
235	0x3d4cc01f	0.04998791
236	0x3cd1a62b	0.02559193
237	0x3da8c278	0.08240217
238	0x3c3828f9	0.011240237
239	0x3d080507	0.03320792
240	0xbd82e092	-0.0639049
241	0x3c54d6d1	0.012990669
242	0xbd8ea513	-0.06965079
243	0xbd84e809	-0.0648957
244	0xbd8defb0	-0.069304824
245	0xbd0745b2	-0.03302545
246	0xbc8263f1	-0.015916796
247	0x3ca67621	0.02032
248	0x3be77ff7	0.007064815
249	0xbcc435c7	-0.023951424
250	0x3c36a4fe	0.011147736
251	0xbd8955b0	-0.06705797
252	0x3d88cd87	0.06679826
253	0xbd0a9929	-0.03383747
254	0xbcd75134	-0.026283838
255	0x3aa1139d	0.001228917

model.tcn.1.conv2.bias f4 [25]
0	0xbce8f0ee	-0.028435197
1	0x3cdcf901	0.026974203
2	0xbd000888	-0.031258136
3	0xbd446e25	-0.047956605
4	0x3c2e705c	0.010646906
5	0x3c6e6311	0.014549986
6	0x3da3a236	0.07989924
7	0x3d647237	0.055772986
8	0xbcdd6f00	-0.027030468
9	0xbd4657a6	-0.04842343
10	0x3d2fb95f	0.042901393
11	0x3d55d60b	0.05220608
12	0x3ca9fc3d	0.02075016
13	0x3ce8cd20	0.028418124
14	0xbc195b81	-0.009360195
15	0xbd344675	-0.044012506
16	0x3bde0ef5	0.0067766854
17	0xbd5f54d6	-0.054524265
18	0x3c9bc12e	0.019013014
19	0xbb95ee67	-0.004575539
20	0xbcd27147	-0.02568878
21	0x3ceee048	0.02915968
22	0x3d58d6cf	0.052939232
23	0xbd59a5f8	-0.053136796
24	0x3cc9c249	0.024628775

model.tcn.1.conv2.weight_g f4 [25, 1, 1]
0	0x3f16f9ac	0.5897472
1	0x3f18d5d3	0.5970127
2	0x3f0c347f	0.547676
3	0x3f17a350	0.5923357
4	0x3f14ac13	0.58075064
5	0x3f1a3851	0.6024218
6	0x3f159923	0.58436793
7	0x3f1c7c8a	0.6112753
8	0x3f0ad7c7	0.542355
9	0x3f0a9008	0.54126024
10	0x3f1684bf	0.58796304
11	0x3f15ac54	0.58466077
12	0x3f16bd0a	0.588822
13	0x3f158e72	0.5842048
14	0x3f2352a5	0.6379798
15	0x3f1186e2	0.5684644
16	0x3f1b115b	0.6057336
17	0x3f0d0bcb	0.5509612
18	0x3f142f86	0.57885015
19	0x3f135db2	0.5756484
20	0x3f17f0a8	0.5935159
21	0x3f09e7a3	0.53869075
22	0x3f146409	0.5796514
23	0x3f267f78	0.6503825
24	0x3f19b412	0.6004039
