etc/ckpts/participants/661_test_30_all/sigmoid/TCN/epochs/TCN-chpkt-pecanstreet-participant-id-661_test_30_all_epoch=011.ckpt (torch, 928241 bytes, 201 tensors)

model.tcn.0.conv1.bias f4 [25]
0.03618141 -0.034563962 0.024543535 0.016887145 -0.06364059 -0.043854017 -0.04914886 0.046020333
0.011210289 0.00677215 -0.0474821 -0.06774071 -0.020759508 -0.048432678 -0.063782975 -0.055877164
-0.043373633 -0.06822871 0.030874373 0.031393692 0.037474133 -0.069766656 0.051930968 0.026418842
0.0362904
00000000: f532 143d f192 0dbd 860f c93c e956 8a3c
00000010: ff55 82bd 45a0 33bd 5150 49bd d17f 3c3d
00000020: 5cab 373c e9e8 dd3b 977c 42bd a4bb 8abd
00000030: d80f aabc 5861 46bd a6a0 82bd 74df 64bd
00000040: 8da8 31bd 7ebb 8bbd 41ec fc3c ac96 003d
00000050: 7a7e 193d d2e1 8ebd 91b5 543d 546c d83c
00000060: 3ea5 143d

model.tcn.0.conv1.weight_g f4 [25, 1, 1]
0.5879281 0.5670036 0.5899552 0.6156746 0.57585377 0.56587917 0.6092792 0.5931255
0.5446712 0.57535005 0.5647235 0.5532464 0.5795115 0.59197617 0.53460497 0.5577506
0.5915484 0.55510134 0.59149015 0.5648951 0.6010862 0.5558263 0.5820291 0.5824495
0.5718101
00000000: 7582 163f 2627 113f 4e07 173f da9c 1d3f
00000010: 276b 133f 75dd 103f b9f9 1b3f 13d7 173f
00000020: 926f 0b3f 244a 133f b891 103f 8ea1 0d3f
00000030: de5a 143f c08b 173f dfdb 083f bec8 0e3f
00000040: b76f 173f 1f1b 0e3f e66b 173f f79c 103f
00000050: c9e0 193f a24a 0e3f dcff 143f 691b 153f
00000060: 2662 123f

model.tcn.0.conv1.weight_v f4 [25, 28, 7]
0.015442066 0.05353696 -0.04029917 -0.03382032 -0.00909422 0.036584884 0.017035872 0.057982232
-0.0029457444 0.021550303 -0.017649345 -0.010248154 -0.06266092 -0.042404506 -0.029614016 -0.0009585017
0.022151612 0.035823 -0.04740637 -0.030692786 0.021627951 0.05877943 -0.014274978 0.053187788
-0.0109800445 0.0078099836 0.0643118 -0.065187246 -0.043095462 -0.01695808 -0.02665721 0.061043803
-0.04501422 -0.031961754 -0.04863365 -0.062273838 -0.037698414 0.063397124 0.034353163 0.037052505
0.0066865156 -0.032904662 0.015189253 -0.062067732 -0.047107372 -0.032598883 0.04775177 0.044680614
-0.027483623 -0.004792103 0.024266329 0.041296247 0.014992009 0.00135097 0.023730256 -0.041981485
-0.016729927 -0.08930063 -0.08389079 -0.071289785 -0.00021196369 -0.0051327953 -0.08079974 0.025668425
0.042728283 -0.0041378564 0.0071775853 0.020565415 0.047342047 0.070903435 -0.05074483 -0.022685813
0.030211128 0.060620505 0.06349819 0.06427252 0.016582498 -0.0670888 0.0012346096 -0.04935405
-0.07089604 0.058083918 0.0490572 -0.07525415 0.014079279 -0.01089376 -0.010640541 -0.031338736
0.027945032 -0.04084322 0.02656464 0.032174014 0.046732567 0.023004904 -0.07138156 -0.047933653
0.031533726 0.011449786 -0.054340884 -0.040156145 0.066075966 0.047399726 -0.030422159 -0.017573953
-0.06683407 0.0021865235 -0.049637742 -0.051022664 -0.0006673108 0.013795789 -0.025707478 0.045047365
-0.041068513 0.06379513 0.04848564 -0.0572125 -0.01588276 0.0045035547 0.011632668 0.018387401
0.029183352 0.0063835206 -0.03130731 0.035215788 -0.063739024 -0.03823752 -0.015883666 -0.03226248
-0.022732954 -0.055274606 -0.01302625 0.016554344 -0.04345564 -0.0056247995 0.048067816 -0.008922968
0.00040023559 -0.0073804115 0.012915642 0.04345591 0.062280558 0.040349793 0.06251709 -0.009427437
-0.06764232 -0.037724506 0.04382908 0.0011476577 -0.033878755 -0.053128876 -0.06542438 -0.059065968
-0.013732636 0.039535496 0.034203175 -0.07211102 0.04048767 -0.05878707 -0.018446015 -0.032085355
-0.016824692 -0.0124311345 -0.06155952 -0.05915414 -0.009572939 0.0022725787 -0.030480042 0.02772391
-0.05978381 -0.0022622158 0.06319273 -0.025550736 0.065169714 0.027831856 -0.05950038 0.043633543
-0.009036476 -0.032433126 0.05501985 -0.05789352 0.006498573 -0.015885297 0.050099313 0.019998154
0.034284674 0.025588501 -0.015883712 -0.013638832 -0.056490354 0.039164156 0.056887634 0.049475662
-0.04656748 0.0056381845 -0.046097655 -0.035214458 -0.039675873 0.028746627 -0.040539157 0.00058779947
0.0071582375 0.049828414 -0.04896832 -0.048172493 -0.040740527 0.05264818 -0.025136746 0.06011234
0.026175657 0.009749335 -0.0004718444 -0.013263551 0.012086575 -0.014341816 0.003967631 0.013725606
-0.048402335 -0.03203586 0.06378755 -0.051865604 -0.00016069459 0.07700503 0.03335882 0.010455502
-0.05466325 0.04417903 -0.043899525 -0.0136707425 -0.015036539 -0.001732335 0.009036865 0.06158285
0.01271219 0.06669895 0.046851017 -0.039871756 0.03570303 -0.045352116 -0.02588991 0.026673613
0.029371554 0.058353454 -0.0151164 0.0072177737 0.042934276 -0.07419348 0.03666906 -0.06444291
-0.0046032104 -0.020635745 -0.04486965 -0.0026974273 0.05234413 -0.032086626 -0.054213606 -0.038496908
00000000: b800 7d3c 9249 5b3d be10 25bd 2d87 0abd
00000010: ecff 14bc 08da 153d d08e 8b3c c77e 6d3d
00000020: 640d 41bb 438a b03c 5c95 90bc e0e7 27bc
00000030: 5e54 80bd 59b0 2dbd 1899 f2bc f643 7bba
00000040: 4c77 b53c 23bb 123d 2f2d 42bd 706f fbbc
00000050: 1a2d b13c b3c2 703d 99e1 69bc 70db 593d
00000060: a5e5 33bc e4ea ff3b e8b5 833d e480 85bd
00000070: de84 30bd aceb 8abc 3960 dabc 1109 7a3d
00000080: d560 38bd 54ea 02bd 1434 47bd da12 7fbd
00000090: a769 1abd 5ad6 813d e7b5 0c3d 5ec4 173d
000000a0: 8f1a db3b 0ac7 06bd 58dc 783c bc3a 7ebd
000000b0: a9f3 40bd 6886 05bd 5c97 433d 0503 373d
000000c0: 5625 e1bc 1307 9dbb 2eca c63c 4126 293d
000000d0: 0ba1 753c 0813 b13a f465 c23c c7f4 2bbd
000000e0: 330d 89bc 40e3 b6bd efce abbd 6100 92bd
000000f0: 9242 5eb9 0231 a8bb 567a a5bd 9746 d23c
00000100: da03 2f3d db96 87bb f331 eb3b cd78 a83c
00000110: bce9 413d d235 913d d0d9 4fbd 99d7 b9bc
00000120: 547d f73c 354d 783d 570b 823d 50a1 833d
00000130: 05d8 873c da65 89bd a0d2 a13a 7927 4abd
00000140: f131 91bd 67e9 6d3d 34f0 483d d91e 9abd
00000150: c7ac 663c be7b 32bc aa55 2ebc 0c5d 00bd
00000160: fbec e43c 384b 27bd 179e d93c e6c8 033d
00000170: a66a 3f3d c874 bc3c 7f30 92bd 1456 44bd
00000180: 8229 013d e297 3b3c 8c94 5ebd c57a 24bd
00000190: d652 873d 3726 423d e437 f9bc 40f7 8fbc
000001a0: 4de0 88bd c74b 0f3b f250 4bbd 24fd 50bd
000001b0: 78ee 2eba bc07 623c 7d98 d2bc 9683 383d
000001c0: 7537 28bd 05a7 823d e198 463d a857 6abd
000001d0: 901c 82bc 8e92 933b f296 3e3c 2da1 963c
000001e0: ed11 ef3c da2c d13b 183c 00bd 6e3e 103d
000001f0: 9b89 82bd f29e 1cbd 761e 82bc aa25 04bd
00000200: 763a babc a067 62bd 0d6c 55bc fa9c 873c
00000210: 8bfe 31bd 3d50 b8bb c2e2 443d a431 12bc
00000220: b6d6 d139 61d7 f1bb 219c 533c d3fe 313d
00000230: e619 7f3d d345 253d f608 803d 8975 1abc
00000240: 0f88 8abd 0385 1abd 1f86 333d 016d 963a
00000250: 73c4 0abd aa9d 59bd 38fd 85bd 28ef 71bd
00000260: dafe 60bc f9ef 213d a118 0c3d f1ae 93bd
00000270: 66d6 253d b6ca 70bd 191c 97bc ef6b 03bd
00000280: f0d3 89bc f5ab 4bbc d625 7cbd 9d4b 72bd
00000290: d1d7 1cbc 8bef 143b 48b1 f9bc 411d e33c
000002a0: dedf 74bd af41 14bb 316b 813d c74f d1bc
000002b0: b377 853d a2ff e33c acb6 73bd 16b9 323d
000002c0: ba0d 14bc 99d8 04bd 7f5c 613d c121 6dbd
000002d0: fbf1 d43b e221 82bc f034 4d3d 2bd3 a33c
000002e0: 166e 0c3d fa9e d13c 8f1e 82bc 6875 5fbc
000002f0: 6e62 67bd 986a 203d 0203 693d fea6 4a3d
00000300: 8bbd 3ebd 85c0 b83b e5d0 3cbd 093d 10bd
00000310: 2b83 22bd 0c7e eb3c 630c 26bd 8e16 1a3a
00000320: a68f ea3b e118 4c3d 0193 48bd 8550 45bd
00000330: 8adf 26bd 9ea5 573d 94eb cdbc 5b38 763d
00000340: 556e d63c adbb 1f3c e261 f7b9 5d4f 59bc
00000350: c506 463c f0f9 6abc e702 823b 5de1 603c
00000360: 8741 46bd 0938 03bd 0ca3 823d 0771 54bd
00000370: 2080 28b9 d0b4 9d3d 42a3 083d 8e4d 2b3c
00000380: 92e6 5fbd 12f5 343d fdcf 33bd 40fb 5fbc
00000390: d15b 76bc 840f e3ba 5c0f 143c 4c3e 7c3d
000003a0: ca46 503c 7699 883d dae6 3f3d 9150 23bd
000003b0: 573d 123d 24c3 39bd 1417 d4bc 9f82 da3c
000003c0: 9d9c f03c 0804 6f3d c7aa 77bc 1383 ec3b
000003d0: dadb 2f3d c0f2 97bd 4c32 163d a5fa 83bd
000003e0: 87d6 96bb 4b0c a9bc 3dc9 37bd 52c7 30bb
000003f0: cc66 563d 446d 03bd 160f 5ebd efae 1dbd

model.tcn.0.conv2.bias f4 [25]
-0.021616178 6.445217e-05 -0.012691165 0.054978624 0.03328185 0.02665927 0.004941742 -0.040999368
0.008616322 -0.056625325 0.003796163 0.075755924 -0.008358611 0.073907524 -0.04063051 0.06687328
0.033399157 -0.03180533 -0.07373857 -0.028755132 0.034412425 0.0749412 -0.053802364 -0.02958429
0.03017945
00000000: 6914 b1bc 7f2a 8738 9bee 4fbc 4431 613d
00000010: 8d52 083d 8b64 da3c 56ee a13b f4ee 27bd
00000020: 792b 0d3c f5ef 67bd 0cc9 783b ec25 9b3d
00000030: 8ef2 08bc d45c 973d 2d6c 26bd dcf4 883d
00000040: 8ecd 083d 4e46 02bd 3f04 97bd e28f ebbc
00000050: 0bf4 0c3d c67a 993d de5f 5cbd c15a f2bc
00000060: e53a f73c

model.tcn.0.conv2.weight_g f4 [25, 1, 1]
0.5921206 0.5915006 0.55174583 0.6034719 0.56277496 0.5438301 0.604928 0.60839766
0.5864329 0.6054969 0.56930476 0.583286 0.53786093 0.5780406 0.6147697 0.57801
0.5769754 0.5761939 0.5785246 0.5805357 0.5905151 0.57168853 0.62242985 0.5734163
0.5604808
00000000: 3795 173f 956c 173f 373f 0d3f 227d 1a3f
00000010: 0512 103f 7338 0b3f 90dc 1a3f f3bf 1b3f
00000020: 7720 163f d801 1b3f f5bd 113f 3b52 153f
00000030: 41b1 093f 78fa 133f 8c61 1d3f 77f8 133f
00000040: a9b4 133f 7281 133f 301a 143f fd9d 143f
00000050: ff2b 173f 2e5a 123f 9057 1f3f 69cb 123f
00000060: ab7b 0f3f

model.tcn.0.conv2.weight_v f4 [25, 25, 7]
-0.007893674 0.04698727 -0.060257908 0.036963418 0.071396984 0.04377808 -0.058474265 -0.0087609375
0.0022822316 0.039179925 -0.015641702 0.015151017 -0.013655262 -6.797566e-05 0.0011402415 -0.03947435
-0.048216213 0.063210614 0.06433104 0.0005079545 0.066490814 0.061459433 -0.0369678 -0.019719128
-0.040995557 0.03169383 0.011480277 -4.4609456e-05 0.051763806 -0.019774128 -0.031022234 -0.043463703
-0.028551841 0.06674444 -0.026593722 -0.017779114 0.035254817 -0.054080598 -0.042545304 0.05618276
-0.026115112 -0.03632404 -0.0069570392 -0.007802035 0.014421955 0.027275065 -0.052016634 0.06568756
-0.06501833 0.035883933 -0.009557516 -0.019955534 0.08084576 -0.059905026 0.01766168 0.060390614
0.063596785 -0.049842414 0.013670897 0.070556834 -0.060752474 0.020499505 -0.035378505 0.023798006
-0.05449118 0.048150193 -0.003599553 0.056453485 0.011913256 0.0028786492 -0.0085616205 -0.058166604
-0.02180797 0.011826572 -0.047088914 0.07292607 -0.037571583 -0.022724263 -0.008408736 -0.052029032
-0.0063120713 -0.028609669 -0.053897873 -0.0058512525 0.057992004 0.015442194 0.054435987 0.0010583414
-0.020281687 0.05369892 -0.032989413 -0.055817448 0.02931273 0.050091967 -0.030913899 0.03996047
-0.012239146 0.0055656326 -0.0063768364 -0.0058576446 -0.05080492 0.013168495 -0.009137004 0.04825561
0.008456057 -0.04914049 -0.044884562 -0.026861459 0.043533 -0.03567378 -0.021373453 0.023996795
-0.0393181 -0.024119873 0.06598108 -0.026874918 -0.012492087 0.054231256 0.023053015 0.050358783
-0.0670965 0.030557299 -0.0154793495 -0.05039192 -0.035172366 -0.07395821 0.055677 -0.009221604
-0.0676665 0.06854023 0.053350996 0.03623663 0.07830133 0.076989815 0.07948329 0.07671902
0.07074369 0.029486785 0.0037175997 0.013274142 -0.020197516 0.045924112 0.013169346 0.028872568
-0.036708064 -0.016794024 0.06702416 -0.003704463 0.011002915 -0.069403 -0.03888513 -0.012997476
-0.01844364 0.025500325 -0.011931873 0.07307747 -0.003105816 0.04083777 -0.041175853 0.024588076
-0.0610564 -0.05115014 -0.03435971 0.03598468 0.020855302 0.022692734 0.0072685475 0.08002994
0.08031879 0.04025098 0.067804776 0.005395972 -0.01830089 0.023509685 0.0576929 -0.0005349084
-0.04604271 0.036011204 -0.0074948813 -0.024162296 0.059066605 0.009712394 -0.029295247 -0.031207798
0.06689385 0.047046013 -0.039999917 0.00980105 0.00880214 0.03657485 -0.060595285 0.0029817445
0.026101518 0.038895383 0.009385394 -0.034439094 -0.061597977 0.045870136 0.07222735 -0.012705639
-0.05605844 0.029228238 -0.041520625 -0.04092514 0.01758293 -0.0021070812 -0.00040158734 0.05984668
-0.007853822 0.040431827 -0.022581294 0.053904425 0.022071052 0.0644507 0.024960503 -0.026397603
0.031120475 0.062046703 0.01642555 0.035366025 -0.04646027 0.041305106 -0.06386565 0.06575072
0.038983073 0.013653812 -0.060109884 0.07658411 0.056741554 0.07831033 0.039433382 0.01999532
-0.017115101 -0.027189497 0.023038955 0.0198994 -0.0033795862 0.008417975 0.034963552 -0.05994824
-0.05371867 -0.007893121 0.060335048 0.046707164 -0.0582807 -0.014021087 0.00029475914 0.031811167
0.06714986 0.010149493 -0.048112266 0.013557014 -0.026490303 -0.04079165 0.01846508 -0.013895186
00000000: 7854 01bc b975 403d ffd0 76bd f466 173d
00000010: 9538 923d a550 333d b682 6fbd 098a 0fbc
00000020: 7e91 153b 217b 203d 0723 80bc f93b 783c
00000030: 52ba 5fbc 288e 8eb8 2874 953a dbaf 21bd
00000040: 5d7e 45bd 9174 813d febf 833d 4028 053a
00000050: 562c 883d e3bc 7b3d 8c6b 17bd 028a a1bc
00000060: f5ea 27bd 64d1 013d c617 3c3c 0a1b 3bb8
00000070: 4906 543d 5afd a1bc 5722 febc ff06 32bd
00000080: 8de5 e9bc 4fb1 883d 14db d9bc 81a5 91bc
00000090: 5b67 103d 9e83 5dbd fc43 2ebd e51f 663d
000000a0: 5cef d5bc 84c8 14bd e0f7 e3bb 37a8 ffbb
000000b0: 104a 6c3c f56f df3c 650f 55bd 3387 863d
000000c0: 5528 85bd 08fb 123d 2197 1cbc ca79 a3bc
000000d0: 7692 a53d f95e 75bd 3aaf 903c 265c 773d
000000e0: 083f 823d 8f27 4cbd e6fb 5f3c 1a80 903d
000000f0: 96d7 78bd 94ee a73c 0de9 10bd 09f4 c23c
00000100: 2532 5fbd 2339 453d 7ae6 6bbb c53b 673d
00000110: d12f 433c b8a7 3c3b 0a46 0cbc 1b40 6ebd
00000120: a1a6 b2bc 3dc4 413c 4ee0 40bd 435a 953d
00000130: a9e4 19bd 3c28 babc ccc4 09bc 651c 55bd
00000140: 7ed5 cebb d35e eabc 04c4 5cbd ddbb bfbb
00000150: 0689 6d3d 4201 7d3c 45f8 5e3d 0bb8 8a3a
00000160: c825 a6bc 66f3 5b3d e81f 07bd d6a0 64bd
00000170: 4021 f03c 3c2d 4d3d 253f fdbc 97ad 233d
00000180: b386 48bc e95f b63b c8f4 d0bb 7cf1 bfbb
00000190: d218 50bd acc0 573c 5fb3 15bc ada7 453d
000001a0: 468b 0a3c 8a47 49bd e0d8 37bd 900c dcbc
000001b0: a94f 323d ab1e 12bd 6117 afbc ed94 c43c
000001c0: 040c 21bd 0a97 c5bc 1721 873d ca28 dcbc
000001d0: 9cab 4cbc 9821 5e3d add9 bc3c 0345 4e3d
000001e0: e469 89bd 4d53 fa3c 199d 7dbc c267 4ebd
000001f0: e610 10bd 6777 97bd 910d 643d 3616 17bc
00000200: bc94 8abd d25e 8c3d 9386 5a3d dc6c 143d
00000210: 735c a03d d6ac 9d3d 23c8 a23d dd1e 9d3d
00000220: 11e2 903d 458e f13c f9a2 733b c97b 593c
00000230: 4375 a5bc ec1a 3c3d 3ec4 573c 2a86 ec3c
00000240: 325b 16bd 9f93 89bc f643 893d 93c6 72bb
00000250: 9245 343c 2923 8ebd 0446 1fbd 5ef3 54bc
00000260: 1e17 97bc 0fe6 d03c e77d 43bc a4a9 953d
00000270: f28a 4bbb 8145 273d 03a8 28bd ef6c c93c
00000280: 4716 7abd cf82 51bd c4bc 0cbd ac64 133d
00000290: bdd8 aa3c 1de6 b93c ff2c ee3b bde6 a33d
000002a0: 2e7e a43d 36de 243d 3bdd 8a3d b2d0 b03b
000002b0: c0eb 95bc 6297 c03c 644f 6c3d 1839 0cba
000002c0: 4897 3cbd 7c80 133d 9f97 f5bb 02f0 c5bc
000002d0: d3ef 713d bc20 1f3c 96fc efbc 7fa7 ffbc
000002e0: a5ff 883d 52b3 403d f4d6 23bd 9594 203c
000002f0: da36 103c 83cf 153d c332 78bd 5f69 433b
00000300: dad2 d53c c450 1f3d 32c5 193c 0210 0dbd
00000310: 294e 7cbd 53e2 3b3d efeb 933d 502b 50bc
00000320: 899d 65bd 0f70 ef3c 8811 2abd 1fa1 27bd
00000330: 140a 903c f516 0abb 248c d2b9 cb21 753d
00000340: 51ad 00bc d89b 253d 68fc b8bc e3ca 5c3d
00000350: 5ace b43c bbfe 833d f879 cc3c c93f d8bc
00000360: 5ef0 fe3c af24 7e3d e08e 863c f7db 103d
00000370: 204d 3ebd 8b2f 293d fecb 82bd 50a8 863d
00000380: b7ac 1f3d 3db4 5f3c c835 76bd 21d8 9c3d
00000390: d569 683d 2b61 a03d e684 213d 3acd a33c
000003a0: f834 8cbc 82bc debc 31bc bc3c 1104 a33c
000003b0: 0c7c 5dbb 8ceb 093c f135 0f3d 498c 75bd
000003c0: 1c08 5cbd 2652 01bc e221 773d 0350 3f3d
000003d0: beb7 6ebd b4b8 65bc e789 9a39 6d4c 023d
000003e0: de85 893d 0f4a 263c 5e11 45bd 3d1e 5e3c
000003f0: 3102 d9bc 2515 27bd 1444 973c a2a8 63bc

model.tcn.0.net.0.bias f4 [25]
0.03618141 -0.034563962 0.024543535 0.016887145 -0.06364059 -0.043854017 -0.04914886 0.046020333
0.011210289 0.00677215 -0.0474821 -0.06774071 -0.020759508 -0.048432678 -0.063782975 -0.055877164
-0.043373633 -0.06822871 0.030874373 0.031393692 0.037474133 -0.069766656 0.051930968 0.026418842
0.0362904
00000000: f532 143d f192 0dbd 860f c93c e956 8a3c
00000010: ff55 82bd 45a0 33bd 5150 49bd d17f 3c3d
00000020: 5cab 373c e9e8 dd3b 977c 42bd a4bb 8abd
00000030: d80f aabc 5861 46bd a6a0 82bd 74df 64bd
00000040: 8da8 31bd 7ebb 8bbd 41ec fc3c ac96 003d
00000050: 7a7e 193d d2e1 8ebd 91b5 543d 546c d83c
00000060: 3ea5 143d

model.tcn.0.net.0.weight_g f4 [25, 1, 1]
0.5879281 0.5670036 0.5899552 0.6156746 0.57585377 0.56587917 0.6092792 0.5931255
0.5446712 0.57535005 0.5647235 0.5532464 0.5795115 0.59197617 0.53460497 0.5577506
0.5915484 0.55510134 0.59149015 0.5648951 0.6010862 0.5558263 0.5820291 0.5824495
0.5718101
00000000: 7582 163f 2627 113f 4e07 173f da9c 1d3f
00000010: 276b 133f 75dd 103f b9f9 1b3f 13d7 173f
00000020: 926f 0b3f 244a 133f b891 103f 8ea1 0d3f
00000030: de5a 143f c08b 173f dfdb 083f bec8 0e3f
00000040: b76f 173f 1f1b 0e3f e66b 173f f79c 103f
00000050: c9e0 193f a24a 0e3f dcff 143f 691b 153f
00000060: 2662 123f

model.tcn.0.net.0.weight_v f4 [25, 28, 7]
0.015442066 0.05353696 -0.04029917 -0.03382032 -0.00909422 0.036584884 0.017035872 0.057982232
-0.0029457444 0.021550303 -0.017649345 -0.010248154 -0.06266092 -0.042404506 -0.029614016 -0.0009585017
0.022151612 0.035823 -0.04740637 -0.030692786 0.021627951 0.05877943 -0.014274978 0.053187788
-0.0109800445 0.0078099836 0.0643118 -0.065187246 -0.043095462 -0.01695808 -0.02665721 0.061043803
-0.04501422 -0.031961754 -0.04863365 -0.062273838 -0.037698414 0.063397124 0.034353163 0.037052505
0.0066865156 -0.032904662 0.015189253 -0.062067732 -0.047107372 -0.032598883 0.04775177 0.044680614
-0.027483623 -0.004792103 0.024266329 0.041296247 0.014992009 0.00135097 0.023730256 -0.041981485
-0.016729927 -0.08930063 -0.08389079 -0.071289785 -0.00021196369 -0.0051327953 -0.08079974 0.025668425
0.042728283 -0.0041378564 0.0071775853 0.020565415 0.047342047 0.070903435 -0.05074483 -0.022685813
0.030211128 0.060620505 0.06349819 0.06427252 0.016582498 -0.0670888 0.0012346096 -0.04935405
-0.07089604 0.058083918 0.0490572 -0.07525415 0.014079279 -0.01089376 -0.010640541 -0.031338736
0.027945032 -0.04084322 0.02656464 0.032174014 0.046732567 0.023004904 -0.07138156 -0.047933653
0.031533726 0.011449786 -0.054340884 -0.040156145 0.066075966 0.047399726 -0.030422159 -0.017573953
-0.06683407 0.0021865235 -0.049637742 -0.051022664 -0.0006673108 0.013795789 -0.025707478 0.045047365
-0.041068513 0.06379513 0.04848564 -0.0572125 -0.01588276 0.0045035547 0.011632668 0.018387401
0.029183352 0.0063835206 -0.03130731 0.035215788 -0.063739024 -0.03823752 -0.015883666 -0.03226248
-0.022732954 -0.055274606 -0.01302625 0.016554344 -0.04345564 -0.0056247995 0.048067816 -0.008922968
0.00040023559 -0.0073804115 0.012915642 0.04345591 0.062280558 0.040349793 0.06251709 -0.009427437
-0.06764232 -0.037724506 0.04382908 0.0011476577 -0.033878755 -0.053128876 -0.06542438 -0.059065968
-0.013732636 0.039535496 0.034203175 -0.07211102 0.04048767 -0.05878707 -0.018446015 -0.032085355
-0.016824692 -0.0124311345 -0.06155952 -0.05915414 -0.009572939 0.0022725787 -0.030480042 0.02772391
-0.05978381 -0.0022622158 0.06319273 -0.025550736 0.065169714 0.027831856 -0.05950038 0.043633543
-0.009036476 -0.032433126 0.05501985 -0.05789352 0.006498573 -0.015885297 0.050099313 0.019998154
0.034284674 0.025588501 -0.015883712 -0.013638832 -0.056490354 0.039164156 0.056887634 0.049475662
-0.04656748 0.0056381845 -0.046097655 -0.035214458 -0.039675873 0.028746627 -0.040539157 0.00058779947
0.0071582375 0.049828414 -0.04896832 -0.048172493 -0.040740527 0.05264818 -0.025136746 0.06011234
0.026175657 0.009749335 -0.0004718444 -0.013263551 0.012086575 -0.014341816 0.003967631 0.013725606
-0.048402335 -0.03203586 0.06378755 -0.051865604 -0.00016069459 0.07700503 0.03335882 0.010455502
-0.05466325 0.04417903 -0.043899525 -0.0136707425 -0.015036539 -0.001732335 0.009036865 0.06158285
0.01271219 0.06669895 0.046851017 -0.039871756 0.03570303 -0.045352116 -0.02588991 0.026673613
0.029371554 0.058353454 -0.0151164 0.0072177737 0.042934276 -0.07419348 0.03666906 -0.06444291
-0.0046032104 -0.020635745 -0.04486965 -0.0026974273 0.05234413 -0.032086626 -0.054213606 -0.038496908
00000000: b800 7d3c 9249 5b3d be10 25bd 2d87 0abd
00000010: ecff 14bc 08da 153d d08e 8b3c c77e 6d3d
00000020: 640d 41bb 438a b03c 5c95 90bc e0e7 27bc
00000030: 5e54 80bd 59b0 2dbd 1899 f2bc f643 7bba
00000040: 4c77 b53c 23bb 123d 2f2d 42bd 706f fbbc
00000050: 1a2d b13c b3c2 703d 99e1 69bc 70db 593d
00000060: a5e5 33bc e4ea ff3b e8b5 833d e480 85bd
00000070: de84 30bd aceb 8abc 3960 dabc 1109 7a3d
00000080: d560 38bd 54ea 02bd 1434 47bd da12 7fbd
00000090: a769 1abd 5ad6 813d e7b5 0c3d 5ec4 173d
000000a0: 8f1a db3b 0ac7 06bd 58dc 783c bc3a 7ebd
000000b0: a9f3 40bd 6886 05bd 5c97 433d 0503 373d
000000c0: 5625 e1bc 1307 9dbb 2eca c63c 4126 293d
000000d0: 0ba1 753c 0813 b13a f465 c23c c7f4 2bbd
000000e0: 330d 89bc 40e3 b6bd efce abbd 6100 92bd
000000f0: 9242 5eb9 0231 a8bb 567a a5bd 9746 d23c
00000100: da03 2f3d db96 87bb f331 eb3b cd78 a83c
00000110: bce9 413d d235 913d d0d9 4fbd 99d7 b9bc
00000120: 547d f73c 354d 783d 570b 823d 50a1 833d
00000130: 05d8 873c da65 89bd a0d2 a13a 7927 4abd
00000140: f131 91bd 67e9 6d3d 34f0 483d d91e 9abd
00000150: c7ac 663c be7b 32bc aa55 2ebc 0c5d 00bd
00000160: fbec e43c 384b 27bd 179e d93c e6c8 033d
00000170: a66a 3f3d c874 bc3c 7f30 92bd 1456 44bd
00000180: 8229 013d e297 3b3c 8c94 5ebd c57a 24bd
00000190: d652 873d 3726 423d e437 f9bc 40f7 8fbc
000001a0: 4de0 88bd c74b 0f3b f250 4bbd 24fd 50bd
000001b0: 78ee 2eba bc07 623c 7d98 d2bc 9683 383d
000001c0: 7537 28bd 05a7 823d e198 463d a857 6abd
000001d0: 901c 82bc 8e92 933b f296 3e3c 2da1 963c
000001e0: ed11 ef3c da2c d13b 183c 00bd 6e3e 103d
000001f0: 9b89 82bd f29e 1cbd 761e 82bc aa25 04bd
00000200: 763a babc a067 62bd 0d6c 55bc fa9c 873c
00000210: 8bfe 31bd 3d50 b8bb c2e2 443d a431 12bc
00000220: b6d6 d139 61d7 f1bb 219c 533c d3fe 313d
00000230: e619 7f3d d345 253d f608 803d 8975 1abc
00000240: 0f88 8abd 0385 1abd 1f86 333d 016d 963a
00000250: 73c4 0abd aa9d 59bd 38fd 85bd 28ef 71bd
00000260: dafe 60bc f9ef 213d a118 0c3d f1ae 93bd
00000270: 66d6 253d b6ca 70bd 191c 97bc ef6b 03bd
00000280: f0d3 89bc f5ab 4bbc d625 7cbd 9d4b 72bd
00000290: d1d7 1cbc 8bef 143b 48b1 f9bc 411d e33c
000002a0: dedf 74bd af41 14bb 316b 813d c74f d1bc
000002b0: b377 853d a2ff e33c acb6 73bd 16b9 323d
000002c0: ba0d 14bc 99d8 04bd 7f5c 613d c121 6dbd
000002d0: fbf1 d43b e221 82bc f034 4d3d 2bd3 a33c
000002e0: 166e 0c3d fa9e d13c 8f1e 82bc 6875 5fbc
000002f0: 6e62 67bd 986a 203d 0203 693d fea6 4a3d
00000300: 8bbd 3ebd 85c0 b83b e5d0 3cbd 093d 10bd
00000310: 2b83 22bd 0c7e eb3c 630c 26bd 8e16 1a3a
00000320: a68f ea3b e118 4c3d 0193 48bd 8550 45bd
00000330: 8adf 26bd 9ea5 573d 94eb cdbc 5b38 763d
00000340: 556e d63c adbb 1f3c e261 f7b9 5d4f 59bc
00000350: c506 463c f0f9 6abc e702 823b 5de1 603c
00000360: 8741 46bd 0938 03bd 0ca3 823d 0771 54bd
00000370: 2080 28b9 d0b4 9d3d 42a3 083d 8e4d 2b3c
00000380: 92e6 5fbd 12f5 343d fdcf 33bd 40fb 5fbc
00000390: d15b 76bc 840f e3ba 5c0f 143c 4c3e 7c3d
000003a0: ca46 503c 7699 883d dae6 3f3d 9150 23bd
000003b0: 573d 123d 24c3 39bd 1417 d4bc 9f82 da3c
000003c0: 9d9c f03c 0804 6f3d c7aa 77bc 1383 ec3b
000003d0: dadb 2f3d c0f2 97bd 4c32 163d a5fa 83bd
000003e0: 87d6 96bb 4b0c a9bc 3dc9 37bd 52c7 30bb
000003f0: cc66 563d 446d 03bd 160f 5ebd efae 1dbd

model.tcn.0.net.4.bias f4 [25]
-0.021616178 6.445217e-05 -0.012691165 0.054978624 0.03328185 0.02665927 0.004941742 -0.040999368
0.008616322 -0.056625325 0.003796163 0.075755924 -0.008358611 0.073907524 -0.04063051 0.06687328
0.033399157 -0.03180533 -0.07373857 -0.028755132 0.034412425 0.0749412 -0.053802364 -0.02958429
0.03017945
00000000: 6914 b1bc 7f2a 8738 9bee 4fbc 4431 613d
00000010: 8d52 083d 8b64 da3c 56ee a13b f4ee 27bd
00000020: 792b 0d3c f5ef 67bd 0cc9 783b ec25 9b3d
00000030: 8ef2 08bc d45c 973d 2d6c 26bd dcf4 883d
00000040: 8ecd 083d 4e46 02bd 3f04 97bd e28f ebbc
00000050: 0bf4 0c3d c67a 993d de5f 5cbd c15a f2bc
00000060: e53a f73c

model.tcn.0.net.4.weight_g f4 [25, 1, 1]
0.5921206 0.5915006 0.55174583 0.6034719 0.56277496 0.5438301 0.604928 0.60839766
0.5864329 0.6054969 0.56930476 0.583286 0.53786093 0.5780406 0.6147697 0.57801
0.5769754 0.5761939 0.5785246 0.5805357 0.5905151 0.57168853 0.62242985 0.5734163
0.5604808
00000000: 3795 173f 956c 173f 373f 0d3f 227d 1a3f
00000010: 0512 103f 7338 0b3f 90dc 1a3f f3bf 1b3f
00000020: 7720 163f d801 1b3f f5bd 113f 3b52 153f
00000030: 41b1 093f 78fa 133f 8c61 1d3f 77f8 133f
00000040: a9b4 133f 7281 133f 301a 143f fd9d 143f
00000050: ff2b 173f 2e5a 123f 9057 1f3f 69cb 123f
00000060: ab7b 0f3f

model.tcn.0.net.4.weight_v f4 [25, 25, 7]
-0.007893674 0.04698727 -0.060257908 0.036963418 0.071396984 0.04377808 -0.058474265 -0.0087609375
0.0022822316 0.039179925 -0.015641702 0.015151017 -0.013655262 -6.797566e-05 0.0011402415 -0.03947435
-0.048216213 0.063210614 0.06433104 0.0005079545 0.066490814 0.061459433 -0.0369678 -0.019719128
-0.040995557 0.03169383 0.011480277 -4.4609456e-05 0.051763806 -0.019774128 -0.031022234 -0.043463703
-0.028551841 0.06674444 -0.026593722 -0.017779114 0.035254817 -0.054080598 -0.042545304 0.05618276
-0.026115112 -0.03632404 -0.0069570392 -0.007802035 0.014421955 0.027275065 -0.052016634 0.06568756
-0.06501833 0.035883933 -0.009557516 -0.019955534 0.08084576 -0.059905026 0.01766168 0.060390614
0.063596785 -0.049842414 0.013670897 0.070556834 -0.060752474 0.020499505 -0.035378505 0.023798006
-0.05449118 0.048150193 -0.003599553 0.056453485 0.011913256 0.0028786492 -0.0085616205 -0.058166604
-0.02180797 0.011826572 -0.047088914 0.07292607 -0.037571583 -0.022724263 -0.008408736 -0.052029032
-0.0063120713 -0.028609669 -0.053897873 -0.0058512525 0.057992004 0.015442194 0.054435987 0.0010583414
-0.020281687 0.05369892 -0.032989413 -0.055817448 0.02931273 0.050091967 -0.030913899 0.03996047
-0.012239146 0.0055656326 -0.0063768364 -0.0058576446 -0.05080492 0.013168495 -0.009137004 0.04825561
0.008456057 -0.04914049 -0.044884562 -0.026861459 0.043533 -0.03567378 -0.021373453 0.023996795
-0.0393181 -0.024119873 0.06598108 -0.026874918 -0.012492087 0.054231256 0.023053015 0.050358783
-0.0670965 0.030557299 -0.0154793495 -0.05039192 -0.035172366 -0.07395821 0.055677 -0.009221604
-0.0676665 0.06854023 0.053350996 0.03623663 0.07830133 0.076989815 0.07948329 0.07671902
0.07074369 0.029486785 0.0037175997 0.013274142 -0.020197516 0.045924112 0.013169346 0.028872568
-0.036708064 -0.016794024 0.06702416 -0.003704463 0.011002915 -0.069403 -0.03888513 -0.012997476
-0.01844364 0.025500325 -0.011931873 0.07307747 -0.003105816 0.04083777 -0.041175853 0.024588076
-0.0610564 -0.05115014 -0.03435971 0.03598468 0.020855302 0.022692734 0.0072685475 0.08002994
0.08031879 0.04025098 0.067804776 0.005395972 -0.01830089 0.023509685 0.0576929 -0.0005349084
-0.04604271 0.036011204 -0.0074948813 -0.024162296 0.059066605 0.009712394 -0.029295247 -0.031207798
0.06689385 0.047046013 -0.039999917 0.00980105 0.00880214 0.03657485 -0.060595285 0.0029817445
0.026101518 0.038895383 0.009385394 -0.034439094 -0.061597977 0.045870136 0.07222735 -0.012705639
-0.05605844 0.029228238 -0.041520625 -0.04092514 0.01758293 -0.0021070812 -0.00040158734 0.05984668
-0.007853822 0.040431827 -0.022581294 0.053904425 0.022071052 0.0644507 0.024960503 -0.026397603
0.031120475 0.062046703 0.01642555 0.035366025 -0.04646027 0.041305106 -0.06386565 0.06575072
0.038983073 0.013653812 -0.060109884 0.07658411 0.056741554 0.07831033 0.039433382 0.01999532
-0.017115101 -0.027189497 0.023038955 0.0198994 -0.0033795862 0.008417975 0.034963552 -0.05994824
-0.05371867 -0.007893121 0.060335048 0.046707164 -0.0582807 -0.014021087 0.00029475914 0.031811167
0.06714986 0.010149493 -0.048112266 0.013557014 -0.026490303 -0.04079165 0.01846508 -0.013895186
00000000: 7854 01bc b975 403d ffd0 76bd f466 173d
00000010: 9538 923d a550 333d b682 6fbd 098a 0fbc
00000020: 7e91 153b 217b 203d 0723 80bc f93b 783c
00000030: 52ba 5fbc 288e 8eb8 2874 953a dbaf 21bd
00000040: 5d7e 45bd 9174 813d febf 833d 4028 053a
00000050: 562c 883d e3bc 7b3d 8c6b 17bd 028a a1bc
00000060: f5ea 27bd 64d1 013d c617 3c3c 0a1b 3bb8
00000070: 4906 543d 5afd a1bc 5722 febc ff06 32bd
00000080: 8de5 e9bc 4fb1 883d 14db d9bc 81a5 91bc
00000090: 5b67 103d 9e83 5dbd fc43 2ebd e51f 663d
000000a0: 5cef d5bc 84c8 14bd e0f7 e3bb 37a8 ffbb
000000b0: 104a 6c3c f56f df3c 650f 55bd 3387 863d
000000c0: 5528 85bd 08fb 123d 2197 1cbc ca79 a3bc
000000d0: 7692 a53d f95e 75bd 3aaf 903c 265c 773d
000000e0: 083f 823d 8f27 4cbd e6fb 5f3c 1a80 903d
000000f0: 96d7 78bd 94ee a73c 0de9 10bd 09f4 c23c
00000100: 2532 5fbd 2339 453d 7ae6 6bbb c53b 673d
00000110: d12f 433c b8a7 3c3b 0a46 0cbc 1b40 6ebd
00000120: a1a6 b2bc 3dc4 413c 4ee0 40bd 435a 953d
00000130: a9e4 19bd 3c28 babc ccc4 09bc 651c 55bd
00000140: 7ed5 cebb d35e eabc 04c4 5cbd ddbb bfbb
00000150: 0689 6d3d 4201 7d3c 45f8 5e3d 0bb8 8a3a
00000160: c825 a6bc 66f3 5b3d e81f 07bd d6a0 64bd
00000170: 4021 f03c 3c2d 4d3d 253f fdbc 97ad 233d
00000180: b386 48bc e95f b63b c8f4 d0bb 7cf1 bfbb
00000190: d218 50bd acc0 573c 5fb3 15bc ada7 453d
000001a0: 468b 0a3c 8a47 49bd e0d8 37bd 900c dcbc
000001b0: a94f 323d ab1e 12bd 6117 afbc ed94 c43c
000001c0: 040c 21bd 0a97 c5bc 1721 873d ca28 dcbc
000001d0: 9cab 4cbc 9821 5e3d add9 bc3c 0345 4e3d
000001e0: e469 89bd 4d53 fa3c 199d 7dbc c267 4ebd
000001f0: e610 10bd 6777 97bd 910d 643d 3616 17bc
00000200: bc94 8abd d25e 8c3d 9386 5a3d dc6c 143d
00000210: 735c a03d d6ac 9d3d 23c8 a23d dd1e 9d3d
00000220: 11e2 903d 458e f13c f9a2 733b c97b 593c
00000230: 4375 a5bc ec1a 3c3d 3ec4 573c 2a86 ec3c
00000240: 325b 16bd 9f93 89bc f643 893d 93c6 72bb
00000250: 9245 343c 2923 8ebd 0446 1fbd 5ef3 54bc
00000260: 1e17 97bc 0fe6 d03c e77d 43bc a4a9 953d
00000270: f28a 4bbb 8145 273d 03a8 28bd ef6c c93c
00000280: 4716 7abd cf82 51bd c4bc 0cbd ac64 133d
00000290: bdd8 aa3c 1de6 b93c ff2c ee3b bde6 a33d
000002a0: 2e7e a43d 36de 243d 3bdd 8a3d b2d0 b03b
000002b0: c0eb 95bc 6297 c03c 644f 6c3d 1839 0cba
000002c0: 4897 3cbd 7c80 133d 9f97 f5bb 02f0 c5bc
000002d0: d3ef 713d bc20 1f3c 96fc efbc 7fa7 ffbc
000002e0: a5ff 883d 52b3 403d f4d6 23bd 9594 203c
000002f0: da36 103c 83cf 153d c332 78bd 5f69 433b
00000300: dad2 d53c c450 1f3d 32c5 193c 0210 0dbd
00000310: 294e 7cbd 53e2 3b3d efeb 933d 502b 50bc
00000320: 899d 65bd 0f70 ef3c 8811 2abd 1fa1 27bd
00000330: 140a 903c f516 0abb 248c d2b9 cb21 753d
00000340: 51ad 00bc d89b 253d 68fc b8bc e3ca 5c3d
00000350: 5ace b43c bbfe 833d f879 cc3c c93f d8bc
00000360: 5ef0 fe3c af24 7e3d e08e 863c f7db 103d
00000370: 204d 3ebd 8b2f 293d fecb 82bd 50a8 863d
00000380: b7ac 1f3d 3db4 5f3c c835 76bd 21d8 9c3d
00000390: d569 683d 2b61 a03d e684 213d 3acd a33c
000003a0: f834 8cbc 82bc debc 31bc bc3c 1104 a33c
000003b0: 0c7c 5dbb 8ceb 093c f135 0f3d 498c 75bd
000003c0: 1c08 5cbd 2652 01bc e221 773d 0350 3f3d
000003d0: beb7 6ebd b4b8 65bc e789 9a39 6d4c 023d
000003e0: de85 893d 0f4a 263c 5e11 45bd 3d1e 5e3c
000003f0: 3102 d9bc 2515 27bd 1444 973c a2a8 63bc

model.tcn.0.downsample.weight f4 [25, 28, 1]
0.0074055973 -0.0017781098 -0.023462985 0.0002254327 -0.0009299551 -0.008830082 -0.0053074323 -0.0068176575
-0.049065996 0.0023307723 -0.014474453 0.016015837 0.001851537 -0.0051188283 0.015553298 0.013816734
-0.0017908426 0.011384092 0.014426826 0.008922482 -0.007209777 -0.014742974 -0.012797889 -0.009702112
0.0008111959 -0.00021412665 0.019789174 0.0082017975 0.021003326 -0.0031073675 0.01967363 -0.0020527018
-0.0106008705 -0.0047510383 -0.005408761 -0.017785886 -0.04713415 -0.0026801997 0.0041051363 0.015719611
-0.00187913 -0.0005456153 0.016495604 0.004146875 -0.004674536 0.009434338 -0.017350573 -0.0029880553
-0.0016996103 -0.0014728028 0.005435643 0.0038187245 0.008401095 -0.016354352 0.0055808392 0.013523109
0.018329317 -0.001972166 -0.0015219543 0.017143363 0.001802032 0.009412789 0.016944112 -0.02384135
-0.023174344 -0.010797058 0.011936619 -0.0048726304 -0.012111266 0.0016235175 0.0065406905 -0.006720918
-0.010326913 -0.006174488 0.0030557644 -0.0061404193 0.0030825818 -0.003619779 0.0113520585 0.00050209626
-0.004190902 -0.0037067907 -0.02672893 0.016609183 0.02154389 0.019689584 0.004158571 0.0027884971
-0.0023017528 -0.0032297384 0.013595753 0.006953694 -0.03949605 0.0034796258 0.010947133 -0.009101422
-0.0030675887 -0.019591032 -0.008429618 -0.007043799 -0.0017271232 -0.0006553046 0.0034925712 0.013241829
-0.015834235 -0.00048326532 0.008658388 -0.004335405 0.0065061324 -0.008574838 -0.014517405 0.0068547316
0.036860354 0.0068716565 0.006157969 -0.011539724 -0.0026779869 -0.003987346 0.02235354 -0.007843075
-0.0052525476 -0.008713689 0.020257957 -0.0032804103 -0.009929044 -0.0067190616 -0.0029469223 -0.00018651095
-0.012276853 -0.005851497 -0.007143563 0.020663748 -0.014161431 0.013489058 -0.02133805 -0.0037938342
0.0028817777 -0.010361598 -0.005752569 0.00084680977 0.027270596 0.0027328264 0.005197308 -0.003006205
-0.006771736 0.010417681 0.010280285 0.0017116413 -0.03209352 -0.0030652788 0.0008981484 0.0069744866
-0.0020592248 -0.015670223 -0.0036142587 -0.0028862134 0.00948033 0.014515527 0.006484469 -0.00053359946
0.005241306 -0.0064500663 -0.0034124753 0.012335826 0.005367155 -0.014676035 -0.011167818 0.022350624
0.012293253 0.004241966 -0.0047755647 0.00039268399 -0.022375662 0.0058971127 -0.011204238 0.008448876
-0.038625766 -0.0027781592 0.0064024115 -0.003112707 -0.012812773 0.015764734 -0.0130950045 0.0030237867
-0.009020944 0.0052817217 -0.009957946 -0.00061410904 -0.0022621562 0.001425607 -0.010901652 -0.0024565198
-0.0023951181 -0.013162083 -0.0064294036 -0.0006647849 0.024216205 0.0051562553 -0.013860927 -0.0055872244
-0.0065963683 -0.014893828 -0.008899848 -0.00648956 -0.04485987 -0.018029436 -0.0009994823 -0.0045501045
0.0008596862 0.009963802 0.0021447015 0.004453595 -0.012636647 0.016784994 0.005314018 -0.014354248
-0.02212119 0.007437034 -0.005899416 -0.0036825177 0.0039168866 -0.005328886 0.027556065 0.007903425
0.002294546 -0.00090331427 -0.03264813 0.0021285266 0.02200869 0.0077662994 0.0011104211 0.0216715
0.015414359 -0.017660674 0.007867834 -0.0020455488 0.009072782 0.0067056185 -0.009109513 0.00047496113
-0.022577262 0.0030447398 0.0043360395 -0.0042778323 0.004671398 -0.023465734 -0.0034511264 -0.027150616
0.011460559 0.00095031416 0.009586031 -0.019885372 0.012233295 0.0101155555 0.028691096 -0.0010434055
00000000: a7aa f23b 770f e9ba 7235 c0bc 2162 6c39
00000010: 3bc8 73ba 0cac 10bc f8e9 adbb a866 dfbb
00000020: 6df9 48bd dfbf 183b 4226 6dbc a533 833c
00000030: 46af f23a d8bb a7bb 43d3 7e3c 955f 623c
00000040: b5ba eaba 5884 3a3c 7e5e 6c3c 9a2f 123c
00000050: fe3f ecbb 848c 71bc 3dae 51bc 9bf5 1ebc
00000060: 6fa6 543a 2f87 60b9 e81c a23c d560 063c
00000070: 2b0f ac3c faa4 4bbb 982a a13c 9f86 06bb
00000080: 46af 2dbc 99ae 9bbb fa3b b1bb b5b3 91bc
00000090: bd0f 41bd 4aa6 2fbb 6184 863b 6ac6 803c
000000a0: 244d f6ba 9f07 0fba ca21 873c 82e2 873b
000000b0: da2c 99bb 7b92 1a3c ca22 8ebc 40d3 43bb
000000c0: 75c5 deba 100b c1ba 7a1d b23b 9143 7a3b
000000d0: bfa4 093c 90f9 85bc 79df b63b 0890 5d3c
000000e0: 5d27 963c 743f 01bb 507c c7ba 3d70 8c3c
000000f0: 2932 ec3a 1938 1a3c 61ce 8a3c ef4e c3bc
00000100: 1fd8 bdbc 25e6 30bc cf91 433c 96aa 9fbb
00000110: 556e 46bc 35cc d43a 4a53 d63b 263b dcbb
00000120: 3632 29bc 5c53 cabb 3843 483b 9235 c9bb
00000130: 2405 4a3b d039 6dbb fcfd 393c 1c9f 033a
00000140: d653 89bb a1ed 72bb a1f6 dabc fb0f 883c
00000150: d07c b03c 0d4c a13c 9f44 883b 38bf 363b
00000160: 01d9 16bb 05aa 53bb b9c0 5e3c d0db e33b
00000170: 9cc6 21bd 6f0a 643b 9b5b 333c 211e 15bc
00000180: 9909 49bb 5f7d a0bc 611c 0abc abcf e6bb
00000190: a360 e2ba bfc8 2bba 9fe3 643b 42f4 583c
000001a0: ccb6 81bc c65e fdb9 e9db 0d3c 0310 8ebb
000001b0: 6531 d53b 7a7d 0cbc 69da 6dbc a89d e03b
000001c0: e2fa 163d a22b e13b cac8 c93b 1c11 3dbc
000001d0: 2a81 2fbb 48a8 82bb c51e b73c 3e80 00bc
000001e0: 901d acbb dcc3 0ebc 04f4 a53c 27fc 56bb
000001f0: 6ead 22bc 932b dcbb 2721 41bb 2792 43b9
00000200: db24 49bc eabd bfbb 8d14 eabb 0547 a93c
00000210: 5905 68bc 3601 5d3c 22cd aebc faa1 78bb
00000220: 35dc 3c3b b1c3 29bc 0c80 bcbb 71fc 5d3a
00000230: 9666 df3c 3819 333b 2e4e aa3b c003 45bb
00000240: 70e5 ddbb ecae 2a3c a46e 283c 2759 e03a
00000250: 7f74 03bd d8e2 48bb b871 6b3a 3c8a e43b
00000260: 0ff4 06bb d75e 80bc 33dd 6cbb a026 3dbb
00000270: 6353 1b3c 88d2 6d3c ab7b d43b 41e1 0bba
00000280: 43bf ab3b 145b d3bb d6a3 5fbb 341c 4a3c
00000290: f6de af3b c173 70bc 39f9 36bc a818 b73c
000002a0: a469 493c 3100 8b3b 577c 9cbb 27e1 cd39
000002b0: 2a4d b7bc 913c c13b fb91 37bc 286d 0a3c
000002c0: 0d36 1ebd c711 36bb 52cb d13b 8ffe 4bbb
000002d0: aaec 51bc 0b25 813c 6e8c 56bc b92a 463b
000002e0: 95cc 13bc 4b12 ad3b a726 23bc 29fc 20ba
000002f0: af40 14bb 6fdb ba3a d89c 32bc 90fd 20bb
00000300: 6af7 1cbb c7a5 57bc bfad d2bb f644 2eba
00000310: 1061 c63c cef5 a83b f118 63bc 0915 b7bb
00000320: 5926 d8bb 3e05 74bc abd0 11bc 60a6 d4bb
00000330: fcbe 37bd 78b2 93bc 1001 83ba 0b19 95bb
00000340: 905c 613a 373f 233c 1f8e 0c3b 76ef 913b
00000350: f009 4fbc af80 893c 3721 ae3b 142e 6bbc
00000360: 7f37 b5bc 5db2 f33b e34f c1bb 6556 71bb
00000370: 3a59 803b f09d aebb 42bd e13c 5e7d 013c
00000380: 1860 163b 65cc 6cba 0cba 05bd c07e 0b3b
00000390: 914b b43c 717c fe3b 8d8b 913a 6e88 b13c
000003a0: 828c 7c3c 1ead 90bc 16e8 003c 9d0e 06bb
000003b0: 01a6 143c ceba db3b 1140 15bc 3404 f939
000003c0: f3f3 b8bc 428a 473b 5615 8e3b 0f2d 8cbb
000003d0: 8712 993b 363b c0bc 4b2c 62bb f86a debc
000003e0: 12c5 3b3c 811e 793a ba0e 1d3c a6e6 a2bc
000003f0: 286e 483c b7bb 253c 9709 eb3c e1c2 88ba

model.tcn.0.downsample.bias f4 [25]
-0.05550712 0.14261913 0.030633282 0.050155703 0.019679798 0.035723384 -0.12562588 -0.029947376
-0.037159 -0.062234942 -0.11677518 -0.017991098 -0.003341646 -0.05942935 -0.03975606 -0.050109625
-0.024869815 -0.1493643 0.15397543 -0.09530788 0.09684603 -0.16364399 -0.004000032 -0.013285025
-0.15680747
00000000: 6f5b 63bd c00a 123e a6f2 fa3c 1170 4d3d
00000010: 8737 a13c af52 123d 12a4 00be 3354 f5bc
00000020: 0934 18bd 11ea 7ebd d327 efbd 1162 93bc
00000030: 84ff 5abb 316c 73bd 40d7 22bd c03f 4dbd
00000040: c8bb cbbc f4f2 18be bcab 1d3e c730 c3bd
00000050: 3657 c63d 4a92 27be b312 83bb 6fa9 59bc
00000060: 2392 20be

model.tcn.1.conv1.bias f4 [25]
-0.04304339 -0.025807798 -0.04566507 0.045281142 -0.064857624 -0.06280245 0.064288884 -0.058833525
-0.015894525 -0.01924657 0.044521593 0.0729029 -0.04600702 -0.052866526 0.027943604 0.03007037
0.043338694 0.04296664 -0.0471973 0.01148993 -0.044844076 0.05110773 0.0220038 0.049424693
-0.02302131
00000000: 444e 30bd e06a d3bc 4c0b 3bbd b878 393d
00000010: 13d4 84bd 929e 80bd e4a9 833d 6cfb 70bd
00000020: 3c35 82bc fcaa 9dbc 465c 363d 1e4e 953d
00000030: db71 3cbd 928a 58bd fce9 e43c 2356 f63c
00000040: ea83 313d cafd 2f3d f551 41bd 4240 3c3c
00000050: 6cae 37bd 5756 513d 5041 b43c 8c71 4a3d
00000060: 3097 bcbc

model.tcn.1.conv1.weight_g f4 [25, 1, 1]
0.5833026 0.5443341 0.57279766 0.585623 0.5854827 0.5647772 0.59952766 0.5986779
0.61586046 0.5685499 0.6012637 0.5863252 0.5903205 0.58000594 0.5999514 0.5863634
0.59821624 0.5498859 0.59325767 0.5899835 0.57568705 0.57536364 0.58862984 0.6077488
0.574803
00000000: 5253 153f 7b59 0b3f dea2 123f 64eb 153f
00000010: 32e2 153f 3d95 103f a57a 193f f442 193f
00000020: 08a9 1d3f 7c8c 113f 6bec 193f 6919 163f
00000030: 3f1f 173f 457b 143f 6a96 193f e91b 163f
00000040: b324 193f 53c5 0c3f bcdf 173f 2909 173f
00000050: 3a60 133f 084b 133f 72b0 163f 6d95 1b3f
00000060: 4a26 133f

model.tcn.1.conv1.weight_v f4 [25, 25, 7]
0.061635464 0.034598008 0.018086419 0.04520761 0.03282997 -0.010007816 -0.04200254 -0.025631271
0.034535125 -0.022102358 0.038164556 -0.029337369 -0.04624479 0.06622584 -0.043548338 0.025351824
0.064588755 0.008370677 0.05039073 -0.014572903 -0.058832888 -0.030189767 -0.016830655 -0.036819667
-0.037657913 0.04202113 0.080455914 0.059333682 0.032048382 -0.05335845 -0.0049528214 0.036808584
0.07398384 -0.028181609 0.0565402 0.04591736 -0.012376903 -0.06419768 0.039577108 0.044138435
-0.05354236 0.066172875 0.0065259133 -0.044426877 0.018872183 0.054673586 0.017874492 -0.04213999
-0.02258638 0.05022523 0.043481976 0.05790402 0.043398373 0.06306284 -5.1920582e-05 0.055257794
0.008642924 0.0014087125 0.056473915 -0.025196673 0.045689806 -0.025423808 0.048520833 -0.0046460414
0.057545964 -0.015291479 0.015810845 0.07167602 0.0059653847 0.0075353677 -0.027408205 0.056542605
0.043991987 -0.010488224 -0.013054696 0.07531097 0.05512769 0.06590839 -0.033488996 -0.021682309
-0.041975923 -0.04740192 0.0007933256 0.007008042 -0.030674623 -0.015761549 0.011410805 -0.0058826385
-0.048686214 0.06424541 -0.013708215 0.024810126 0.04719971 -0.054865666 0.0068996926 -0.04149539
0.08308203 -0.014762919 0.056706376 0.011865224 -0.02308239 0.039013423 -0.049703933 -0.01580175
0.0036551894 0.08192806 -0.055107508 0.04102549 0.08860789 -0.0020069878 -0.025227595 -0.03370297
-0.012389741 0.05778737 -0.042700786 0.07117243 -0.05301931 0.065165274 0.011178267 -0.015201174
-0.05449649 -0.030863138 -0.040848933 -0.05938855 -0.018896703 0.047208197 -0.06279967 0.060427748
0.022540031 0.04440339 -0.004778913 -0.03144089 0.037583742 0.045150526 0.018348545 0.031695917
0.06802216 0.017112508 -0.026282541 0.040541723 -0.038162615 0.064934805 0.014784568 0.037428416
0.015059135 0.06746913 0.044631287 0.056027178 -0.02989964 0.019570928 0.05859671 0.060609307
-0.01593868 0.066707715 -0.0583288 0.06437135 -0.017521 -0.03888779 0.07523982 0.015781226
-0.012044482 0.045044005 0.05996536 0.01614949 -0.04617471 -0.025060805 -0.032015864 0.038037214
-0.062360585 -0.031089656 -0.06402294 0.008953313 0.06312725 0.023832846 0.010920073 0.033384174
-0.049656287 -0.01763133 0.05894573 -0.062663704 -0.0731374 -0.02399643 -0.06820757 -0.016306734
0.049517557 -0.0010604382 0.019746399 0.010674575 -0.05112277 -0.03806258 0.008832293 0.06610652
-0.054865032 0.049611125 -0.046037626 -0.064942434 0.013262021 0.053182747 0.011454884 0.04591677
0.005751735 -0.010144836 0.018455163 0.018685302 -0.01957984 0.017899333 0.004876872 -0.0687082
0.055163357 -0.070814036 0.023134692 -0.059720695 -0.015238865 0.03389788 0.026767686 0.056736436
-0.028006623 0.02049577 0.031546533 -0.0705332 -0.044134967 0.038599048 0.013091792 -0.011964575
-0.02115336 0.028620172 0.052289564 0.055330288 0.04241249 0.021126943 -0.058345806 0.04394373
-0.033279967 0.043746278 -0.05255833 0.026049053 -0.0018965101 0.055423092 0.0062929615 0.036857918
-0.07144587 0.022214629 -0.07460841 -0.06926382 -0.07513704 -0.055644963 -0.033030502 0.017821461
0.008650669 -0.023252428 0.02701017 -0.069964394 0.066995546 -0.04109996 -0.03216844 0.0020216056
00000000: 7875 7c3d a4b6 0d3d f829 943c 9d2b 393d
00000010: b878 063d d3f7 23bc db0a 2cbd acf8 d1bc
00000020: b474 0d3d 0110 b5bc 7052 1c3d ec54 f0bc
00000030: 2d6b 3dbd 6aa1 873d be5f 32bd a1ae cf3c
00000040: 1c47 843d 2a25 093c 8366 4e3d 2fc3 6ebc
00000050: c1fa 70bd 8850 f7bc 71e0 89bc 38d0 16bd
00000060: 2f3f 1abd 591e 2c3d 12c6 a43d e007 733d
00000070: 2a45 033d 648e 5abd 474b a2bb 99c4 163d
00000080: d784 973d 1edd e6bc b296 673d d713 3c3d
00000090: 7ec8 4abc 137a 83bd 9b1b 223d 81ca 343d
000000a0: 3c4f 5bbd a585 873d 54d7 d53b f5f8 35bd
000000b0: d699 9a3c 69f1 5f3d 876d 923c fb9a 2cbd
000000c0: 1207 b9bc f9b8 4d3d 281a 323d c42c 6d3d
000000d0: 7ec2 313d 1727 813d 4dc5 59b8 ff55 623d
000000e0: 0d9b 0d3c 8ca4 b83a 3151 673d 4169 cebc
000000f0: 3c25 3b3d 9745 d0bc c8bd 463d d23d 98bb
00000100: 51b5 6b3d 1d89 7abc bf85 813c e1ca 923d
00000110: 4679 c33b 3feb f63b 2c87 e0bc 3899 673d
00000120: f130 343d cdd6 2bbc 5de3 55bc a33c 9a3d
00000130: 93cd 613d fafa 863d c22b 09bd 199f b1bc
00000140: f2ee 2bbd 8428 42bd 2ef7 4f3a b8a3 e53b
00000150: 5949 fbbc 5d1e 81bc 63f4 3a3c 26c3 c0bb
00000160: 326b 47bd 1993 833d 6c98 60bc 9b3e cb3c
00000170: 7c54 413d d2ba 60bd d116 e23b 12f7 29bd
00000180: e926 aa3d 2ce0 71bc f244 683d 5b66 423c
00000190: 4817 bdbc 8acc 1f3d 5a96 4bbd ac72 81bc
000001a0: e78b 6f3b e6c9 a73d 69b8 61bd 580a 283d
000001b0: 0e78 b53d ab87 03bb 1aaa cebc 200c 0abd
000001c0: 57fe 4abc 73b2 6c3d 05e7 2ebd dac2 913d
000001d0: c72a 59bd 5f75 853d 0d25 373c 580e 79bc
000001e0: b637 5fbd b1d4 fcbc 3651 27bd 6941 73bd
000001f0: 42cd 9abc 625d 413d 1d9d 80bd 1683 773d
00000200: dfa5 b83c 54e0 353d 6e98 9cbb 2ac8 00bd
00000210: 69f1 193d c2ef 383d b04f 963c 94d3 013d
00000220: 344f 8b3d 882f 8c3c 7c4e d7bc 140f 263d
00000230: 6750 1cbd 8afc 843d f93a 723c 8a4e 193d
00000240: 97ba 763c 412d 8a3d 4ccf 363d c17c 653d
00000250: 17f0 f4bc 3653 a03c 1b03 703d 7741 783d
00000260: d691 82bc 0e9e 883d 2eea 6ebd 20d5 833d
00000270: 3388 8fbc ce48 1fbd 5617 9a3d a147 813c
00000280: 3856 45bc 1080 383d 3d9e 753d ef4b 843c
00000290: b121 3dbd 514c cdbc 1123 03bd e9cc 1b3d
000002a0: d06d 7fbd bcaf febc 761e 83bd ebb0 123c
000002b0: dc48 813d 1a3d c33c 1bea 323c d8bd 083d
000002c0: 6464 4bbd 946f 90bc 1471 713d d455 80bd
000002d0: 10c9 95bd 2994 c4bc 69b0 8bbd b395 85bc
000002e0: ecd2 4a3d 67fe 8aba 33c3 a13c 6ae4 2e3c
000002f0: 1c66 51bd 82e7 1bbd 52b5 103c db62 873d
00000300: 28ba 60bd 0935 4b3d f391 3cbd 8a00 85bd
00000310: f348 593c 27d6 593d 44ad 3b3c 3913 3c3d
00000320: 0d79 bc3b 8736 26bc 482f 973c eb11 993c
00000330: e765 a0bc 9fa1 923c 2bce 9f3b e2b6 8cbd
00000340: f9f2 613d f306 91bd f784 bd3c b09d 74bd
00000350: 6fac 79bc 81d8 0a3d e847 db3c 7764 683d
00000360: 256e e5bc bfe6 a73c f036 013d b673 90bd
00000370: dec6 34bd 091a 1e3d f57e 563c 1107 44bc
00000380: d049 adbc da74 ea3c 952d 563d 03a2 623d
00000390: b8b8 2d3d 6912 ad3c 03fc 6ebd 57fe 333d
000003a0: 9350 08bd 4c2f 333d 6747 57bd d364 d53c
000003b0: 5294 f8ba 5303 633d 3035 ce3b 54f8 163d
000003c0: 3652 92bd 74fb b53c 4bcc 98bd 31da 8dbd
000003d0: 73e1 99bd f9eb 63bd fe4a 07bd 50fe 913c
000003e0: 89bb 0d3c e07b bebc 6f44 dd3c 7e49 8fbd
000003f0: f634 893d 6f58 28bd 0ec3 03bd ea7c 043b

model.tcn.1.conv2.bias f4 [25]
-0.027279163 0.030533712 -0.030922256 -0.045962535 -0.016388444 -0.011306837 0.069394566 0.030166848
-0.02760867 -0.049305048 0.042040892 0.043009162 0.016256843 0.003875033 -0.027822845 -0.04379026
-0.012806329 -0.06389379 0.0033913418 0.0005276028 -0.03435535 0.033983056 0.052866492 -0.056925014
0.018408062
00000000: 8d78 dfbc d621 fa3c ac50 fdbc 3643 3cbd
00000010: 0f41 86bc 5040 39bc bd1e 8e3d 7720 f73c
00000020: 942b e2bc 17f4 49bd 1233 2c3d 602a 303d
00000030: 122d 853c 44f4 7d3b bcec e3bc 6a5d 33bd
00000040: a3d1 51bc bfda 82bd 4641 5e3b d34e 0a3a
00000050: 32b8 0cbd d131 0b3d 898a 583d 342a 69bd
00000060: 81cc 963c

model.tcn.1.conv2.weight_g f4 [25, 1, 1]
0.58065516 0.5849239 0.5605485 0.6054114 0.5613369 0.5584848 0.5741807 0.5529242
0.55160624 0.5506285 0.59513986 0.5581157 0.5717042 0.5812419 0.56851184 0.56623185
0.61163735 0.543997 0.5856152 0.58596754 0.5980893 0.5469711 0.5804966 0.6145796
0.5846439
00000000: d1a5 143f 93bd 153f 1b80 0f3f 3efc 1a3f
00000010: c6b3 0f3f dcf8 0e3f 82fd 123f 718c 0d3f
00000020: 1136 0d3f fdf5 0c3f 165b 183f ace0 0e3f
00000030: 355b 123f 45cc 143f fe89 113f 92f4 103f
00000040: 4494 1c3f 6343 0b3f e1ea 153f f801 163f
00000050: 611c 193f 4c06 0c3f 6d9b 143f 1755 1d3f
00000060: 39ab 153f
