etc/ckpts/participants/661_test_30_all/sigmoid/TCN/epochs/TCN-chpkt-pecanstreet-participant-id-661_test_30_all_epoch=132.ckpt (torch, 983295 bytes, 201 tensors)

model.tcn.0.conv1.bias f4 [25]
00000000: b9ef 293d b54a 20bd 0118 353d bb48 e13c
00000010: 7211 81bd dc03 7a3c f436 64bd ed68 523d
00000020: a067 2e3d a8b1 1b3c a788 16bd efee 88bd
00000030: 98cb 76bc 668e 24bd 8b9f 7ebd 1919 4abd
00000040: f90e 5ebd baed 69bd 2f4c f93c 20dd 4a3d
00000050: 1e1e 293d a1dd 88bd cd5d 583d d8f3 f13c
00000060: 03f1 2c3d
0.041488383 -0.039133746 0.044212345 0.0275005 -0.063021556 0.015259709 -0.05571647 0.051369596
0.042579293 0.009502806 -0.036751416 -0.06686198 -0.015063189 -0.040174864 -0.06216387 -0.04934034
-0.054213498 -0.05711148 0.030431835 0.049527287 0.041288488 -0.06682897 0.05282383 0.02953522
0.042222034

model.tcn.0.conv1.weight_g f4 [25, 1, 1]
00000000: 04ab 153f b19a 133f b361 233f eff0 193f
00000010: 127d 113f 8482 1c3f e033 173f 7947 133f
00000020: d485 0d3f 86a9 0e3f 9a3c 0e3f a07e 0b3f
00000030: 0ea7 143f ff29 123f 6b0c 0a3f 5364 0d3f
00000040: 78ad 163f 0b17 0c3f 7f36 153f 4503 0c3f
00000050: 1788 143f 4e7d 0a3f e73d 203f d003 0f3f
00000060: fe64 103f
0.58464074 0.57657915 0.6382095 0.6013326 0.5683147 0.6113665 0.5906353 0.57530934
0.5528233 0.5572742 0.5556122 0.5449009 0.58067405 0.5709533 0.539252 0.5523121
0.5885844 0.5472266 0.5828628 0.5469249 0.58020157 0.5409745 0.62594455 0.5586519
0.564041

model.tcn.0.conv1.weight_v f4 [25, 28, 7]
00000000: 8fbe b23c 3443 623d 33bf 03bd 9e66 f0bc
00000010: 7623 13bc e41d 083d 0e7f f63c da5c 293d
00000020: 0245 83bc 1334 f43b b4ff ebbc 6c6b abbc
00000030: c6a2 8dbd fb54 4abd 92e0 0dbd ced3 3cbb
00000040: 51da 7f3c e1a6 0a3d 88ee 08bd 7cd9 b5bc
00000050: 110c 973c a63c 5a3d 7fe6 7fbc 969e 463d
00000060: 5862 54bc e4cc 613b 0c13 6f3d a644 7dbd
00000070: 98c3 02bd d884 02bc 5b5d 90bc a1a9 813d
00000080: 216c 0cbd 3ebc bdbc 2bac 25bd 30fe 84bd
00000090: e7b2 2cbd b9ee 583d 3795 c43c 30e0 e63c
000000a0: 35d3 46ba 6642 18bd e89a 8c3c da93 62bd
000000b0: cfb0 28bd 68e7 ebbc 49f9 3b3d 2341 363d
000000c0: 7a60 a8bc 28f0 fcbc 9b7c 873d be35 bfbc
000000d0: 5795 933d 72ad 283c b778 c6bd 935d 29be
000000e0: c2ea 50bc a9f8 8dbd 0d75 90bd 2c9a 56bd
000000f0: d784 e53b 42df d7bc 9a5b 29be 3864 3d3d
00000100: 6a3a 7e3d 5276 903c 2c99 f33c 4aec 303d
00000110: 353e 8a3d 0214 b83d 8356 36bd 32d1 9cbc
00000120: d7f2 f23c aecb 6a3d ab09 793d fa90 7a3d
00000130: 0162 8d3c 3b96 8ebd e9ee 81bb 9a94 4bbd
00000140: 4289 98bd e5c6 3b3d 8a76 1c3d 8aa8 9bbd
00000150: 726f ef3b d7b9 69bc 8f16 58bc f860 ffbc
00000160: b849 d53c fd9b 1ebd d336 c83c bd68 053d
00000170: fc16 3d3d bb49 c03c 1c79 81bd 52ce 32bd
00000180: e72b f73c f8c7 493c f3d3 44bd 01d9 0fbd
00000190: 489a 843d 9ab2 3f3d e586 dbbc 5ed5 6dbc
000001a0: 7ae3 74bd 22e0 153c dec6 27bd a30e 32bd
000001b0: be82 923b 7dce 993c 2787 9fbc 2376 3c3d
000001c0: ebfd 17bd f040 713d f6d6 353d 2138 5abd
000001d0: dae9 74bc 91eb 413b 8cbb 253c b4fd a13c
000001e0: f141 ef3c 77b8 073c c503 ddbc 50e9 0b3d
000001f0: bea4 68bd f97f 04bd ef92 67bc 32bf f3bc
00000200: 0d3d b4bc 14ef 53bd 4f61 4abc 8270 673c
00000210: f253 28bd 7ccb 893a d0dc 4e3d 7d3c cdba
00000220: 2fdb a03b 195d 77bb 77d6 733c b6af 3a3d
00000230: ddb8 563d f84c 013d aba7 533d e204 75bc
00000240: 5251 8ebd 92f7 28bd 3e01 143d a13c f23b
00000250: 3049 e1bc 2af1 40bd f1bd 6fbd a6b3 56bd
00000260: cc7e 2ebc 769c 1a3d bfeb 093d 2dc8 86bd
00000270: 6b6e 2f3d 4f3f 5cbd cbeb 96bc a124 f7bc
00000280: 352b 35bc 7ff4 2bbb 914f 44bd aba7 36bd
00000290: bd0b d73a d437 483c 0dc2 8abc a1d4 223d
000002a0: 2dbc 4fbd f504 af3a e011 793d 57a4 b0bc
000002b0: ca9a 7e3d a493 de3c 7700 52bd 2150 323d
000002c0: cbfe ecbb 5b75 00bd 76b0 553d 1a4a 53bd
000002d0: a174 033c b893 85bc 0bce 453d ef40 b33c
000002e0: 1c9e 143d 3739 e23c 8114 36bc c388 17bc
000002f0: 042c 3abd d359 353d 4048 773d dbf4 5a3d
00000300: c0cf 15bd 6a55 273c e952 18bd bf77 c1bc
00000310: e9ff 04bd 9f11 ff3c dfbc f0bc ad45 993b
00000320: 521d 223c 078a 503d 5674 fbbc 7656 02bd
00000330: 1e34 d8bc 335a 733d 89d3 67bc 9b41 7e3d
00000340: 7800 e63c b8b9 6a3c 394a b6ba 6100 0ebc
00000350: 309b 603c 2fcc 41bc 3343 623c 2891 bd3c
00000360: a721 f0bc 4fec 85bd 1a5e d33c 6ce1 a4bd
00000370: cc05 fabc c2a3 333d 9340 843b 0477 e2bb
00000380: 8fa1 00bd cc9c 643d ac3d e8bc 31ae a7bb
00000390: 5759 f4bb b280 c1ba f6da 703b 85f3 753d
000003a0: 839b 8c3c 155d 863d faa9 3b3d adf6 07bd
000003b0: 58a6 023d eb2d 1bbd 2c94 72bd 3253 11bc
000003c0: a9d1 a8bb f363 bc3c e50b 2cbd 8ecb aabc
000003d0: 7ef8 bc3c 222f f5bd 364d be3d 409c f1bd
000003e0: 67d5 5e3d dcd1 a7bd 7635 b3bd f0aa 19be
000003f0: 0107 153d ba37 81bc e94d 64bd 6594 acbc
0.021819381 0.05523987 -0.032164764 -0.029345807 -0.0089806225 0.03323163 0.030089881 0.041348316
-0.016024116 0.007452497 -0.028808452 -0.020925246 -0.06915812 -0.04939745 -0.034637995 -0.002881277
0.0156160155 0.033850554 -0.033430606 -0.022198431 0.01843837 0.053280495 -0.015618919 0.048491083
-0.0129629 0.00344544 0.058367774 -0.061833046 -0.031924814 -0.007966243 -0.01762264 0.06331182
-0.034282807 -0.02316105 -0.040447395 -0.06493795 -0.042162802 0.05296204 0.023996932 0.028183073
-0.0007584573 -0.037172697 0.017163709 -0.055316783 -0.041184243 -0.028796867 0.045892034 0.044495713
-0.020553816 -0.030876234 0.066155635 -0.023341056 0.07206219 0.010295259 -0.09690993 -0.16539602
-0.012751283 -0.06932194 -0.07053576 -0.052393124 0.007004361 -0.026351575 -0.1653885 0.046238154
0.062067427 0.017634545 0.029736124 0.043194093 0.06750146 0.08988191 -0.044516098 -0.01914272
0.02965681 0.05732315 0.060800236 0.061173417 0.017258646 -0.06962248 -0.003965248 -0.049702264
-0.07448055 0.045843977 0.038198985 -0.07600506 0.0073069865 -0.014265499 -0.013188972 -0.031174168
0.026036128 -0.03872298 0.024440205 0.03257059 0.046164498 0.023472657 -0.06321928 -0.043653794
0.030172301 0.012315743 -0.048053693 -0.03511906 0.06474739 0.046801187 -0.026797721 -0.014516203
-0.05978725 0.009147676 -0.04096114 -0.04347099 0.004471152 0.01877522 -0.019473625 0.0460111
-0.03710739 0.05889982 0.044394456 -0.053276185 -0.014948333 0.0029589871 0.010115515 0.019774295
0.029206248 0.008283726 -0.026979337 0.03415805 -0.056797735 -0.032348607 -0.014134153 -0.029754255
-0.022001768 -0.051741675 -0.012352302 0.014125945 -0.04109568 0.0010512914 0.050503552 -0.0015658286
0.004908941 -0.00377447 0.014882675 0.045577727 0.052422393 0.031567544 0.051673573 -0.014954777
-0.06949104 -0.041251726 0.036133997 0.0073924814 -0.027500719 -0.047104992 -0.05853075 -0.05241742
-0.010650348 0.03774687 0.03367209 -0.06581149 0.042829912 -0.053771313 -0.018422982 -0.030168833
-0.011057665 -0.002623826 -0.047927443 -0.044593494 0.0016406697 0.012220342 -0.016938234 0.03975356
-0.050716568 0.0013352918 0.060808063 -0.021562738 0.062159337 0.02717001 -0.051269975 0.043533448
-0.007232522 -0.03136192 0.05217024 -0.05158434 0.008023412 -0.01630579 0.0482922 0.021881549
0.036283597 0.027615173 -0.011113287 -0.009248915 -0.045452133 0.044275116 0.060371637 0.05345617
-0.03657508 0.010213235 -0.037188444 -0.02361667 -0.032470617 0.031136332 -0.029386936 0.0046774955
0.009894686 0.050912883 -0.030695122 -0.031820737 -0.026392039 0.059412193 -0.014149555 0.062074285
0.028076395 0.014326505 -0.0013907618 -0.0086670825 0.013708875 -0.011828466 0.013809967 0.023140505
-0.029312922 -0.06539213 0.025801707 -0.08050808 -0.030520342 0.043857343 0.004036018 -0.0069111604
-0.031404074 0.055813596 -0.02834972 -0.005117201 -0.007456939 -0.0014763086 0.0036751605 0.06004669
0.017163998 0.06560723 0.0458164 -0.033194233 0.03189692 -0.037885588 -0.05922334 -0.008869933
-0.0051519466 0.022996878 -0.04200353 -0.020849016 0.023067709 -0.119718805 0.092920706 -0.117973804
0.054402735 -0.081943244 -0.08750431 -0.15006614 0.036383633 -0.015773643 -0.055738363 -0.021066854

model.tcn.0.conv2.bias f4 [25]
00000000: 3962 94bc 00e7 c03b 68c2 34bc a868 493d
00000010: 2d1a ae3d be0b 703d b5f3 8cb9 2bc9 8bba
00000020: f6df 4d3c c4be 4fbd 426c b53b 2b2d 8a3d
00000030: 97a3 0f3c c406 a53d cd01 d0bb 0778 a73d
00000040: 7d1f 993d 21cf 12bd 7575 8cbd ed3c f3bc
00000050: 951c 593d fcf7 903d 7b60 53bd ba6a 20bd
00000060: de07 3c3d
-0.018113242 0.0058869123 -0.011032678 0.049172074 0.085010864 0.05860495 -0.00026884457 -0.0010664811
0.0125656035 -0.050719038 0.005536587 0.06746896 0.00876703 0.08057931 -0.006347871 0.0817719
0.07476709 -0.035842065 -0.06858341 -0.029692138 0.053005774 0.07078549 -0.051605683 -0.039164282
0.04590594

model.tcn.0.conv2.weight_g f4 [25, 1, 1]
00000000: 01c9 143f f2bd 123f 627d 0b3f 74df 153f
00000010: 40d8 143f 4ef7 0b3f feb9 163f e78f 283f
00000020: eb69 133f 3218 193f b5e3 0e3f ec62 183f
00000030: bffe 073f 1ae8 0e3f 61e9 2b3f 70c1 0f3f
00000040: 85cb 1a3f 9e8e 0d3f cc2b 183f d582 0f3f
00000050: 878e 153f 9490 0e3f 7edf 193f 3c9f 133f
00000060: 0985 283f
0.5811921 0.57321084 0.54488194 0.5854409 0.5814247 0.5467423 0.5887755 0.6584458
0.57583493 0.59802544 0.55816203 0.5952594 0.53123087 0.5582291 0.6715298 0.5615454
0.60466796 0.5529574 0.5944183 0.5605901 0.58420604 0.5568936 0.60106647 0.5766485
0.65827996

model.tcn.0.conv2.weight_v f4 [25, 25, 7]
00000000: f8cb 02bc 0c50 213d 84ae 73bd c8b9 f83c
00000010: 70a4 753d f895 3c3d 0b20 12bd e894 9f3b
00000020: 0253 923c a5a6 4a3d f739 97b8 8645 a23c
00000030: 7fe1 b43b 9b09 b23c 132d 63ba 84d8 10bd
00000040: 5529 40bd 9ff8 743d 328e 5f3d 1ef2 7f3c
00000050: e2cf be3d 886a 813d a17c 02bd aca2 64bc
00000060: a1c6 12bd d6d7 113d a2a0 a33c 03c6 993c
00000070: 30f7 453d 0454 86bc 1663 e5bc 2a64 1bbd
00000080: c595 cabc ea73 673d 8361 6abc a011 29bc
00000090: 9f90 1f3d 0c24 40bd 3665 1cbd 77a0 663d
000000a0: 9f22 04bd 5faf 51bd d5c1 d93a e16f 3b3b
000000b0: 4bfa a63c cf87 043d 767b 0ebd 4d0f 863d
000000c0: ced2 30bd 8a2c ac3c 3bc9 90bc 0e3c f3bc
000000d0: f022 883d 490d 82bd e935 893c 3142 8e3d
000000e0: 5d4e 713d 173d 33bd b1e5 843c 06a3 893d
000000f0: 6646 46bd c0f2 6c3c f14a 37bd d11a c33c
00000100: f40c 55bd ec6f 293d dab5 16bc 637a 2d3d
00000110: e89e 5f3c a624 7d3c 8e46 8eba 1126 41bd
00000120: 0aed 80bc 2ed7 8e3c d0b0 27bd 0104 9a3d
00000130: 5db8 8ebc e7db 88bc 8f36 65bb 3143 33bd
00000140: c054 dcba 79c7 29bc fc74 43bd feda 3fbc
00000150: 30d4 6c3d 2ebd c33c 272b 653d d5d5 133c
00000160: cc19 5abc 3ee9 7d3d 1eb6 2ebc bf8c 81bd
00000170: 399c 6e3c 75f6 053d 3c37 25bd f074 c43c
00000180: 1870 33bc b154 bf3c 5073 8a3b 8565 293b
00000190: 3f9a 27bd 3243 9c3c e74c e5ba 15f4 543d
000001a0: a892 963c 14d8 54bd 9b1f 43bd 4fbe 04bd
000001b0: 028e 043d 4c40 41bd 8647 61bc 441c 423d
000001c0: 6286 b7bc bd49 21bc 4fe7 7b3d 74a2 5fbc
000001d0: 2214 c3bb 652d 4d3d eb20 f33c 9113 1a3d
000001e0: 6229 8bbd df64 ac3c 86b2 a9bc 7d35 58bd
000001f0: e7de 34bd 1fca b2bd d9ba 3b3d e44b 4abc
00000200: 8e52 8bbd 090a 773d c71e 333d 6a33 0d3d
00000210: 4a53 cf3d 3f0a 9b3d b0f4 9d3d df13 973d
00000220: 4ad3 863d 1e98 de3c f1f0 0e3c 18c8 d63c
00000230: 2a07 00bd 4d86 e63c 2f6f 9dbb 5b47 6d3c
00000240: 3e8c 3cbd d14f 6bbc 4770 913d a838 2b3b
00000250: b1ef 403c e9ac 82bd 9497 0abd 2d60 2dbc
00000260: 07a9 cbbc 8eb2 02b9 b935 98bc 2bde 5f3d
00000270: 3d8f fbbb 14c1 ea3c f2d5 32bd 9d52 063d
00000280: b44d dcbc 3957 5cbd 444f 21bd 07c9 ce3c
00000290: 46fc 2d3c ef3e 6d3c 0ad5 a63b 6dc4 b43d
000002a0: 4e2e 963d 36f2 1d3d ee29 6e3d bfcc 163c
000002b0: cd5e 80bc 7126 043d f74c a43d 1453 963a
000002c0: ae5f 38bd b883 023d 9a57 2dbc ccc7 dbbc
000002d0: da62 7b3d 5bf1 fd3c b699 a0bc 4884 a8bc
000002e0: f4c0 9c3d 4f16 613d d62a 0ebd 7472 b53c
000002f0: b871 cd3c 9699 0e3d 6c41 59bd f3a5 cc3b
00000300: 0d66 e63c ed6a 193d 4760 ce3c 9b14 12bc
00000310: 2b75 62bd 4382 3b3d 4de9 933d b245 33bc
00000320: 4607 50bd 63d0 093d b80f dcbc 52a4 e0bc
00000330: c613 853c 51af ddbb 2aa5 c3bb 9793 4d3d
00000340: 29e0 eebb 5728 333d f8ca 5fbc cc0f 6f3d
00000350: f7b4 d53c 67d9 863d c76b e53c 3fff f3bc
00000360: 23a8 823c 5398 7e3d 78fa b63c 36f4 203d
00000370: 03f9 14bd a6c5 3b3d 59d5 56bd 50bf 963d
00000380: 530b fb3c 7cec 0f3c 75a3 7fbd a922 8b3d
00000390: d5e5 403d 2080 a03d d7b6 523d 9d5a 0a3c
000003a0: 35f2 c9bc d303 09bd 437a 693c 50ea 603c
000003b0: 3167 75bc 9f2d 39bc 6a67 053d 641e 74bd
000003c0: ee19 60bd c022 79bc 8e3b 303d 7f3a 243d
000003d0: 53cf 4bbd 0f77 55bc 77e4 743b 2a85 093d
000003e0: 591d 8c3d 9a12 4e3c 1faa 2dbd e644 ed3c
000003f0: 9b70 e7bc bb8d 2dbd d37d 393c 3feb 6fbc
-0.0079832 0.03938298 -0.059492603 0.030362025 0.059971273 0.04604146 -0.03567509 0.004870046
0.017861847 0.04947533 -7.211038e-05 0.019808542 0.0055200453 0.021733096 -0.00086660794 -0.035362735
-0.046914417 0.059807416 0.054578967 0.01562169 0.09316994 0.06319147 -0.031857137 -0.0139548
-0.03583396 0.035606228 0.019974057 0.018771177 0.04833144 -0.016397484 -0.02800135 -0.03793732
-0.024729619 0.05650703 -0.014305475 -0.0103191435 0.03895628 -0.046909377 -0.03818246 0.056305375
-0.03225958 -0.051192638 0.0016613553 0.002860062 0.02038302 0.03235608 -0.03478571 0.06545887
-0.04316979 0.021017332 -0.01767408 -0.029691722 0.06647289 -0.0635019 0.01674934 0.06946219
0.058912624 -0.04375943 0.016222807 0.067205474 -0.04840698 0.014462173 -0.044749204 0.023816498
-0.052014306 0.041366503 -0.00919863 0.042353045 0.013648726 0.015450632 -0.0010854767 -0.047155444
-0.015738029 0.01743659 -0.040940106 0.07520295 -0.017421896 -0.01670642 -0.0034975146 -0.04376525
-0.0016809925 -0.010362499 -0.047718987 -0.011709927 0.057819545 0.023893919 0.055949356 0.0090231495
-0.0133118145 0.061990015 -0.010663537 -0.06325673 0.014563614 0.032705743 -0.04033588 0.023981541
-0.010952018 0.023355814 0.004225172 0.0025847864 -0.040918585 0.01907501 -0.0017494232 0.051990587
0.018380478 -0.05196388 -0.047637563 -0.032408055 0.03236199 -0.04718046 -0.013749963 0.047390237
-0.022402946 -0.009844241 0.06149989 -0.013649572 -0.0059533278 0.05009212 0.029678782 0.037616316
-0.067950025 0.021044193 -0.02071501 -0.052785385 -0.04415789 -0.08729958 0.04583249 -0.012347195
-0.068028554 0.060312305 0.043730523 0.03447286 0.10123308 0.07570314 0.07712686 0.07376837
0.06583269 0.027172145 0.008724437 0.026218459 -0.031256832 0.028140211 -0.004804514 0.0144823445
-0.046032183 -0.014362291 0.07101493 0.00261263 0.011775897 -0.06380636 -0.033835962 -0.010582012
-0.024860872 -0.00012464283 -0.018580304 0.054655235 -0.0076769874 0.02865652 -0.043661065 0.03279363
-0.02689252 -0.05379412 -0.039382234 0.025242342 0.010619229 0.014480337 0.005091314 0.08826528
0.07333051 0.03856107 0.058145456 0.009204089 -0.015670205 0.032263223 0.080224924 0.0011468851
-0.045013122 0.031863898 -0.010579968 -0.026828669 0.06137357 0.030998876 -0.019604545 -0.02057089
0.076539904 0.054952916 -0.03470882 0.022149302 0.02507864 0.03481444 -0.053040907 0.0062453686
0.028124833 0.037455488 0.025192393 -0.008916046 -0.05528752 0.045778524 0.07222233 -0.01094191
-0.050788186 0.033646 -0.026862964 -0.027422104 0.01624478 -0.006765284 -0.005970617 0.05018958
-0.0072899056 0.043739643 -0.013659231 0.058364674 0.026087267 0.06584435 0.028005494 -0.029784797
0.015949314 0.062156986 0.02233623 0.039295398 -0.03637029 0.04584279 -0.052449558 0.07360709
0.030645048 0.00878441 -0.062411744 0.0679372 0.047094185 0.07836938 0.0514439 0.008444455
-0.024651626 -0.033450913 0.014250341 0.013727739 -0.014978216 -0.011302381 0.032569326 -0.059599295
-0.05471223 -0.015206039 0.043025546 0.04009485 -0.049758267 -0.013028874 0.003736762 0.03357426
0.06841535 0.012577677 -0.04239857 0.028963517 -0.028251937 -0.042371493 0.011321503 -0.014643489

model.tcn.0.net.0.bias f4 [25]
00000000: b9ef 293d b54a 20bd 0118 353d bb48 e13c
00000010: 7211 81bd dc03 7a3c f436 64bd ed68 523d
00000020: a067 2e3d a8b1 1b3c a788 16bd efee 88bd
00000030: 98cb 76bc 668e 24bd 8b9f 7ebd 1919 4abd
00000040: f90e 5ebd baed 69bd 2f4c f93c 20dd 4a3d
00000050: 1e1e 293d a1dd 88bd cd5d 583d d8f3 f13c
00000060: 03f1 2c3d
0.041488383 -0.039133746 0.044212345 0.0275005 -0.063021556 0.015259709 -0.05571647 0.051369596
0.042579293 0.009502806 -0.036751416 -0.06686198 -0.015063189 -0.040174864 -0.06216387 -0.04934034
-0.054213498 -0.05711148 0.030431835 0.049527287 0.041288488 -0.06682897 0.05282383 0.02953522
0.042222034

model.tcn.0.net.0.weight_g f4 [25, 1, 1]
00000000: 04ab 153f b19a 133f b361 233f eff0 193f
00000010: 127d 113f 8482 1c3f e033 173f 7947 133f
00000020: d485 0d3f 86a9 0e3f 9a3c 0e3f a07e 0b3f
00000030: 0ea7 143f ff29 123f 6b0c 0a3f 5364 0d3f
00000040: 78ad 163f 0b17 0c3f 7f36 153f 4503 0c3f
00000050: 1788 143f 4e7d 0a3f e73d 203f d003 0f3f
00000060: fe64 103f
0.58464074 0.57657915 0.6382095 0.6013326 0.5683147 0.6113665 0.5906353 0.57530934
0.5528233 0.5572742 0.5556122 0.5449009 0.58067405 0.5709533 0.539252 0.5523121
0.5885844 0.5472266 0.5828628 0.5469249 0.58020157 0.5409745 0.62594455 0.5586519
0.564041

model.tcn.0.net.0.weight_v f4 [25, 28, 7]
00000000: 8fbe b23c 3443 623d 33bf 03bd 9e66 f0bc
00000010: 7623 13bc e41d 083d 0e7f f63c da5c 293d
00000020: 0245 83bc 1334 f43b b4ff ebbc 6c6b abbc
00000030: c6a2 8dbd fb54 4abd 92e0 0dbd ced3 3cbb
00000040: 51da 7f3c e1a6 0a3d 88ee 08bd 7cd9 b5bc
00000050: 110c 973c a63c 5a3d 7fe6 7fbc 969e 463d
00000060: 5862 54bc e4cc 613b 0c13 6f3d a644 7dbd
00000070: 98c3 02bd d884 02bc 5b5d 90bc a1a9 813d
00000080: 216c 0cbd 3ebc bdbc 2bac 25bd 30fe 84bd
00000090: e7b2 2cbd b9ee 583d 3795 c43c 30e0 e63c
000000a0: 35d3 46ba 6642 18bd e89a 8c3c da93 62bd
000000b0: cfb0 28bd 68e7 ebbc 49f9 3b3d 2341 363d
000000c0: 7a60 a8bc 28f0 fcbc 9b7c 873d be35 bfbc
000000d0: 5795 933d 72ad 283c b778 c6bd 935d 29be
000000e0: c2ea 50bc a9f8 8dbd 0d75 90bd 2c9a 56bd
000000f0: d784 e53b 42df d7bc 9a5b 29be 3864 3d3d
00000100: 6a3a 7e3d 5276 903c 2c99 f33c 4aec 303d
00000110: 353e 8a3d 0214 b83d 8356 36bd 32d1 9cbc
00000120: d7f2 f23c aecb 6a3d ab09 793d fa90 7a3d
00000130: 0162 8d3c 3b96 8ebd e9ee 81bb 9a94 4bbd
00000140: 4289 98bd e5c6 3b3d 8a76 1c3d 8aa8 9bbd
00000150: 726f ef3b d7b9 69bc 8f16 58bc f860 ffbc
00000160: b849 d53c fd9b 1ebd d336 c83c bd68 053d
00000170: fc16 3d3d bb49 c03c 1c79 81bd 52ce 32bd
00000180: e72b f73c f8c7 493c f3d3 44bd 01d9 0fbd
00000190: 489a 843d 9ab2 3f3d e586 dbbc 5ed5 6dbc
000001a0: 7ae3 74bd 22e0 153c dec6 27bd a30e 32bd
000001b0: be82 923b 7dce 993c 2787 9fbc 2376 3c3d
000001c0: ebfd 17bd f040 713d f6d6 353d 2138 5abd
000001d0: dae9 74bc 91eb 413b 8cbb 253c b4fd a13c
000001e0: f141 ef3c 77b8 073c c503 ddbc 50e9 0b3d
000001f0: bea4 68bd f97f 04bd ef92 67bc 32bf f3bc
00000200: 0d3d b4bc 14ef 53bd 4f61 4abc 8270 673c
00000210: f253 28bd 7ccb 893a d0dc 4e3d 7d3c cdba
00000220: 2fdb a03b 195d 77bb 77d6 733c b6af 3a3d
00000230: ddb8 563d f84c 013d aba7 533d e204 75bc
00000240: 5251 8ebd 92f7 28bd 3e01 143d a13c f23b
00000250: 3049 e1bc 2af1 40bd f1bd 6fbd a6b3 56bd
00000260: cc7e 2ebc 769c 1a3d bfeb 093d 2dc8 86bd
00000270: 6b6e 2f3d 4f3f 5cbd cbeb 96bc a124 f7bc
00000280: 352b 35bc 7ff4 2bbb 914f 44bd aba7 36bd
00000290: bd0b d73a d437 483c 0dc2 8abc a1d4 223d
000002a0: 2dbc 4fbd f504 af3a e011 793d 57a4 b0bc
000002b0: ca9a 7e3d a493 de3c 7700 52bd 2150 323d
000002c0: cbfe ecbb 5b75 00bd 76b0 553d 1a4a 53bd
000002d0: a174 033c b893 85bc 0bce 453d ef40 b33c
000002e0: 1c9e 143d 3739 e23c 8114 36bc c388 17bc
000002f0: 042c 3abd d359 353d 4048 773d dbf4 5a3d
00000300: c0cf 15bd 6a55 273c e952 18bd bf77 c1bc
00000310: e9ff 04bd 9f11 ff3c dfbc f0bc ad45 993b
00000320: 521d 223c 078a 503d 5674 fbbc 7656 02bd
00000330: 1e34 d8bc 335a 733d 89d3 67bc 9b41 7e3d
00000340: 7800 e63c b8b9 6a3c 394a b6ba 6100 0ebc
00000350: 309b 603c 2fcc 41bc 3343 623c 2891 bd3c
00000360: a721 f0bc 4fec 85bd 1a5e d33c 6ce1 a4bd
00000370: cc05 fabc c2a3 333d 9340 843b 0477 e2bb
00000380: 8fa1 00bd cc9c 643d ac3d e8bc 31ae a7bb
00000390: 5759 f4bb b280 c1ba f6da 703b 85f3 753d
000003a0: 839b 8c3c 155d 863d faa9 3b3d adf6 07bd
000003b0: 58a6 023d eb2d 1bbd 2c94 72bd 3253 11bc
000003c0: a9d1 a8bb f363 bc3c e50b 2cbd 8ecb aabc
000003d0: 7ef8 bc3c 222f f5bd 364d be3d 409c f1bd
000003e0: 67d5 5e3d dcd1 a7bd 7635 b3bd f0aa 19be
000003f0: 0107 153d ba37 81bc e94d 64bd 6594 acbc
0.021819381 0.05523987 -0.032164764 -0.029345807 -0.0089806225 0.03323163 0.030089881 0.041348316
-0.016024116 0.007452497 -0.028808452 -0.020925246 -0.06915812 -0.04939745 -0.034637995 -0.002881277
0.0156160155 0.033850554 -0.033430606 -0.022198431 0.01843837 0.053280495 -0.015618919 0.048491083
-0.0129629 0.00344544 0.058367774 -0.061833046 -0.031924814 -0.007966243 -0.01762264 0.06331182
-0.034282807 -0.02316105 -0.040447395 -0.06493795 -0.042162802 0.05296204 0.023996932 0.028183073
-0.0007584573 -0.037172697 0.017163709 -0.055316783 -0.041184243 -0.028796867 0.045892034 0.044495713
-0.020553816 -0.030876234 0.066155635 -0.023341056 0.07206219 0.010295259 -0.09690993 -0.16539602
-0.012751283 -0.06932194 -0.07053576 -0.052393124 0.007004361 -0.026351575 -0.1653885 0.046238154
0.062067427 0.017634545 0.029736124 0.043194093 0.06750146 0.08988191 -0.044516098 -0.01914272
0.02965681 0.05732315 0.060800236 0.061173417 0.017258646 -0.06962248 -0.003965248 -0.049702264
-0.07448055 0.045843977 0.038198985 -0.07600506 0.0073069865 -0.014265499 -0.013188972 -0.031174168
0.026036128 -0.03872298 0.024440205 0.03257059 0.046164498 0.023472657 -0.06321928 -0.043653794
0.030172301 0.012315743 -0.048053693 -0.03511906 0.06474739 0.046801187 -0.026797721 -0.014516203
-0.05978725 0.009147676 -0.04096114 -0.04347099 0.004471152 0.01877522 -0.019473625 0.0460111
-0.03710739 0.05889982 0.044394456 -0.053276185 -0.014948333 0.0029589871 0.010115515 0.019774295
0.029206248 0.008283726 -0.026979337 0.03415805 -0.056797735 -0.032348607 -0.014134153 -0.029754255
-0.022001768 -0.051741675 -0.012352302 0.014125945 -0.04109568 0.0010512914 0.050503552 -0.0015658286
0.004908941 -0.00377447 0.014882675 0.045577727 0.052422393 0.031567544 0.051673573 -0.014954777
-0.06949104 -0.041251726 0.036133997 0.0073924814 -0.027500719 -0.047104992 -0.05853075 -0.05241742
-0.010650348 0.03774687 0.03367209 -0.06581149 0.042829912 -0.053771313 -0.018422982 -0.030168833
-0.011057665 -0.002623826 -0.047927443 -0.044593494 0.0016406697 0.012220342 -0.016938234 0.03975356
-0.050716568 0.0013352918 0.060808063 -0.021562738 0.062159337 0.02717001 -0.051269975 0.043533448
-0.007232522 -0.03136192 0.05217024 -0.05158434 0.008023412 -0.01630579 0.0482922 0.021881549
0.036283597 0.027615173 -0.011113287 -0.009248915 -0.045452133 0.044275116 0.060371637 0.05345617
-0.03657508 0.010213235 -0.037188444 -0.02361667 -0.032470617 0.031136332 -0.029386936 0.0046774955
0.009894686 0.050912883 -0.030695122 -0.031820737 -0.026392039 0.059412193 -0.014149555 0.062074285
0.028076395 0.014326505 -0.0013907618 -0.0086670825 0.013708875 -0.011828466 0.013809967 0.023140505
-0.029312922 -0.06539213 0.025801707 -0.08050808 -0.030520342 0.043857343 0.004036018 -0.0069111604
-0.031404074 0.055813596 -0.02834972 -0.005117201 -0.007456939 -0.0014763086 0.0036751605 0.06004669
0.017163998 0.06560723 0.0458164 -0.033194233 0.03189692 -0.037885588 -0.05922334 -0.008869933
-0.0051519466 0.022996878 -0.04200353 -0.020849016 0.023067709 -0.119718805 0.092920706 -0.117973804
0.054402735 -0.081943244 -0.08750431 -0.15006614 0.036383633 -0.015773643 -0.055738363 -0.021066854

model.tcn.0.net.4.bias f4 [25]
00000000: 3962 94bc 00e7 c03b 68c2 34bc a868 493d
00000010: 2d1a ae3d be0b 703d b5f3 8cb9 2bc9 8bba
00000020: f6df 4d3c c4be 4fbd 426c b53b 2b2d 8a3d
00000030: 97a3 0f3c c406 a53d cd01 d0bb 0778 a73d
00000040: 7d1f 993d 21cf 12bd 7575 8cbd ed3c f3bc
00000050: 951c 593d fcf7 903d 7b60 53bd ba6a 20bd
00000060: de07 3c3d
-0.018113242 0.0058869123 -0.011032678 0.049172074 0.085010864 0.05860495 -0.00026884457 -0.0010664811
0.0125656035 -0.050719038 0.005536587 0.06746896 0.00876703 0.08057931 -0.006347871 0.0817719
0.07476709 -0.035842065 -0.06858341 -0.029692138 0.053005774 0.07078549 -0.051605683 -0.039164282
0.04590594

model.tcn.0.net.4.weight_g f4 [25, 1, 1]
00000000: 01c9 143f f2bd 123f 627d 0b3f 74df 153f
00000010: 40d8 143f 4ef7 0b3f feb9 163f e78f 283f
00000020: eb69 133f 3218 193f b5e3 0e3f ec62 183f
00000030: bffe 073f 1ae8 0e3f 61e9 2b3f 70c1 0f3f
00000040: 85cb 1a3f 9e8e 0d3f cc2b 183f d582 0f3f
00000050: 878e 153f 9490 0e3f 7edf 193f 3c9f 133f
00000060: 0985 283f
0.5811921 0.57321084 0.54488194 0.5854409 0.5814247 0.5467423 0.5887755 0.6584458
0.57583493 0.59802544 0.55816203 0.5952594 0.53123087 0.5582291 0.6715298 0.5615454
0.60466796 0.5529574 0.5944183 0.5605901 0.58420604 0.5568936 0.60106647 0.5766485
0.65827996

model.tcn.0.net.4.weight_v f4 [25, 25, 7]
00000000: f8cb 02bc 0c50 213d 84ae 73bd c8b9 f83c
00000010: 70a4 753d f895 3c3d 0b20 12bd e894 9f3b
00000020: 0253 923c a5a6 4a3d f739 97b8 8645 a23c
00000030: 7fe1 b43b 9b09 b23c 132d 63ba 84d8 10bd
00000040: 5529 40bd 9ff8 743d 328e 5f3d 1ef2 7f3c
00000050: e2cf be3d 886a 813d a17c 02bd aca2 64bc
00000060: a1c6 12bd d6d7 113d a2a0 a33c 03c6 993c
00000070: 30f7 453d 0454 86bc 1663 e5bc 2a64 1bbd
00000080: c595 cabc ea73 673d 8361 6abc a011 29bc
00000090: 9f90 1f3d 0c24 40bd 3665 1cbd 77a0 663d
000000a0: 9f22 04bd 5faf 51bd d5c1 d93a e16f 3b3b
000000b0: 4bfa a63c cf87 043d 767b 0ebd 4d0f 863d
000000c0: ced2 30bd 8a2c ac3c 3bc9 90bc 0e3c f3bc
000000d0: f022 883d 490d 82bd e935 893c 3142 8e3d
000000e0: 5d4e 713d 173d 33bd b1e5 843c 06a3 893d
000000f0: 6646 46bd c0f2 6c3c f14a 37bd d11a c33c
00000100: f40c 55bd ec6f 293d dab5 16bc 637a 2d3d
00000110: e89e 5f3c a624 7d3c 8e46 8eba 1126 41bd
00000120: 0aed 80bc 2ed7 8e3c d0b0 27bd 0104 9a3d
00000130: 5db8 8ebc e7db 88bc 8f36 65bb 3143 33bd
00000140: c054 dcba 79c7 29bc fc74 43bd feda 3fbc
00000150: 30d4 6c3d 2ebd c33c 272b 653d d5d5 133c
00000160: cc19 5abc 3ee9 7d3d 1eb6 2ebc bf8c 81bd
00000170: 399c 6e3c 75f6 053d 3c37 25bd f074 c43c
00000180: 1870 33bc b154 bf3c 5073 8a3b 8565 293b
00000190: 3f9a 27bd 3243 9c3c e74c e5ba 15f4 543d
000001a0: a892 963c 14d8 54bd 9b1f 43bd 4fbe 04bd
000001b0: 028e 043d 4c40 41bd 8647 61bc 441c 423d
000001c0: 6286 b7bc bd49 21bc 4fe7 7b3d 74a2 5fbc
000001d0: 2214 c3bb 652d 4d3d eb20 f33c 9113 1a3d
000001e0: 6229 8bbd df64 ac3c 86b2 a9bc 7d35 58bd
000001f0: e7de 34bd 1fca b2bd d9ba 3b3d e44b 4abc
00000200: 8e52 8bbd 090a 773d c71e 333d 6a33 0d3d
00000210: 4a53 cf3d 3f0a 9b3d b0f4 9d3d df13 973d
00000220: 4ad3 863d 1e98 de3c f1f0 0e3c 18c8 d63c
00000230: 2a07 00bd 4d86 e63c 2f6f 9dbb 5b47 6d3c
00000240: 3e8c 3cbd d14f 6bbc 4770 913d a838 2b3b
00000250: b1ef 403c e9ac 82bd 9497 0abd 2d60 2dbc
00000260: 07a9 cbbc 8eb2 02b9 b935 98bc 2bde 5f3d
00000270: 3d8f fbbb 14c1 ea3c f2d5 32bd 9d52 063d
00000280: b44d dcbc 3957 5cbd 444f 21bd 07c9 ce3c
00000290: 46fc 2d3c ef3e 6d3c 0ad5 a63b 6dc4 b43d
000002a0: 4e2e 963d 36f2 1d3d ee29 6e3d bfcc 163c
000002b0: cd5e 80bc 7126 043d f74c a43d 1453 963a
000002c0: ae5f 38bd b883 023d 9a57 2dbc ccc7 dbbc
000002d0: da62 7b3d 5bf1 fd3c b699 a0bc 4884 a8bc
000002e0: f4c0 9c3d 4f16 613d d62a 0ebd 7472 b53c
000002f0: b871 cd3c 9699 0e3d 6c41 59bd f3a5 cc3b
00000300: 0d66 e63c ed6a 193d 4760 ce3c 9b14 12bc
00000310: 2b75 62bd 4382 3b3d 4de9 933d b245 33bc
00000320: 4607 50bd 63d0 093d b80f dcbc 52a4 e0bc
00000330: c613 853c 51af ddbb 2aa5 c3bb 9793 4d3d
00000340: 29e0 eebb 5728 333d f8ca 5fbc cc0f 6f3d
00000350: f7b4 d53c 67d9 863d c76b e53c 3fff f3bc
00000360: 23a8 823c 5398 7e3d 78fa b63c 36f4 203d
00000370: 03f9 14bd a6c5 3b3d 59d5 56bd 50bf 963d
00000380: 530b fb3c 7cec 0f3c 75a3 7fbd a922 8b3d
00000390: d5e5 403d 2080 a03d d7b6 523d 9d5a 0a3c
000003a0: 35f2 c9bc d303 09bd 437a 693c 50ea 603c
000003b0: 3167 75bc 9f2d 39bc 6a67 053d 641e 74bd
000003c0: ee19 60bd c022 79bc 8e3b 303d 7f3a 243d
000003d0: 53cf 4bbd 0f77 55bc 77e4 743b 2a85 093d
000003e0: 591d 8c3d 9a12 4e3c 1faa 2dbd e644 ed3c
000003f0: 9b70 e7bc bb8d 2dbd d37d 393c 3feb 6fbc
-0.0079832 0.03938298 -0.059492603 0.030362025 0.059971273 0.04604146 -0.03567509 0.004870046
0.017861847 0.04947533 -7.211038e-05 0.019808542 0.0055200453 0.021733096 -0.00086660794 -0.035362735
-0.046914417 0.059807416 0.054578967 0.01562169 0.09316994 0.06319147 -0.031857137 -0.0139548
-0.03583396 0.035606228 0.019974057 0.018771177 0.04833144 -0.016397484 -0.02800135 -0.03793732
-0.024729619 0.05650703 -0.014305475 -0.0103191435 0.03895628 -0.046909377 -0.03818246 0.056305375
-0.03225958 -0.051192638 0.0016613553 0.002860062 0.02038302 0.03235608 -0.03478571 0.06545887
-0.04316979 0.021017332 -0.01767408 -0.029691722 0.06647289 -0.0635019 0.01674934 0.06946219
0.058912624 -0.04375943 0.016222807 0.067205474 -0.04840698 0.014462173 -0.044749204 0.023816498
-0.052014306 0.041366503 -0.00919863 0.042353045 0.013648726 0.015450632 -0.0010854767 -0.047155444
-0.015738029 0.01743659 -0.040940106 0.07520295 -0.017421896 -0.01670642 -0.0034975146 -0.04376525
-0.0016809925 -0.010362499 -0.047718987 -0.011709927 0.057819545 0.023893919 0.055949356 0.0090231495
-0.0133118145 0.061990015 -0.010663537 -0.06325673 0.014563614 0.032705743 -0.04033588 0.023981541
-0.010952018 0.023355814 0.004225172 0.0025847864 -0.040918585 0.01907501 -0.0017494232 0.051990587
0.018380478 -0.05196388 -0.047637563 -0.032408055 0.03236199 -0.04718046 -0.013749963 0.047390237
-0.022402946 -0.009844241 0.06149989 -0.013649572 -0.0059533278 0.05009212 0.029678782 0.037616316
-0.067950025 0.021044193 -0.02071501 -0.052785385 -0.04415789 -0.08729958 0.04583249 -0.012347195
-0.068028554 0.060312305 0.043730523 0.03447286 0.10123308 0.07570314 0.07712686 0.07376837
0.06583269 0.027172145 0.008724437 0.026218459 -0.031256832 0.028140211 -0.004804514 0.0144823445
-0.046032183 -0.014362291 0.07101493 0.00261263 0.011775897 -0.06380636 -0.033835962 -0.010582012
-0.024860872 -0.00012464283 -0.018580304 0.054655235 -0.0076769874 0.02865652 -0.043661065 0.03279363
-0.02689252 -0.05379412 -0.039382234 0.025242342 0.010619229 0.014480337 0.005091314 0.08826528
0.07333051 0.03856107 0.058145456 0.009204089 -0.015670205 0.032263223 0.080224924 0.0011468851
-0.045013122 0.031863898 -0.010579968 -0.026828669 0.06137357 0.030998876 -0.019604545 -0.02057089
0.076539904 0.054952916 -0.03470882 0.022149302 0.02507864 0.03481444 -0.053040907 0.0062453686
0.028124833 0.037455488 0.025192393 -0.008916046 -0.05528752 0.045778524 0.07222233 -0.01094191
-0.050788186 0.033646 -0.026862964 -0.027422104 0.01624478 -0.006765284 -0.005970617 0.05018958
-0.0072899056 0.043739643 -0.013659231 0.058364674 0.026087267 0.06584435 0.028005494 -0.029784797
0.015949314 0.062156986 0.02233623 0.039295398 -0.03637029 0.04584279 -0.052449558 0.07360709
0.030645048 0.00878441 -0.062411744 0.0679372 0.047094185 0.07836938 0.0514439 0.008444455
-0.024651626 -0.033450913 0.014250341 0.013727739 -0.014978216 -0.011302381 0.032569326 -0.059599295
-0.05471223 -0.015206039 0.043025546 0.04009485 -0.049758267 -0.013028874 0.003736762 0.03357426
0.06841535 0.012577677 -0.04239857 0.028963517 -0.028251937 -0.042371493 0.011321503 -0.014643489

model.tcn.0.downsample.weight f4 [25, 28, 1]
00000000: 67d9 983c dd0c 8ebb 0e36 01bd b5ac cd3a
00000010: 7b85 293c bf19 83bb b4e8 88ba 7856 02be
00000020: 65ca 1abe 25b9 9cb9 cdd8 cdbc 0e32 9a3c
00000030: e710 cd3a 5598 1cbc 3d63 583c 831e 5a3c
00000040: 5c2b 8fbb 3c6e 693c bc46 2a3c 94b2 883c
00000050: fa6d dcb9 108e 9abc 1543 a6bb 7270 5fbc
00000060: c233 853b 9bd6 bbbb 9eb7 cd3c 0844 bb3c
00000070: 5384 cd3c 3361 9839 1bbd cd3c d51d 11bb
00000080: a0ac 9dbb efb5 b0bb bf76 73ba 72c7 10be
00000090: 80da 0ebe dcb8 babb 8c24 76bb cf23 5d3c
000000a0: aca0 26bb 3179 ecbb 365e 9f3c 3916 d73a
000000b0: c5d7 1cbc 6b6c d23b 5857 b8bc 9ce2 673a
000000c0: 6970 86ba 78a2 ddbb 1959 103c ce79 673b
000000d0: 1929 be3b 29ff 72bc 7569 32b9 454c b03c
000000e0: 8998 693b 7ad5 e7ba fbd5 e63a e2ca a83c
000000f0: b9b5 33bc e2f3 d73c c20a ae3c 580b 3c3a
00000100: 9dd4 d33c d9a6 47bc f804 403c 6527 3dbc
00000110: f5ba 96bb c7b9 dfbb bf54 dc3b 7ad4 93bb
00000120: 161a 03bc 1111 d2bb 3cc0 ca3b d28a 4fbc
00000130: c157 883c 925e 013b 79bd 923b 9ddf cdba
00000140: 5915 abbb f663 11bb d256 ddbc 64d0 1e3b
00000150: 59b7 5a3d 8ba0 abbb 6ada 9e3c 18e1 233c
00000160: ae58 89bb ce0f 15bd dd32 6a3c 5e98 61be
00000170: 1743 07be 8c86 563c 9937 533c 8d07 5e3b
00000180: 5170 893a cc6f b4bc d030 76bb 2c2b 89bc
00000190: 0c95 3abc a334 28bb 80a8 fabb dd87 a23c
000001a0: 3f85 48bc f456 95bc 9e73 ab3c a91a 8b3c
000001b0: d9e3 5c3b e094 44bc ea9f 40bc 36bf ac3c
000001c0: 84f9 a53b be8d 303b 4b59 623c 4504 14bd
000001d0: b1a6 3cbc 7803 7cbc fecb 03bc d150 87bd
000001e0: 3214 c83c 2853 d6bb 7496 5b3c 4426 43bd
000001f0: 2578 013c 3277 83bc 14dd b13c 11b0 2d3a
00000200: b194 78bc 0d76 32bc bdaf a9bb 56b6 e73c
00000210: c7bd 34bc 6cc8 8abb f8dc 33bd f858 aebc
00000220: d828 a9bb 2d25 adba 8c72 85bb 4c00 a13b
00000230: e9a4 713c f5a0 6bbb 571e 52bb 5f6d 70bc
00000240: a340 94bc 7fba ce3b e4c0 e2bb 4e48 243c
00000250: 75d3 e13c 0a60 c03a 1b05 22bb bb5c 8abc
00000260: 54eb ee3b 72f6 85bc 5a60 1b3c d25f e639
00000270: 6dbc 3f3c 9b57 7d3c fddb 433c 7de5 b43a
00000280: 32d2 903b a6a8 76bc 7442 84bc c59b 803b
00000290: 3648 883b c5a8 17bc 4ff8 18bb dbc1 9d3c
000002a0: a09b 1b3c 879d e3ba 920a afbb 48d6 293c
000002b0: ceda edbc 457b f4ba aecd b83b 6330 9ebe
000002c0: 0fb0 59be 61cd 64bb 1e20 9d3c cf88 d83b
000002d0: a39a 9ebc a885 dd3c 3cfe 3f3c 95ec c33a
000002e0: d171 0dbc d1bc 0b3c c59f 33bc 9552 713c
000002f0: 612b 493b 177f 7dbb 09c5 043c 54a7 89bc
00000300: 30fe 6f3a 4588 8cbc b602 4d3c 5e82 483c
00000310: 83c1 a43c 6720 813b 68fb e5bc b3c8 89bc
00000320: a4ee 293c acf5 63bc 5458 9dbc 5643 3dbe
00000330: ecd1 56be bc76 e7bb 536c e3ba 0a12 26bd
00000340: b5e4 afbb 3376 923b 62a9 283c b143 903c
00000350: 1229 73bc c332 523c a17e e93b 32c5 edbc
00000360: f9e6 11bc 31d8 933c 8e34 c5bc b333 75bc
00000370: dae7 10ba 34f6 23bb 2de4 103d 11c9 b7bb
00000380: c0b8 3939 1716 ecbb 570f 9abd 0dc5 af3b
00000390: 081b be3c 8d61 e33b 99af 4837 f721 8e3d
000003a0: 3250 5f3d e864 4ebc f981 a23b cd79 ccbb
000003b0: 05c1 253c 08f9 853c afe6 aabc 0dbc 883a
000003c0: 7a2b 9dbc ca22 083b 109c fa3b 72d1 45bc
000003d0: 2e60 aeba 2974 a9bc 1179 34bc e0c4 efbc
000003e0: 2b97 0d3c b295 bf3b 2893 953c 9ead 0fbd
000003f0: fe73 d43c 0952 cbbb a2ed 593c 7308 ac3b
0.018658353 -0.0043350295 -0.03154569 0.001569173 0.010346766 -0.004000872 -0.0010445327 -0.12728298
-0.1511627 -0.00029892582 -0.025127793 0.018822696 0.0015645296 -0.009557803 0.013207254 0.013312939
-0.0043691825 0.014247473 0.010392841 0.016686715 -0.0004204361 -0.018866569 -0.005073915 -0.013637649
0.004065008 -0.00573237 0.02511197 0.022859588 0.025087511 0.00029064118 0.025114587 -0.0022143025
-0.0048118383 -0.005392782 -0.0009287409 -0.14138582 -0.13950539 -0.0056983065 -0.0037558405 0.013497307
-0.0025425358 -0.0072165956 0.019454103 0.0016409821 -0.009572928 0.006421616 -0.022502586 0.0008845718
-0.001025689 -0.0067637525 0.008810305 0.0035320404 0.005803239 -0.014831343 -0.00017014689 0.021520743
0.0035643897 -0.0017687522 0.0017611379 0.020604555 -0.010968619 0.02636141 0.021245364 0.0007173321
0.025858218 -0.012185776 0.011719935 -0.011545037 -0.0045999237 -0.0068275663 0.0067239697 -0.004511413
-0.008001825 -0.006410726 0.006187467 -0.012667375 0.016643407 0.0019740206 0.0044781533 -0.0015706901
-0.0052210507 -0.0022184826 -0.027018938 0.0024233097 0.05339751 -0.005237644 0.019391257 0.010002397
-0.0041914796 -0.036392026 0.014294353 -0.2203078 -0.13209186 0.013093602 0.0128916735 0.0033879012
0.0010485743 -0.022025965 -0.0037565716 -0.016744219 -0.011388075 -0.002566614 -0.0076494813 0.019840175
-0.0122388 -0.018229939 0.020929154 0.016980486 0.0033705144 -0.011998385 -0.0117568765 0.02108727
0.005065145 0.0026939954 0.013815234 -0.036136884 -0.011514352 -0.015381686 -0.008044241 -0.066072114
0.024423692 -0.0065406747 0.01340257 -0.047643915 0.00790218 -0.016048048 0.021711864 0.0006625662
-0.01517217 -0.010892403 -0.0051784203 0.028285187 -0.011031575 -0.004235318 -0.043911904 -0.021282658
-0.0051623397 -0.0013209932 -0.004072493 0.0049133655 0.01474879 -0.0035954092 -0.003206154 -0.014674514
-0.018097227 0.006308853 -0.006919967 0.010027004 0.02756665 0.0014677059 -0.0024722281 -0.01688992
0.007291237 -0.016352866 0.009483421 0.0004394041 0.011702639 0.015462781 0.011954305 0.0013801303
0.0044195885 -0.015054857 -0.016144969 0.003924819 0.004158999 -0.009256546 -0.0023341363 0.019257477
0.009497553 -0.0017365672 -0.0053418363 0.01036603 -0.029034998 -0.001865246 0.0056397533 -0.3089629
-0.21258567 -0.0034912454 0.019180354 0.0066081057 -0.019360846 0.027041271 0.011718329 0.0014947826
-0.008633093 0.008528904 -0.010963385 0.014729162 0.0030696022 -0.0038680488 0.0081036175 -0.016803421
0.00091550034 -0.017154822 0.012512853 0.012238113 0.020111805 0.0039406302 -0.028073981 -0.016819334
0.010371838 -0.013913553 -0.019207157 -0.18482718 -0.20978516 -0.007063715 -0.0017351009 -0.040544547
-0.00536784 0.004469657 0.01029429 0.017610403 -0.014841335 0.012829485 0.007125691 -0.029024694
-0.008905166 0.018047424 -0.024072912 -0.014965939 -0.00055277126 -0.0025018575 0.035373855 -0.005608686
0.000177118 -0.0072047818 -0.07522457 0.0053640665 0.023206249 0.006939119 1.19618135e-05 0.06940072
0.05451984 -0.0125973 0.0049593416 -0.0062401057 0.01011682 0.016354099 -0.020861952 0.001043202
-0.01918577 0.002077269 0.0076479986 -0.012073861 -0.001330381 -0.020685272 -0.011015193 -0.029268682
0.008641998 0.0058467025 0.018258646 -0.035077684 0.025934216 -0.0062048477 0.013301285 0.0052500307

model.tcn.0.downsample.bias f4 [25]
00000000: 1d59 4cbd 5c8c 133e 5505 093d 2b5b 253d
00000010: 1516 8e3d b444 783d 09be 00be 6fce 5b3c
00000020: 200d 07bd e291 6abd 1327 e0bd 819e c7bc
00000030: 457b 5f3c cf7b 42bd 7661 d0bb b029 02bd
00000040: 8f0e 993c 58d6 19be 0fcf 3b3e f579 a2bd
00000050: 9e39 e63d 7303 24be dba3 62bc c4c9 dcbc
00000060: 6f7f 09be
-0.049889673 0.14409012 0.03345235 0.040370148 0.069378056 0.060612395 -0.12572493 0.013415917
-0.0329715 -0.05726803 -0.10944953 -0.024367573 0.01364023 -0.047481354 -0.0063592745 -0.031778038
0.0186837 -0.15023172 0.18340705 -0.07933418 0.11241458 -0.16016941 -0.0138330115 -0.026951678
-0.13427518

model.tcn.1.conv1.bias f4 [25]
00000000: 547d 46bd fbb8 853c 633e 44bd 5258 b03d
00000010: 4f6d 7cbd 47db 76bd 5ea4 8d3d 8c1d 6fbd
00000020: 1ca5 68bc aabc 08bc 7ecf 3d3d e423 133e
00000030: 9886 21bd ed35 5fbd 1e9a 343d a53b a23c
00000040: a341 4c3d 72c8 933d 1751 3fbd 4d6d 4f3d
00000050: 31f7 ae3b ed67 703d 59fd 663c 7067 a83d
00000060: 9b72 92bc
-0.048459366 0.016323557 -0.04791106 0.08610596 -0.061627682 -0.060267713 0.06916116 -0.058377787
-0.014199521 -0.008345762 0.046340458 0.1436916 -0.039435 -0.054494787 0.04409229 0.019803831
0.049867284 0.07215966 -0.046708193 0.050641347 0.005339526 0.05869286 0.014098489 0.08222854
-0.017876914

model.tcn.1.conv1.weight_g f4 [25, 1, 1]
00000000: 37ef 123f 19f1 113f 99b1 303f 1437 193f
00000010: 3600 113f 38c8 0a3f 5871 253f d44c 133f
00000020: 2007 1e3f 0241 0c3f 5243 233f 58ef 343f
00000030: 5cc3 1d3f 56d3 1d3f 0617 1f3f df07 133f
00000040: 8056 133f e1bc 123f c31c 163f 8d86 1d3f
00000050: 336f 1d3f dd43 1c3f 223d 1b3f db18 163f
00000060: e999 0f3f
0.5739626 0.5700851 0.6902099 0.5984967 0.56640947 0.5421176 0.64626074 0.57539105
0.6172962 0.54786694 0.637746 0.7067771 0.6162622 0.616506 0.62144506 0.57433885
0.57553864 0.57319456 0.58637637 0.61533433 0.614978 0.6104105 0.60640156 0.58631676
0.56094223

model.tcn.1.conv1.weight_v f4 [25, 25, 7]
00000000: 26ff 2e3d 2adf 9f3c c9bd 0e3c 92cd c43c
00000010: 560c ad3b a07a 25bd ed5f aebc 38e5 f8bc
00000020: 4805 0a3d a3ab aebc 088e c73c d822 23bd
00000030: fded 56bd 341f a03d 5788 25bd ec5a dc3c
00000040: 6d14 4d3d bb99 69bb a8f5 f83c 5a03 65bc
00000050: e7b8 6bbd a2b7 17bd 6ac6 aebc aaea 26bd
00000060: 2202 4abd cbd3 603b 7618 ec3c 0770 af3d
00000070: bdd4 003d 3c7a 26bd a846 bd3a 0668 203d
00000080: 8f79 953d 8092 41bc 0794 8c3d ee8e 293d
00000090: e04a 0ebc 8e60 6ebd a414 203d 85e6 293d
000000a0: cc78 2dbd effe 893d 1e3c 94bb b188 5cbd
000000b0: b58b 903a 52e0 b13c 06fe 60bc 3a24 9abd
000000c0: 93e4 053c 208d a13c fae7 eb3c 37b9 2b3d
000000d0: b168 5d3c b9ad 8d3c b359 10bd d4f4 eb3d
000000e0: 411f 8b3c f52e dc3b 3d63 5a3d 98a7 94bc
000000f0: 5575 323d 2f2a 70bc 3bc9 2d3c e6ba a2bc
00000100: dac2 fe3c 0071 c5bc 537f 0dbb 1fb8 073d
00000110: ba86 0ebd bc10 2b3d f057 06bd ccf1 1f3d
00000120: 362c de3c 242e cfbc bc10 d6bc 6aaa ef3c
00000130: 8f3b ed3d b29a 573d e5b4 fabc 2ff2 9fbc
00000140: 8ca9 3ebd e7c1 61bd 1bab f5bc 5aa9 613d
00000150: cf60 11bd 13de 99bc 1f93 963b 3151 9abc
00000160: 813c 7bbd 49fd c73c c2ad 173c a2d7 ec3b
00000170: 747a e43c 7fd1 66bd ee8a 3fbc 9483 72bd
00000180: eabb 0f3d 3910 b2bb 1e1b 2d3d 8c82 013c
00000190: 05cc cabc 3a96 a63c 2c40 7bbd 201b 49bd
000001a0: 996a 103d 5f64 803d 5983 51bd b80d f03c
000001b0: 152c 753d 0f7e afbc 7b25 42bd ce04 9cbc
000001c0: 3443 96bc b755 603d ac53 22bd f5df 6c3d
000001d0: 80db 80bd 3ea9 203d b5fa 173d 838d e7bc
000001e0: dcf7 5cbd abb6 09bd c329 2fbd 2a26 75bd
000001f0: a081 debc 42d4 b43c 183f 6cbd 47b3 bc3d
00000200: 1c05 1c3d 6b53 423d c979 1fbc 29ac a2bc
00000210: 7ceb 983d 71a5 d73c f34b 013b 6cab 363c
00000220: 33fb 553d f98d c73b df13 81bc d498 f13c
00000230: 4d78 27bd c89b 7c3d ffe3 3d3c 02aa fc3c
00000240: da84 a03b 148a 723d aecb 403d c00d 3d3d
00000250: 49af 03bd cd72 563c 44ae 343d e9a5 303d
00000260: 7639 1abd 0f38 b13d be15 82bd a05c 103d
00000270: 99f9 cfbc 51a3 48bd b6fa 163d b4cb a4bc
00000280: 5467 0b3d d077 003d 9826 553d 4cdc 5a3c
00000290: de7b 5ebd 1a25 2cbd da1d 83bd 3690 9d3d
000002a0: 63a5 87bd 6ff5 04bd 49ce 7ebd 67f6 43bc
000002b0: 2fd1 b33c f395 8bbc fab6 8c3d 34e9 a63c
000002c0: 970d 4fbd d9b6 d9bc 9a87 d83c d8f5 91bd
000002d0: 901e b2bd 8ed7 48bd d8c6 81bd f16e 8bbc
000002e0: 64a6 233d bf3b 94bb fc88 613c 1d58 943b
000002f0: 2ea9 45bd a30b 53bc 0d3c b93c 0f24 833d
00000300: 744e b8bc c8fa 5c3d b7b5 59bc de83 d3bc
00000310: a563 a83c 8c98 3a3d e514 5e3c a653 163d
00000320: 9e07 b73a aba6 bbbc be88 e8bb cfa7 283d
00000330: 00f0 8f3b f2bf 1d3d f9d7 e13c 55a4 1dbd
00000340: 8699 a83d 8d83 07bd 4805 0a3d 817b 31bd
00000350: fac2 a8ba 91d6 383d 13ec 273d c2bd 953d
00000360: af06 9cba 7ecf ed3c 4e7e 023d 9d46 63bd
00000370: 7b68 26bd 1df2 5d3c 33e8 b0bc 1b1d 2bbd
00000380: ee3c 64bc 8c76 e53c 70dc 403d ff62 483d
00000390: 32cd 213d c285 6e3c 4545 4cbd edb0 533d
000003a0: 4761 57bc 9c7b 6b3d 145b d1bc b81b 3e3d
000003b0: 9c52 e73c 330c ac3d b666 713c 8a0e 073d
000003c0: 98e7 71bd 45fa 4a3c 5f5d 84bd 5c0d 8cbd
000003d0: febf 98bd f3b1 7fbc 9095 0a39 3c6b 0d3d
000003e0: 95db a53c 1977 33bc dd0f 573c d049 74bd
000003f0: b107 643d dead 18bd 2655 f6bc 7671 b6bb
0.042723797 0.019515593 0.0087122405 0.024023805 0.0052810116 -0.040400147 -0.021285975 -0.030382738
0.033696443 -0.021322077 0.024359718 -0.03982815 -0.052473057 0.078184515 -0.040413227 0.026898824
0.050068308 -0.003564461 0.030390576 -0.01397785 -0.057549383 -0.03704036 -0.021334846 -0.040751137
-0.04931844 0.0034305926 0.028820258 0.085662894 0.031452883 -0.040643916 0.0014440613 0.039161704
0.07298576 -0.0118147135 0.068641715 0.041396074 -0.008684844 -0.05819755 0.039082184 0.041479606
-0.04235153 0.06738078 -0.004523768 -0.053841297 0.0011027964 0.02171341 -0.013732439 -0.07526441
0.008172172 0.019720614 0.028797138 0.04192468 0.01351373 0.017294751 -0.035241794 0.11521307
0.016982676 0.006719465 0.053317297 -0.018146321 0.043568928 -0.014658495 0.010607059 -0.01986451
0.031098772 -0.024101734 -0.0021590784 0.033134576 -0.034796454 0.041764006 -0.032798707 0.039048955
0.02712069 -0.025290556 -0.026131026 0.029256064 0.115836255 0.052637763 -0.030603835 -0.019524662
-0.04654841 -0.05511656 -0.029988816 0.055093147 -0.035492714 -0.018782651 0.004595175 -0.018837543
-0.061336998 0.024412768 0.009257736 0.007227854 0.027890421 -0.056352135 -0.011690838 -0.059207514
0.03509132 -0.005434063 0.04226219 0.00790466 -0.024755487 0.020335305 -0.061340496 -0.049098134
0.03525791 0.06269144 -0.051150654 0.029303417 0.059856493 -0.021422414 -0.047399025 -0.01904526
-0.018342592 0.054769244 -0.039630577 0.05783077 -0.06291866 0.039223902 0.037104327 -0.02826572
-0.053947315 -0.03362147 -0.042764436 -0.05985085 -0.02716142 0.022073869 -0.05767736 0.09213882
0.03809081 0.047442835 -0.009733626 -0.019857483 0.0746679 0.026324006 0.0019729107 0.011149269
0.052241515 0.0060899225 -0.015756546 0.02949182 -0.040886212 0.061672002 0.011590003 0.030842785
0.0048986496 0.059213713 0.047069244 0.04615569 -0.032149587 0.013088894 0.044111505 0.043126974
-0.037652455 0.086532705 -0.06351803 0.035244584 -0.025387572 -0.048983876 0.03686019 -0.020116664
0.03403409 0.031364262 0.05203876 0.013358187 -0.054317348 -0.04202757 -0.06402178 0.07693522
-0.06623342 -0.032460626 -0.062208448 -0.011960602 0.021950332 -0.017039275 0.068708375 0.020374872
-0.05055007 -0.026576446 0.026431847 -0.07126969 -0.086972356 -0.049033694 -0.063367546 -0.017020674
0.039953604 -0.004523724 0.01376557 0.0045271055 -0.048257045 -0.012881192 0.022611642 0.06403362
-0.022498347 0.0539501 -0.013287953 -0.025819715 0.020555327 0.045555636 0.013554786 0.036700867
0.0013964062 -0.022906622 -0.007096379 0.04117566 0.004392624 0.03851313 0.027568804 -0.038486797
0.08232407 -0.03308444 0.033696443 -0.043330673 -0.001287549 0.0451265 0.040996622 0.07311584
-0.0011903847 0.029029604 0.031858735 -0.055487264 -0.040626984 0.013546494 -0.021595096 -0.041775804
-0.013930542 0.02801063 0.047085226 0.048922535 0.03950233 0.014558258 -0.049870748 0.0516824
-0.013145751 0.05749093 -0.025556125 0.046413153 0.028237633 0.08400764 0.014733961 0.03297285
-0.059058756 0.0123887705 -0.064631216 -0.068384856 -0.074584946 -0.015606391 0.00013216422 0.034526095
0.020246306 -0.010953688 0.013126341 -0.059640706 0.055671398 -0.037275188 -0.030069899 -0.005567725

model.tcn.1.conv2.bias f4 [25]
00000000: 8b29 edbc 7274 ac3c 0474 09bd 3422 45bd
00000010: f43c 863c b886 883c 105c ad3d c198 923d
00000020: 85a0 dbbc b24f 38bd 7d53 193d 814d 5b3d
00000030: 3267 cb3c 6067 3c3d 7448 2e3c a1fa 22bd
00000040: f441 823c 71d6 47bd d7f9 a93c 9ef8 9cbb
00000050: 1a32 b7bc ef9b ee3c 9b0e 6a3d 4fa8 60bd
00000060: d4d0 d03c
-0.028950473 0.02105162 -0.033557907 -0.04812832 0.016386487 0.016665801 0.08464825 0.07158042
-0.02680994 -0.04499788 0.037433136 0.05354071 0.02482948 0.045997024 0.010637391 -0.0397898
0.01590059 -0.04878849 0.020749016 -0.0047903797 -0.022362757 0.02912709 0.057142835 -0.05484801
0.025490202

model.tcn.1.conv2.weight_g f4 [25, 1, 1]
00000000: 1d6a 203f 3cfd 183f 14ee 0a3f 5959 143f
00000010: 085a 133f 514c 1a3f 77d7 163f ebc5 253f
00000020: 6ed9 073f daac 093f c9cd 153f a58a 193f
00000030: 61bc 173f 1816 2e3f f956 2c3f 62dd 0f3f
00000040: 1805 1a3f 1960 0f3f 468b 143f 5f83 103f
00000050: e096 163f 79f4 063f 3e23 133f c5b0 2d3f
00000060: 355d 183f
0.62661916 0.59761405 0.5426953 0.57948834 0.5755925 0.602727 0.58922523 0.64755124
0.53066146 0.53779376 0.5851713 0.5997718 0.5927182 0.6800246 0.6732021 0.5619718
0.6016402 0.5600601 0.58025014 0.56450456 0.58823967 0.52716786 0.5747565 0.67847854
0.5951722
