etc/ckpts/participants/661_test_30_all/sigmoid/TCN/epochs/TCN-chpkt-pecanstreet-participant-id-661_test_30_all_epoch=157.ckpt (torch, 994637 bytes, 201 tensors)

model.tcn.0.conv1.bias f4 [25]
0	0x3d2ffcc3	0.04296566
1	0xbd231ee5	-0.039824385
2	0x3d360eda	0.044447757
3	0x3cec75c0	0.028864741
4	0xbd839540	-0.064249516
5	0x3cbd4b59	0.023107218
6	0xbd67cc6e	-0.056591444
7	0x3d54964a	0.05190114
8	0x3d381001	0.044937138
9	0x3c1d9426	0.009617841
10	0xbd0eb7be	-0.0348432
11	0xbd87f4c6	-0.06638484
12	0xbc748918	-0.014925264
13	0xbd24a39c	-0.040195093
14	0xbd730ec9	-0.059340272
15	0xbd4f170f	-0.0505591
16	0xbd69a4c4	-0.0570419
17	0xbd64a389	-0.05582002
18	0x3d01e7b9	0.03171513
19	0x3d515953	0.051110577
20	0x3d29d518	0.041462988
21	0xbd85c0cc	-0.06530914
22	0x3d4d6e30	0.05015391
23	0x3cf0202e	0.02931222
24	0x3d2f6f89	0.042830978

model.tcn.0.conv1.weight_g f4 [25, 1, 1]
0	0x3f14df23	0.5815298
1	0x3f12c1a1	0.57326704
2	0x3f23b7f1	0.6395255
3	0x3f192a05	0.5982974
4	0x3f111d55	0.5668538
5	0x3f1bddf9	0.6088558
6	0x3f156e33	0.58371276
7	0x3f12c9a2	0.5733892
8	0x3f0ca4e2	0.5493909
9	0x3f0e04f3	0.554763
10	0x3f0dbbaf	0.5536451
11	0x3f0b58d1	0.544324
12	0x3f13f39c	0.57793593
13	0x3f10d6d6	0.56577814
14	0x3f097bbf	0.53704447
15	0x3f0d2e32	0.55148613
16	0x3f15c3c7	0.5850186
17	0x3f0b6055	0.54443866
18	0x3f14be47	0.5810284
19	0x3f0ac2c0	0.54203415
20	0x3f13b67a	0.5770031
21	0x3f0974c4	0.53693795
22	0x3f226971	0.6344214
23	0x3f0d0e27	0.5509972
24	0x3f0f5422	0.5598775

model.tcn.0.conv1.weight_v f4 [25, 28, 7]
0	0x3cb02967	0.021504117
1	0x3d5be109	0.053681407
2	0xbd056039	-0.03256247
3	0xbcec271c	-0.028827243
4	0xbbfcee9b	-0.0077188737
5	0x3d037faa	0.03210417
6	0x3cf5556b	0.029947957
7	0x3d1e2077	0.03860518
8	0xbc956626	-0.018237185
9	0x3bb0b75b	0.0053929514
10	0xbcf8a362	-0.030351344
11	0xbcb8e78d	-0.02257135
12	0xbd907590	-0.07053673
13	0xbd4d8df3	-0.0501842
14	0xbd0b0f7f	-0.033950325
15	0xba8d7ce8	-0.0010794671
16	0x3c78f237	0.015194467
17	0x3d0b8528	0.034062535
18	0xbcea808e	-0.028625753
19	0xbca3b673	-0.01998446
20	0x3c9c76b4	0.01909957
21	0x3d53c404	0.051700607
22	0xbc88bc25	-0.016691277
23	0x3d40c168	0.047059447
24	0xbc6767f5	-0.014123906
25	0x3add4ca5	0.0016883804
26	0x3d67e211	0.056612078
27	0xbd80142c	-0.062538475
28	0xbce29fc2	-0.02766407
29	0xbb771830	-0.0037703626
30	0xbc5a3ce1	-0.013320179
31	0x3d88efb4	0.06686345
32	0xbcf03634	-0.029322721
33	0xbc9bc35d	-0.019014055
34	0xbd140cfe	-0.036145203
35	0xbd7ea504	-0.06216909
36	0xbd21b688	-0.039480716
37	0x3d601143	0.054703962
38	0x3cd1897b	0.025578251
39	0x3cf58a30	0.02997312
40	0x3ac6c5c5	0.0015165141
41	0xbd0bad81	-0.034101013
42	0x3c92a8e0	0.017902792
43	0xbd5d23d3	-0.053989243
44	0xbd23582f	-0.03987902
45	0xbce49474	-0.02790282
46	0x3d3c0d3d	0.045911063
47	0x3d389d87	0.045072105
48	0xbc9d887f	-0.019230125
49	0xbd13a718	-0.036048025
50	0x3d9c1774	0.07621661
51	0xbcef3053	-0.029197847
52	0x3d90ddd6	0.07073562
53	0x3d192ffc	0.037399277
54	0xbdc8907c	-0.09793183
55	0xbe2afb2b	-0.16697375
56	0xbc6d6168	-0.0144885555
57	0xbd8d88fc	-0.06910893
58	0xbd91c5fa	-0.07117839
59	0xbd5ed161	-0.054398898
60	0x3be7607c	0.0070610624
61	0xbcd7c944	-0.026341088
62	0xbe2a6a12	-0.16642025
63	0x3d37cd4d	0.044873524
64	0x3d783ad4	0.060602978
65	0x3c8797ef	0.01655194
66	0x3cebd6bc	0.028788917
67	0x3d2e314e	0.04252749
68	0x3d8754ef	0.06607997
69	0x3db51793	0.08842387
70	0xbd35ac3e	-0.044353716
71	0xbc9be788	-0.019031301
72	0x3cf20ec5	0.029548058
73	0x3d697036	0.05699178
74	0x3d78a831	0.060707275
75	0x3d78c22a	0.060732044
76	0x3c8b2a70	0.01698801
77	0xbd90f61b	-0.07078191
78	0xbbb51c67	-0.0055270675
79	0xbd4ed965	-0.050500292
80	0xbd9be6c7	-0.07612377
81	0x3d30c1a8	0.043153435
82	0x3d13c367	0.036075022
83	0xbd9dda0f	-0.07707607
84	0x3bce9a00	0.0063049793
85	0xbc7119aa	-0.014715591
86	0xbc5ed6fd	-0.013601062
87	0xbcff92bb	-0.031197896
88	0x3cd2d706	0.025737297
89	0xbd1d2afc	-0.03837107
90	0x3cc660c3	0.024216061
91	0x3d0969bc	0.0335481
92	0x3d41c4bc	0.04730676
93	0x3cca014f	0.024658827
94	0xbd7bbef6	-0.06146141
95	0xbd2cedbd	-0.042218912
96	0x3d00054c	0.03125505
97	0x3c5ad782	0.013357045
98	0xbd55cc0d	-0.05219655
99	0xbd220f3c	-0.03956531
100	0x3d736ac5	0.059427995
101	0x3d2ac57f	0.041692253
102	0xbd00c7c2	-0.031440504
103	0xbc9edde4	-0.019392915
104	0xbd83b171	-0.06430329
105	0x3c06c5b0	0.008225843
106	0xbd2ae385	-0.041720886
107	0xbd359785	-0.044333953
108	0x3b6c6398	0.0036070105
109	0x3c9363b0	0.01799187
110	0xbca85ef2	-0.020553086
111	0x3d37696f	0.044778284
112	0xbd170668	-0.036871344
113	0x3d7094ac	0.058735535
114	0x3d35a377	0.044345345
115	0xbd58da62	-0.05294264
116	0xbc6d5ba4	-0.014487181
117	0x3b4e9c65	0.0031526324
118	0x3c30fa61	0.0108018825
119	0x3ca23838	0.019802198
120	0x3cee2a05	0.02907277
121	0x3c06b138	0.008220963
122	0xbcdd181b	-0.026989033
123	0x3d0c27a2	0.034217484
124	0xbd681549	-0.056660924
125	0xbd029ada	-0.03188596
126	0xbc696e45	-0.014247482
127	0xbcf4c194	-0.029877461
128	0xbcb6cb54	-0.022313751
129	0xbd53b5c5	-0.05168702
130	0xbc47d461	-0.012196631
131	0x3c634a0d	0.013872636
132	0xbd26e94f	-0.040749844
133	0xba59930b	-0.0008299804
134	0x3d45a5e1	0.048253898
135	0xbb4fe71e	-0.003172345
136	0x3b488c95	0.0030601372
137	0xbbbe1916	-0.0058013303
138	0x3c52ca3e	0.012865601
139	0x3d3150db	0.04329
140	0x3d5097a9	0.050925884
141	0x3cf4fa98	0.029904649
142	0x3d4a8c93	0.04945047
143	0xbc88df02	-0.0167079
144	0xbd92608b	-0.0714732
145	0xbd335a67	-0.043787386
146	0x3d051f0e	0.03250032
147	0x3b9f8af5	0.00486886
148	0xbcf3e7fe	-0.029773708
149	0xbd49588f	-0.04915672
150	0xbd775f35	-0.06039353
151	0xbd5efa85	-0.054438133
152	0xbc5d8968	-0.01352153
153	0x3d0ba9d7	0.03409752
154	0x3d04caef	0.032420095
155	0xbd877fc7	-0.066161685
156	0x3d2c1156	0.04200872
157	0xbd5f8abc	-0.054575667
158	0xbca40cca	-0.02002563
159	0xbcfe96ba	-0.031077731
160	0xbc42601d	-0.0118637355
161	0xbb7145a8	-0.00368152
162	0xbd474ef9	-0.0486593
163	0xbd3a0392	-0.04541356
164	0x39bf5c34	0.00036499056
165	0x3c300e78	0.010745637
166	0xbc916133	-0.017746544
167	0x3d1f6d35	0.038922507
168	0xbd509514	-0.050923422
169	0x3a4c65e2	0.0007797164
170	0x3d75e650	0.060034096
171	0xbcb591f8	-0.02216433
172	0x3d7c75df	0.061635848
173	0x3cd96b23	0.026540345
174	0xbd512598	-0.051061243
175	0x3d31dce2	0.04342354
176	0xbbdb5ca2	-0.0066943923
177	0xbcfd4420	-0.030916274
178	0x3d5525c9	0.052037988
179	0xbd4df754	-0.0502847
180	0x3c08492d	0.008318228
181	0xbc7ee086	-0.01555646
182	0x3d414dd0	0.04719335
183	0x3caf512e	0.021401014
184	0x3d132b66	0.03593006
185	0x3cdf1f3c	0.027236573
186	0xbc39078f	-0.011293306
187	0xbc1a5496	-0.009419581
188	0xbd393833	-0.04521961
189	0x3d2f4926	0.04279437
190	0x3d708cf9	0.058728192
191	0x3d54e5c2	0.051976927
192	0xbd1910a8	-0.0373694
193	0x3c13c77b	0.009019728
194	0xbd1a6f28	-0.037703663
195	0xbcc33d03	-0.023832804
196	0xbcf423f6	-0.029802304
197	0x3d057494	0.03258188
198	0xbce4f15c	-0.02794712
199	0x3bce75ca	0.0063006626
200	0x3c59229d	0.013252881
201	0x3d576909	0.052590404
202	0xbcefe12f	-0.02928218
203	0xbce71566	-0.028208446
204	0xbcbe2702	-0.02321196
205	0x3d81073a	0.063002065
206	0xbc19340e	-0.00935079
207	0x3d85cb5f	0.065329306
208	0x3cffa86c	0.03120824
209	0x3c8d8993	0.017277515
210	0xbb0ff139	-0.0021963848
211	0xbbc985a6	-0.0061499653
212	0x3c7c6a7a	0.015406245
213	0xbc228f27	-0.0099218255
214	0x3c75875c	0.0149858855
215	0x3cb9df95	0.02268962
216	0xbce2743b	-0.027643314
217	0xbd89a0c6	-0.06720118
218	0x3cc4ec89	0.02403857
219	0xbda852ae	-0.08218895
220	0xbd0433e7	-0.03227606
221	0x3d2dab3f	0.04239964
222	0x3b4f9be0	0.0031678602
223	0xbbe34d4a	-0.006936704
224	0xbcd16270	-0.025559634
225	0x3d75fe05	0.060056705
226	0xbcbe4fb1	-0.02323136
227	0xba4e3772	-0.00078665384
228	0xbae57a2f	-0.0017507727
229	0x3b8d6527	0.004315037
230	0x3c1bf1d2	0.009518104
231	0x3d80f47d	0.062966324
232	0x3ca985b1	0.020693632
233	0x3d8cfd27	0.068842225
234	0x3d47789b	0.048699003
235	0xbcd754a7	-0.026285483
236	0x3d1bdc83	0.038052093
237	0xbd035ec5	-0.0320728
238	0xbd7b7180	-0.06138754
239	0xbc2d3ba1	-0.010573299
240	0xbbf1e3bf	-0.007381886
241	0x3caa1de0	0.020766199
242	0xbd2d7296	-0.042345606
243	0xbcab85bb	-0.020937791
244	0x3cbd97ed	0.023143733
245	0xbdf38c8b	-0.11892041
246	0x3dc1d6c0	0.094647884
247	0xbdeaaf47	-0.11459213
248	0x3d338d1f	0.043835755
249	0xbd9ab3e7	-0.07553845
250	0xbdbd5025	-0.09243802
251	0xbe19340b	-0.14961259
252	0x3d15ae66	0.036543272
253	0xbc64a82c	-0.013956111
254	0xbd55c988	-0.05219415
255	0xbcac80bd	-0.021057481

model.tcn.0.conv2.bias f4 [25]
0	0xbc9b2563	-0.018938726
1	0x3bdddb62	0.0067705372
2	0xbc2d4339	-0.010575109
3	0x3d4ee0c6	0.05050733
4	0x3db0af6c	0.08627209
5	0x3d6d9ee4	0.058012858
6	0xbb30c142	-0.002697066
7	0x3a578c8a	0.0008222541
8	0x3c417164	0.01180682
9	0xbd4b03e1	-0.049564246
10	0x3b84dbf2	0.00405454
11	0x3d883a86	0.066517875
12	0x3c1e12f3	0.0096480725
13	0x3da736b3	0.0816473
14	0xbb271426	-0.0025494187
15	0x3da9cd65	0.08291129
16	0x3d9bf880	0.07615757
17	0xbd1a73e2	-0.03770817
18	0xbd87a926	-0.066240594
19	0xbcf57d19	-0.029966878
20	0x3d5b5248	0.053545266
21	0x3d916341	0.07099009
22	0xbd57db84	-0.05269958
23	0xbd1f12fb	-0.03883646
24	0x3d382556	0.04495748

model.tcn.0.conv2.weight_g f4 [25, 1, 1]
0	0x3f13e683	0.5777361
1	0x3f10e16c	0.56593966
2	0x3f0caf3d	0.5495489
3	0x3f14d838	0.58142424
4	0x3f13c7f2	0.5772697
5	0x3f0b176f	0.5433263
6	0x3f161e8f	0.5864038
7	0x3f2a9588	0.66634417
8	0x3f125b31	0.571704
9	0x3f1847c7	0.59484524
10	0x3f0f16f3	0.5589439
11	0x3f17f4f0	0.5935812
12	0x3f06e3f3	0.5269157
13	0x3f0de0a7	0.5542092
14	0x3f2cba2a	0.67471564
15	0x3f0ebe11	0.5575877
16	0x3f1a791c	0.6034105
17	0x3f0c03c7	0.54693264
18	0x3f180d59	0.59395367
19	0x3f0eb2aa	0.5574137
20	0x3f149f83	0.58055896
21	0x3f0d9426	0.5530418
22	0x3f188163	0.5957243
23	0x3f12fc3c	0.5741613
24	0x3f2b6252	0.669469

model.tcn.0.conv2.weight_v f4 [25, 25, 7]
0	0xbba2167d	-0.0049465285
1	0x3d294462	0.04132498
2	0xbd6575da	-0.056020595
3	0x3d0f629d	0.035006154
4	0x3d811d04	0.063043624
5	0x3d432d75	0.047650773
6	0xbcfbe2ae	-0.030747738
7	0x3bdb70b3	0.0066967844
8	0x3ca52c77	0.020162804
9	0x3d4d9d1a	0.05019865
10	0x3b1c49df	0.0023847742
11	0x3c944ac6	0.018102061
12	0x3bbc9466	0.005754995
13	0x3ca5caaf	0.020238249
14	0xba8c3266	-0.0010696172
15	0xbd0a4581	-0.03375769
16	0xbd3fc1c8	-0.046815664
17	0x3d7b6b31	0.061381523
18	0x3d5451a5	0.051835675
19	0x3c8adcd4	0.016951002
20	0x3dc0c8ca	0.094132975
21	0x3d7733e4	0.06035222
22	0xbd0c3837	-0.0342333
23	0xbc843120	-0.016136706
24	0xbd19dca9	-0.037563954
25	0x3d0d60d2	0.034516163
26	0x3c8b8abc	0.017033927
27	0x3c873452	0.01650444
28	0x3d39e3bf	0.04538321
29	0xbca0c933	-0.01962719
30	0xbcf96539	-0.030443775
31	0xbd1fed5c	-0.039044723
32	0xbcdcc828	-0.02695091
33	0x3d531209	0.05153087
34	0xbc8d3bdb	-0.017240455
35	0xbc312f70	-0.010814533
36	0x3d195dd0	0.037442982
37	0xbd43dd18	-0.047818273
38	0xbd2365a2	-0.039891846
39	0x3d6349ed	0.055490423
40	0xbd09707b	-0.033554535
41	0xbd5804f0	-0.052739084
42	0x3ba4787f	0.005019247
43	0x3bd6a399	0.006550264
44	0x3cbd92a1	0.023141207
45	0x3d13a8d7	0.03604969
46	0xbcf17121	-0.02947289
47	0x3d875588	0.06608111
48	0xbd217699	-0.039419744
49	0x3ca20d6e	0.019781794
50	0xbc8e2c4f	-0.017355112
51	0xbcf8c78e	-0.030368593
52	0x3d898797	0.06715315
53	0xbd81198e	-0.06303702
54	0x3c8a4d97	0.0168827
55	0x3d929c2b	0.07158693
56	0x3d677d2c	0.056515858
57	0xbd3dd48c	-0.04634528
58	0x3c5e850f	0.013581528
59	0x3d7e495d	0.062081683
60	0xbd462e76	-0.048384152
61	0x3c3d505e	0.011554806
62	0xbd482eca	-0.048872747
63	0x3cc615e3	0.024180358
64	0xbd521e97	-0.051298704
65	0x3d288d5b	0.041150432
66	0xbc0aa99b	-0.008463289
67	0x3d26e1ba	0.040742613
68	0x3c63d357	0.013905368
69	0x3c8e6e38	0.01738654
70	0xbb105451	-0.0022022913
71	0xbd442f39	-0.047896598
72	0xbc8da019	-0.017288255
73	0x3c813bfb	0.015775671
74	0xbd31e0f7	-0.043427434
75	0x3d9171b8	0.07101768
76	0xbc9d246b	-0.019182405
77	0xbca21961	-0.019787492
78	0xbc01866c	-0.007905584
79	0xbd3ce034	-0.046112254
80	0xbbb8fa9a	-0.0056451084
81	0xbc59be28	-0.013289966
82	0xbd5616d8	-0.05226788
83	0xbc9d77a1	-0.019222083
84	0x3d662bbc	0.056194052
85	0x3cd47cc8	0.025938407
86	0x3d62bbd3	0.055354904
87	0x3c36c0e0	0.011154383
88	0xbc434119	-0.011917376
89	0x3d7e46ee	0.062079363
90	0xbbded5e3	-0.0068003996
91	0xbd826e51	-0.063686974
92	0x3c58e7e9	0.013238885
93	0x3cfea6a0	0.031085312
94	0xbd262731	-0.04056472
95	0x3cb6e712	0.02232698
96	0xbc3f27d5	-0.011667212
97	0x3cb6e39c	0.02232533
98	0x3bb7a2aa	0.005604108
99	0x3b5e0282	0.0033876006
100	0xbd296f21	-0.041365746
101	0x3ca52038	0.020156965
102	0xb9d0c7d4	-0.00039821735
103	0x3d52a0b7	0.0514228
104	0x3ca70cd0	0.020391852
105	0xbd5e3b2c	-0.05425565
106	0xbd4a7c02	-0.04943467
107	0xbd0db42c	-0.034595653
108	0x3d01ea30	0.03171748
109	0xbd4f8730	-0.050666034
110	0xbc7aaaae	-0.015299482
111	0x3d3c769d	0.046011556
112	0xbcccbe68	-0.024993137
113	0xbc649c53	-0.013953286
114	0x3d705d1c	0.058682546
115	0xbc81f206	-0.015862476
116	0xbc1c93a4	-0.009556685
117	0x3d41659d	0.047216047
118	0x3cd883a8	0.026429966
119	0x3d2ec159	0.04266486
120	0xbd801bd5	-0.062553085
121	0x3cd4bdda	0.025969435
122	0xbc7c7d9a	-0.015410805
123	0xbd3cdcd7	-0.046109047
124	0xbd199efa	-0.037505127
125	0xbda8e50c	-0.08246812
126	0x3d460558	0.04834494
127	0xbc1ae2d5	-0.009453495
128	0xbd83a64a	-0.064282015
129	0x3d84c8d3	0.06483617
130	0x3d41c0cf	0.047303017
131	0x3d155cf4	0.0364656
132	0x3ddb0706	0.10694699
133	0x3d994c78	0.074852884
134	0x3d9ad68e	0.07560454
135	0x3d928a2d	0.07155261
136	0x3d83445d	0.06409524
137	0x3cd46149	0.025925295
138	0x3bf298ed	0.007403484
139	0x3cce1e64	0.025160976
140	0xbd116dc2	-0.035505064
141	0x3cbde541	0.023180606
142	0xbc26fc60	-0.010192007
143	0x3c3695a6	0.011144077
144	0xbd4afddf	-0.049558517
145	0xbc8e9637	-0.017405612
146	0x3d868b9d	0.06569598
147	0x3b688b78	0.003548352
148	0x3c37a339	0.011208349
149	0xbd81830e	-0.06323825
150	0xbd09631d	-0.033541787
151	0xbc245d7f	-0.010032057
152	0xbccc2fe9	-0.02492519
153	0xbb33b920	-0.0027423576
154	0xbc883fe2	-0.016632024
155	0x3d6c5380	0.05769682
156	0xbb671a14	-0.0035263347
157	0x3d06c20a	0.032899894
158	0xbd24d60c	-0.040243194
159	0x3d0e880c	0.034797713
160	0xbca4dc9e	-0.02012473
161	0xbd62f848	-0.05541256
162	0xbd28d554	-0.04121907
163	0x3cb95c6c	0.022627078
164	0x3c0a85ca	0.008454749
165	0x3c5333f5	0.0128908055
166	0x3b1714a5	0.0023053077
167	0x3daff172	0.08590974
168	0x3d904389	0.07044131
169	0x3d17c983	0.03705741
170	0x3d5d7540	0.054066896
171	0x3c295725	0.010335718
172	0xbc9329ad	-0.017964208
173	0x3cf51db5	0.029921392
174	0x3da12f8a	0.078703955
175	0x3b588a70	0.00330415
176	0xbd32bc5d	-0.04363667
177	0x3d0a7f77	0.033812966
178	0xbc0cd472	-0.008595573
179	0xbcd7da2c	-0.02634915
180	0x3d7b724c	0.0613883
181	0x3d09fc76	0.03368803
182	0xbc9d0862	-0.019169036
183	0xbca9a933	-0.020710563
184	0x3da3eb6d	0.08003888
185	0x3d698d08	0.057019264
186	0xbd1a4dfd	-0.03767203
187	0x3cba32fd	0.022729391
188	0x3cbd6229	0.023118095
189	0x3d08fa90	0.03344208
190	0xbd53dbf6	-0.051723443
191	0x3bd38177	0.0064546424
192	0x3ce74f08	0.028235927
193	0x3d1125a6	0.035436295
194	0x3cd3d931	0.0258604
195	0xbc02a4e8	-0.007973887
196	0xbd60408c	-0.054749057
197	0x3d37b76d	0.044852663
198	0x3d92f74e	0.07176076
199	0xbc3eef23	-0.011653694
200	0xbd4f3322	-0.050585873
201	0x3d05ec17	0.032695856
202	0xbce32218	-0.027726218
203	0xbce104cf	-0.027468113
204	0x3c571b6a	0.013129095
205	0xbc1fa64e	-0.00974424
206	0xbc06f091	-0.008236066
207	0x3d4509fb	0.04810522
208	0xbc20fb38	-0.00982552
209	0x3d2f72ed	0.04283421
210	0xbc55e61d	-0.013055352
211	0x3d6c45b6	0.05768367
212	0x3ccb3e98	0.02481012
213	0x3d84af8e	0.06478797
214	0x3ce745b4	0.02823148
215	0xbcf8f8dc	-0.030392103
216	0x3c73554b	0.014851878
217	0x3d7d5bff	0.061855312
218	0x3caadfff	0.020858763
219	0x3d1ad1c0	0.03779769
220	0xbd2143c9	-0.039371286
221	0x3d3ae5c3	0.045629274
222	0xbd6954a3	-0.05696548
223	0x3d95c88c	0.07313642
224	0x3cee6d98	0.029104993
225	0x3c10215b	0.008797015
226	0xbd815a57	-0.06316059
227	0x3d8b0ec9	0.067899294
228	0x3d39a23a	0.045320727
229	0x3d9dfd28	0.07714301
230	0x3d56e79c	0.052466974
231	0x3c2d34a4	0.0105716325
232	0xbcc41ae3	-0.023938602
233	0xbd05cf49	-0.032668386
234	0x3c783e15	0.01515152
235	0x3c88a22c	0.016678892
236	0xbc58c2e7	-0.013230062
237	0xbc36fa7b	-0.011168118
238	0x3d089a23	0.03335012
239	0xbd72f0ab	-0.05931155
240	0xbd5ecadf	-0.05439269
241	0xbc76b943	-0.015058818
242	0x3d260e51	0.040540997
243	0x3d20d84a	0.03926877
244	0xbd4ad0f0	-0.049515665
245	0xbc5ba4e0	-0.0134060085
246	0x3b9bba0b	0.0047524027
247	0x3d0f0b1a	0.034922697
248	0x3d8f3c6a	0.06993945
249	0x3c3de156	0.011589369
250	0xbd38921c	-0.045061216
251	0x3cec2605	0.028826723
252	0xbd045be5	-0.0323142
253	0xbd3e6508	-0.04648307
254	0x3c288305	0.010285144
255	0xbc8b5f2b	-0.017013153

model.tcn.0.net.0.bias f4 [25]
0	0x3d2ffcc3	0.04296566
1	0xbd231ee5	-0.039824385
2	0x3d360eda	0.044447757
3	0x3cec75c0	0.028864741
4	0xbd839540	-0.064249516
5	0x3cbd4b59	0.023107218
6	0xbd67cc6e	-0.056591444
7	0x3d54964a	0.05190114
8	0x3d381001	0.044937138
9	0x3c1d9426	0.009617841
10	0xbd0eb7be	-0.0348432
11	0xbd87f4c6	-0.06638484
12	0xbc748918	-0.014925264
13	0xbd24a39c	-0.040195093
14	0xbd730ec9	-0.059340272
15	0xbd4f170f	-0.0505591
16	0xbd69a4c4	-0.0570419
17	0xbd64a389	-0.05582002
18	0x3d01e7b9	0.03171513
19	0x3d515953	0.051110577
20	0x3d29d518	0.041462988
21	0xbd85c0cc	-0.06530914
22	0x3d4d6e30	0.05015391
23	0x3cf0202e	0.02931222
24	0x3d2f6f89	0.042830978

model.tcn.0.net.0.weight_g f4 [25, 1, 1]
0	0x3f14df23	0.5815298
1	0x3f12c1a1	0.57326704
2	0x3f23b7f1	0.6395255
3	0x3f192a05	0.5982974
4	0x3f111d55	0.5668538
5	0x3f1bddf9	0.6088558
6	0x3f156e33	0.58371276
7	0x3f12c9a2	0.5733892
8	0x3f0ca4e2	0.5493909
9	0x3f0e04f3	0.554763
10	0x3f0dbbaf	0.5536451
11	0x3f0b58d1	0.544324
12	0x3f13f39c	0.57793593
13	0x3f10d6d6	0.56577814
14	0x3f097bbf	0.53704447
15	0x3f0d2e32	0.55148613
16	0x3f15c3c7	0.5850186
17	0x3f0b6055	0.54443866
18	0x3f14be47	0.5810284
19	0x3f0ac2c0	0.54203415
20	0x3f13b67a	0.5770031
21	0x3f0974c4	0.53693795
22	0x3f226971	0.6344214
23	0x3f0d0e27	0.5509972
24	0x3f0f5422	0.5598775

model.tcn.0.net.0.weight_v f4 [25, 28, 7]
0	0x3cb02967	0.021504117
1	0x3d5be109	0.053681407
2	0xbd056039	-0.03256247
3	0xbcec271c	-0.028827243
4	0xbbfcee9b	-0.0077188737
5	0x3d037faa	0.03210417
6	0x3cf5556b	0.029947957
7	0x3d1e2077	0.03860518
8	0xbc956626	-0.018237185
9	0x3bb0b75b	0.0053929514
10	0xbcf8a362	-0.030351344
11	0xbcb8e78d	-0.02257135
12	0xbd907590	-0.07053673
13	0xbd4d8df3	-0.0501842
14	0xbd0b0f7f	-0.033950325
15	0xba8d7ce8	-0.0010794671
16	0x3c78f237	0.015194467
17	0x3d0b8528	0.034062535
18	0xbcea808e	-0.028625753
19	0xbca3b673	-0.01998446
20	0x3c9c76b4	0.01909957
21	0x3d53c404	0.051700607
22	0xbc88bc25	-0.016691277
23	0x3d40c168	0.047059447
24	0xbc6767f5	-0.014123906
25	0x3add4ca5	0.0016883804
26	0x3d67e211	0.056612078
27	0xbd80142c	-0.062538475
28	0xbce29fc2	-0.02766407
29	0xbb771830	-0.0037703626
30	0xbc5a3ce1	-0.013320179
31	0x3d88efb4	0.06686345
32	0xbcf03634	-0.029322721
33	0xbc9bc35d	-0.019014055
34	0xbd140cfe	-0.036145203
35	0xbd7ea504	-0.06216909
36	0xbd21b688	-0.039480716
37	0x3d601143	0.054703962
38	0x3cd1897b	0.025578251
39	0x3cf58a30	0.02997312
40	0x3ac6c5c5	0.0015165141
41	0xbd0bad81	-0.034101013
42	0x3c92a8e0	0.017902792
43	0xbd5d23d3	-0.053989243
44	0xbd23582f	-0.03987902
45	0xbce49474	-0.02790282
46	0x3d3c0d3d	0.045911063
47	0x3d389d87	0.045072105
48	0xbc9d887f	-0.019230125
49	0xbd13a718	-0.036048025
50	0x3d9c1774	0.07621661
51	0xbcef3053	-0.029197847
52	0x3d90ddd6	0.07073562
53	0x3d192ffc	0.037399277
54	0xbdc8907c	-0.09793183
55	0xbe2afb2b	-0.16697375
56	0xbc6d6168	-0.0144885555
57	0xbd8d88fc	-0.06910893
58	0xbd91c5fa	-0.07117839
59	0xbd5ed161	-0.054398898
60	0x3be7607c	0.0070610624
61	0xbcd7c944	-0.026341088
62	0xbe2a6a12	-0.16642025
63	0x3d37cd4d	0.044873524
64	0x3d783ad4	0.060602978
65	0x3c8797ef	0.01655194
66	0x3cebd6bc	0.028788917
67	0x3d2e314e	0.04252749
68	0x3d8754ef	0.06607997
69	0x3db51793	0.08842387
70	0xbd35ac3e	-0.044353716
71	0xbc9be788	-0.019031301
72	0x3cf20ec5	0.029548058
73	0x3d697036	0.05699178
74	0x3d78a831	0.060707275
75	0x3d78c22a	0.060732044
76	0x3c8b2a70	0.01698801
77	0xbd90f61b	-0.07078191
78	0xbbb51c67	-0.0055270675
79	0xbd4ed965	-0.050500292
80	0xbd9be6c7	-0.07612377
81	0x3d30c1a8	0.043153435
82	0x3d13c367	0.036075022
83	0xbd9dda0f	-0.07707607
84	0x3bce9a00	0.0063049793
85	0xbc7119aa	-0.014715591
86	0xbc5ed6fd	-0.013601062
87	0xbcff92bb	-0.031197896
88	0x3cd2d706	0.025737297
89	0xbd1d2afc	-0.03837107
90	0x3cc660c3	0.024216061
91	0x3d0969bc	0.0335481
92	0x3d41c4bc	0.04730676
93	0x3cca014f	0.024658827
94	0xbd7bbef6	-0.06146141
95	0xbd2cedbd	-0.042218912
96	0x3d00054c	0.03125505
97	0x3c5ad782	0.013357045
98	0xbd55cc0d	-0.05219655
99	0xbd220f3c	-0.03956531
100	0x3d736ac5	0.059427995
101	0x3d2ac57f	0.041692253
102	0xbd00c7c2	-0.031440504
103	0xbc9edde4	-0.019392915
104	0xbd83b171	-0.06430329
105	0x3c06c5b0	0.008225843
106	0xbd2ae385	-0.041720886
107	0xbd359785	-0.044333953
108	0x3b6c6398	0.0036070105
109	0x3c9363b0	0.01799187
110	0xbca85ef2	-0.020553086
111	0x3d37696f	0.044778284
112	0xbd170668	-0.036871344
113	0x3d7094ac	0.058735535
114	0x3d35a377	0.044345345
115	0xbd58da62	-0.05294264
116	0xbc6d5ba4	-0.014487181
117	0x3b4e9c65	0.0031526324
118	0x3c30fa61	0.0108018825
119	0x3ca23838	0.019802198
120	0x3cee2a05	0.02907277
121	0x3c06b138	0.008220963
122	0xbcdd181b	-0.026989033
123	0x3d0c27a2	0.034217484
124	0xbd681549	-0.056660924
125	0xbd029ada	-0.03188596
126	0xbc696e45	-0.014247482
127	0xbcf4c194	-0.029877461
128	0xbcb6cb54	-0.022313751
129	0xbd53b5c5	-0.05168702
130	0xbc47d461	-0.012196631
131	0x3c634a0d	0.013872636
132	0xbd26e94f	-0.040749844
133	0xba59930b	-0.0008299804
134	0x3d45a5e1	0.048253898
135	0xbb4fe71e	-0.003172345
136	0x3b488c95	0.0030601372
137	0xbbbe1916	-0.0058013303
138	0x3c52ca3e	0.012865601
139	0x3d3150db	0.04329
140	0x3d5097a9	0.050925884
141	0x3cf4fa98	0.029904649
142	0x3d4a8c93	0.04945047
143	0xbc88df02	-0.0167079
144	0xbd92608b	-0.0714732
145	0xbd335a67	-0.043787386
146	0x3d051f0e	0.03250032
147	0x3b9f8af5	0.00486886
148	0xbcf3e7fe	-0.029773708
149	0xbd49588f	-0.04915672
150	0xbd775f35	-0.06039353
151	0xbd5efa85	-0.054438133
152	0xbc5d8968	-0.01352153
153	0x3d0ba9d7	0.03409752
154	0x3d04caef	0.032420095
155	0xbd877fc7	-0.066161685
156	0x3d2c1156	0.04200872
157	0xbd5f8abc	-0.054575667
158	0xbca40cca	-0.02002563
159	0xbcfe96ba	-0.031077731
160	0xbc42601d	-0.0118637355
161	0xbb7145a8	-0.00368152
162	0xbd474ef9	-0.0486593
163	0xbd3a0392	-0.04541356
164	0x39bf5c34	0.00036499056
165	0x3c300e78	0.010745637
166	0xbc916133	-0.017746544
167	0x3d1f6d35	0.038922507
168	0xbd509514	-0.050923422
169	0x3a4c65e2	0.0007797164
170	0x3d75e650	0.060034096
171	0xbcb591f8	-0.02216433
172	0x3d7c75df	0.061635848
173	0x3cd96b23	0.026540345
174	0xbd512598	-0.051061243
175	0x3d31dce2	0.04342354
176	0xbbdb5ca2	-0.0066943923
177	0xbcfd4420	-0.030916274
178	0x3d5525c9	0.052037988
179	0xbd4df754	-0.0502847
180	0x3c08492d	0.008318228
181	0xbc7ee086	-0.01555646
182	0x3d414dd0	0.04719335
183	0x3caf512e	0.021401014
184	0x3d132b66	0.03593006
185	0x3cdf1f3c	0.027236573
186	0xbc39078f	-0.011293306
187	0xbc1a5496	-0.009419581
188	0xbd393833	-0.04521961
189	0x3d2f4926	0.04279437
190	0x3d708cf9	0.058728192
191	0x3d54e5c2	0.051976927
192	0xbd1910a8	-0.0373694
193	0x3c13c77b	0.009019728
194	0xbd1a6f28	-0.037703663
195	0xbcc33d03	-0.023832804
196	0xbcf423f6	-0.029802304
197	0x3d057494	0.03258188
198	0xbce4f15c	-0.02794712
199	0x3bce75ca	0.0063006626
200	0x3c59229d	0.013252881
201	0x3d576909	0.052590404
202	0xbcefe12f	-0.02928218
203	0xbce71566	-0.028208446
204	0xbcbe2702	-0.02321196
205	0x3d81073a	0.063002065
206	0xbc19340e	-0.00935079
207	0x3d85cb5f	0.065329306
208	0x3cffa86c	0.03120824
209	0x3c8d8993	0.017277515
210	0xbb0ff139	-0.0021963848
211	0xbbc985a6	-0.0061499653
212	0x3c7c6a7a	0.015406245
213	0xbc228f27	-0.0099218255
214	0x3c75875c	0.0149858855
215	0x3cb9df95	0.02268962
216	0xbce2743b	-0.027643314
217	0xbd89a0c6	-0.06720118
218	0x3cc4ec89	0.02403857
219	0xbda852ae	-0.08218895
220	0xbd0433e7	-0.03227606
221	0x3d2dab3f	0.04239964
222	0x3b4f9be0	0.0031678602
223	0xbbe34d4a	-0.006936704
224	0xbcd16270	-0.025559634
225	0x3d75fe05	0.060056705
226	0xbcbe4fb1	-0.02323136
227	0xba4e3772	-0.00078665384
228	0xbae57a2f	-0.0017507727
229	0x3b8d6527	0.004315037
230	0x3c1bf1d2	0.009518104
231	0x3d80f47d	0.062966324
232	0x3ca985b1	0.020693632
233	0x3d8cfd27	0.068842225
234	0x3d47789b	0.048699003
235	0xbcd754a7	-0.026285483
236	0x3d1bdc83	0.038052093
237	0xbd035ec5	-0.0320728
238	0xbd7b7180	-0.06138754
239	0xbc2d3ba1	-0.010573299
240	0xbbf1e3bf	-0.007381886
241	0x3caa1de0	0.020766199
242	0xbd2d7296	-0.042345606
243	0xbcab85bb	-0.020937791
244	0x3cbd97ed	0.023143733
245	0xbdf38c8b	-0.11892041
246	0x3dc1d6c0	0.094647884
247	0xbdeaaf47	-0.11459213
248	0x3d338d1f	0.043835755
249	0xbd9ab3e7	-0.07553845
250	0xbdbd5025	-0.09243802
251	0xbe19340b	-0.14961259
252	0x3d15ae66	0.036543272
253	0xbc64a82c	-0.013956111
254	0xbd55c988	-0.05219415
255	0xbcac80bd	-0.021057481

model.tcn.0.net.4.bias f4 [25]
0	0xbc9b2563	-0.018938726
1	0x3bdddb62	0.0067705372
2	0xbc2d4339	-0.010575109
3	0x3d4ee0c6	0.05050733
4	0x3db0af6c	0.08627209
5	0x3d6d9ee4	0.058012858
6	0xbb30c142	-0.002697066
7	0x3a578c8a	0.0008222541
8	0x3c417164	0.01180682
9	0xbd4b03e1	-0.049564246
10	0x3b84dbf2	0.00405454
11	0x3d883a86	0.066517875
12	0x3c1e12f3	0.0096480725
13	0x3da736b3	0.0816473
14	0xbb271426	-0.0025494187
15	0x3da9cd65	0.08291129
16	0x3d9bf880	0.07615757
17	0xbd1a73e2	-0.03770817
18	0xbd87a926	-0.066240594
19	0xbcf57d19	-0.029966878
20	0x3d5b5248	0.053545266
21	0x3d916341	0.07099009
22	0xbd57db84	-0.05269958
23	0xbd1f12fb	-0.03883646
24	0x3d382556	0.04495748

model.tcn.0.net.4.weight_g f4 [25, 1, 1]
0	0x3f13e683	0.5777361
1	0x3f10e16c	0.56593966
2	0x3f0caf3d	0.5495489
3	0x3f14d838	0.58142424
4	0x3f13c7f2	0.5772697
5	0x3f0b176f	0.5433263
6	0x3f161e8f	0.5864038
7	0x3f2a9588	0.66634417
8	0x3f125b31	0.571704
9	0x3f1847c7	0.59484524
10	0x3f0f16f3	0.5589439
11	0x3f17f4f0	0.5935812
12	0x3f06e3f3	0.5269157
13	0x3f0de0a7	0.5542092
14	0x3f2cba2a	0.67471564
15	0x3f0ebe11	0.5575877
16	0x3f1a791c	0.6034105
17	0x3f0c03c7	0.54693264
18	0x3f180d59	0.59395367
19	0x3f0eb2aa	0.5574137
20	0x3f149f83	0.58055896
21	0x3f0d9426	0.5530418
22	0x3f188163	0.5957243
23	0x3f12fc3c	0.5741613
24	0x3f2b6252	0.669469

model.tcn.0.net.4.weight_v f4 [25, 25, 7]
0	0xbba2167d	-0.0049465285
1	0x3d294462	0.04132498
2	0xbd6575da	-0.056020595
3	0x3d0f629d	0.035006154
4	0x3d811d04	0.063043624
5	0x3d432d75	0.047650773
6	0xbcfbe2ae	-0.030747738
7	0x3bdb70b3	0.0066967844
8	0x3ca52c77	0.020162804
9	0x3d4d9d1a	0.05019865
10	0x3b1c49df	0.0023847742
11	0x3c944ac6	0.018102061
12	0x3bbc9466	0.005754995
13	0x3ca5caaf	0.020238249
14	0xba8c3266	-0.0010696172
15	0xbd0a4581	-0.03375769
16	0xbd3fc1c8	-0.046815664
17	0x3d7b6b31	0.061381523
18	0x3d5451a5	0.051835675
19	0x3c8adcd4	0.016951002
20	0x3dc0c8ca	0.094132975
21	0x3d7733e4	0.06035222
22	0xbd0c3837	-0.0342333
23	0xbc843120	-0.016136706
24	0xbd19dca9	-0.037563954
25	0x3d0d60d2	0.034516163
26	0x3c8b8abc	0.017033927
27	0x3c873452	0.01650444
28	0x3d39e3bf	0.04538321
29	0xbca0c933	-0.01962719
30	0xbcf96539	-0.030443775
31	0xbd1fed5c	-0.039044723
32	0xbcdcc828	-0.02695091
33	0x3d531209	0.05153087
34	0xbc8d3bdb	-0.017240455
35	0xbc312f70	-0.010814533
36	0x3d195dd0	0.037442982
37	0xbd43dd18	-0.047818273
38	0xbd2365a2	-0.039891846
39	0x3d6349ed	0.055490423
40	0xbd09707b	-0.033554535
41	0xbd5804f0	-0.052739084
42	0x3ba4787f	0.005019247
43	0x3bd6a399	0.006550264
44	0x3cbd92a1	0.023141207
45	0x3d13a8d7	0.03604969
46	0xbcf17121	-0.02947289
47	0x3d875588	0.06608111
48	0xbd217699	-0.039419744
49	0x3ca20d6e	0.019781794
50	0xbc8e2c4f	-0.017355112
51	0xbcf8c78e	-0.030368593
52	0x3d898797	0.06715315
53	0xbd81198e	-0.06303702
54	0x3c8a4d97	0.0168827
55	0x3d929c2b	0.07158693
56	0x3d677d2c	0.056515858
57	0xbd3dd48c	-0.04634528
58	0x3c5e850f	0.013581528
59	0x3d7e495d	0.062081683
60	0xbd462e76	-0.048384152
61	0x3c3d505e	0.011554806
62	0xbd482eca	-0.048872747
63	0x3cc615e3	0.024180358
64	0xbd521e97	-0.051298704
65	0x3d288d5b	0.041150432
66	0xbc0aa99b	-0.008463289
67	0x3d26e1ba	0.040742613
68	0x3c63d357	0.013905368
69	0x3c8e6e38	0.01738654
70	0xbb105451	-0.0022022913
71	0xbd442f39	-0.047896598
72	0xbc8da019	-0.017288255
73	0x3c813bfb	0.015775671
74	0xbd31e0f7	-0.043427434
75	0x3d9171b8	0.07101768
76	0xbc9d246b	-0.019182405
77	0xbca21961	-0.019787492
78	0xbc01866c	-0.007905584
79	0xbd3ce034	-0.046112254
80	0xbbb8fa9a	-0.0056451084
81	0xbc59be28	-0.013289966
82	0xbd5616d8	-0.05226788
83	0xbc9d77a1	-0.019222083
84	0x3d662bbc	0.056194052
85	0x3cd47cc8	0.025938407
86	0x3d62bbd3	0.055354904
87	0x3c36c0e0	0.011154383
88	0xbc434119	-0.011917376
89	0x3d7e46ee	0.062079363
90	0xbbded5e3	-0.0068003996
91	0xbd826e51	-0.063686974
92	0x3c58e7e9	0.013238885
93	0x3cfea6a0	0.031085312
94	0xbd262731	-0.04056472
95	0x3cb6e712	0.02232698
96	0xbc3f27d5	-0.011667212
97	0x3cb6e39c	0.02232533
98	0x3bb7a2aa	0.005604108
99	0x3b5e0282	0.0033876006
100	0xbd296f21	-0.041365746
101	0x3ca52038	0.020156965
102	0xb9d0c7d4	-0.00039821735
103	0x3d52a0b7	0.0514228
104	0x3ca70cd0	0.020391852
105	0xbd5e3b2c	-0.05425565
106	0xbd4a7c02	-0.04943467
107	0xbd0db42c	-0.034595653
108	0x3d01ea30	0.03171748
109	0xbd4f8730	-0.050666034
110	0xbc7aaaae	-0.015299482
111	0x3d3c769d	0.046011556
112	0xbcccbe68	-0.024993137
113	0xbc649c53	-0.013953286
114	0x3d705d1c	0.058682546
115	0xbc81f206	-0.015862476
116	0xbc1c93a4	-0.009556685
117	0x3d41659d	0.047216047
118	0x3cd883a8	0.026429966
119	0x3d2ec159	0.04266486
120	0xbd801bd5	-0.062553085
121	0x3cd4bdda	0.025969435
122	0xbc7c7d9a	-0.015410805
123	0xbd3cdcd7	-0.046109047
124	0xbd199efa	-0.037505127
125	0xbda8e50c	-0.08246812
126	0x3d460558	0.04834494
127	0xbc1ae2d5	-0.009453495
128	0xbd83a64a	-0.064282015
129	0x3d84c8d3	0.06483617
130	0x3d41c0cf	0.047303017
131	0x3d155cf4	0.0364656
132	0x3ddb0706	0.10694699
133	0x3d994c78	0.074852884
134	0x3d9ad68e	0.07560454
135	0x3d928a2d	0.07155261
136	0x3d83445d	0.06409524
137	0x3cd46149	0.025925295
138	0x3bf298ed	0.007403484
139	0x3cce1e64	0.025160976
140	0xbd116dc2	-0.035505064
141	0x3cbde541	0.023180606
142	0xbc26fc60	-0.010192007
143	0x3c3695a6	0.011144077
144	0xbd4afddf	-0.049558517
145	0xbc8e9637	-0.017405612
146	0x3d868b9d	0.06569598
147	0x3b688b78	0.003548352
148	0x3c37a339	0.011208349
149	0xbd81830e	-0.06323825
150	0xbd09631d	-0.033541787
151	0xbc245d7f	-0.010032057
152	0xbccc2fe9	-0.02492519
153	0xbb33b920	-0.0027423576
154	0xbc883fe2	-0.016632024
155	0x3d6c5380	0.05769682
156	0xbb671a14	-0.0035263347
157	0x3d06c20a	0.032899894
158	0xbd24d60c	-0.040243194
159	0x3d0e880c	0.034797713
160	0xbca4dc9e	-0.02012473
161	0xbd62f848	-0.05541256
162	0xbd28d554	-0.04121907
163	0x3cb95c6c	0.022627078
164	0x3c0a85ca	0.008454749
165	0x3c5333f5	0.0128908055
166	0x3b1714a5	0.0023053077
167	0x3daff172	0.08590974
168	0x3d904389	0.07044131
169	0x3d17c983	0.03705741
170	0x3d5d7540	0.054066896
171	0x3c295725	0.010335718
172	0xbc9329ad	-0.017964208
173	0x3cf51db5	0.029921392
174	0x3da12f8a	0.078703955
175	0x3b588a70	0.00330415
176	0xbd32bc5d	-0.04363667
177	0x3d0a7f77	0.033812966
178	0xbc0cd472	-0.008595573
179	0xbcd7da2c	-0.02634915
180	0x3d7b724c	0.0613883
181	0x3d09fc76	0.03368803
182	0xbc9d0862	-0.019169036
183	0xbca9a933	-0.020710563
184	0x3da3eb6d	0.08003888
185	0x3d698d08	0.057019264
186	0xbd1a4dfd	-0.03767203
187	0x3cba32fd	0.022729391
188	0x3cbd6229	0.023118095
189	0x3d08fa90	0.03344208
190	0xbd53dbf6	-0.051723443
191	0x3bd38177	0.0064546424
192	0x3ce74f08	0.028235927
193	0x3d1125a6	0.035436295
194	0x3cd3d931	0.0258604
195	0xbc02a4e8	-0.007973887
196	0xbd60408c	-0.054749057
197	0x3d37b76d	0.044852663
198	0x3d92f74e	0.07176076
199	0xbc3eef23	-0.011653694
200	0xbd4f3322	-0.050585873
201	0x3d05ec17	0.032695856
202	0xbce32218	-0.027726218
203	0xbce104cf	-0.027468113
204	0x3c571b6a	0.013129095
205	0xbc1fa64e	-0.00974424
206	0xbc06f091	-0.008236066
207	0x3d4509fb	0.04810522
208	0xbc20fb38	-0.00982552
209	0x3d2f72ed	0.04283421
210	0xbc55e61d	-0.013055352
211	0x3d6c45b6	0.05768367
212	0x3ccb3e98	0.02481012
213	0x3d84af8e	0.06478797
214	0x3ce745b4	0.02823148
215	0xbcf8f8dc	-0.030392103
216	0x3c73554b	0.014851878
217	0x3d7d5bff	0.061855312
218	0x3caadfff	0.020858763
219	0x3d1ad1c0	0.03779769
220	0xbd2143c9	-0.039371286
221	0x3d3ae5c3	0.045629274
222	0xbd6954a3	-0.05696548
223	0x3d95c88c	0.07313642
224	0x3cee6d98	0.029104993
225	0x3c10215b	0.008797015
226	0xbd815a57	-0.06316059
227	0x3d8b0ec9	0.067899294
228	0x3d39a23a	0.045320727
229	0x3d9dfd28	0.07714301
230	0x3d56e79c	0.052466974
231	0x3c2d34a4	0.0105716325
232	0xbcc41ae3	-0.023938602
233	0xbd05cf49	-0.032668386
234	0x3c783e15	0.01515152
235	0x3c88a22c	0.016678892
236	0xbc58c2e7	-0.013230062
237	0xbc36fa7b	-0.011168118
238	0x3d089a23	0.03335012
239	0xbd72f0ab	-0.05931155
240	0xbd5ecadf	-0.05439269
241	0xbc76b943	-0.015058818
242	0x3d260e51	0.040540997
243	0x3d20d84a	0.03926877
244	0xbd4ad0f0	-0.049515665
245	0xbc5ba4e0	-0.0134060085
246	0x3b9bba0b	0.0047524027
247	0x3d0f0b1a	0.034922697
248	0x3d8f3c6a	0.06993945
249	0x3c3de156	0.011589369
250	0xbd38921c	-0.045061216
251	0x3cec2605	0.028826723
252	0xbd045be5	-0.0323142
253	0xbd3e6508	-0.04648307
254	0x3c288305	0.010285144
255	0xbc8b5f2b	-0.017013153

model.tcn.0.downsample.weight f4 [25, 28, 1]
0	0x3c9e2182	0.019303087
1	0xbbaffcf1	-0.005370729
2	0xbcf2d23f	-0.029641269
3	0x3b58cd4e	0.0033081356
4	0x3b88333b	0.004156498
5	0xbbcc8f3f	-0.006242662
6	0x3a41d7c2	0.0007394516
7	0xbdfa29fa	-0.12215038
8	0xbe1e6812	-0.15469387
9	0x38a51cd6	7.873184e-05
10	0xbcc09e01	-0.023512842
11	0x3caa1d3d	0.020765895
12	0x3b1e5efc	0.0024165502
13	0xbc0d49e2	-0.008623572
14	0x3c234f4e	0.009967638
15	0x3c61f807	0.0137920445
16	0xbb7e83c1	-0.0038835856
17	0x3c74c34a	0.014939139
18	0x3c24a26f	0.010048493
19	0x3c96271f	0.018329201
20	0xbb0592ba	-0.0020381645
21	0xbc91ba5e	-0.017789062
22	0xbb439281	-0.0029841962
23	0xbc9bd488	-0.019022241
24	0x3b81a47c	0.0039563756
25	0xbbc4e29c	-0.0060084593
26	0x3d0235c6	0.031789564
27	0x3cd2a66e	0.025714125
28	0x3cc59a8f	0.02412155
29	0xbaa1207d	-0.0012293007
30	0x3cc34daf	0.023840753
31	0xbb641b57	-0.0034806335
32	0xbb2624bc	-0.0025351485
33	0xbb8bcb9d	-0.004266216
34	0xba9ebc48	-0.0012110556
35	0xbe058363	-0.13038401
36	0xbe10424c	-0.1408779
37	0xbb8fdd7d	-0.004390417
38	0x384ad686	4.8360343e-05
39	0x3c48e60e	0.012261881
40	0xbb873f53	-0.004127422
41	0xbbb54551	-0.005531945
42	0x3ca7b494	0.020471849
43	0x3ad4b425	0.0016228004
44	0xbc03d2a0	-0.008045822
45	0x3be671ca	0.0070326077
46	0xbcb08a1c	-0.02155023
47	0x37d5719a	2.5444479e-05
48	0xbb797701	-0.0038065317
49	0xbbf7c7ef	-0.0075616757
50	0x3c170423	0.009217295
51	0x39e85949	0.0004431701
52	0x3bbc5a94	0.0057481024
53	0xbc720ab6	-0.0147730615
54	0x3aca6a2b	0.0015443017
55	0x3caef234	0.021355726
56	0x3b8c335b	0.004278583
57	0x3a1f0ee7	0.0006067589
58	0x3ba7af3a	0.005117324
59	0x3c99ecbe	0.018789645
60	0xbbe0fdca	-0.0068661915
61	0x3cc22741	0.023700358
62	0x3c87c4b3	0.016573286
63	0x3a8ea3a1	0.0010882505
64	0x3cec6fac	0.028861843
65	0xbc74967a	-0.0149284545
66	0x3be4a611	0.0069778045
67	0xbc2fb3f2	-0.010724055
68	0xbb9e90e0	-0.004839048
69	0xbc81456c	-0.015780173
70	0x3c4d8187	0.012543089
71	0xbba29108	-0.0049611367
72	0xbc116bc0	-0.008875787
73	0xbbe504e6	-0.0069891093
74	0x3bbb0525	0.0057074004
75	0xbc2a04bf	-0.010377108
76	0x3ca8c85c	0.020603351
77	0x3a4e278d	0.000786417
78	0x3b831661	0.0040004705
79	0x3bb53e0c	0.005531078
80	0xbb99475a	-0.004677695
81	0xba05d933	-0.00051059126
82	0xbcfdc388	-0.030977026
83	0x3bf5f179	0.0075055924
84	0x3d6bffef	0.057617124
85	0xbc62ea4a	-0.013849804
86	0x3cb4e6b5	0.022082666
87	0x3c242472	0.010018455
88	0xbbb40673	-0.005493933
89	0xbd2229a8	-0.039590508
90	0x3c743911	0.014906184
91	0xbe65459e	-0.22389838
92	0xbe0cd721	-0.1375394
93	0x3c66cd9e	0.014087109
94	0x3c314cdc	0.010821547
95	0x3b925696	0.0044658883
96	0x3b19f4a2	0.002349176
97	0xbcba751a	-0.022760917
98	0xbb23f9fc	-0.0025020828
99	0xbc96efca	-0.018424887
100	0xbc5d9068	-0.013523199
101	0xbb92d4ec	-0.0044809487
102	0xbc247e3b	-0.010039861
103	0x3cf07258	0.029351398
104	0xbc1621f7	-0.009163371
105	0xbca9f80a	-0.020748157
106	0x3cc1582b	0.023601612
107	0x3c92e396	0.017930787
108	0x3aa3a11d	0.0012483929
109	0xbc929a12	-0.017895732
110	0xbc2c382f	-0.010511442
111	0x3cf5156e	0.029917445
112	0x3c1a002b	0.009399454
113	0x3b88c705	0.0041741156
114	0x3c74a814	0.014932651
115	0xbd233bb0	-0.039851844
116	0xbc30d70f	-0.010793461
117	0xbc02744e	-0.0079622995
118	0xbc15ab2f	-0.009135052
119	0xbd336828	-0.043800503
120	0x3ce6f630	0.028193563
121	0xbc115695	-0.00887074
122	0x3c5268f4	0.012842406
123	0xbd36b136	-0.044602595
124	0x3be8cf88	0.007104818
125	0xbc9ae128	-0.018906191
126	0x3cb194d4	0.021677412
127	0x3a727345	0.0009248744
128	0xbc2336f9	-0.009961837
129	0xbc04c7f8	-0.008104317
130	0xba2443e8	-0.00062662223
131	0x3cd3376b	0.025783261
132	0xbc98fa02	-0.0186739
133	0xbbdec8f4	-0.006798858
134	0xbd289f0b	-0.0411673
135	0xbc990de4	-0.018683381
136	0xbac3a5ac	-0.0014926693
137	0xb9cca981	-0.00039036202
138	0xbb8f92d8	-0.004381519
139	0x3c1a6873	0.009424317
140	0x3c9116b8	0.017711028
141	0xbba93da8	-0.0051648207
142	0xbb24024e	-0.0025025788
143	0xbc8dca92	-0.017308507
144	0xbca291f6	-0.01984499
145	0x3c21fdce	0.009887172
146	0xbc089dcd	-0.008338404
147	0x3cb7a4e9	0.022417502
148	0x3d025014	0.03181465
149	0xba91fbc2	-0.0011137652
150	0xbbc0e12f	-0.005886219
151	0xbc72202b	-0.014778177
152	0x3c02cadc	0.007982936
153	0xbca21596	-0.019785684
154	0x3c22c755	0.00993522
155	0x3a6468ca	0.00087131246
156	0x3c6a6481	0.014306189
157	0x3c84e906	0.016224395
158	0x3c6cf692	0.014463084
159	0xba39b2af	-0.0007083816
160	0x3a58e967	0.0008274526
161	0xbc7af827	-0.015317953
162	0xbc713787	-0.014722711
163	0x3bddaca4	0.006764965
164	0x3bc6cead	0.006067118
165	0xbbfe6037	-0.0077629345
166	0xbb476981	-0.0030427875
167	0x3cb29a38	0.021802053
168	0x3be8c559	0.007103604
169	0xbba47b6a	-0.005019595
170	0xbb8ccbab	-0.00429674
171	0x3c3cea37	0.011530451
172	0xbd00b57b	-0.031423073
173	0xbba12696	-0.00491793
174	0x3bc80536	0.006104137
175	0xbe9f8db1	-0.3116279
176	0xbe617a60	-0.22019339
177	0xbbd601cb	-0.0065309755
178	0x3cafa5ef	0.021441428
179	0x3c0f16d7	0.008733473
180	0xbcb8d101	-0.022560598
181	0x3ce585f8	0.028017983
182	0x3c67f9ac	0.0141586475
183	0x3b12d856	0.0022406778
184	0xbc0b8f7a	-0.008518094
185	0x3c09f095	0.008419176
186	0xbc3898eb	-0.011266927
187	0x3c8f7015	0.0175095
188	0x3c0d7614	0.008634109
189	0xbaf8cde0	-0.0018982254
190	0x3c409f90	0.011756793
191	0xbc826f5e	-0.015922245
192	0x3a647052	0.0008714247
193	0xbcb335a6	-0.021876168
194	0x3c68810f	0.014190926
195	0x3c7b519c	0.015339281
196	0x3c91baa7	0.017789198
197	0x3a952440	0.0011378601
198	0xbce3162e	-0.027720537
199	0xbc8eca9f	-0.017430602
200	0x3c5eaa7f	0.013590454
201	0xbc4f241e	-0.012642888
202	0xbc9443c9	-0.018098729
203	0xbe2b6a5b	-0.1673979
204	0xbe584ddf	-0.21123455
205	0xbbb98a0b	-0.005662208
206	0x3b93229d	0.00449021
207	0xbd31b09d	-0.043381322
208	0xbc827577	-0.015925152
209	0x3c0aee3c	0.008479651
210	0x3c2cbd67	0.010543204
211	0x3c8fe0d3	0.01756326
212	0xbc2c4b02	-0.01051593
213	0x3c7c57a6	0.015401756
214	0x3c260fea	0.01013563
215	0xbce7dfa7	-0.028304888
216	0xbc80a86b	-0.015705308
217	0x3c8322a7	0.016007734
218	0xbcd33edb	-0.025786808
219	0xbc6e76d7	-0.014554701
220	0x3ad3da7d	0.0016163137
221	0x3b210248	0.002456801
222	0x3d11e385	0.03561737
223	0xb9bc9eb4	-0.00035976397
224	0x3b04483a	0.0020184652
225	0xbc1db152	-0.009624796
226	0xbd90bea7	-0.07067614
227	0x3bfc8d42	0.007707269
228	0x3cb544fb	0.022127619
229	0x3b9fe2a2	0.0048793117
230	0x3aa926c2	0.0012905227
231	0x3d968bf7	0.07350915
232	0x3d6901a7	0.05688634
233	0xbc5465ad	-0.0129636945
234	0x3b107b41	0.0022046121
235	0xbb74e55d	-0.0037368156
236	0x3c1a7a45	0.009428565
237	0x3c797bcf	0.015227272
238	0xbcb50806	-0.022098552
239	0x3ab540ac	0.0013828478
240	0xbc991b18	-0.018689677
241	0x3afc07b5	0.0019228371
242	0x3c02db95	0.007986923
243	0xbc5a2f74	-0.013316978
244	0xb968b34f	-0.00022192042
245	0xbc9954c8	-0.018717185
246	0xbc30d8e6	-0.0107939
247	0xbce1d9fc	-0.027569763
248	0x3c144d87	0.009051687
249	0x3bec7bd8	0.0072169118
250	0x3c931f14	0.017959155
251	0xbd121f55	-0.03567441
252	0x3ce309f2	0.027714703
253	0xbbe1a5ff	-0.0068862434
254	0x3c6c0476	0.01440536
255	0x3b5e33bf	0.0033905355

model.tcn.0.downsample.bias f4 [25]
0	0xbd4e5a9d	-0.050379384
1	0x3e13708b	0.143984
2	0x3d091417	0.033466425
3	0x3d194024	0.037414685
4	0x3d8e612c	0.06952128
5	0x3d77ee64	0.06053008
6	0xbe027847	-0.12741195
7	0x3c8ba2c4	0.017045386
8	0xbd08b1f9	-0.033372853
9	0xbd68c44f	-0.05682784
10	0xbde0a45f	-0.10968851
11	0xbcc8ef89	-0.024528282
12	0x3c6c6aa8	0.014429726
13	0xbd3b057f	-0.04565954
14	0xbb3faf24	-0.002924868
15	0xbcf4b3f2	-0.02987096
16	0x3ca7ad1e	0.02046829
17	0xbe1c0e54	-0.15239841
18	0x3e3e35e5	0.18575247
19	0xbd9ea7bf	-0.07746839
20	0x3de63efe	0.112424836
21	0xbe222fa9	-0.15838493
22	0xbc999fb6	-0.018752914
23	0xbcff7c8b	-0.031187316
24	0xbe0bed92	-0.13664845

model.tcn.1.conv1.bias f4 [25]
0	0xbd57ec28	-0.05271545
1	0x3c95651f	0.018236695
2	0xbd466edf	-0.04844558
3	0x3db36e48	0.08761269
4	0xbd7df266	-0.061998747
5	0xbd772208	-0.06033519
6	0x3d9050ac	0.07046637
7	0xbd73dc27	-0.059536126
8	0xbc54b5a1	-0.012982757
9	0xbc146dd6	-0.00905939
10	0x3d46c3a2	0.048526414
11	0x3e1e5ded	0.15465517
12	0xbd216af1	-0.039408628
13	0xbd6414f6	-0.055684052
14	0x3d3ec495	0.046574194
15	0x3c897b1b	0.016782334
16	0x3d5042c6	0.05084493
17	0x3d9cf26e	0.07663427
18	0xbd41401f	-0.04718029
19	0x3d5c140a	0.05373005
20	0x3c1e5204	0.009663109
21	0x3d8171a2	0.06320502
22	0x3c60056e	0.01367317
23	0x3dafe3a5	0.085883416
24	0xbca722e0	-0.020402372

model.tcn.1.conv1.weight_g f4 [25, 1, 1]
0	0x3f1314e1	0.57453734
1	0x3f112885	0.5670245
2	0x3f35ccc7	0.7101559
3	0x3f18dc39	0.59711033
4	0x3f0fb1e5	0.5613082
5	0x3f09402e	0.53613555
6	0x3f2576b1	0.64634234
7	0x3f11e664	0.56992173
8	0x3f1d1558	0.6136069
9	0x3f0b06de	0.54307353
10	0x3f24c0f7	0.6435694
11	0x3f38223d	0.71927243
12	0x3f1da3e0	0.6157818
13	0x3f1e6d3b	0.6188542
14	0x3f1f3b68	0.6220002
15	0x3f11b777	0.5692057
16	0x3f131d1a	0.5746628
17	0x3f131dbd	0.5746725
18	0x3f150dc2	0.5822412
19	0x3f1cf9ef	0.6131887
20	0x3f1ddd44	0.6166575
21	0x3f1ce00d	0.61279374
22	0x3f1b830e	0.6074685
23	0x3f15a28a	0.5845114
24	0x3f0e9c9c	0.55707717

model.tcn.1.conv1.weight_v f4 [25, 25, 7]
0	0x3d2b25cd	0.041784097
1	0x3c8eac45	0.017416129
2	0x3c24c9fe	0.010057924
3	0x3cb384f3	0.021913981
4	0x3b63d536	0.0034764535
5	0xbd457c28	-0.048214108
6	0xbcc00d4b	-0.023443839
7	0xbd0602ab	-0.032717388
8	0x3d078ced	0.03309338
9	0xbca22e1f	-0.019797383
10	0x3cc58dbf	0.024115441
11	0xbd25967d	-0.04042672
12	0xbd641edf	-0.055693503
13	0x3d94916b	0.07254299
14	0xbd292264	-0.041292563
15	0x3cc0d49f	0.023538886
16	0x3d2cb6c3	0.042166483
17	0xbc4baf34	-0.012431908
18	0x3cc8442d	0.024446571
19	0xbc94b5ea	-0.01815315
20	0xbd792299	-0.06082401
21	0xbd190582	-0.03735877
22	0xbca9a71d	-0.020709569
23	0xbd154642	-0.036443956
24	0xbd471312	-0.04860217
25	0x3a968b1f	0.0011485553
26	0x3ca6d33d	0.020364398
27	0x3db07092	0.08615221
28	0x3cf08a92	0.02936295
29	0xbd2091ca	-0.039201535
30	0x3af0e7da	0.0018379644
31	0x3d23cac8	0.03998831
32	0x3d900339	0.07031865
33	0xbc2580d4	-0.010101516
34	0x3d85e71f	0.065382235
35	0x3d200b90	0.039073527
36	0xbc0e07aa	-0.008668819
37	0xbd6aa05d	-0.05728184
38	0x3d21e739	0.03952715
39	0x3d21560b	0.039388698
40	0xbd270a91	-0.04078156
41	0x3d892c73	0.06697931
42	0xbb505b00	-0.0031792521
43	0xbd5dcb4d	-0.05414896
44	0x3b036577	0.0020049491
45	0x3c8915be	0.016734
46	0xbc7ffa10	-0.015623584
47	0xbdae195a	-0.08500929
48	0x3c50b2ae	0.012737913
49	0x3c873787	0.01650597
50	0x3ce35818	0.027751967
51	0x3d383e60	0.04498136
52	0x3c56a693	0.013101238
53	0x3c703ad0	0.0146624595
54	0xbd31e169	-0.04342786
55	0x3de2e8ba	0.11079545
56	0x3c8c2e04	0.017111786
57	0x3bdd57aa	0.006754835
58	0x3d4d95c4	0.050191656
59	0xbc8a7af1	-0.016904326
60	0x3d2e73c4	0.04259087
61	0xbbfe4b0d	-0.0077604116
62	0x3c14c7f8	0.009080879
63	0xbcb347b0	-0.02188477
64	0x3ce37031	0.027763458
65	0xbcb4137e	-0.02198195
66	0xbad10bf7	-0.0015949
67	0x3d002fd5	0.031295616
68	0xbd39d699	-0.045370672
69	0x3d1984e1	0.03748024
70	0xbd031307	-0.032000568
71	0x3d19cbe6	0.03754797
72	0x3ce92fdf	0.02846521
73	0xbcde8543	-0.027163154
74	0xbcc88a81	-0.024480106
75	0x3c984f48	0.018592492
76	0x3df0c563	0.117563985
77	0x3d4de0fa	0.050263382
78	0xbd014772	-0.031562276
79	0xbc86ee28	-0.016470984
80	0xbd4421d7	-0.047883835
81	0xbd600726	-0.054694317
82	0xbd2c1068	-0.042007834
83	0x3d612b6b	0.054973047
84	0xbd17091f	-0.036873933
85	0xbca9e7b6	-0.020740371
86	0x3bb30934	0.0054637436
87	0xbca4b97d	-0.020107979
88	0xbd7a8be1	-0.061168555
89	0x3c2e2fe7	0.010631538
90	0x3bb5f75c	0.005553169
91	0x3bb205e6	0.005432832
92	0x3cd56b52	0.02605215
93	0xbd5b4254	-0.053530052
94	0xbc345364	-0.01100621
95	0xbd7781b5	-0.060426433
96	0x3ccebb6c	0.025235854
97	0xbc460288	-0.012085564
98	0x3d236688	0.039892703
99	0x3bccd9c2	0.0062515447
100	0xbcb5b254	-0.02217976
101	0x3c930ffc	0.017951958
102	0xbd75381f	-0.059867974
103	0xbd751c4b	-0.059841435
104	0x3d0ca1e2	0.03433407
105	0x3d78e487	0.060764816
106	0xbd4890b4	-0.048966125
107	0x3cfa44b4	0.030550338
108	0x3d722c2a	0.05912415
109	0xbcba0649	-0.022708075
110	0xbd5e0fce	-0.05421429
111	0xbcb90665	-0.022586057
112	0xbca2b6ed	-0.019862616
113	0x3d5b2f1e	0.05351173
114	0xbd16ff55	-0.036864597
115	0x3d6b2688	0.057409793
116	0xbd81d450	-0.063393235
117	0x3cef9484	0.029245622
118	0x3d0a0329	0.03369442
119	0xbcb84b89	-0.022496955
120	0xbd46e67e	-0.04855966
121	0xbce24830	-0.027622312
122	0xbd20672a	-0.039160885
123	0xbd7090ad	-0.058731724
124	0xbce5273a	-0.027972806
125	0x3c118fa3	0.008884343
126	0xbd6e4e38	-0.058180064
127	0x3dc1953a	0.09452291
128	0x3d252c8d	0.04032569
129	0x3d5105cc	0.05103092
130	0xbc3e40cb	-0.011612128
131	0xbcb74f53	-0.022376692
132	0x3d8d934b	0.069128595
133	0x3cba72b1	0.022759767
134	0xba9272c0	-0.0011173114
135	0x3bd926d1	0.0066269417
136	0x3d3ef7db	0.046623092
137	0x3ac1a502	0.0014773908
138	0xbc7a9caa	-0.015296141
139	0x3cc52ee0	0.024070203
140	0xbd2c7311	-0.042101923
141	0x3d792632	0.06082744
142	0x3c3a8baf	0.011385842
143	0x3d020cab	0.031750362
144	0x3b37f58c	0.0028069941
145	0x3d63c14b	0.05560426
146	0x3d310c3c	0.04322456
147	0x3d36aca8	0.04459825
148	0xbd0952d8	-0.03352627
149	0x3c632e66	0.013866043
150	0x3d3039e6	0.043023966
151	0x3d2d15e5	0.04225721
152	0xbd3f55c5	-0.046712656
153	0x3daac3e6	0.08338146
154	0xbd862bc7	-0.065513186
155	0x3cdd0490	0.026979715
156	0xbcd55c30	-0.026044935
157	0xbd53c191	-0.05169827
158	0x3d0ac466	0.033878706
159	0xbcd335a5	-0.025782416
160	0x3d33f729	0.043936882
161	0x3cf04dd9	0.029333996
162	0x3d511bfd	0.051052082
163	0x3c83861b	0.016055157
164	0xbd687ef8	-0.05676171
165	0xbd3bdf4d	-0.045867253
166	0xbd950ea6	-0.072781846
167	0x3da5f68c	0.08103666
168	0xbd885943	-0.0665765
169	0xbd06085e	-0.032722823
170	0xbd69ebfe	-0.057109825
171	0xbc435a15	-0.011923333
172	0x3cbb5831	0.022869201
173	0xbcbf86c7	-0.023379697
174	0x3d94e4a2	0.07270171
175	0x3ca09a18	0.019604728
176	0xbd4cf54b	-0.050038617
177	0xbcd176e9	-0.025569396
178	0x3cde51c0	0.02713859
179	0xbd8c4274	-0.068486124
180	0xbdb0cdf7	-0.08633035
181	0xbd4d81d5	-0.050172646
182	0xbd8632a5	-0.065526284
183	0xbca30f06	-0.019904625
184	0x3d146c53	0.03623612
185	0xbbdce598	-0.006741237
186	0x3c454ab9	0.012041741
187	0x3b1dc7b9	0.0024075343
188	0xbd4b7371	-0.04967064
189	0xbc799d33	-0.015235233
190	0x3c9f39b9	0.019436704
191	0x3d70bd49	0.058774266
192	0xbcbf7ea9	-0.023375826
193	0x3d4c0377	0.04980799
194	0xbc656959	-0.014002168
195	0xbcd6c86d	-0.026218617
196	0x3ca3b375	0.019983033
197	0x3d35a3c4	0.044345632
198	0x3c64bc39	0.013960891
199	0x3d1c03f2	0.0380897
200	0x3b8770d9	0.0041333255
201	0xbcbbccca	-0.0229248
202	0xbc0f6760	-0.008752674
203	0x3d2e724b	0.042589467
204	0x3bc54dc0	0.0060212314
205	0x3d22f180	0.039781094
206	0x3cecc43c	0.028902166
207	0xbd16331c	-0.036669835
208	0x3dab6a0a	0.08369835
209	0xbcfd687d	-0.030933613
210	0x3d0a3a07	0.033746745
211	0xbd2edd01	-0.042691234
212	0xba88aae5	-0.0010426907
213	0x3d38d90b	0.045128863
214	0x3d282909	0.04105476
215	0x3d962e01	0.07332993
216	0xb7d7a966	-2.570888e-05
217	0x3d09ba8d	0.033625174
218	0x3d142fd9	0.036178444
219	0xbd4b2975	-0.049600083
220	0xbd0df191	-0.034654204
221	0x3ca2f2ad	0.019891107
222	0xbc9205c5	-0.017825017
223	0xbd1c9beb	-0.038234632
224	0xbc8c68f2	-0.017139886
225	0x3cc036a2	0.023463551
226	0x3d30db0b	0.043177646
227	0x3d3ff4b0	0.04686421
228	0x3d23341e	0.039844625
229	0x3c5b8c50	0.013400152
230	0xbd4f74da	-0.050648548
231	0x3d55d67b	0.052206498
232	0xbc3fee8e	-0.011714591
233	0x3d6e5a8b	0.058191817
234	0xbcc6931e	-0.024240073
235	0x3d40ca5e	0.047067992
236	0x3cfb0667	0.030642701
237	0x3db26039	0.08709759
238	0x3c8cb98b	0.017178318
239	0x3d0cc7cb	0.034370225
240	0xbd679786	-0.05654099
241	0x3c792158	0.015205704
242	0xbd79d258	-0.060991615
243	0xbd8be723	-0.06831195
244	0xbd9bc6ab	-0.07606252
245	0xbc4b3c01	-0.012404443
246	0x3b46ab01	0.0030314329
247	0x3d1af510	0.037831366
248	0x3cc344b9	0.02383648
249	0xbbdd5d82	-0.0067555318
250	0x3c73e275	0.0148855345
251	0xbd6a0f82	-0.057143696
252	0x3d475e8b	0.048674148
253	0xbd2bd406	-0.04195025
254	0xbd0bba1b	-0.03411303
255	0xbc1c7874	-0.009550203

model.tcn.1.conv2.bias f4 [25]
0	0xbcfff75b	-0.031245878
1	0x3c982ce1	0.018576087
2	0xbd0d02e3	-0.03442658
3	0xbd42adec	-0.047529146
4	0x3c865ea5	0.016402552
5	0x3c8759a1	0.01652223
6	0x3dac45a9	0.08411724
7	0x3d934c78	0.0719232
8	0xbcd4a6c6	-0.02595843
9	0xbd2e91bc	-0.042619452
10	0x3d12c034	0.03582783
11	0x3d4ffa7a	0.050775982
12	0x3cce5cc1	0.025190713
13	0x3d51952a	0.051167645
14	0x3c61eed1	0.013789848
15	0xbd1f9e1d	-0.038969148
16	0x3c870438	0.016481504
17	0xbd40e123	-0.047089707
18	0x3ca9b9b1	0.020718427
19	0xbb9be508	-0.0047575273
20	0xbcb61c7e	-0.022230383
21	0x3ce82b16	0.028340857
22	0x3d69d099	0.0570837
23	0xbd5f21e2	-0.054475673
24	0x3cc5ab2a	0.024129469

model.tcn.1.conv2.weight_g f4 [25, 1, 1]
0	0x3f226bbf	0.6344566
1	0x3f196308	0.59916735
2	0x3f0aafd8	0.54174566
3	0x3f131ac1	0.574627
4	0x3f1306c8	0.5743222
5	0x3f19da97	0.60099167
6	0x3f177819	0.5916763
7	0x3f2644cc	0.64948726
8	0x3f070694	0.5274441
9	0x3f0aa86c	0.5416324
10	0x3f159796	0.58434427
11	0x3f19b62f	0.60043615
12	0x3f17cf67	0.59300846
13	0x3f35642c	0.70855975
14	0x3f2c35a5	0.67269355
15	0x3f0ef79f	0.5584659
16	0x3f1930d5	0.59840137
17	0x3f0fa6fc	0.5611417
18	0x3f14bdd4	0.58102155
19	0x3f0f6fc9	0.56029946
20	0x3f15d96e	0.58534896
21	0x3f05d7ed	0.522826
22	0x3f13524a	0.5754744
23	0x3f2f4278	0.684608
24	0x3f17713b	0.5915715
