etc/ckpts/participants/661_test_30_all/sigmoid/TCN/epochs/TCN-chpkt-pecanstreet-participant-id-661_test_30_all_epoch=003.ckpt (torch, 924609 bytes, 201 tensors)

model.tcn.0.conv1.bias f4 [25]
00000000: 7683 153d 20fb 03bd f589 eb3c f0c4 713c
00000010: 9a74 7dbd e141 35bd b5d5 3bbd 9bc2 393d
00000020: af6a 433c ca5d ad3b 9813 45bd 9418 8ebd
00000030: f305 adbc 9305 43bd e2aa 7ebd 7c8f 6dbd
00000040: 69d6 27bd 0d3e 89bd d9c0 fc3c 01c4 033d
00000050: ed5a 163d 7ca7 90bd 20e8 523d b51e c43c
00000060: b829 1a3d
0.036502324 -0.032221913 0.028752306 0.014756426 -0.061878778 -0.04425228 -0.045858104 0.045351606
0.011927291 0.0052907215 -0.04811439 -0.06938282 -0.021121 -0.047612738 -0.062174685 -0.057998165
-0.04097596 -0.06701288 0.030853676 0.032169346 0.036707807 -0.07063195 0.051490903 0.023940424
0.037637442

model.tcn.0.conv1.weight_g f4 [25, 1, 1]
00000000: 91b5 163f 78b7 113f ba0d 183f 5e9b 1e3f
00000010: f109 143f 2fe2 113f 5521 1d3f 0b96 173f
00000020: 6a9f 0c3f cc51 133f 9724 103f 09f4 0c3f
00000030: 1e00 153f 2598 173f 5359 093f 68bc 0e3f
00000040: 49cb 173f b72f 0e3f 24fb 173f 2405 113f
00000050: afe2 193f 6a0e 0d3f 694a 153f 85c0 153f
00000060: 3bf6 113f
0.588708 0.56920576 0.59395945 0.6195582 0.5782767 0.56985754 0.61378986 0.5921332
0.54930747 0.5754669 0.5630583 0.5505987 0.58203304 0.5921653 0.5365192 0.55756235
0.59294564 0.5554156 0.59367585 0.5664847 0.60111517 0.5510012 0.58316666 0.58496886
0.5701634

model.tcn.0.conv1.weight_v f4 [25, 28, 7]
00000000: 7d01 863c d95f 5e3d d659 24bd 4813 0bbd
00000010: e41f 1abc e522 143d dd1e 853c 4b26 693d
00000020: 7402 92bb 5ff4 a43c afbc 9ebc 896e 43bc
00000030: f49c 84bd 0aaa 35bd a753 ecbc 5aa2 173a
00000040: 2546 c63c 97fb 1a3d 36ab 41bd 7b02 fdbc
00000050: 3a8d b43c e3b9 703d 55aa 6fbc 22e7 583d
00000060: b5ad 3cbc cb76 ef3b 73f8 823d d338 87bd
00000070: 2538 3dbd 7495 a2bc 62d1 f1bc b175 703d
00000080: 22e5 43bd 3a03 0ebd 3ba4 52bd 1824 85bd
00000090: d808 25bd 0f41 7b3d 9fae 033d afcd 0e3d
000000a0: 96b1 8f3b 451d 11bd 1fc4 643c 9979 82bd
000000b0: bf13 48bd 43a4 0cbd 2103 3e3d 9dfb 303d
000000c0: 7886 f0bc 000c 84b9 0c7c 0f3d 4f7c 6d3d
000000d0: fc10 c73c 4567 243c f88d 153d b673 19bd
000000e0: d62b e3bb 96cd 9ebd eec8 92bd 801f 71bd
000000f0: 4720 3e3c 6de6 f73b beca 85bd 1b0c bf3c
00000100: 1bd0 253d 1061 d3bb 8dda a23b a31e 973c
00000110: 0e3d 3a3d cfa0 8d3d a728 59bd c0d7 cbbc
00000120: 2872 e63c 7c07 703d b7d0 7b3d eb2f 7f3d
00000130: 7a03 6d3c 6e70 88bd cbc9 df3a 01a3 49bd
00000140: c651 91bd 6d18 6f3d f7b8 493d 36e1 9abd
00000150: 5794 6c3c 6c3c 2dbc 5e42 28bc bb8a fdbc
00000160: 9d3e ea3c ad42 25bd 4807 e03c 76d1 093d
00000170: 5fed 453d 983e c83c c387 90bd dc2d 40bd
00000180: 02d6 073d ada4 533c 9244 6abd 87b5 2fbd
00000190: 4b9d 823d 2458 383d 53c1 07bd 33a9 a5bc
000001a0: 83a8 8ebd f5aa 40ba 0d28 57bd 41a6 5cbd
000001b0: 0134 64bb 7eea 333c 0c4e e9bc e91f 2d3d
000001c0: 0c0a 25bd 9a2f 853d 4558 4b3d 1937 68bd
000001d0: e8dc 78bc d3ae ad3b f506 4b3c 1138 993c
000001e0: cf92 f13c 348f d43b 6bff 00bd 2685 103d
000001f0: e671 83bd c845 1ebd dace 75bc ae08 01bd
00000200: 95ba b3bc 4d2d 60bd 8f88 49bc 01ed 8e3c
00000210: 7aa8 2fbd 73ae c0bb 5fa7 443d 81e8 1abc
00000220: c7bd 6db9 1dc0 06bc 04c3 453c 58a9 2e3d
00000230: cb9c 843d e8aa 2e3d 55de 843d ed18 f5bb
00000240: 323d 87bd d09c 13bd d67e 3b3d 556e 3dbb
00000250: d6aa 1abd eb22 69bd e37e 8dbd d061 80bd
00000260: 26ac 8dbc ef5b 133d 46e3 0a3d 4a6e 95bd
00000270: c265 233d af8d 75bd 837d 9fbc 7947 08bd
00000280: de1c 94bc 292f 52bc 871c 7ebd 4f6b 74bd
00000290: 9fdf 23bc 9fc1 f73a 0ea2 fdbc 006a e03c
000002a0: 36aa 74bd f7f4 01bb db8e 823d 8c6f d1bc
000002b0: cf43 863d 547e e53c d026 75bd e207 393d
000002c0: bc57 f9bb 1408 febc 4ba7 693d bb54 67bd
000002d0: 6a50 083c 2eec 66bc a8f0 533d e9c1 ae3c
000002e0: 0ca1 113d 9cae da3c 0acd 76bc 60ac 53bc
000002f0: e795 65bd 73c0 233d 710f 6c3d 5e00 4d3d
00000300: d709 3fbd bea9 b63b cbd8 3ebd e3b9 12bd
00000310: 7b11 2ebd 87fb d63c a8b8 31bd c3fb 0dbb
00000320: 432d 903b 7942 413d 393a 56bd c0bc 42bd
00000330: 6303 24bd 4a43 5b3d bd00 c8bc 611b 7a3d
00000340: 8172 de3c 1e18 2d3c 101b f7ba 4579 76bc
00000350: 9309 2f3c f049 85bc 55ca fc3a 45d1 3a3c
00000360: 9240 52bd 638c 0abd 44bd 7f3d 5199 5cbd
00000370: c8bc f1ba a2e5 9a3d 5b4b 023d 6199 0e3c
00000380: 6f1f 7abd 8a7c 1c3d d4a3 4dbd 0bf0 a2bc
00000390: a4ae adbc 2be4 febb 00b3 453b ea9f 813d
000003a0: 1983 663c 7126 8c3d 8c73 463d cf21 1fbd
000003b0: 8549 183d 347e 35bd b62d d7bc 0ec7 da3c
000003c0: b05c f03c 00b8 6f3d 91f3 7dbc 2f5f e53b
000003d0: 959d 2f3d 6e2a 92bd f26f 373d 9eb6 7bbd
000003e0: 00c3 89b8 5314 81bc df41 27bd 222d 8f3b
000003f0: 135e 6a3d 7f2f d6bc 0b7c 43bd d111 02bd
0.016358132 0.054290626 -0.040124737 -0.033953935 -0.009407017 0.03616609 0.016250068 0.056921285
-0.004455859 0.020136056 -0.01937708 -0.011928209 -0.06475249 -0.044351615 -0.028848482 0.0005784385
0.02420337 0.03783759 -0.04728242 -0.030884972 0.022039998 0.058771025 -0.014628013 0.0529548
-0.011516024 0.0073078624 0.06395044 -0.06602635 -0.04619612 -0.019846655 -0.029518787 0.05870599
-0.04782594 -0.034671046 -0.051426154 -0.06501025 -0.040291637 0.06134134 0.032148954 0.034864124
0.0043851836 -0.035428304 0.013962775 -0.06370849 -0.048846956 -0.03433634 0.046389703 0.043208707
-0.029360995 -0.00025185943 0.03503041 0.057979878 0.024300091 0.010034387 0.036512345 -0.037463866
-0.006932716 -0.07754056 -0.071672305 -0.05886793 0.011604375 0.0075653107 -0.06532811 0.023321202
0.040481668 -0.0064507797 0.004969901 0.018447226 0.045468383 0.069154374 -0.053017285 -0.024883151
0.028130606 0.058600888 0.061478343 0.062301558 0.014466161 -0.06662069 0.0017073689 -0.04922772
-0.07095675 0.058372904 0.04924866 -0.07562487 0.014439664 -0.010573488 -0.010269729 -0.03094994
0.02859431 -0.04034679 0.027347222 0.033647023 0.048322078 0.02444391 -0.070571445 -0.046918735
0.033163078 0.01291768 -0.0571943 -0.042897727 0.063776575 0.045005932 -0.033143353 -0.020222282
-0.06965735 -0.00073496933 -0.05252843 -0.05386949 -0.0034821036 0.0109812 -0.028479598 0.04226676
-0.040292785 0.0650322 0.049644727 -0.05669317 -0.015189387 0.0053003817 0.012391795 0.018703492
0.02948895 0.0064867977 -0.031493586 0.03528323 -0.06418209 -0.038640767 -0.015002931 -0.03150242
-0.021939555 -0.054730702 -0.0123006245 0.017446997 -0.04288528 -0.005880171 0.04801118 -0.009454847
-0.00022672779 -0.008224514 0.012070421 0.042641968 0.064752184 0.042643458 0.06487719 -0.007479778
-0.06603469 -0.03603822 0.045775257 -0.0028904874 -0.037760578 -0.056918066 -0.06908967 -0.06268656
-0.017294 0.035976347 0.03390815 -0.072964266 0.039891966 -0.059949573 -0.019469028 -0.033271287
-0.018080171 -0.012828627 -0.062038925 -0.05967265 -0.010002046 0.0018902308 -0.030961063 0.027394295
-0.05973264 -0.0019829848 0.06374904 -0.025565885 0.06555902 0.02801434 -0.059851468 0.045173533
-0.0076093357 -0.031009711 0.05704431 -0.05647729 0.008319953 -0.014094396 0.05174318 0.021332698
0.035553977 0.026694588 -0.015063534 -0.012919515 -0.05605116 0.039978456 0.057631914 0.05004918
-0.046640243 0.005574434 -0.04659347 -0.035821807 -0.04249714 0.026242984 -0.043388993 -0.0021664954
0.004399927 0.047182534 -0.05230162 -0.047543287 -0.040042292 0.05353097 -0.024414415 0.061061267
0.02715421 0.010564832 -0.001885267 -0.015043561 0.010683435 -0.016270608 0.0019286374 0.011402433
-0.05133111 -0.03382529 0.062436357 -0.05385715 -0.0018443102 0.0756333 0.031810146 0.008703561
-0.061065134 0.038204707 -0.050205067 -0.019889852 -0.02120144 -0.0077786646 0.0030166507 0.06329329
0.014069342 0.068432696 0.048450038 -0.0388506 0.03717949 -0.04430981 -0.026266914 0.026706245
0.029341072 0.058525085 -0.015499965 0.006999872 0.04287489 -0.07136999 0.044784494 -0.061453454
-6.568991e-05 -0.015756762 -0.040834304 0.004369394 0.057218622 -0.026145695 -0.04772572 -0.031755272

model.tcn.0.conv2.bias f4 [25]
00000000: bc32 abbc bee2 0e3b 8ff2 38bc 3b4d 703d
00000010: 33f3 053d 126e fc3c fc5c b03b 65ea 1fbd
00000020: 0c39 483b dd2f 67bd 999a df3b bb66 a43d
00000030: f6ce 17bc 3b7b 9c3d 10a1 29bd b65e 8b3d
00000040: 3459 0b3d 28d3 11bd a5c2 98bd 2e7e eebc
00000050: 68d1 203d 1a59 a03d be72 62bd 5a71 dfbc
00000060: 1324 f03c
-0.020898215 0.002180263 -0.011288299 0.058667403 0.032702636 0.030814204 0.0053821784 -0.039041895
0.003055158 -0.05644213 0.0068238494 0.08027407 -0.009265652 0.07640692 -0.041413367 0.06805174
0.034020618 -0.035601765 -0.074590005 -0.029112902 0.039262205 0.07829495 -0.055285208 -0.02727573
0.029314077

model.tcn.0.conv2.weight_g f4 [25, 1, 1]
00000000: 1faf 173f b2e5 163f dfd2 0e3f 69f9 193f
00000010: e1c2 103f c2cd 0b3f 5989 1a3f 6b14 1c3f
00000020: d478 153f 2a72 1b3f 5f2d 123f 17f9 143f
00000030: fffe 093f 5d6b 133f ca44 1d3f 4563 133f
00000040: 0ce7 133f 60d7 123f 5e2f 143f fd8d 153f
00000050: 41b1 173f b2ac 123f 83bc 1e3f 21a9 123f
00000060: 6331 0f3f
0.5925159 0.5894424 0.55790514 0.60146195 0.5654736 0.54610837 0.60365826 0.60968655
0.58387494 0.60721076 0.5710048 0.5819258 0.5390472 0.575857 0.6143309 0.5757335
0.57774425 0.57359886 0.57884777 0.5841978 0.59254843 0.5729476 0.62006396 0.5728932
0.55934733

model.tcn.0.conv2.weight_v f4 [25, 25, 7]
00000000: 3321 ffbb 95dc 413d c482 78bd 14fb 163d
00000010: 7ae8 913d 6c0e 313d af1f 74bd dc08 04bc
00000020: 1c87 443b 279c 233d 9ce7 77bc 37cc 813c
00000030: 57ca 57bc c3bb f139 6fe7 583a a7bf 23bd
00000040: 37d4 47bd 301d 823d fb86 843d c431 b239
00000050: 74c9 883d 117e 863d 2fd8 0ebd 7905 8fbc
00000060: 674e 20bd aea0 0d3d 95a4 623c 532e 053b
00000070: befe 4b3d 1e70 b4bc fccd 07bd 1cf3 39bd
00000080: bac8 fabc e8bd 853d 36c7 ecbc 0173 9dbc
00000090: 2345 0c3d 9590 62bd 9f11 32bd 614e 653d
000000a0: 9824 dabc 7c6d 16bd 708c 6abb 745b 93bb
000000b0: b3be 963c b643 013d ab97 4cbd d06c 903d
000000c0: 4795 81bd 08c2 0a3d 29df 3fbc d5be b6bc
000000d0: de0e a03d b887 80bd ae11 6d3c 69a2 683d
000000e0: 4798 793d 8e9e 59bd 390d 1f3c 0341 8c3d
000000f0: c115 82bd d2e8 8d3c fbee 1bbd be09 ac3c
00000100: 0635 6abd 4051 3a3d 7228 cebb 4ce7 5b3d
00000110: 041f 133c f2a8 97b9 91b8 45bc a447 7bbd
00000120: 1af5 cebc b15f 043c 2bad 4fbd 358f 8c3d
00000130: d8aa 2abd 1247 b2bc e49a dbbb c8f3 54bd
00000140: 9ca3 99bb c76e e4bc a036 5cbd 4a03 82bb
00000150: ca10 7c3d b7ae 933c e78f 6c3d a358 4e3b
00000160: 8de1 98bc 5857 683d 4c47 02bd ca6f 6fbd
00000170: ecb3 d93c 4951 413d 9efd 0abd fce9 153d
00000180: 7dc5 80bc 59d5 e63a ea48 b6bb 097a a7bb
00000190: 7f94 4fbd 2218 643c 5455 0ebc 206f 4a3d
000001a0: 6d6f 0f3c 15c1 4ebd 5f6f 3dbd fa7c e8bc
000001b0: 186f 2b3d f4f1 19bd 1fda c0bc 2044 af3c
000001c0: a171 28bd 7b44 d5bc d435 853d 95e8 ecbc
000001d0: fc20 6fbc 3b62 583d 5035 ac3c 230a 5c3d
000001e0: 7238 86bd 4cd6 0a3d f1ad 51bc ea8f 45bd
000001f0: 64b8 05bd 3464 93bd 499e 6b3d 07f1 03bc
00000200: 7230 89bd 8aae 8f3d 6a42 603d c1b1 183d
00000210: 559c a23d b198 9e3d c099 a33d 93ac 9d3d
00000220: 0c25 913d 0057 f03c d1ce 593b 70ff 4f3c
00000230: ee05 b5bc aed6 333d 8c18 363c 17a2 da3c
00000240: 6863 1fbd d23b 9cbc 9236 843d dd3a 1639
00000250: e46e 7c3c 2391 86bd 070f 0dbd f97a ffbb
00000260: 071d 54bc e7c4 033d 5fad 49bc 4040 953d
00000270: c3b7 77bb 42b7 233d fd47 2dbd 211d bf3c
00000280: 6a6e 80bd 11a5 4dbd 9679 08bd ee8b 193d
00000290: 67c0 b43c 056c c23c 651c 033c 68d7 a53d
000002a0: 78bc 9d3d 7a13 183d 4cb4 833d c988 073b
000002b0: 067d b1bc 9ac7 a03c 4042 5a3d aa32 c4ba
000002c0: 2e7f 42bd d0ba 0f3d 97b8 10bc 1358 d3bc
000002d0: 0c2f 6d3d c950 023c b4d1 eebc 4a50 ffbc
000002e0: 99e9 8c3d 8afd 463d 20a6 24bd 63ea 2a3c
000002f0: 7678 183c f2ce 163d 42db 7cbd 2ff1 363b
00000300: a593 d73c 2328 213d 0be3 1a3c bc7d 0fbd
00000310: a39f 77bd b561 4b3d 0005 9d3d 6e89 32bc
00000320: cc36 62bd 7fb0 013d ced2 26bd 4289 2cbd
00000330: 7c92 903c 94b7 26bb 4bc1 50ba ed33 7b3d
00000340: b7c0 07bc 7d3a 293d 8db7 babc d221 613d
00000350: 0737 ba3c fa04 873d 1914 d53c 7987 d4bc
00000360: 8c24 053d 7b68 8a3d a9e1 a13c 4a14 223d
00000370: 514a 3bbd 27b6 3a3d 8144 82bd 1baf 903d
00000380: 52cd 1d3d 7473 513c 84c1 7cbd e630 9b3d
00000390: 37b8 633d 23a2 9d3d 40d9 193d 04e4 b73c
000003a0: 408c 81bc e1e8 d5bc b5c8 d33c cfbe b93c
000003b0: 520b 9dba aac1 353c 70fb 083d 688b 7fbd
000003c0: d24a 66bd 468c 25bc d828 703d c9bd 363d
000003d0: b13d 7bbd 807d 88bc abe0 18bb 6e79 f13c
000003e0: 0386 853d 314b eb3b df3b 54bd b0d1 263c
000003f0: 46f3 b2bc ff97 19bd 7a9b e43c 3080 f1bb
-0.00778594 0.047329504 -0.060671583 0.03686054 0.071244195 0.043226644 -0.05960053 -0.008058753
0.0029987758 0.03994384 -0.015130904 0.015844448 -0.0131708 0.00046106995 0.00082742324 -0.039977696
-0.04878637 0.06353223 0.06471058 0.00033987884 0.06679049 0.06567014 -0.034874137 -0.017458664
-0.03913727 0.034577064 0.013833185 0.00203218 0.049803488 -0.022026118 -0.033155426 -0.045397863
-0.030613292 0.06530362 -0.028903585 -0.019219877 0.03424562 -0.055313665 -0.043473836 0.05598295
-0.026628777 -0.036725506 -0.0035789274 -0.004496986 0.01840148 0.031558715 -0.04994933 0.07052004
-0.063273005 0.03387645 -0.01171092 -0.022307793 0.07815336 -0.06275886 0.014469547 0.05679551
0.06093624 -0.053129725 0.009707742 0.068483375 -0.063518055 0.017322931 -0.038069706 0.02100074
-0.057179473 0.045487642 -0.0062914426 0.05368738 0.008979563 -0.00028926838 -0.01206793 -0.06134762
-0.025263358 0.008079455 -0.050702255 0.06863252 -0.041666836 -0.021762405 -0.006701814 -0.0519903
-0.004688693 -0.027884854 -0.053763032 -0.0039676772 0.06153945 0.018027646 0.057754423 0.0031485937
-0.018662238 0.056723922 -0.031806275 -0.05845622 0.026575051 0.04719666 -0.033933274 0.036600098
-0.01571917 0.001761119 -0.0055628913 -0.0051109833 -0.050678726 0.013921769 -0.008687336 0.049422383
0.008754593 -0.050477106 -0.04624879 -0.028379906 0.041853994 -0.03758426 -0.023541508 0.02139479
-0.04112399 -0.02603363 0.065044075 -0.028919498 -0.014595266 0.052828055 0.021021515 0.053720605
-0.06553735 0.033895776 -0.0127978185 -0.04823295 -0.03264655 -0.071968466 0.057524 -0.008053071
-0.06698693 0.070157126 0.054750837 0.037278894 0.07939974 0.07743967 0.0798831 0.076989315
0.07087144 0.02933836 0.0033234844 0.012695178 -0.022097554 0.043905906 0.011114251 0.026688619
-0.03891316 -0.019071493 0.06455721 0.00014327043 0.015407298 -0.065706514 -0.03443816 -0.007796642
-0.012946374 0.032170203 -0.012309401 0.07287645 -0.003779874 0.03996969 -0.04230498 0.02332932
-0.0627106 -0.050206248 -0.03331908 0.037486963 0.0220644 0.023733148 0.008002375 0.08097726
0.07701963 0.03712795 0.06430873 0.0020680896 -0.021666061 0.019626427 0.053285837 -0.0014968712
-0.04748457 0.035090268 -0.008833072 -0.025798833 0.057906196 0.007953831 -0.029152729 -0.031166214
0.06880493 0.048581637 -0.04019749 0.010431859 0.009306064 0.036818452 -0.061732538 0.0027914753
0.02631552 0.039344918 0.009453545 -0.03503202 -0.060454976 0.049653728 0.07666969 -0.010897024
-0.05522804 0.03166246 -0.040728383 -0.042123087 0.017647974 -0.002543901 -0.0007963373 0.061328817
-0.008285693 0.041315544 -0.022792602 0.054963894 0.022731317 0.06592746 0.02601056 -0.025943505
0.032505557 0.06758209 0.019760923 0.03957013 -0.04572517 0.04558387 -0.06360722 0.07064649
0.038525887 0.012783874 -0.06170799 0.07577686 0.055595603 0.07696941 0.0375607 0.022447594
-0.015813947 -0.026112022 0.02585254 0.022673992 -0.0011981523 0.011093536 0.033442914 -0.062388808
-0.056223698 -0.010104245 0.0586327 0.044614587 -0.06133813 -0.016661406 -0.0023327272 0.029476847
0.06519701 0.0071805944 -0.05181491 0.010181829 -0.021844517 -0.03749847 0.027906168 -0.0073700175

model.tcn.0.net.0.bias f4 [25]
00000000: 7683 153d 20fb 03bd f589 eb3c f0c4 713c
00000010: 9a74 7dbd e141 35bd b5d5 3bbd 9bc2 393d
00000020: af6a 433c ca5d ad3b 9813 45bd 9418 8ebd
00000030: f305 adbc 9305 43bd e2aa 7ebd 7c8f 6dbd
00000040: 69d6 27bd 0d3e 89bd d9c0 fc3c 01c4 033d
00000050: ed5a 163d 7ca7 90bd 20e8 523d b51e c43c
00000060: b829 1a3d
0.036502324 -0.032221913 0.028752306 0.014756426 -0.061878778 -0.04425228 -0.045858104 0.045351606
0.011927291 0.0052907215 -0.04811439 -0.06938282 -0.021121 -0.047612738 -0.062174685 -0.057998165
-0.04097596 -0.06701288 0.030853676 0.032169346 0.036707807 -0.07063195 0.051490903 0.023940424
0.037637442

model.tcn.0.net.0.weight_g f4 [25, 1, 1]
00000000: 91b5 163f 78b7 113f ba0d 183f 5e9b 1e3f
00000010: f109 143f 2fe2 113f 5521 1d3f 0b96 173f
00000020: 6a9f 0c3f cc51 133f 9724 103f 09f4 0c3f
00000030: 1e00 153f 2598 173f 5359 093f 68bc 0e3f
00000040: 49cb 173f b72f 0e3f 24fb 173f 2405 113f
00000050: afe2 193f 6a0e 0d3f 694a 153f 85c0 153f
00000060: 3bf6 113f
0.588708 0.56920576 0.59395945 0.6195582 0.5782767 0.56985754 0.61378986 0.5921332
0.54930747 0.5754669 0.5630583 0.5505987 0.58203304 0.5921653 0.5365192 0.55756235
0.59294564 0.5554156 0.59367585 0.5664847 0.60111517 0.5510012 0.58316666 0.58496886
0.5701634

model.tcn.0.net.0.weight_v f4 [25, 28, 7]
00000000: 7d01 863c d95f 5e3d d659 24bd 4813 0bbd
00000010: e41f 1abc e522 143d dd1e 853c 4b26 693d
00000020: 7402 92bb 5ff4 a43c afbc 9ebc 896e 43bc
00000030: f49c 84bd 0aaa 35bd a753 ecbc 5aa2 173a
00000040: 2546 c63c 97fb 1a3d 36ab 41bd 7b02 fdbc
00000050: 3a8d b43c e3b9 703d 55aa 6fbc 22e7 583d
00000060: b5ad 3cbc cb76 ef3b 73f8 823d d338 87bd
00000070: 2538 3dbd 7495 a2bc 62d1 f1bc b175 703d
00000080: 22e5 43bd 3a03 0ebd 3ba4 52bd 1824 85bd
00000090: d808 25bd 0f41 7b3d 9fae 033d afcd 0e3d
000000a0: 96b1 8f3b 451d 11bd 1fc4 643c 9979 82bd
000000b0: bf13 48bd 43a4 0cbd 2103 3e3d 9dfb 303d
000000c0: 7886 f0bc 000c 84b9 0c7c 0f3d 4f7c 6d3d
000000d0: fc10 c73c 4567 243c f88d 153d b673 19bd
000000e0: d62b e3bb 96cd 9ebd eec8 92bd 801f 71bd
000000f0: 4720 3e3c 6de6 f73b beca 85bd 1b0c bf3c
00000100: 1bd0 253d 1061 d3bb 8dda a23b a31e 973c
00000110: 0e3d 3a3d cfa0 8d3d a728 59bd c0d7 cbbc
00000120: 2872 e63c 7c07 703d b7d0 7b3d eb2f 7f3d
00000130: 7a03 6d3c 6e70 88bd cbc9 df3a 01a3 49bd
00000140: c651 91bd 6d18 6f3d f7b8 493d 36e1 9abd
00000150: 5794 6c3c 6c3c 2dbc 5e42 28bc bb8a fdbc
00000160: 9d3e ea3c ad42 25bd 4807 e03c 76d1 093d
00000170: 5fed 453d 983e c83c c387 90bd dc2d 40bd
00000180: 02d6 073d ada4 533c 9244 6abd 87b5 2fbd
00000190: 4b9d 823d 2458 383d 53c1 07bd 33a9 a5bc
000001a0: 83a8 8ebd f5aa 40ba 0d28 57bd 41a6 5cbd
000001b0: 0134 64bb 7eea 333c 0c4e e9bc e91f 2d3d
000001c0: 0c0a 25bd 9a2f 853d 4558 4b3d 1937 68bd
000001d0: e8dc 78bc d3ae ad3b f506 4b3c 1138 993c
000001e0: cf92 f13c 348f d43b 6bff 00bd 2685 103d
000001f0: e671 83bd c845 1ebd dace 75bc ae08 01bd
00000200: 95ba b3bc 4d2d 60bd 8f88 49bc 01ed 8e3c
00000210: 7aa8 2fbd 73ae c0bb 5fa7 443d 81e8 1abc
00000220: c7bd 6db9 1dc0 06bc 04c3 453c 58a9 2e3d
00000230: cb9c 843d e8aa 2e3d 55de 843d ed18 f5bb
00000240: 323d 87bd d09c 13bd d67e 3b3d 556e 3dbb
00000250: d6aa 1abd eb22 69bd e37e 8dbd d061 80bd
00000260: 26ac 8dbc ef5b 133d 46e3 0a3d 4a6e 95bd
00000270: c265 233d af8d 75bd 837d 9fbc 7947 08bd
00000280: de1c 94bc 292f 52bc 871c 7ebd 4f6b 74bd
00000290: 9fdf 23bc 9fc1 f73a 0ea2 fdbc 006a e03c
000002a0: 36aa 74bd f7f4 01bb db8e 823d 8c6f d1bc
000002b0: cf43 863d 547e e53c d026 75bd e207 393d
000002c0: bc57 f9bb 1408 febc 4ba7 693d bb54 67bd
000002d0: 6a50 083c 2eec 66bc a8f0 533d e9c1 ae3c
000002e0: 0ca1 113d 9cae da3c 0acd 76bc 60ac 53bc
000002f0: e795 65bd 73c0 233d 710f 6c3d 5e00 4d3d
00000300: d709 3fbd bea9 b63b cbd8 3ebd e3b9 12bd
00000310: 7b11 2ebd 87fb d63c a8b8 31bd c3fb 0dbb
00000320: 432d 903b 7942 413d 393a 56bd c0bc 42bd
00000330: 6303 24bd 4a43 5b3d bd00 c8bc 611b 7a3d
00000340: 8172 de3c 1e18 2d3c 101b f7ba 4579 76bc
00000350: 9309 2f3c f049 85bc 55ca fc3a 45d1 3a3c
00000360: 9240 52bd 638c 0abd 44bd 7f3d 5199 5cbd
00000370: c8bc f1ba a2e5 9a3d 5b4b 023d 6199 0e3c
00000380: 6f1f 7abd 8a7c 1c3d d4a3 4dbd 0bf0 a2bc
00000390: a4ae adbc 2be4 febb 00b3 453b ea9f 813d
000003a0: 1983 663c 7126 8c3d 8c73 463d cf21 1fbd
000003b0: 8549 183d 347e 35bd b62d d7bc 0ec7 da3c
000003c0: b05c f03c 00b8 6f3d 91f3 7dbc 2f5f e53b
000003d0: 959d 2f3d 6e2a 92bd f26f 373d 9eb6 7bbd
000003e0: 00c3 89b8 5314 81bc df41 27bd 222d 8f3b
000003f0: 135e 6a3d 7f2f d6bc 0b7c 43bd d111 02bd
0.016358132 0.054290626 -0.040124737 -0.033953935 -0.009407017 0.03616609 0.016250068 0.056921285
-0.004455859 0.020136056 -0.01937708 -0.011928209 -0.06475249 -0.044351615 -0.028848482 0.0005784385
0.02420337 0.03783759 -0.04728242 -0.030884972 0.022039998 0.058771025 -0.014628013 0.0529548
-0.011516024 0.0073078624 0.06395044 -0.06602635 -0.04619612 -0.019846655 -0.029518787 0.05870599
-0.04782594 -0.034671046 -0.051426154 -0.06501025 -0.040291637 0.06134134 0.032148954 0.034864124
0.0043851836 -0.035428304 0.013962775 -0.06370849 -0.048846956 -0.03433634 0.046389703 0.043208707
-0.029360995 -0.00025185943 0.03503041 0.057979878 0.024300091 0.010034387 0.036512345 -0.037463866
-0.006932716 -0.07754056 -0.071672305 -0.05886793 0.011604375 0.0075653107 -0.06532811 0.023321202
0.040481668 -0.0064507797 0.004969901 0.018447226 0.045468383 0.069154374 -0.053017285 -0.024883151
0.028130606 0.058600888 0.061478343 0.062301558 0.014466161 -0.06662069 0.0017073689 -0.04922772
-0.07095675 0.058372904 0.04924866 -0.07562487 0.014439664 -0.010573488 -0.010269729 -0.03094994
0.02859431 -0.04034679 0.027347222 0.033647023 0.048322078 0.02444391 -0.070571445 -0.046918735
0.033163078 0.01291768 -0.0571943 -0.042897727 0.063776575 0.045005932 -0.033143353 -0.020222282
-0.06965735 -0.00073496933 -0.05252843 -0.05386949 -0.0034821036 0.0109812 -0.028479598 0.04226676
-0.040292785 0.0650322 0.049644727 -0.05669317 -0.015189387 0.0053003817 0.012391795 0.018703492
0.02948895 0.0064867977 -0.031493586 0.03528323 -0.06418209 -0.038640767 -0.015002931 -0.03150242
-0.021939555 -0.054730702 -0.0123006245 0.017446997 -0.04288528 -0.005880171 0.04801118 -0.009454847
-0.00022672779 -0.008224514 0.012070421 0.042641968 0.064752184 0.042643458 0.06487719 -0.007479778
-0.06603469 -0.03603822 0.045775257 -0.0028904874 -0.037760578 -0.056918066 -0.06908967 -0.06268656
-0.017294 0.035976347 0.03390815 -0.072964266 0.039891966 -0.059949573 -0.019469028 -0.033271287
-0.018080171 -0.012828627 -0.062038925 -0.05967265 -0.010002046 0.0018902308 -0.030961063 0.027394295
-0.05973264 -0.0019829848 0.06374904 -0.025565885 0.06555902 0.02801434 -0.059851468 0.045173533
-0.0076093357 -0.031009711 0.05704431 -0.05647729 0.008319953 -0.014094396 0.05174318 0.021332698
0.035553977 0.026694588 -0.015063534 -0.012919515 -0.05605116 0.039978456 0.057631914 0.05004918
-0.046640243 0.005574434 -0.04659347 -0.035821807 -0.04249714 0.026242984 -0.043388993 -0.0021664954
0.004399927 0.047182534 -0.05230162 -0.047543287 -0.040042292 0.05353097 -0.024414415 0.061061267
0.02715421 0.010564832 -0.001885267 -0.015043561 0.010683435 -0.016270608 0.0019286374 0.011402433
-0.05133111 -0.03382529 0.062436357 -0.05385715 -0.0018443102 0.0756333 0.031810146 0.008703561
-0.061065134 0.038204707 -0.050205067 -0.019889852 -0.02120144 -0.0077786646 0.0030166507 0.06329329
0.014069342 0.068432696 0.048450038 -0.0388506 0.03717949 -0.04430981 -0.026266914 0.026706245
0.029341072 0.058525085 -0.015499965 0.006999872 0.04287489 -0.07136999 0.044784494 -0.061453454
-6.568991e-05 -0.015756762 -0.040834304 0.004369394 0.057218622 -0.026145695 -0.04772572 -0.031755272

model.tcn.0.net.4.bias f4 [25]
00000000: bc32 abbc bee2 0e3b 8ff2 38bc 3b4d 703d
00000010: 33f3 053d 126e fc3c fc5c b03b 65ea 1fbd
00000020: 0c39 483b dd2f 67bd 999a df3b bb66 a43d
00000030: f6ce 17bc 3b7b 9c3d 10a1 29bd b65e 8b3d
00000040: 3459 0b3d 28d3 11bd a5c2 98bd 2e7e eebc
00000050: 68d1 203d 1a59 a03d be72 62bd 5a71 dfbc
00000060: 1324 f03c
-0.020898215 0.002180263 -0.011288299 0.058667403 0.032702636 0.030814204 0.0053821784 -0.039041895
0.003055158 -0.05644213 0.0068238494 0.08027407 -0.009265652 0.07640692 -0.041413367 0.06805174
0.034020618 -0.035601765 -0.074590005 -0.029112902 0.039262205 0.07829495 -0.055285208 -0.02727573
0.029314077

model.tcn.0.net.4.weight_g f4 [25, 1, 1]
00000000: 1faf 173f b2e5 163f dfd2 0e3f 69f9 193f
00000010: e1c2 103f c2cd 0b3f 5989 1a3f 6b14 1c3f
00000020: d478 153f 2a72 1b3f 5f2d 123f 17f9 143f
00000030: fffe 093f 5d6b 133f ca44 1d3f 4563 133f
00000040: 0ce7 133f 60d7 123f 5e2f 143f fd8d 153f
00000050: 41b1 173f b2ac 123f 83bc 1e3f 21a9 123f
00000060: 6331 0f3f
0.5925159 0.5894424 0.55790514 0.60146195 0.5654736 0.54610837 0.60365826 0.60968655
0.58387494 0.60721076 0.5710048 0.5819258 0.5390472 0.575857 0.6143309 0.5757335
0.57774425 0.57359886 0.57884777 0.5841978 0.59254843 0.5729476 0.62006396 0.5728932
0.55934733

model.tcn.0.net.4.weight_v f4 [25, 25, 7]
00000000: 3321 ffbb 95dc 413d c482 78bd 14fb 163d
00000010: 7ae8 913d 6c0e 313d af1f 74bd dc08 04bc
00000020: 1c87 443b 279c 233d 9ce7 77bc 37cc 813c
00000030: 57ca 57bc c3bb f139 6fe7 583a a7bf 23bd
00000040: 37d4 47bd 301d 823d fb86 843d c431 b239
00000050: 74c9 883d 117e 863d 2fd8 0ebd 7905 8fbc
00000060: 674e 20bd aea0 0d3d 95a4 623c 532e 053b
00000070: befe 4b3d 1e70 b4bc fccd 07bd 1cf3 39bd
00000080: bac8 fabc e8bd 853d 36c7 ecbc 0173 9dbc
00000090: 2345 0c3d 9590 62bd 9f11 32bd 614e 653d
000000a0: 9824 dabc 7c6d 16bd 708c 6abb 745b 93bb
000000b0: b3be 963c b643 013d ab97 4cbd d06c 903d
000000c0: 4795 81bd 08c2 0a3d 29df 3fbc d5be b6bc
000000d0: de0e a03d b887 80bd ae11 6d3c 69a2 683d
000000e0: 4798 793d 8e9e 59bd 390d 1f3c 0341 8c3d
000000f0: c115 82bd d2e8 8d3c fbee 1bbd be09 ac3c
00000100: 0635 6abd 4051 3a3d 7228 cebb 4ce7 5b3d
00000110: 041f 133c f2a8 97b9 91b8 45bc a447 7bbd
00000120: 1af5 cebc b15f 043c 2bad 4fbd 358f 8c3d
00000130: d8aa 2abd 1247 b2bc e49a dbbb c8f3 54bd
00000140: 9ca3 99bb c76e e4bc a036 5cbd 4a03 82bb
00000150: ca10 7c3d b7ae 933c e78f 6c3d a358 4e3b
00000160: 8de1 98bc 5857 683d 4c47 02bd ca6f 6fbd
00000170: ecb3 d93c 4951 413d 9efd 0abd fce9 153d
00000180: 7dc5 80bc 59d5 e63a ea48 b6bb 097a a7bb
00000190: 7f94 4fbd 2218 643c 5455 0ebc 206f 4a3d
000001a0: 6d6f 0f3c 15c1 4ebd 5f6f 3dbd fa7c e8bc
000001b0: 186f 2b3d f4f1 19bd 1fda c0bc 2044 af3c
000001c0: a171 28bd 7b44 d5bc d435 853d 95e8 ecbc
000001d0: fc20 6fbc 3b62 583d 5035 ac3c 230a 5c3d
000001e0: 7238 86bd 4cd6 0a3d f1ad 51bc ea8f 45bd
000001f0: 64b8 05bd 3464 93bd 499e 6b3d 07f1 03bc
00000200: 7230 89bd 8aae 8f3d 6a42 603d c1b1 183d
00000210: 559c a23d b198 9e3d c099 a33d 93ac 9d3d
00000220: 0c25 913d 0057 f03c d1ce 593b 70ff 4f3c
00000230: ee05 b5bc aed6 333d 8c18 363c 17a2 da3c
00000240: 6863 1fbd d23b 9cbc 9236 843d dd3a 1639
00000250: e46e 7c3c 2391 86bd 070f 0dbd f97a ffbb
00000260: 071d 54bc e7c4 033d 5fad 49bc 4040 953d
00000270: c3b7 77bb 42b7 233d fd47 2dbd 211d bf3c
00000280: 6a6e 80bd 11a5 4dbd 9679 08bd ee8b 193d
00000290: 67c0 b43c 056c c23c 651c 033c 68d7 a53d
000002a0: 78bc 9d3d 7a13 183d 4cb4 833d c988 073b
000002b0: 067d b1bc 9ac7 a03c 4042 5a3d aa32 c4ba
000002c0: 2e7f 42bd d0ba 0f3d 97b8 10bc 1358 d3bc
000002d0: 0c2f 6d3d c950 023c b4d1 eebc 4a50 ffbc
000002e0: 99e9 8c3d 8afd 463d 20a6 24bd 63ea 2a3c
000002f0: 7678 183c f2ce 163d 42db 7cbd 2ff1 363b
00000300: a593 d73c 2328 213d 0be3 1a3c bc7d 0fbd
00000310: a39f 77bd b561 4b3d 0005 9d3d 6e89 32bc
00000320: cc36 62bd 7fb0 013d ced2 26bd 4289 2cbd
00000330: 7c92 903c 94b7 26bb 4bc1 50ba ed33 7b3d
00000340: b7c0 07bc 7d3a 293d 8db7 babc d221 613d
00000350: 0737 ba3c fa04 873d 1914 d53c 7987 d4bc
00000360: 8c24 053d 7b68 8a3d a9e1 a13c 4a14 223d
00000370: 514a 3bbd 27b6 3a3d 8144 82bd 1baf 903d
00000380: 52cd 1d3d 7473 513c 84c1 7cbd e630 9b3d
00000390: 37b8 633d 23a2 9d3d 40d9 193d 04e4 b73c
000003a0: 408c 81bc e1e8 d5bc b5c8 d33c cfbe b93c
000003b0: 520b 9dba aac1 353c 70fb 083d 688b 7fbd
000003c0: d24a 66bd 468c 25bc d828 703d c9bd 363d
000003d0: b13d 7bbd 807d 88bc abe0 18bb 6e79 f13c
000003e0: 0386 853d 314b eb3b df3b 54bd b0d1 263c
000003f0: 46f3 b2bc ff97 19bd 7a9b e43c 3080 f1bb
-0.00778594 0.047329504 -0.060671583 0.03686054 0.071244195 0.043226644 -0.05960053 -0.008058753
0.0029987758 0.03994384 -0.015130904 0.015844448 -0.0131708 0.00046106995 0.00082742324 -0.039977696
-0.04878637 0.06353223 0.06471058 0.00033987884 0.06679049 0.06567014 -0.034874137 -0.017458664
-0.03913727 0.034577064 0.013833185 0.00203218 0.049803488 -0.022026118 -0.033155426 -0.045397863
-0.030613292 0.06530362 -0.028903585 -0.019219877 0.03424562 -0.055313665 -0.043473836 0.05598295
-0.026628777 -0.036725506 -0.0035789274 -0.004496986 0.01840148 0.031558715 -0.04994933 0.07052004
-0.063273005 0.03387645 -0.01171092 -0.022307793 0.07815336 -0.06275886 0.014469547 0.05679551
0.06093624 -0.053129725 0.009707742 0.068483375 -0.063518055 0.017322931 -0.038069706 0.02100074
-0.057179473 0.045487642 -0.0062914426 0.05368738 0.008979563 -0.00028926838 -0.01206793 -0.06134762
-0.025263358 0.008079455 -0.050702255 0.06863252 -0.041666836 -0.021762405 -0.006701814 -0.0519903
-0.004688693 -0.027884854 -0.053763032 -0.0039676772 0.06153945 0.018027646 0.057754423 0.0031485937
-0.018662238 0.056723922 -0.031806275 -0.05845622 0.026575051 0.04719666 -0.033933274 0.036600098
-0.01571917 0.001761119 -0.0055628913 -0.0051109833 -0.050678726 0.013921769 -0.008687336 0.049422383
0.008754593 -0.050477106 -0.04624879 -0.028379906 0.041853994 -0.03758426 -0.023541508 0.02139479
-0.04112399 -0.02603363 0.065044075 -0.028919498 -0.014595266 0.052828055 0.021021515 0.053720605
-0.06553735 0.033895776 -0.0127978185 -0.04823295 -0.03264655 -0.071968466 0.057524 -0.008053071
-0.06698693 0.070157126 0.054750837 0.037278894 0.07939974 0.07743967 0.0798831 0.076989315
0.07087144 0.02933836 0.0033234844 0.012695178 -0.022097554 0.043905906 0.011114251 0.026688619
-0.03891316 -0.019071493 0.06455721 0.00014327043 0.015407298 -0.065706514 -0.03443816 -0.007796642
-0.012946374 0.032170203 -0.012309401 0.07287645 -0.003779874 0.03996969 -0.04230498 0.02332932
-0.0627106 -0.050206248 -0.03331908 0.037486963 0.0220644 0.023733148 0.008002375 0.08097726
0.07701963 0.03712795 0.06430873 0.0020680896 -0.021666061 0.019626427 0.053285837 -0.0014968712
-0.04748457 0.035090268 -0.008833072 -0.025798833 0.057906196 0.007953831 -0.029152729 -0.031166214
0.06880493 0.048581637 -0.04019749 0.010431859 0.009306064 0.036818452 -0.061732538 0.0027914753
0.02631552 0.039344918 0.009453545 -0.03503202 -0.060454976 0.049653728 0.07666969 -0.010897024
-0.05522804 0.03166246 -0.040728383 -0.042123087 0.017647974 -0.002543901 -0.0007963373 0.061328817
-0.008285693 0.041315544 -0.022792602 0.054963894 0.022731317 0.06592746 0.02601056 -0.025943505
0.032505557 0.06758209 0.019760923 0.03957013 -0.04572517 0.04558387 -0.06360722 0.07064649
0.038525887 0.012783874 -0.06170799 0.07577686 0.055595603 0.07696941 0.0375607 0.022447594
-0.015813947 -0.026112022 0.02585254 0.022673992 -0.0011981523 0.011093536 0.033442914 -0.062388808
-0.056223698 -0.010104245 0.0586327 0.044614587 -0.06133813 -0.016661406 -0.0023327272 0.029476847
0.06519701 0.0071805944 -0.05181491 0.010181829 -0.021844517 -0.03749847 0.027906168 -0.0073700175

model.tcn.0.downsample.weight f4 [25, 28, 1]
00000000: 0f42 cc3b adde 23bb 9ddb cfbc 4497 1cbb
00000010: b3ff 4cbb 7108 31bc 1059 0cbc c0e9 da3a
00000020: 1d87 10bd 869e 5637 b420 92bc 6bc6 783c
00000030: dbc5 643b 076b acbb 3000 4f3c 43ed 3c3c
00000040: 8399 46ba 1810 3e3c 3bc5 7e3c 6900 f73b
00000050: c4e7 bbbb 5b8d 95bc 0f15 6ebc 49b9 2dbc
00000060: 0b2c 983a eb17 5f3b 78ec a03c 76a4 fa3b
00000070: c2c1 6f3c edd2 e8bb 2db8 693c b74b b1bb
00000080: 85c4 1cbc 9917 b0bb 18fe 1abc 9e23 b5bb
00000090: a3ce ffbc a21f bcba a795 5e3b 5c4f 283c
000000a0: 32e6 cbb8 afdf fe39 1ce9 823c 9df9 933b
000000b0: 6404 3bbb 52ee 1b3c 1aa1 7abc 7f6c 11bc
000000c0: cde9 baba 9959 a3ba 1741 4bba 0dec 153b
000000d0: ba60 0e3c f1e6 20bc a54e 1a3b ef6c fe3b
000000e0: 5eba 7a3c 8532 efba 0661 90bb d50d 6d3c
000000f0: 4bcf 093a fb4b c43b 1b77 483c dac2 81bc
00000100: 836f 7cbc 6889 3cbc feb1 2a3c 1000 0dbc
00000110: b0de 39bc 9707 8f39 231e 843b 1178 c0bb
00000120: 3d2c dcbb be4e 76bb 0b8c e13b a896 3bbc
00000130: 35a9 bf3b 7de6 83bb 00d6 e03b 4ddb c1ba
00000140: 1179 bdba 93fc cd3a 92ce efbc 66b9 483c
00000150: 99b4 7b3c 22f2 803c 8ccb e239 fc40 09ba
00000160: 71cb bfba 96e6 89bb 8fe2 1a3c 8e7a 9c3c
00000170: c929 b9bc 8382 893b a53c 1f3c 939b 69bc
00000180: 742f 69ba a90f 9bbc 5b6b 18bc 2237 eebb
00000190: c83a aeb9 8f7c 7eba f32b a93b 31e5 f73b
000001a0: 97a7 81bc 6050 4fba 049d 363b e836 adbb
000001b0: 1c1c d23b ecc6 16bb 494b 92bc a43c ab3a
000001c0: 5111 153d b548 ec3b 6bb3 dc3b 4250 3fbc
000001d0: ac5c 88bb ef6c 06bc 34a0 a53c 8dd7 81ba
000001e0: d6c9 a23b bde6 28bc ebb6 8a3c 4616 80bb
000001f0: 813c 02bc 37e0 9bbb 1629 babb f73b 46bb
00000200: bbe3 3bbc 0aac b1bb b3a5 cebb 47f8 9d3c
00000210: 65f2 62bc bbbb 223c b8ee b9bc 2265 8abb
00000220: 5cbb 553b c150 11bc bbb5 86bb 5b38 7838
00000230: 526f bc3c d4c7 6d39 f387 863b 3d8e c9bb
00000240: 18ff cabb 6515 193c 43b9 cd3b 64a5 4d3c
00000250: ee25 a6bc 4d14 29bb aef8 89b9 0d5a 343b
00000260: 6a78 89b9 cc4e 72bc abae 91bb 2229 4bbb
00000270: 4f2f 3e3c 6cc3 7a3c 7c47 103c 1a07 a4bb
00000280: 8ec8 b73b 11ac f8bb edb1 09bc 2391 323c
00000290: 7917 ce3b 24f5 14bc f6b2 61bc cbc1 953c
000002a0: e7fb 343c bc89 523b 6397 30bb 2a0a 0039
000002b0: aa20 d1bc a0e6 bb3b 1a5a 42bc 8587 8f3c
000002c0: bfd4 b8bc 88b3 82bb d830 893b 3ad7 71bb
000002d0: 82e1 4bbc dac6 8a3c 6a22 70bc 546c 0f3b
000002e0: 1d85 dbbb 9b8e df3b f274 f9bb 79aa 3cbb
000002f0: 5b3e 1539 965a d0b9 3b25 4bbc 8c3d 42bb
00000300: 939c 30ba 95d0 3bbc fe37 0cbc c9e8 dcba
00000310: 4615 b43c 37cb 833b fbc0 5abc 4f39 f6bb
00000320: 059b f5bb 1922 73bc 4d44 38bc 0154 f83a
00000330: 4b03 eebc a9db a9bc bce7 a0bb accc b5bb
00000340: 3635 793b 1283 163c a22c 2439 2616 f53a
00000350: c989 45bc 7a89 873c 09ac c63b b161 89bc
00000360: cf35 a5bc e8b9 803b adef 02bc 029d 3fbb
00000370: a671 7d3b 38da 8fba 472c ca3c 18c5 d43b
00000380: 6ba0 da3b a1bd d1b8 ec7c b8bc 8168 c33b
00000390: 8240 643c cfb8 e43b f3fb 833b fc6f 333c
000003a0: 366c b03b 955b a1bc d1b0 c83b ed25 6a3b
000003b0: 8f9d 2c3c 74c0 8a3b c11c 17bc c30d 5139
000003c0: 6380 cabc c87c 013b 625f 133b bd95 163a
000003d0: 7a3f 673b 2749 b9bc 6eec 283b cfd4 b1bc
000003e0: 9485 283c 96c3 c8bb 4694 4b3c 9c23 84bc
000003f0: 046e 353c 0dea 323c 31b6 f93c 758a 88bb
0.0062334607 -0.0025004551 -0.025373274 -0.0023893872 -0.0031280338 -0.010805235 -0.008566156 0.0016701743
-0.035285104 1.2792303e-05 -0.01783786 0.015184025 0.003490797 -0.005261782 0.012634322 0.011531177
-0.00075759756 0.011600517 0.015549953 0.0075378907 -0.0057344157 -0.01825588 -0.014531388 -0.010603257
0.0011609806 0.0034041356 0.019644007 0.007649 0.014633598 -0.0071052224 0.014265102 -0.0054106372
-0.009568338 -0.005373907 -0.009459995 -0.0055279275 -0.031226462 -0.0014352689 0.0033963711 0.010272827
-9.7226715e-05 0.00048613313 0.015980296 0.00451584 -0.0028536553 0.009517269 -0.015297199 -0.008875965
-0.0014260352 -0.0012462615 -0.00077535346 0.0022876293 0.008690054 -0.009820686 0.002354541 0.0077644507
0.015303222 -0.0018249309 -0.0044060973 0.01446863 0.00052570243 0.005990503 0.012235428 -0.015839983
-0.015407446 -0.01150737 0.010418413 -0.008605972 -0.011344597 0.0002728074 0.004031913 -0.005873688
-0.006719141 -0.0037583555 0.0068831495 -0.0114494935 0.0058490285 -0.004025279 0.0068614483 -0.0014790088
-0.0014455636 0.0015715532 -0.029273305 0.012251234 0.015362882 0.015740458 0.00043257733 -0.00052358187
-0.0014632774 -0.004208396 0.00945343 0.019101407 -0.022602933 0.0041964664 0.009719049 -0.014258283
-0.00088953157 -0.018928366 -0.009302939 -0.007269756 -0.00033231662 -0.0009707892 0.00516271 0.0075651635
-0.015826983 -0.00079084 0.0027864585 -0.0052860864 0.0064120423 -0.002300675 -0.017858164 0.0013064337
0.036393467 0.007210816 0.0067352555 -0.01167685 -0.004161438 -0.008204683 0.020217992 -0.0009906158
0.0049679084 -0.010308919 0.016932925 -0.003908905 -0.007948996 -0.004756953 -0.0056811674 -0.0030248144
-0.011467869 -0.00542212 -0.006306374 0.019283427 -0.013851737 0.009932454 -0.022696838 -0.0042234818
0.0032612896 -0.008869351 -0.0041110194 5.9180293e-05 0.0230023 0.00022676523 0.004105562 -0.0061509893
-0.0061949603 0.00934348 0.0062781884 0.012551639 -0.020281758 -0.0025799454 -0.00026315957 0.0027519495
-0.00026220392 -0.014789294 -0.004445871 -0.003099986 0.011607959 0.015305381 0.008806106 -0.0050057294
0.005608625 -0.0075888713 -0.008404237 0.010898861 0.0062894193 -0.009091649 -0.013775578 0.018280884
0.011046386 0.0032125553 -0.0026945702 0.00012210818 -0.02552827 0.0057342798 -0.011862302 0.017520675
-0.022562383 -0.003988687 0.004186731 -0.0036901967 -0.012443902 0.016940523 -0.014656642 0.0021884637
-0.006699218 0.00682242 -0.007612818 -0.0028788133 0.00014232977 -0.00039740343 -0.012399013 -0.0029638736
-0.00067371986 -0.011463304 -0.008558271 -0.0016854043 0.0219828 0.004022028 -0.013351674 -0.007514156
-0.0074952864 -0.0148396725 -0.011246753 0.0018945934 -0.029054305 -0.020734625 -0.0049104374 -0.0055480804
0.00380261 0.009186523 0.00015656886 0.0018698617 -0.012056776 0.016545046 0.0060629887 -0.016770216
-0.02016726 0.0039284118 -0.0079917135 -0.002923787 0.0038672476 -0.0010975068 0.024679316 0.006493222
0.0066719553 -0.00010001218 -0.022520505 0.0059633856 0.0139313955 0.0069800387 0.0040278374 0.010951992
0.0053839935 -0.01969699 0.006124594 0.0035728172 0.010535612 0.004234368 -0.009223164 0.0001993692
-0.024719423 0.0019758213 0.0022487273 0.00057443586 0.0035285638 -0.02261789 0.0025775689 -0.02170792
0.010285754 -0.0061268313 0.012425488 -0.016130261 0.011073593 0.01092006 0.030482383 -0.004166896

model.tcn.0.downsample.bias f4 [25]
00000000: 73f9 60bd a1e3 173e 1bad 0c3d 5faf 623d
00000010: 7da2 a53c 0081 233d 438b 00be dec9 edbc
00000020: d86e 2fbd d34a 7ebd dfab e9bd 1f84 5dbc
00000030: 8505 80bb 3fe0 6abd 7ccf 25bd d889 49bd
00000040: c605 c8bc 7918 1dbe 27ea 223e ca70 c4bd
00000050: 43bb d03d 5ca7 24be 4e2c 8cbb 693b 2bbc
00000060: 45e3 21be
-0.054925393 0.14832927 0.034344774 0.05534303 0.020219082 0.039917946 -0.12553124 -0.029026922
-0.04283032 -0.062083077 -0.11409735 -0.01352027 -0.003906908 -0.057342764 -0.040481076 -0.049203724
-0.024416815 -0.15341367 0.15909635 -0.09591825 0.10191967 -0.16079468 -0.0042777425 -0.010451176
-0.15809353

model.tcn.1.conv1.bias f4 [25]
00000000: 4444 19bd 6fce c8bc 5e1a 25bd d2ac 513d
00000010: 0bef 76bd 99ef 6abd 9905 913d 737b 72bd
00000020: 9593 e9bc 5fbd 5ebc 99f2 4c3d e28f a13d
00000030: a75e 57bd 2ea5 54bd 0df0 833c 9040 c53c
00000040: cd78 493d d605 483d 72ea 2ebd ee16 8a3c
00000050: 00ae 25bd 13e6 693d b50f 423c 1c6a 633d
00000060: 681a 8fbc
-0.03741862 -0.024512498 -0.04030835 0.051190205 -0.060286563 -0.057357404 0.07081146 -0.05919976
-0.028512755 -0.013594954 0.050036047 0.078887716 -0.052580502 -0.05191534 0.016105676 0.024078637
0.04918747 0.04883369 -0.042704053 0.016856637 -0.040449142 0.05710418 0.011844565 0.055521116
-0.017468646

model.tcn.1.conv1.weight_g f4 [25, 1, 1]
00000000: 1106 163f fa06 0c3f 3d5f 133f 9142 163f
00000010: e53c 163f 3ef8 103f 2b38 1a3f 9b06 193f
00000020: ebd5 193f 88b2 113f 0103 1a3f ad48 163f
00000030: 6694 153f d09a 143f 86a9 173f d2ad 133f
00000040: b9b4 193f 87e7 0c3f 4dd7 173f c16f 173f
00000050: 8bb0 133f 9113 133f 3422 113f 6d35 1c3f
00000060: 3f72 133f
0.58603007 0.54698145 0.575672 0.5869532 0.5868667 0.5662879 0.60241956 0.59775704
0.6009204 0.5691304 0.60160834 0.58704644 0.58429563 0.58048725 0.5924305 0.57687104
0.60041386 0.5504078 0.593129 0.591549 0.5769126 0.5745173 0.56692815 0.6101902
0.575962

model.tcn.1.conv1.weight_v f4 [25, 25, 7]
00000000: 8094 803d d464 0f3d a5f4 913c dd1d 333d
00000010: 262a fb3c ae78 4bbc a09d 37bd cfb8 c4bc
00000020: 89ee 123d b7ad aebc bbf7 1c3d bbf7 f2bc
00000030: fb2f 41bd 5b80 823d e145 23bd 19fb f53c
00000040: 36bf 8c3d 0d14 433c 3e3e 5b3d 12e1 45bc
00000050: 5713 69bd 2d8a e5bc 8dd5 76bc 26f9 11bd
00000060: 62a8 17bd 19e7 2a3d 5e64 a13d 9c81 693d
00000070: af5d 093d 08ef 54bd 61c8 84bb d6e1 133d
00000080: e8e9 913d 0952 ebbc 12dd 553d c263 463d
00000090: 8bac 2ebc 0504 81bd e243 253d a62e 353d
000000a0: 7279 5bbd 7a14 843d dfbc dd3b df80 36bd
000000b0: 64b6 8d3c 91fc 513d 788c 6b3c e811 3abd
000000c0: 0e58 dfbc 546a 5b3d ea01 3a3d b55a 6f3d
000000d0: bc95 2f3d 880d 783d b43f dfba ac2e 4e3d
000000e0: 0177 553c 9ec4 c93b c681 703d 5888 adbc
000000f0: e051 483d ecc2 adbc f62b 553d 00e7 abba
00000100: ad6f 793d 19e6 59bc 4245 8c3c 3dbb 913d
00000110: 94d1 b63b 60ee c93b aaf3 c7bc 9f36 763d
00000120: e014 3e3d 56bb 14bc 5cba 4abc 915e 983d
00000130: b4b2 5a3d b33d 8c3d f9e8 02bd e107 a9bc
00000140: 41e4 29bd 21c7 42bd bea1 2cb9 e49d ab3b
00000150: bad0 e5bc 6df3 5bbc 8089 5a3c f6a0 98bb
00000160: 2a88 44bd 04f5 803d 821f 6dbc 944a ca3c
00000170: ed6e 3c3d ff26 64bd 4e79 9b3b 6a16 33bd
00000180: 6e76 9c3d fcdd 9dbc e6c5 733d bd42 5f3c
00000190: dd6a b4bc 4373 203d 848c 4cbd bd78 8abc
000001a0: a72a c53a 9209 a83d 39a7 60bd c63f 233d
000001b0: 4d4f ae3d 41a4 8dbb 52ab e6bc 0865 19bd
000001c0: bab4 1dbc 789c 783d d9d5 28bd 2e15 923d
000001d0: 0ec2 57bd 3da1 803d 7c1d 173c ccd6 52bc
000001e0: 3f83 58bd 48f7 ecbc 47df 1fbd 45b2 6cbd
000001f0: 1278 89bc 7ee3 3f3d e448 74bd e161 863d
00000200: 7ddc da3c 0eb5 473d b1d3 b8ba a20a eabc
00000210: 07c2 273d 09a1 4d3d f9ab b53c 28d4 0e3d
00000220: 0bfc 8f3d 7002 973c 9435 d1bc 68eb 223d
00000230: ceb2 0dbd eb15 8e3d d40a 963c e914 273d
00000240: d86b 923c e297 8f3d e408 3f3d a470 6f3d
00000250: ea81 e8bc 0e92 a93c 0932 723d de7b 773d
00000260: 3acd 87bc 59ee 843d 2782 6cbd 8555 803d
00000270: 3542 97bc d338 25bd 557f 8d3d 644e 383c
00000280: 55f4 89bc e5f8 413d ac7c 7c3d f8c6 8b3c
00000290: 9995 3bbd 8323 d0bc 403a 07bd 359c 113d
000002a0: 3c77 7ebd 16ff 01bd f91f 83bd af63 383b
000002b0: f8b3 753d 6f96 8d3c 10d5 6f3b c3be 123d
000002c0: 76b6 41bd b65e 7fbc 3299 783d 7fbf 7bbd
000002d0: 9f2f 93bd b711 babc 65eb 87bd 127d 6bbc
000002e0: ed85 533d 6677 453a 16f4 ae3c a7c9 443c
000002f0: 1b06 4dbd f550 15bd 88d1 2b3c 8f74 8a3d
00000300: ea66 5cbd 3a86 513d e92b 37bd 5cce 82bd
00000310: 34f1 793c 3fa9 613d e32d 553c 3390 423d
00000320: cc14 e93b 317f 13bc 7e5c a13c 13fe a03c
00000330: da29 96bc 0013 a23c 408a e13b 0c85 89bd
00000340: 3546 623d bae8 8dbd 89a7 cd3c 8413 6dbd
00000350: 43c8 5bbc 2c23 133d c1b7 eb3c 2db4 703d
00000360: 82ab d8bc 13c7 bb3c 9dba 0a3d b301 8dbd
00000370: e183 2fbd 4e71 223d a032 673c 6a9a 32bc
00000380: 2b15 9abc 529f fd3c 1a0a 5f3d c535 6b3d
00000390: fed7 343d 27c4 b93c 02a9 6abd 9603 303d
000003a0: 8d5f 03bd 3d29 2d3d eb8a 53bd 65ba ca3c
000003b0: b7c9 f2ba 9dd3 5b3d 7399 0a3c b96a 1b3d
000003c0: d0dc 8dbd 0a22 bd3c 973a 95bd 4d90 8abd
000003d0: 9598 96bd 7bfe 5cbd e343 fbbc d6dd a53c
000003e0: c379 333c 5bbe acbc 94d6 ee3c 3c21 8cbd
000003f0: d7eb 8d3d 5d7a 20bd 5644 f9bc 3ea9 793b
0.06278324 0.035008267 0.01781685 0.04372965 0.030659746 -0.012418909 -0.044828057 -0.024013905
0.035872016 -0.021323068 0.03832219 -0.029659143 -0.0471649 0.06372138 -0.039861564 0.03002696
0.06872408 0.011906636 0.053526156 -0.012077587 -0.05690321 -0.028019989 -0.015065563 -0.035637997
-0.037025817 0.0417243 0.07880472 0.05700837 0.03353661 -0.05198577 -0.0040522073 0.036104046
0.07124692 -0.02872564 0.052212782 0.04843498 -0.010661255 -0.06299595 0.04034794 0.04423394
-0.053582616 0.06449218 0.0067669 -0.044556495 0.017298885 0.051266257 0.014376752 -0.045427233
-0.027263667 0.0535682 0.04541198 0.058436114 0.042867407 0.06055978 -0.0017032535 0.05033748
0.013028861 0.006157472 0.05871751 -0.021183178 0.048906207 -0.02121111 0.052043878 -0.0013115108
0.060897518 -0.013299488 0.017122868 0.07115791 0.005579183 0.0061624497 -0.02440818 0.060110684
0.046406627 -0.0090778675 -0.012373533 0.07439912 0.05339308 0.06847706 -0.03196046 -0.02063364
-0.041477446 -0.047553185 -0.00016463452 0.005237328 -0.02805363 -0.013424736 0.013338447 -0.00465786
-0.04798142 0.06296733 -0.014472844 0.024693765 0.046004225 -0.055701252 0.0047446853 -0.043722548
0.07639776 -0.01927089 0.059514903 0.0136267515 -0.022023613 0.039172422 -0.049938694 -0.016903276
0.0015042619 0.082049504 -0.054846976 0.03985574 0.08511219 -0.004322559 -0.028157864 -0.037449867
-0.009625608 0.060696095 -0.041219566 0.07132946 -0.0526753 0.06280754 0.009223338 -0.012868594
-0.05285954 -0.028926507 -0.039031293 -0.0577872 -0.016780887 0.046847813 -0.059639826 0.06561638
0.026716465 0.04875665 -0.0014101175 -0.028569523 0.040956523 0.050202403 0.02217673 0.034870297
0.07030495 0.01843378 -0.025538243 0.039775282 -0.03459435 0.06937774 0.01831571 0.040791426
0.01787369 0.07011391 0.046639338 0.05845703 -0.02838226 0.020699527 0.05912975 0.060420863
-0.016577352 0.06490774 -0.05774131 0.062663116 -0.018464187 -0.040337395 0.06909052 0.0112491585
-0.01684014 0.047356505 0.061642334 0.01706265 -0.045796964 -0.025407558 -0.033014536 0.03554936
-0.06212543 -0.03173741 -0.06402583 0.0028135588 0.059986085 0.017283646 0.00365955 0.035826456
-0.04729315 -0.015586546 0.060692973 -0.06146192 -0.071868174 -0.022713525 -0.06636695 -0.014373081
0.051641393 0.00075327454 0.021356624 0.012010968 -0.05005465 -0.03645416 0.010486968 0.06760513
-0.053809084 0.0511534 -0.04471961 -0.06387016 0.015255261 0.055093046 0.0130114285 0.0475008
0.007113075 -0.009002493 0.019697424 0.019652402 -0.018330503 0.01978445 0.0068829358 -0.0671483
0.055242736 -0.06929155 0.025104301 -0.05787994 -0.013414445 0.035922214 0.028774144 0.05876558
-0.026448969 0.022922074 0.033869375 -0.0688509 -0.04285038 0.039658837 0.014111191 -0.010901073
-0.018808922 0.030959759 0.054452993 0.057424325 0.0441513 0.02267654 -0.057290085 0.04297217
-0.032073546 0.042275656 -0.051646154 0.024747083 -0.001852325 0.053668607 0.008459437 0.037943576
-0.06926882 0.02308752 -0.07286566 -0.067658044 -0.073533215 -0.05395363 -0.03067202 0.020247381
0.010954323 -0.021086862 0.029155053 -0.068422765 0.069297485 -0.039179195 -0.030428093 0.003809526

model.tcn.1.conv2.bias f4 [25]
00000000: 8b07 babc 9d7c 133d a0f6 00bd bdb5 26bd
00000010: 04ca bbbc ecc6 17bc 1f23 9a3d 1dae 103d
00000020: f4db e2bc 77a4 4abd 1899 433d 2d07 4a3d
00000030: 645f c13c 1612 033c 222e b0bc 7ece 1abd
00000040: c447 f8bb bb86 85bd 7d25 123c 3d7d de3a
00000050: 71a5 e6bc 486d 243d 88b4 6f3d 257d 54bd
00000060: 1f6d c73c
-0.022708675 0.036007512 -0.0314852 -0.040700663 -0.022923477 -0.009263735 0.0752623 0.035322297
-0.027692772 -0.049473252 0.047753423 0.04932325 0.023605056 0.0079999175 -0.021506373 -0.037794583
-0.0075769145 -0.065198384 0.008920071 0.001697458 -0.02815506 0.04014328 0.058521777 -0.05187716
0.024344025

model.tcn.1.conv2.weight_g f4 [25, 1, 1]
00000000: 2bdf 143f 6b3b 163f db95 0f3f 273f 1b3f
00000010: a4f4 0d3f aef6 0f3f 2a03 133f d215 0d3f
00000020: 418e 0d3f 2d4e 0d3f 17a6 183f ed9c 0f3f
00000030: dc3a 123f 7d28 153f 0d8e 123f a00b 113f
00000040: 2e12 1d3f a41b 0b3f 8e54 163f 5d63 163f
00000050: aeff 173f f048 0c3f b98b 143f 132a 1d3f
00000060: 5507 163f
0.5815303 0.58684415 0.56088036 0.6064324 0.55451417 0.5623578 0.574267 0.5511142
0.5529519 0.5519741 0.59628433 0.56098825 0.5712106 0.58264905 0.57248 0.56658363
0.61355865 0.5433905 0.5872277 0.58745366 0.5937451 0.54798794 0.580257 0.61392325
0.5860494
