etc/ckpts/participants/661_test_30_all/sigmoid/TCN/epochs/TCN-chpkt-pecanstreet-participant-id-661_test_30_all_epoch=012.ckpt (torch, 928687 bytes, 201 tensors)

model.tcn.0.conv1.bias f4 [25]
0.036152136 -0.03469551 0.024356754 0.01702381 -0.0636197 -0.04373809 -0.049197372 0.046076987
0.01132112 0.0067636333 -0.047483753 -0.06760785 -0.020710908 -0.048495926 -0.06393749 -0.05572197
-0.043487057 -0.06796732 0.030854333 0.03137216 0.037472505 -0.06974707 0.051946376 0.026487967
0.036356106
00000000: 4314 143d e11c 0ebd d187 c73c 8475 8b3c
00000010: 0c4b 82bd b626 33bd 2f83 49bd 39bb 3c3d
00000020: 387c 393c 78a1 dd3b 537e 42bd fc75 8abd
00000030: eca9 a9bc aaa3 46bd a9f1 82bd b83c 64bd
00000040: 7c1f 32bd 7332 8bbd 3ac2 fc3c 1880 003d
00000050: c57c 193d 8dd7 8ebd b9c5 543d 4bfd d83c
00000060: 24ea 143d

model.tcn.0.conv1.weight_g f4 [25, 1, 1]
0.5879576 0.5667496 0.58970934 0.61549836 0.5757638 0.5654099 0.60913616 0.59311557
0.54476255 0.5751063 0.56530225 0.5535474 0.5795464 0.59184617 0.53446984 0.5578472
0.5915746 0.5552571 0.5914305 0.56478316 0.60123813 0.5560673 0.58192426 0.5823585
0.57199556
00000000: 6484 163f 8016 113f 31f7 163f 4d91 1d3f
00000010: 4265 133f b4be 103f 59f0 1b3f 6cd6 173f
00000020: 8f75 0b3f 2b3a 133f a6b7 103f 48b5 0d3f
00000030: 275d 143f 3b83 173f 04d3 083f 13cf 0e3f
00000040: 6f71 173f 5425 0e3f fd67 173f a195 103f
00000050: beea 193f 6d5a 0e3f fdf8 143f 7215 153f
00000060: 4d6e 123f

model.tcn.0.conv1.weight_v f4 [25, 28, 7]
0.0151758 0.053291474 -0.0404729 -0.033957876 -0.009205894 0.03648849 0.016983744 0.057841033
-0.0030378457 0.021448206 -0.017719885 -0.010324094 -0.06268911 -0.04245296 -0.029358117 -0.00085451175
0.022082567 0.03567348 -0.047287334 -0.030624732 0.021450143 0.058661416 -0.01433918 0.053092513
-0.0110280635 0.007757201 0.06423489 -0.06518255 -0.042831644 -0.016718866 -0.026417002 0.06120878
-0.044780113 -0.03173856 -0.048397757 -0.062260427 -0.03770527 0.06331519 0.034297086 0.03699454
0.0066492646 -0.03290878 0.015107719 -0.062082324 -0.047116693 -0.03261418 0.04767982 0.044626422
-0.027480343 -0.005416538 0.022795903 0.038802337 0.013755981 0.00012027458 0.022156434 -0.042626116
-0.01749266 -0.09024764 -0.08495153 -0.072435565 -0.0013887048 -0.006441383 -0.0824657 0.025783228
0.042823933 -0.0040040147 0.0072939196 0.020663902 0.047394045 0.07093201 -0.050636765 -0.022605859
0.030247899 0.060631227 0.06350701 0.064278156 0.01663171 -0.06709779 0.0012077187 -0.04933135
-0.07085066 0.058066387 0.049054474 -0.07516864 0.014140477 -0.010820392 -0.01057059 -0.03126106
0.027973743 -0.040776286 0.026581747 0.03192705 0.04647354 0.022770897 -0.07151132 -0.04809015
0.03127433 0.011215698 -0.054226317 -0.040054705 0.06611336 0.047447503 -0.030315597 -0.017476067
-0.06670271 0.0024097702 -0.04939083 -0.05078014 -0.0004535713 0.01400053 -0.02548674 0.04523473
-0.040978357 0.06378407 0.0484938 -0.05708452 -0.015790982 0.0045767264 0.01170469 0.018478872
0.029272066 0.0065098805 -0.03112812 0.035329115 -0.063513875 -0.038031098 -0.015816987 -0.0321738
-0.022650762 -0.055153247 -0.012941236 0.016610019 -0.043342747 -0.005711142 0.047949553 -0.00897547
0.0003551268 -0.0073996778 0.012895126 0.043427896 0.062096085 0.040191654 0.062342737 -0.009538041
-0.06769871 -0.037797652 0.043705598 0.0012264757 -0.033794034 -0.053041864 -0.06534536 -0.058996808
-0.013699658 0.039532743 0.034223467 -0.072008386 0.040540654 -0.058653872 -0.018332263 -0.03194827
-0.016684322 -0.012499375 -0.06159774 -0.059189416 -0.009636267 0.0022009509 -0.030528191 0.0276406
-0.059621736 -0.0021517465 0.063235804 -0.025394613 0.06522975 0.027939096 -0.05929192 0.04365405
-0.009002574 -0.032397542 0.054986466 -0.0578599 0.0064824773 -0.015895879 0.049938153 0.019878216
0.034169797 0.02549166 -0.015936935 -0.013680027 -0.05649222 0.039023723 0.0567509 0.04936003
-0.046584073 0.0056034564 -0.04606755 -0.035173796 -0.039511025 0.02889205 -0.040353764 0.000766087
0.0073422072 0.050000753 -0.048727386 -0.048646163 -0.041223835 0.052168284 -0.025617404 0.059622515
0.025673755 0.009257891 -0.0004359226 -0.013232029 0.012037491 -0.01436818 0.0039076908 0.013663501
-0.048411988 -0.031938713 0.063843094 -0.051738244 -6.635766e-05 0.077070944 0.033445437 0.010548452
-0.054225367 0.04457458 -0.043471187 -0.0132463295 -0.01460877 -0.0013085732 0.009455573 0.061194696
0.0123557495 0.06630943 0.046483155 -0.04018634 0.03534353 -0.045667008 -0.025993226 0.026531246
0.029239113 0.058203243 -0.015212876 0.0071079796 0.04279587 -0.07447981 0.035901677 -0.064755686
-0.005055827 -0.021180015 -0.04532294 -0.003472162 0.0518451 -0.03269727 -0.054897476 -0.039228845
00000000: eba3 783c 2948 5a3d e9c6 25bd 6a17 0bbd
00000010: 51d4 16bc f474 153d 7e21 8b3c b8ea 6c3d
00000020: 9816 47bb 26b4 af3c 4b29 91bc 6426 29bc
00000030: 2663 80bd 28e3 2dbd 6f80 f0bc 5001 60ba
00000040: 80e6 b43c 5b1e 123d 5db0 41bd b8e0 fabc
00000050: 36b8 af3c f446 703d e1ee 6abc 8977 593d
00000060: 0daf 34bc 1e30 fe3b 958d 833d 6e7e 85bd
00000070: 3c70 2fbd 01f6 88bc 7868 d8bc 0fb6 7a3d
00000080: 5a6b 37bd 4b00 02bd ba3c 46bd ca04 7fbd
00000090: d770 1abd 65ab 813d 1a7b 0c3d 9687 173d
000000a0: 13e2 d93b 5bcb 06bd 5e86 773c 094a 7ebd
000000b0: 6ffd 40bd 7296 05bd ea4b 433d 32ca 363d
000000c0: 751e e1bc 377d b1bb 79be ba3c 33ef 1e3d
000000d0: c460 613c ec3b fc38 6981 b53c b998 2ebd
000000e0: c44c 8fbc c1d3 b8bd 11fb adbd 1959 94bd
000000f0: 3305 b6ba 3d12 d3bb c7e3 a8bd 5937 d33c
00000100: 2668 2f3d 1c34 83bb d501 ef3b 5847 a93c
00000110: 4220 423d cd44 913d 7f68 4fbd ec2f b9bc
00000120: 71ca f73c 7358 783d f70f 823d 44a4 833d
00000130: 393f 883c 916a 89bd 514c 9e3a ab0f 4abd
00000140: 271a 91bd 05d7 6d3d 58ed 483d 04f2 99bd
00000150: 76ad 673c 0348 31bc 4530 2dbc 990b 00bd
00000160: 3129 e53c 0905 27bd f7c1 d93c f0c5 023d
00000170: 0a5b 3e3d 088a ba3c 8774 92bd 2dfa 44bd
00000180: 8319 003d 0cc2 373c 6a1c 5ebd 6710 24bd
00000190: 7166 873d 5058 423d 6a58 f8bc f829 8fbc
000001a0: 6e9b 88bd 3ced 1d3b 0a4e 4abd d6fe 4fbd
000001b0: 4fcd edb9 7b62 653c 91c9 d0bc 0d48 393d
000001c0: ecd8 27bd 39a1 823d 6fa1 463d 75d1 69bd
000001d0: 175c 81bc 5df8 953b 07c5 3f3c 0161 973c
000001e0: f9cb ef3c d650 d53b 6600 ffbc 43b5 103d
000001f0: 9013 82bd 7fc6 1bbd a092 81bc adc8 03bd
00000200: 178e b9bc 5fe8 61bd 7a07 54bc bc11 883c
00000210: 2a88 31bd 8824 bbbb c066 443d da0d 13bc
00000220: 5030 ba39 ff78 f2bb 1446 533c 73e1 313d
00000230: 7758 7e3d 01a0 243d 195b 7f3d 7245 1cbc
00000240: 9fa5 8abd b6d1 1abd a404 333d b2c1 a03a
00000250: 9d6b 0abd 6d42 59bd cad3 85bd a3a6 71bd
00000260: 8874 60bc 16ed 213d e82d 0c3d 2279 93bd
00000270: f50d 263d 0b3f 70bd 8b2d 96bc 30dc 02bd
00000280: 8fad 88bc 2eca 4cbc e94d 7cbd 9a70 72bd
00000290: 6fe1 1dbc d43d 103b 4216 fabc 8a6e e23c
000002a0: ec35 74bd 5104 0dbb c681 813d 5d08 d0bc
000002b0: 2d97 853d 88e0 e43c 16dc 72bd 97ce 323d
000002c0: 887f 13bc 49b3 04bd 7d39 613d 81fe 6cbd
000002d0: f66a d43b 1338 82bc f38b 4c3d a4d7 a23c
000002e0: a1f5 0b3d e3d3 d03c 2d8e 82bc 3122 60bc
000002f0: 6364 67bd 57d7 1f3d a273 683d be2d 4a3d
00000300: f1ce 3ebd 339d b73b 54b1 3cbd 6612 10bd
00000310: 50d6 21bd 05af ec3c fd49 25bd 3ad3 483a
00000320: e696 f03b 97cd 4c3d 5e96 47bd 3341 47bd
00000330: 53da 28bd 69ae 553d 97db d1bc bd36 743d
00000340: c451 d23c 69ae 173c 8a8c e4b9 27cb 58bc
00000350: e638 453c 8468 6bbc 160c 803b e0dc 5f3c
00000360: a64b 46bd 2bd2 02bd 2bc0 823d 7beb 53bd
00000370: 7f29 8bb8 5fd7 9d3d 15fe 083d 6ad3 2c3c
00000380: 6b1b 5ebd d693 363d d80e 32bd 2207 59bc
00000390: 9f59 6fbc 6e84 abba 8ceb 1a3c 4aa7 7a3d
000003a0: c56f 4a3c 3dcd 873d 1f65 3e3d 6f9a 24bd
000003b0: 61c4 103d 540d 3bbd bfef d4bc 0e58 d93c
000003c0: dd86 ef3c 8666 6e3d 6d3f 79bc 0eea e83b
000003d0: b94a 2f3d df88 98bd a30d 133d a19e 84bd
000003e0: 5aab a5bb b681 adbc 8ca4 39bd 368d 63bb
000003f0: 875b 543d 93ed 05bd 2ddc 60bd 6dae 20bd

model.tcn.0.conv2.bias f4 [25]
-0.021620907 -8.5265994e-05 -0.012824619 0.054660346 0.033365827 0.026506016 0.0048577012 -0.04106236
0.009068259 -0.05663755 0.003597913 0.07544602 -0.00833466 0.07375197 -0.040670697 0.06670864
0.03365319 -0.03195269 -0.07321697 -0.028882973 0.03405994 0.074701935 -0.053781662 -0.029715214
0.03014341
00000000: 541e b1bc d5d0 b2b8 5a1e 52bc 87e3 5f3d
00000010: 9baa 083d 2523 d93c 5a2d 9f3b 0131 28bd
00000020: 0993 143c c7fc 67bd f7ca 6b3b 7183 9a3d
00000030: 198e 08bc 460b 973d 5196 26bd 8a9e 883d
00000040: edd7 093d d3e0 02bd c7f2 95bd fc9b ecbc
00000050: 7082 0b3d 54fd 983d 294a 5cbd 526d f3bc
00000060: 50ef f63c

model.tcn.0.conv2.weight_g f4 [25, 1, 1]
0.59208 0.59165394 0.5509711 0.60376143 0.5627292 0.5435121 0.6049811 0.6084734
0.58656937 0.60548466 0.5691713 0.583589 0.5379156 0.57820135 0.6148018 0.57821053
0.57738686 0.57604754 0.57905334 0.5800424 0.590462 0.5715916 0.6226617 0.57367474
0.5604692
00000000: 8e92 173f a276 173f 710c 0d3f 1c90 1a3f
00000010: 050f 103f 9c23 0b3f 0be0 1a3f eac4 1b3f
00000020: 6929 163f 0b01 1b3f 36b5 113f 1766 153f
00000030: d6b4 093f 0105 143f a763 1d3f 9b05 143f
00000040: a0cf 133f da77 133f d73c 143f a97d 143f
00000050: 8528 173f d453 123f c266 1f3f 59dc 123f
00000060: e97a 0f3f

model.tcn.0.conv2.weight_v f4 [25, 25, 7]
-0.007907018 0.046949994 -0.06019757 0.036996063 0.07145117 0.043891713 -0.05828356 -0.008836913
0.0022053 0.03908656 -0.015678324 0.015102875 -0.013663497 -6.760343e-05 0.0012786828 -0.039314047
-0.048048887 0.063289404 0.06440376 0.00064715015 0.06658496 0.061184708 -0.03705336 -0.019804288
-0.04103554 0.031595938 0.011443073 -4.187801e-05 0.051920477 -0.01951263 -0.030768761 -0.043230336
-0.028294176 0.06684951 -0.026322272 -0.017469194 0.03551618 -0.053813677 -0.042318728 0.056323245
-0.025949838 -0.036178797 -0.0070040496 -0.007837021 0.01433907 0.02716999 -0.051952317 0.06554664
-0.06492013 0.035913866 -0.00948306 -0.01985156 0.080943696 -0.059718035 0.017872257 0.0606476
0.06376893 -0.049546782 0.013983676 0.07063462 -0.06054002 0.020670481 -0.035220202 0.023838257
-0.054394692 0.04817846 -0.0035216943 0.056512073 0.012026065 0.0030393882 -0.007979533 -0.057634063
-0.021223882 0.012476181 -0.046479844 0.0736835 -0.036865912 -0.022953318 -0.0087489225 -0.052114107
-0.006685339 -0.02881363 -0.053995304 -0.0062438203 0.058004282 0.015556427 0.0544761 0.0012015725
-0.02011722 0.053773426 -0.032790855 -0.055684045 0.029434523 0.050236113 -0.030714052 0.040191744
-0.011964459 0.0058909827 -0.0062551065 -0.005728477 -0.05064031 0.013287102 -0.008982047 0.048302848
0.008625258 -0.04895751 -0.044689626 -0.02663537 0.043794293 -0.035381176 -0.02103842 0.024401443
-0.038855366 -0.023604006 0.0662875 -0.0263553 -0.011928948 0.054618582 0.023610575 0.050117847
-0.067162715 0.030294705 -0.015679676 -0.050542016 -0.03537057 -0.07410196 0.055646673 -0.009186277
-0.067584045 0.06856215 0.05340498 0.036338065 0.07842689 0.07696808 0.07947308 0.07672783
0.07077365 0.029555526 0.0038217274 0.013407111 -0.01993044 0.0462331 0.013494485 0.029238887
-0.03633704 -0.016377486 0.06754437 -0.0037115135 0.010921598 -0.069481514 -0.039049268 -0.013250748
-0.018759575 0.025048884 -0.011977701 0.07296175 -0.0031054944 0.040849112 -0.041081365 0.024694396
-0.06086298 -0.051137753 -0.034348514 0.03596793 0.020875359 0.022742033 0.0073598134 0.08013443
0.08047639 0.040437188 0.06802331 0.0056455927 -0.018022917 0.023843415 0.058109485 -0.00047342418
-0.04592787 0.036088094 -0.007358825 -0.023981154 0.05922274 0.009946611 -0.029329771 -0.031228742
0.06667784 0.046880927 -0.039974686 0.009746074 0.008767075 0.03662806 -0.060398437 0.0030819133
0.02615918 0.038927946 0.009468442 -0.034281272 -0.061632887 0.045638155 0.07195332 -0.012747573
-0.056003433 0.029174885 -0.04142986 -0.040699497 0.017701121 -0.0019410381 -0.00023811802 0.059795678
-0.007678944 0.04046699 -0.022467777 0.05388113 0.022077043 0.064362265 0.024909267 -0.02639241
0.031020846 0.061826494 0.01641361 0.035275213 -0.04625381 0.041212134 -0.06360993 0.06561138
0.03890848 0.013634216 -0.060030088 0.07657015 0.056780636 0.078382745 0.03958274 0.019730644
-0.017256645 -0.027316885 0.022685148 0.019526064 -0.0036919261 0.008026688 0.034900222 -0.059879657
-0.053641416 -0.007854375 0.060308594 0.046735022 -0.058109857 -0.013595374 0.0007381041 0.03225072
0.067575164 0.010673447 -0.047530405 0.0141590405 -0.026945021 -0.041127246 0.017523356 -0.014551737
00000000: 708c 01bc a34e 403d ba91 76bd 2f89 173d
00000010: fe54 923d ccc7 333d beba 6ebd b3c8 10bc
00000020: cb86 103b 3b19 203d d46f 80bc 0d72 773c
00000030: dcdc 5fbc 51c6 8db8 7a99 a73a c407 21bd
00000040: e9ce 44bd e09d 813d 1ee6 833d 83a5 293a
00000050: b25d 883d d19c 7a3d 44c5 17bd 9a3c a2bc
00000060: e214 28bd be6a 013d ba7b 3b3c 2ca6 2fb8
00000070: 91aa 543d f3d8 9fbc c50e fcbc 4b12 31bd
00000080: 30c9 e7bc 65e8 883d cea1 d7bc 8e1b 8fbc
00000090: 6a79 113d bb6b 5cbd 6756 2dbd 34b3 663d
000000a0: c194 d4bc 3830 14bd 3a82 e5bb d966 00bc
000000b0: 6bee 6a3c 9993 de3c f4cb 54bd 513d 863d
000000c0: d8f4 84bd 6b1a 133d d65e 1bbc bd9f a2bc
000000d0: cfc5 a53d e69a 74bd d768 923c 9e69 783d
000000e0: 4999 823d 91f1 4abd ca1b 653c e2a8 903d
000000f0: d0f8 77bd 2455 a93c 0f43 10bd 7348 c33c
00000100: f8cc 5ebd c756 453d 3acc 66bb 3479 673d
00000110: f908 453c 7930 473b 96bc 02bc b211 6cbd
00000120: b5dd adbc e568 4c3c a661 3ebd 60e7 963d
00000130: b600 17bd 9908 bcbc a457 0fbc 9a75 55bd
00000140: b010 dbbb 900a ecbc 2e2a 5dbd f698 ccbb
00000150: e695 6d3d 62e0 7e3c 5522 5f3d 157e 9d3a
00000160: decc a4bc 8641 5c3d b44f 06bd f414 64bd
00000170: ab20 f13c 62c4 4d3d 099c fbbc 19a0 243d
00000180: 9406 44bc 2509 c13b a3f7 ccbb f3b5 bbbb
00000190: 376c 4fbd 25b2 593c 7029 13bc 35d9 453d
000001a0: f450 0d3c ac87 48bd 780c 37bd 6b32 dabc
000001b0: a561 333d daeb 10bd c458 acbc 89e5 c73c
000001c0: ce26 1fbd 305d c1bc bec1 873d 12e7 d7bc
000001d0: a271 43bc bcb7 5f3d f76a c13c 5f48 4d3d
000001e0: 9b8c 89bd 9a2c f83c aa72 80bc 2505 4fbd
000001f0: bbe0 10bd c5c2 97bd c4ed 633d 0a82 16bc
00000200: 8169 8abd 506a 8c3d 2ebf 5a3d 39d7 143d
00000210: 479e a03d 71a1 9d3d c8c2 a23d 7b23 9d3d
00000220: c7f1 903d 6e1e f23c f275 7a3b 80a9 5b3c
00000230: 2945 a3bc eb5e 3d3d f917 5d3c 6486 ef3c
00000240: 26d6 14bd 142a 86bc b454 8a3d dd3c 73bb
00000250: 81f0 323c 534c 8ebd 20f2 1fbd aa19 59bc
00000260: aead 99bc 5133 cd3c 1f3e 44bc f86c 953d
00000270: 8d85 4bbb 6651 273d ef44 28bd e74b ca3c
00000280: 764b 79bd d275 51bd 07b1 0cbd 1c53 133d
00000290: cd02 ab3c 804d ba3c 972a f13b 851d a43d
000002a0: ced0 a43d 77a1 253d ce4f 8b3d aafe b83b
000002b0: cca4 93bc 4453 c33c 3604 6e3d eb35 f8b9
000002c0: dd1e 3cbd 1cd1 133d 4c22 f1bb 2074 c4bc
000002d0: 8b93 723d 1cf7 223c fd44 f0bc 6bd3 ffbc
000002e0: 648e 883d 3706 403d 7fbc 23bd ffad 1f3c
000002f0: c7a3 0f3c 4e07 163d 5a64 77bd edf9 493b
00000300: c74b d63c e972 1f3d 8621 1b3c 856a 0cbd
00000310: c472 7cbd 13ef 3a3d 435c 933d 32db 50bc
00000320: db63 65bd 2b00 ef3c 5bb2 29bd 84b4 26bd
00000330: f101 913c 6e6a feba 52af 79b9 50ec 743d
00000340: a79f fbbb b7c0 253d 580e b8bc 76b2 5c3d
00000350: eada b43c 5dd0 833d 850e cc3c e534 d8bc
00000360: 6e1f fe3c c73d 7d3d d675 863c be7c 103d
00000370: a374 3dbd 0ece 283d ec45 82bd 425f 863d
00000380: 805e 1f3d 0c62 5f3c 1ce2 75bd d0d0 9c3d
00000390: d092 683d 2287 a03d 8321 223d 29a2 a13c
000003a0: cf5d 8dbc a9c7 dfbc 34d6 b93c 20f5 9f3c
000003b0: 3ef4 71bb 5f82 033c 89f3 0e3d 5f44 75bd
000003c0: 1ab7 5bbd a3af 00bc 2506 773d 396d 3f3d
000003d0: 9a04 6ebd 22bf 5ebc 547d 413a 5519 043d
000003e0: d964 8a3d aedf 2e3c 3eaf 42bd 52fb 673c
000003f0: cebb dcbc 0b75 28bd 248d 8f3c 696a 6ebc

model.tcn.0.net.0.bias f4 [25]
0.036152136 -0.03469551 0.024356754 0.01702381 -0.0636197 -0.04373809 -0.049197372 0.046076987
0.01132112 0.0067636333 -0.047483753 -0.06760785 -0.020710908 -0.048495926 -0.06393749 -0.05572197
-0.043487057 -0.06796732 0.030854333 0.03137216 0.037472505 -0.06974707 0.051946376 0.026487967
0.036356106
00000000: 4314 143d e11c 0ebd d187 c73c 8475 8b3c
00000010: 0c4b 82bd b626 33bd 2f83 49bd 39bb 3c3d
00000020: 387c 393c 78a1 dd3b 537e 42bd fc75 8abd
00000030: eca9 a9bc aaa3 46bd a9f1 82bd b83c 64bd
00000040: 7c1f 32bd 7332 8bbd 3ac2 fc3c 1880 003d
00000050: c57c 193d 8dd7 8ebd b9c5 543d 4bfd d83c
00000060: 24ea 143d

model.tcn.0.net.0.weight_g f4 [25, 1, 1]
0.5879576 0.5667496 0.58970934 0.61549836 0.5757638 0.5654099 0.60913616 0.59311557
0.54476255 0.5751063 0.56530225 0.5535474 0.5795464 0.59184617 0.53446984 0.5578472
0.5915746 0.5552571 0.5914305 0.56478316 0.60123813 0.5560673 0.58192426 0.5823585
0.57199556
00000000: 6484 163f 8016 113f 31f7 163f 4d91 1d3f
00000010: 4265 133f b4be 103f 59f0 1b3f 6cd6 173f
00000020: 8f75 0b3f 2b3a 133f a6b7 103f 48b5 0d3f
00000030: 275d 143f 3b83 173f 04d3 083f 13cf 0e3f
00000040: 6f71 173f 5425 0e3f fd67 173f a195 103f
00000050: beea 193f 6d5a 0e3f fdf8 143f 7215 153f
00000060: 4d6e 123f

model.tcn.0.net.0.weight_v f4 [25, 28, 7]
0.0151758 0.053291474 -0.0404729 -0.033957876 -0.009205894 0.03648849 0.016983744 0.057841033
-0.0030378457 0.021448206 -0.017719885 -0.010324094 -0.06268911 -0.04245296 -0.029358117 -0.00085451175
0.022082567 0.03567348 -0.047287334 -0.030624732 0.021450143 0.058661416 -0.01433918 0.053092513
-0.0110280635 0.007757201 0.06423489 -0.06518255 -0.042831644 -0.016718866 -0.026417002 0.06120878
-0.044780113 -0.03173856 -0.048397757 -0.062260427 -0.03770527 0.06331519 0.034297086 0.03699454
0.0066492646 -0.03290878 0.015107719 -0.062082324 -0.047116693 -0.03261418 0.04767982 0.044626422
-0.027480343 -0.005416538 0.022795903 0.038802337 0.013755981 0.00012027458 0.022156434 -0.042626116
-0.01749266 -0.09024764 -0.08495153 -0.072435565 -0.0013887048 -0.006441383 -0.0824657 0.025783228
0.042823933 -0.0040040147 0.0072939196 0.020663902 0.047394045 0.07093201 -0.050636765 -0.022605859
0.030247899 0.060631227 0.06350701 0.064278156 0.01663171 -0.06709779 0.0012077187 -0.04933135
-0.07085066 0.058066387 0.049054474 -0.07516864 0.014140477 -0.010820392 -0.01057059 -0.03126106
0.027973743 -0.040776286 0.026581747 0.03192705 0.04647354 0.022770897 -0.07151132 -0.04809015
0.03127433 0.011215698 -0.054226317 -0.040054705 0.06611336 0.047447503 -0.030315597 -0.017476067
-0.06670271 0.0024097702 -0.04939083 -0.05078014 -0.0004535713 0.01400053 -0.02548674 0.04523473
-0.040978357 0.06378407 0.0484938 -0.05708452 -0.015790982 0.0045767264 0.01170469 0.018478872
0.029272066 0.0065098805 -0.03112812 0.035329115 -0.063513875 -0.038031098 -0.015816987 -0.0321738
-0.022650762 -0.055153247 -0.012941236 0.016610019 -0.043342747 -0.005711142 0.047949553 -0.00897547
0.0003551268 -0.0073996778 0.012895126 0.043427896 0.062096085 0.040191654 0.062342737 -0.009538041
-0.06769871 -0.037797652 0.043705598 0.0012264757 -0.033794034 -0.053041864 -0.06534536 -0.058996808
-0.013699658 0.039532743 0.034223467 -0.072008386 0.040540654 -0.058653872 -0.018332263 -0.03194827
-0.016684322 -0.012499375 -0.06159774 -0.059189416 -0.009636267 0.0022009509 -0.030528191 0.0276406
-0.059621736 -0.0021517465 0.063235804 -0.025394613 0.06522975 0.027939096 -0.05929192 0.04365405
-0.009002574 -0.032397542 0.054986466 -0.0578599 0.0064824773 -0.015895879 0.049938153 0.019878216
0.034169797 0.02549166 -0.015936935 -0.013680027 -0.05649222 0.039023723 0.0567509 0.04936003
-0.046584073 0.0056034564 -0.04606755 -0.035173796 -0.039511025 0.02889205 -0.040353764 0.000766087
0.0073422072 0.050000753 -0.048727386 -0.048646163 -0.041223835 0.052168284 -0.025617404 0.059622515
0.025673755 0.009257891 -0.0004359226 -0.013232029 0.012037491 -0.01436818 0.0039076908 0.013663501
-0.048411988 -0.031938713 0.063843094 -0.051738244 -6.635766e-05 0.077070944 0.033445437 0.010548452
-0.054225367 0.04457458 -0.043471187 -0.0132463295 -0.01460877 -0.0013085732 0.009455573 0.061194696
0.0123557495 0.06630943 0.046483155 -0.04018634 0.03534353 -0.045667008 -0.025993226 0.026531246
0.029239113 0.058203243 -0.015212876 0.0071079796 0.04279587 -0.07447981 0.035901677 -0.064755686
-0.005055827 -0.021180015 -0.04532294 -0.003472162 0.0518451 -0.03269727 -0.054897476 -0.039228845
00000000: eba3 783c 2948 5a3d e9c6 25bd 6a17 0bbd
00000010: 51d4 16bc f474 153d 7e21 8b3c b8ea 6c3d
00000020: 9816 47bb 26b4 af3c 4b29 91bc 6426 29bc
00000030: 2663 80bd 28e3 2dbd 6f80 f0bc 5001 60ba
00000040: 80e6 b43c 5b1e 123d 5db0 41bd b8e0 fabc
00000050: 36b8 af3c f446 703d e1ee 6abc 8977 593d
00000060: 0daf 34bc 1e30 fe3b 958d 833d 6e7e 85bd
00000070: 3c70 2fbd 01f6 88bc 7868 d8bc 0fb6 7a3d
00000080: 5a6b 37bd 4b00 02bd ba3c 46bd ca04 7fbd
00000090: d770 1abd 65ab 813d 1a7b 0c3d 9687 173d
000000a0: 13e2 d93b 5bcb 06bd 5e86 773c 094a 7ebd
000000b0: 6ffd 40bd 7296 05bd ea4b 433d 32ca 363d
000000c0: 751e e1bc 377d b1bb 79be ba3c 33ef 1e3d
000000d0: c460 613c ec3b fc38 6981 b53c b998 2ebd
000000e0: c44c 8fbc c1d3 b8bd 11fb adbd 1959 94bd
000000f0: 3305 b6ba 3d12 d3bb c7e3 a8bd 5937 d33c
00000100: 2668 2f3d 1c34 83bb d501 ef3b 5847 a93c
00000110: 4220 423d cd44 913d 7f68 4fbd ec2f b9bc
00000120: 71ca f73c 7358 783d f70f 823d 44a4 833d
00000130: 393f 883c 916a 89bd 514c 9e3a ab0f 4abd
00000140: 271a 91bd 05d7 6d3d 58ed 483d 04f2 99bd
00000150: 76ad 673c 0348 31bc 4530 2dbc 990b 00bd
00000160: 3129 e53c 0905 27bd f7c1 d93c f0c5 023d
00000170: 0a5b 3e3d 088a ba3c 8774 92bd 2dfa 44bd
00000180: 8319 003d 0cc2 373c 6a1c 5ebd 6710 24bd
00000190: 7166 873d 5058 423d 6a58 f8bc f829 8fbc
000001a0: 6e9b 88bd 3ced 1d3b 0a4e 4abd d6fe 4fbd
000001b0: 4fcd edb9 7b62 653c 91c9 d0bc 0d48 393d
000001c0: ecd8 27bd 39a1 823d 6fa1 463d 75d1 69bd
000001d0: 175c 81bc 5df8 953b 07c5 3f3c 0161 973c
000001e0: f9cb ef3c d650 d53b 6600 ffbc 43b5 103d
000001f0: 9013 82bd 7fc6 1bbd a092 81bc adc8 03bd
00000200: 178e b9bc 5fe8 61bd 7a07 54bc bc11 883c
00000210: 2a88 31bd 8824 bbbb c066 443d da0d 13bc
00000220: 5030 ba39 ff78 f2bb 1446 533c 73e1 313d
00000230: 7758 7e3d 01a0 243d 195b 7f3d 7245 1cbc
00000240: 9fa5 8abd b6d1 1abd a404 333d b2c1 a03a
00000250: 9d6b 0abd 6d42 59bd cad3 85bd a3a6 71bd
00000260: 8874 60bc 16ed 213d e82d 0c3d 2279 93bd
00000270: f50d 263d 0b3f 70bd 8b2d 96bc 30dc 02bd
00000280: 8fad 88bc 2eca 4cbc e94d 7cbd 9a70 72bd
00000290: 6fe1 1dbc d43d 103b 4216 fabc 8a6e e23c
000002a0: ec35 74bd 5104 0dbb c681 813d 5d08 d0bc
000002b0: 2d97 853d 88e0 e43c 16dc 72bd 97ce 323d
000002c0: 887f 13bc 49b3 04bd 7d39 613d 81fe 6cbd
000002d0: f66a d43b 1338 82bc f38b 4c3d a4d7 a23c
000002e0: a1f5 0b3d e3d3 d03c 2d8e 82bc 3122 60bc
000002f0: 6364 67bd 57d7 1f3d a273 683d be2d 4a3d
00000300: f1ce 3ebd 339d b73b 54b1 3cbd 6612 10bd
00000310: 50d6 21bd 05af ec3c fd49 25bd 3ad3 483a
00000320: e696 f03b 97cd 4c3d 5e96 47bd 3341 47bd
00000330: 53da 28bd 69ae 553d 97db d1bc bd36 743d
00000340: c451 d23c 69ae 173c 8a8c e4b9 27cb 58bc
00000350: e638 453c 8468 6bbc 160c 803b e0dc 5f3c
00000360: a64b 46bd 2bd2 02bd 2bc0 823d 7beb 53bd
00000370: 7f29 8bb8 5fd7 9d3d 15fe 083d 6ad3 2c3c
00000380: 6b1b 5ebd d693 363d d80e 32bd 2207 59bc
00000390: 9f59 6fbc 6e84 abba 8ceb 1a3c 4aa7 7a3d
000003a0: c56f 4a3c 3dcd 873d 1f65 3e3d 6f9a 24bd
000003b0: 61c4 103d 540d 3bbd bfef d4bc 0e58 d93c
000003c0: dd86 ef3c 8666 6e3d 6d3f 79bc 0eea e83b
000003d0: b94a 2f3d df88 98bd a30d 133d a19e 84bd
000003e0: 5aab a5bb b681 adbc 8ca4 39bd 368d 63bb
000003f0: 875b 543d 93ed 05bd 2ddc 60bd 6dae 20bd

model.tcn.0.net.4.bias f4 [25]
-0.021620907 -8.5265994e-05 -0.012824619 0.054660346 0.033365827 0.026506016 0.0048577012 -0.04106236
0.009068259 -0.05663755 0.003597913 0.07544602 -0.00833466 0.07375197 -0.040670697 0.06670864
0.03365319 -0.03195269 -0.07321697 -0.028882973 0.03405994 0.074701935 -0.053781662 -0.029715214
0.03014341
00000000: 541e b1bc d5d0 b2b8 5a1e 52bc 87e3 5f3d
00000010: 9baa 083d 2523 d93c 5a2d 9f3b 0131 28bd
00000020: 0993 143c c7fc 67bd f7ca 6b3b 7183 9a3d
00000030: 198e 08bc 460b 973d 5196 26bd 8a9e 883d
00000040: edd7 093d d3e0 02bd c7f2 95bd fc9b ecbc
00000050: 7082 0b3d 54fd 983d 294a 5cbd 526d f3bc
00000060: 50ef f63c

model.tcn.0.net.4.weight_g f4 [25, 1, 1]
0.59208 0.59165394 0.5509711 0.60376143 0.5627292 0.5435121 0.6049811 0.6084734
0.58656937 0.60548466 0.5691713 0.583589 0.5379156 0.57820135 0.6148018 0.57821053
0.57738686 0.57604754 0.57905334 0.5800424 0.590462 0.5715916 0.6226617 0.57367474
0.5604692
00000000: 8e92 173f a276 173f 710c 0d3f 1c90 1a3f
00000010: 050f 103f 9c23 0b3f 0be0 1a3f eac4 1b3f
00000020: 6929 163f 0b01 1b3f 36b5 113f 1766 153f
00000030: d6b4 093f 0105 143f a763 1d3f 9b05 143f
00000040: a0cf 133f da77 133f d73c 143f a97d 143f
00000050: 8528 173f d453 123f c266 1f3f 59dc 123f
00000060: e97a 0f3f

model.tcn.0.net.4.weight_v f4 [25, 25, 7]
-0.007907018 0.046949994 -0.06019757 0.036996063 0.07145117 0.043891713 -0.05828356 -0.008836913
0.0022053 0.03908656 -0.015678324 0.015102875 -0.013663497 -6.760343e-05 0.0012786828 -0.039314047
-0.048048887 0.063289404 0.06440376 0.00064715015 0.06658496 0.061184708 -0.03705336 -0.019804288
-0.04103554 0.031595938 0.011443073 -4.187801e-05 0.051920477 -0.01951263 -0.030768761 -0.043230336
-0.028294176 0.06684951 -0.026322272 -0.017469194 0.03551618 -0.053813677 -0.042318728 0.056323245
-0.025949838 -0.036178797 -0.0070040496 -0.007837021 0.01433907 0.02716999 -0.051952317 0.06554664
-0.06492013 0.035913866 -0.00948306 -0.01985156 0.080943696 -0.059718035 0.017872257 0.0606476
0.06376893 -0.049546782 0.013983676 0.07063462 -0.06054002 0.020670481 -0.035220202 0.023838257
-0.054394692 0.04817846 -0.0035216943 0.056512073 0.012026065 0.0030393882 -0.007979533 -0.057634063
-0.021223882 0.012476181 -0.046479844 0.0736835 -0.036865912 -0.022953318 -0.0087489225 -0.052114107
-0.006685339 -0.02881363 -0.053995304 -0.0062438203 0.058004282 0.015556427 0.0544761 0.0012015725
-0.02011722 0.053773426 -0.032790855 -0.055684045 0.029434523 0.050236113 -0.030714052 0.040191744
-0.011964459 0.0058909827 -0.0062551065 -0.005728477 -0.05064031 0.013287102 -0.008982047 0.048302848
0.008625258 -0.04895751 -0.044689626 -0.02663537 0.043794293 -0.035381176 -0.02103842 0.024401443
-0.038855366 -0.023604006 0.0662875 -0.0263553 -0.011928948 0.054618582 0.023610575 0.050117847
-0.067162715 0.030294705 -0.015679676 -0.050542016 -0.03537057 -0.07410196 0.055646673 -0.009186277
-0.067584045 0.06856215 0.05340498 0.036338065 0.07842689 0.07696808 0.07947308 0.07672783
0.07077365 0.029555526 0.0038217274 0.013407111 -0.01993044 0.0462331 0.013494485 0.029238887
-0.03633704 -0.016377486 0.06754437 -0.0037115135 0.010921598 -0.069481514 -0.039049268 -0.013250748
-0.018759575 0.025048884 -0.011977701 0.07296175 -0.0031054944 0.040849112 -0.041081365 0.024694396
-0.06086298 -0.051137753 -0.034348514 0.03596793 0.020875359 0.022742033 0.0073598134 0.08013443
0.08047639 0.040437188 0.06802331 0.0056455927 -0.018022917 0.023843415 0.058109485 -0.00047342418
-0.04592787 0.036088094 -0.007358825 -0.023981154 0.05922274 0.009946611 -0.029329771 -0.031228742
0.06667784 0.046880927 -0.039974686 0.009746074 0.008767075 0.03662806 -0.060398437 0.0030819133
0.02615918 0.038927946 0.009468442 -0.034281272 -0.061632887 0.045638155 0.07195332 -0.012747573
-0.056003433 0.029174885 -0.04142986 -0.040699497 0.017701121 -0.0019410381 -0.00023811802 0.059795678
-0.007678944 0.04046699 -0.022467777 0.05388113 0.022077043 0.064362265 0.024909267 -0.02639241
0.031020846 0.061826494 0.01641361 0.035275213 -0.04625381 0.041212134 -0.06360993 0.06561138
0.03890848 0.013634216 -0.060030088 0.07657015 0.056780636 0.078382745 0.03958274 0.019730644
-0.017256645 -0.027316885 0.022685148 0.019526064 -0.0036919261 0.008026688 0.034900222 -0.059879657
-0.053641416 -0.007854375 0.060308594 0.046735022 -0.058109857 -0.013595374 0.0007381041 0.03225072
0.067575164 0.010673447 -0.047530405 0.0141590405 -0.026945021 -0.041127246 0.017523356 -0.014551737
00000000: 708c 01bc a34e 403d ba91 76bd 2f89 173d
00000010: fe54 923d ccc7 333d beba 6ebd b3c8 10bc
00000020: cb86 103b 3b19 203d d46f 80bc 0d72 773c
00000030: dcdc 5fbc 51c6 8db8 7a99 a73a c407 21bd
00000040: e9ce 44bd e09d 813d 1ee6 833d 83a5 293a
00000050: b25d 883d d19c 7a3d 44c5 17bd 9a3c a2bc
00000060: e214 28bd be6a 013d ba7b 3b3c 2ca6 2fb8
00000070: 91aa 543d f3d8 9fbc c50e fcbc 4b12 31bd
00000080: 30c9 e7bc 65e8 883d cea1 d7bc 8e1b 8fbc
00000090: 6a79 113d bb6b 5cbd 6756 2dbd 34b3 663d
000000a0: c194 d4bc 3830 14bd 3a82 e5bb d966 00bc
000000b0: 6bee 6a3c 9993 de3c f4cb 54bd 513d 863d
000000c0: d8f4 84bd 6b1a 133d d65e 1bbc bd9f a2bc
000000d0: cfc5 a53d e69a 74bd d768 923c 9e69 783d
000000e0: 4999 823d 91f1 4abd ca1b 653c e2a8 903d
000000f0: d0f8 77bd 2455 a93c 0f43 10bd 7348 c33c
00000100: f8cc 5ebd c756 453d 3acc 66bb 3479 673d
00000110: f908 453c 7930 473b 96bc 02bc b211 6cbd
00000120: b5dd adbc e568 4c3c a661 3ebd 60e7 963d
00000130: b600 17bd 9908 bcbc a457 0fbc 9a75 55bd
00000140: b010 dbbb 900a ecbc 2e2a 5dbd f698 ccbb
00000150: e695 6d3d 62e0 7e3c 5522 5f3d 157e 9d3a
00000160: decc a4bc 8641 5c3d b44f 06bd f414 64bd
00000170: ab20 f13c 62c4 4d3d 099c fbbc 19a0 243d
00000180: 9406 44bc 2509 c13b a3f7 ccbb f3b5 bbbb
00000190: 376c 4fbd 25b2 593c 7029 13bc 35d9 453d
000001a0: f450 0d3c ac87 48bd 780c 37bd 6b32 dabc
000001b0: a561 333d daeb 10bd c458 acbc 89e5 c73c
000001c0: ce26 1fbd 305d c1bc bec1 873d 12e7 d7bc
000001d0: a271 43bc bcb7 5f3d f76a c13c 5f48 4d3d
000001e0: 9b8c 89bd 9a2c f83c aa72 80bc 2505 4fbd
000001f0: bbe0 10bd c5c2 97bd c4ed 633d 0a82 16bc
00000200: 8169 8abd 506a 8c3d 2ebf 5a3d 39d7 143d
00000210: 479e a03d 71a1 9d3d c8c2 a23d 7b23 9d3d
00000220: c7f1 903d 6e1e f23c f275 7a3b 80a9 5b3c
00000230: 2945 a3bc eb5e 3d3d f917 5d3c 6486 ef3c
00000240: 26d6 14bd 142a 86bc b454 8a3d dd3c 73bb
00000250: 81f0 323c 534c 8ebd 20f2 1fbd aa19 59bc
00000260: aead 99bc 5133 cd3c 1f3e 44bc f86c 953d
00000270: 8d85 4bbb 6651 273d ef44 28bd e74b ca3c
00000280: 764b 79bd d275 51bd 07b1 0cbd 1c53 133d
00000290: cd02 ab3c 804d ba3c 972a f13b 851d a43d
000002a0: ced0 a43d 77a1 253d ce4f 8b3d aafe b83b
000002b0: cca4 93bc 4453 c33c 3604 6e3d eb35 f8b9
000002c0: dd1e 3cbd 1cd1 133d 4c22 f1bb 2074 c4bc
000002d0: 8b93 723d 1cf7 223c fd44 f0bc 6bd3 ffbc
000002e0: 648e 883d 3706 403d 7fbc 23bd ffad 1f3c
000002f0: c7a3 0f3c 4e07 163d 5a64 77bd edf9 493b
00000300: c74b d63c e972 1f3d 8621 1b3c 856a 0cbd
00000310: c472 7cbd 13ef 3a3d 435c 933d 32db 50bc
00000320: db63 65bd 2b00 ef3c 5bb2 29bd 84b4 26bd
00000330: f101 913c 6e6a feba 52af 79b9 50ec 743d
00000340: a79f fbbb b7c0 253d 580e b8bc 76b2 5c3d
00000350: eada b43c 5dd0 833d 850e cc3c e534 d8bc
00000360: 6e1f fe3c c73d 7d3d d675 863c be7c 103d
00000370: a374 3dbd 0ece 283d ec45 82bd 425f 863d
00000380: 805e 1f3d 0c62 5f3c 1ce2 75bd d0d0 9c3d
00000390: d092 683d 2287 a03d 8321 223d 29a2 a13c
000003a0: cf5d 8dbc a9c7 dfbc 34d6 b93c 20f5 9f3c
000003b0: 3ef4 71bb 5f82 033c 89f3 0e3d 5f44 75bd
000003c0: 1ab7 5bbd a3af 00bc 2506 773d 396d 3f3d
000003d0: 9a04 6ebd 22bf 5ebc 547d 413a 5519 043d
000003e0: d964 8a3d aedf 2e3c 3eaf 42bd 52fb 673c
000003f0: cebb dcbc 0b75 28bd 248d 8f3c 696a 6ebc

model.tcn.0.downsample.weight f4 [25, 28, 1]
0.0073289196 -0.001965749 -0.023399094 0.00023897176 -0.0007568102 -0.008866411 -0.0052998667 -0.007951698
-0.05046079 0.0023406758 -0.014415295 0.016093755 0.0018157484 -0.0053488114 0.015617551 0.013897919
-0.0018108576 0.011429397 0.01439945 0.008827821 -0.007296928 -0.014816008 -0.012673004 -0.009574762
0.0008365125 -0.00040014353 0.019723464 0.0081192525 0.021474022 -0.0028756147 0.02008665 -0.0018918536
-0.010722013 -0.004859413 -0.0052474155 -0.01927747 -0.048699338 -0.002877617 0.004033927 0.016272083
-0.0019070108 -0.0007459515 0.016418017 0.004059977 -0.004688746 0.009589578 -0.01738826 -0.002552174
-0.0017020336 -0.0018300487 0.006021526 0.003913767 0.008526408 -0.01682841 0.0058928775 0.014017055
0.018053018 -0.0025049874 -0.0017829417 0.01728186 0.0020431748 0.009857568 0.01733277 -0.024705084
-0.023153737 -0.010554013 0.012120024 -0.004730062 -0.012212459 0.0018271382 0.007136136 -0.006642382
-0.01045972 -0.0062458417 0.0029043774 -0.0058349734 0.0029118909 -0.0035770948 0.011571599 0.00035626956
-0.0042888024 -0.003903001 -0.026724007 0.016787078 0.021943204 0.01987412 0.0037376247 0.0029052538
-0.002355319 -0.003260712 0.013741059 0.005491132 -0.04118979 0.0034018261 0.010969166 -0.008636422
-0.0031416412 -0.019725405 -0.0084042065 -0.007015991 -0.001658956 -0.00043845788 0.0035353755 0.013595801
-0.015819378 -0.0007437406 0.009156355 -0.0043300274 0.006695358 -0.008948795 -0.014207705 0.0072596096
0.036666784 0.006360121 0.0059596156 -0.011558091 -0.0025686638 -0.0037741007 0.022450615 -0.008779846
-0.0060587833 -0.008553376 0.020613914 -0.0032507794 -0.010155144 -0.006923762 -0.002742115 0.00014043692
-0.012152313 -0.0056773396 -0.0070227506 0.020682953 -0.01394277 0.013652262 -0.02127366 -0.0039525353
0.0030477317 -0.0103200795 -0.0059828716 0.00086910237 0.027252948 0.0025379013 0.004640413 -0.002969972
-0.0067933206 0.010419287 0.010366266 0.0005555089 -0.033049222 -0.0030331486 0.00094805047 0.0071751173
-0.002117709 -0.015840271 -0.0035847074 -0.0028021731 0.009441707 0.014554007 0.0064355806 -0.00047837905
0.005203074 -0.0064858217 -0.0031749082 0.012371379 0.0053882943 -0.014834951 -0.011013546 0.022399018
0.01235891 0.0041709836 -0.0052898712 0.00027735883 -0.022145389 0.00571788 -0.011360983 0.0070881178
-0.040400468 -0.0027743096 0.0064428584 -0.002944559 -0.012665817 0.015556639 -0.013062397 0.0030292217
-0.00903884 0.0053587817 -0.009986418 -0.0005491502 -0.0024380595 0.0011881959 -0.010702763 -0.0023996907
-0.002352311 -0.013215867 -0.006219266 -0.0006117322 0.02416386 0.0049874717 -0.014449898 -0.0056532333
-0.0063553085 -0.015141146 -0.009033814 -0.0076536676 -0.046675503 -0.01782023 -0.0007632118 -0.0045442753
0.00076244085 0.009901391 0.0022746753 0.004654062 -0.012534094 0.01694894 0.005402838 -0.014319406
-0.02219587 0.0074196877 -0.00582463 -0.0038115687 0.004055438 -0.0055736513 0.027814519 0.007908021
0.0020339058 -0.0008912372 -0.033666108 0.0018190659 0.022611577 0.008351619 0.0009955337 0.02303844
0.016888684 -0.017111715 0.008239709 -0.0025823666 0.008929519 0.0072720326 -0.00875287 0.0006417224
-0.022268264 0.0032157393 0.0046456615 -0.0045619984 0.004724821 -0.023360636 -0.0039871666 -0.027561741
0.011651456 0.0014967055 0.009302421 -0.02013803 0.012271717 0.00993006 0.028013593 -0.00071908947
00000000: 6f27 f03b ccd3 00bb 75af bfbc 7e94 7a39
00000010: ac64 46ba 6c44 11bc 81aa adbb d747 02bc
00000020: f9af 4ebd 0666 193b 212e 6cbc 0dd7 833c
00000030: 68fe ed3a 1545 afbb c2e0 7f3c 19b4 633c
00000040: 4c5a edba 5e42 3b3c aceb 6b3c 91a2 103c
00000050: 121b efbb d7be 72bc 6ea2 4fbc 76df 1cbc
00000060: 6749 5b3a 5bca d1b9 1a93 a13c 9d06 053c
00000070: 4aea af3c cf74 3cbb c28c a43c 13f8 f7ba
00000080: 62ab 2fbc b63b 9fbb 83f2 abbb c9eb 9dbc
00000090: f578 47bd 6796 3cbb 082f 843b 084d 853c
000000a0: aaf4 f9ba f58b 43ba 147f 863c 8e09 853b
000000b0: 0da4 99bb 9b1d 1d3c d371 8ebc 6042 27bb
000000c0: c516 dfba 3fde efba 3950 c53b 0f3f 803b
000000d0: 59b2 0b3c bcdb 89bc 0a19 c13b caa7 653c
000000e0: ece3 933c b72a 24bb 99b1 e9ba b092 8d3c
000000f0: c9e6 053b a381 213c 74fd 8d3c 5162 cabc
00000100: e8ac bdbc bdea 2cbc 1193 463c a3fe 9abb
00000110: c416 48bc 967c ef3a 3fd6 e93b 57a8 d9bb
00000120: 3f5f 2bbc eba9 ccbb 5e57 3e3b 4e33 bfbb
00000130: 6cd5 3e3b b16d 6abb ce96 3d3c b1c9 ba39
00000140: 1589 8cbb 7ec9 7fbb 4eec dabc 0e85 893c
00000150: 3cc2 b33c 0dcf a23c f0f2 743b 1266 3e3b
00000160: b25b 1abb abb1 55bb 2e22 613c f4ee b33b
00000170: a0b6 28bd 2cf1 5e3b 04b8 333c c87f 0dbc
00000180: fee3 4dbb 2c97 a1bc ccb1 09bc 66e6 e5bb
00000190: 5471 d9ba d2e0 e5b9 c2b1 673b ecc0 5e3c
000001a0: a497 81bc 96f7 42ba 8904 163c e7e2 8dbb
000001b0: bc64 db3b f79d 12bc 6fc7 68bc 05e2 ed3b
000001c0: e92f 163d 9068 d03b e148 c33b 265e 3dbc
000001d0: 0757 28bb e756 77bb 5aea b73c 58d9 0fbc
000001e0: c288 c6bb 7623 0cbc 83de a83c 070b 55bb
000001f0: c361 26bc bae0 e2bb 0eb5 33bb 4042 1339
00000200: 7f1a 47bc fa08 babb 1a1f e6bb 4c6f a93c
00000210: 3770 64bc bdad 5f3c 1946 aebc 4584 81bb
00000220: 74bc 473b 8d15 29bc f70b c4bb 79d4 633a
00000230: 9341 df3c eb52 263b 9b0e 983b dda3 42bb
00000240: 819a debb a8b5 2a3c 45d7 293c 929f 113a
00000250: 9f5e 07bd cac7 46bb 9786 783a 3f1d eb3b
00000260: 43c9 0abb 75c3 81bc 69ed 6abb aaa4 37bb
00000270: 64b1 1a3c ee73 6e3c 90e1 d23b f3ce fab9
00000280: 8c7e aa3b 0487 d4bb 1f12 50bb 53b1 4a3c
00000290: 4a90 b03b 4b0e 73bc 2972 34bc 257e b73c
000002a0: 077d 4a3c bfac 883b a856 adbb 796a 9139
000002b0: 3f6a b5bc 0e5d bb3b 6b23 3abc 7143 e83b
000002c0: f67a 25bd 31d1 35bb 9d1e d33b 81f9 40bb
000002d0: 4984 4fbc 46e1 7e3c aa03 56bc e885 463b
000002e0: a517 14bc b898 af3b 139e 23bc d9f4 0fba
000002f0: dac7 1fbb 3dbd 9b3a a45a 2fbc 2144 1dbb
00000300: 3b29 1abb 5d87 58bc fcca cbbb a75c 20ba
00000310: 4af3 c53c f26d a33b 44bf 6cbc c23e b9bb
00000320: 3140 d0bb 9212 78bc 9002 14bc 9ecb fabb
00000330: d02e 3fbd bbfb 91bc 4712 48ba 25e8 94bb
00000340: 8ade 473a 7239 223c b812 153b 1a81 983b
00000350: cd5b 4dbc 81d8 8a3c 4a0a b13b f19b 6abc
00000360: 1dd4 b5bc da20 f33b 8adc bebb 83cb 79bb
00000370: 7be3 843b 2da3 b6bb 46db e33c a590 013c
00000380: 474b 053b eba1 69ba 79e5 09bd b96d ee3a
00000390: ea3b b93c 3bd5 083c 917c 823a 1cbb bc3c
000003a0: 235a 8a3c de2d 8cbc d8ff 063c ec3c 29bb
000003b0: 1e4d 123c 3b4a ee3b 3368 0fbc 4339 283a
000003c0: ef6b b6bc 27bf 523b a23a 983b d17c 95bb
000003d0: acd2 9a3b ce5e bfbc c7a6 82bb 29c9 e1bc
000003e0: c0e5 3e3c 1a2d c43a 2e69 183c 83f8 a4bc
000003f0: 500f 493c b1b1 223c c37c e53c 4781 3cba

model.tcn.0.downsample.bias f4 [25]
-0.055494815 0.1420884 0.030517513 0.049737282 0.019718679 0.035581782 -0.1256664 -0.029882621
-0.036686152 -0.062251747 -0.11693008 -0.018298373 -0.0033332596 -0.059514686 -0.03979969 -0.0502339
-0.024594711 -0.14947994 0.15364239 -0.09540415 0.09645593 -0.16382031 -0.0040698093 -0.013463703
-0.15679097
00000000: 884e 63bd 9f7f 113e ddff f93c 52b9 4b3d
00000010: 1189 a13c 34be 113d b1ae 00be 66cc f4bc
00000020: 3844 16bd b0fb 7ebd 0a79 efbd 78e6 95bc
00000030: d172 5abb acc5 73bd 0005 23bd 10c2 4dbd
00000040: d97a c9bc 4511 19be 6e54 1d3e 4063 c3bd
00000050: b08a c53d 83c0 27be 095c 85bb dd96 5cbc
00000060: d08d 20be

model.tcn.1.conv1.bias f4 [25]
-0.043566614 -0.02570426 -0.046130385 0.044683747 -0.06512681 -0.06329972 0.06339051 -0.05890023
-0.014572026 -0.01978459 0.04402432 0.07225999 -0.045467645 -0.05305765 0.029116897 0.030708184
0.042798348 0.042358663 -0.047492057 0.011144179 -0.045198906 0.050423518 0.022890877 0.04881724
-0.023564717
00000000: e872 32bd be91 d2bc 37f3 3cbd 4e06 373d
00000010: 3461 85bd 49a3 81bd e2d2 813d 5e41 71bd
00000020: 82bf 6ebc 4b13 a2bc d852 343d 0cfd 933d
00000030: 483c 3abd fa52 59bd 8f86 ee3c bb8f fb3c
00000040: 524d 2f3d 4780 2d3d 0887 42bd 1396 363c
00000050: 7d22 39bd e488 4e3d a685 bb3c 96f4 473d
00000060: cb0a c1bc

model.tcn.1.conv1.weight_g f4 [25, 1, 1]
0.5830246 0.5442597 0.57244134 0.5854527 0.5853503 0.5647422 0.59912735 0.598725
0.6179935 0.56851053 0.6012512 0.58620393 0.5910328 0.5799239 0.601294 0.58786595
0.5979912 0.54989535 0.5932541 0.58973503 0.5756132 0.5754531 0.5921965 0.60749424
0.574633
00000000: 1a41 153f 9b54 0b3f 848b 123f 3ae0 153f
00000010: 84d9 153f f292 103f 6960 193f 0b46 193f
00000020: d234 1e3f e889 113f 99eb 193f 7611 163f
00000030: ed4d 173f e575 143f 67ee 193f 627e 163f
00000040: f415 193f f1c5 0c3f 80df 173f e0f8 163f
00000050: 635b 133f e550 133f 319a 173f be84 1b3f
00000060: 261b 133f

model.tcn.1.conv1.weight_v f4 [25, 25, 7]
0.061237853 0.03436381 0.017980982 0.045250304 0.033011753 -0.009736278 -0.04163629 -0.02588915
0.034288272 -0.022241492 0.0380997 -0.029304769 -0.046116184 0.066590786 -0.043875244 0.024920827
0.06423706 0.008116163 0.050206173 -0.014689059 -0.058899797 -0.030512232 -0.017096356 -0.036986805
-0.037731625 0.04208678 0.08075971 0.05978232 0.031699654 -0.053524293 -0.0050857104 0.03683221
0.074290365 -0.028045105 0.057205215 0.04549778 -0.012634039 -0.06436194 0.03943066 0.044109475
-0.053511303 0.06647999 0.0061560874 -0.04465429 0.018711133 0.05466191 0.018012142 -0.041908205
-0.022171374 0.04956127 0.04306059 0.05767259 0.043408427 0.063392304 0.00024244729 0.056090295
0.008280577 0.0010400397 0.056001265 -0.025541184 0.04514667 -0.025809085 0.04789716 -0.0050266846
0.057124745 -0.015477688 0.015728936 0.07182782 0.006161727 0.007894622 -0.027841335 0.05595463
0.04358934 -0.010692042 -0.013135528 0.07545298 0.05544048 0.065492496 -0.03370015 -0.021818118
-0.042013068 -0.04732923 0.0010078416 0.0073745036 -0.03102759 -0.016076833 0.011144127 -0.0060239052
-0.04872258 0.06451452 -0.013506817 0.024534056 0.04701539 -0.05491042 0.0069702747 -0.041344143
0.083715394 -0.014286076 0.056197535 0.011547985 -0.02327532 0.03890912 -0.04968305 -0.01565637
0.0039611775 0.08136889 -0.055326685 0.04083801 0.088591255 -0.0019132938 -0.025001844 -0.033334088
-0.012695054 0.057462048 -0.042810474 0.07125988 -0.05293278 0.06568852 0.011661252 -0.01574944
-0.054794833 -0.03125311 -0.041183252 -0.0596523 -0.019301724 0.04691866 -0.06305496 0.059966046
0.02218978 0.044042926 -0.0050407974 -0.031643588 0.037368868 0.044525392 0.017916465 0.03135735
0.06781271 0.017065128 -0.02626088 0.04083183 -0.038519986 0.06447109 0.014445106 0.037124936
0.014838018 0.06730539 0.044572942 0.055594433 -0.030160185 0.01934964 0.058455456 0.060591497
-0.01585299 0.0669692 -0.058532633 0.06415592 -0.017567907 -0.038823426 0.07567669 0.016220912
-0.011497862 0.04468831 0.059683703 0.016007137 -0.04620987 -0.024983957 -0.0318265 0.038456164
-0.06237445 -0.031035034 -0.06401071 0.009438768 0.063387275 0.0243713 0.011600101 0.03324584
-0.049840022 -0.017604342 0.059112493 -0.06250498 -0.07306907 -0.024036143 -0.06827722 -0.01634524
0.049523063 -0.001045953 0.019862104 0.010934184 -0.050919853 -0.03803436 0.008750393 0.06621678
-0.054765947 0.049516257 -0.045993123 -0.064848036 0.013217546 0.05313684 0.0115298405 0.04605477
0.0058406345 -0.0100163715 0.018545171 0.018694716 -0.019524196 0.017609095 0.004634464 -0.06863645
0.05505333 -0.07076415 0.02304248 -0.059901252 -0.015346031 0.033755083 0.026588585 0.056523
-0.028023396 0.020122718 0.031215906 -0.07056269 -0.04404323 0.038694732 0.013233073 -0.011933997
-0.021373445 0.028463636 0.052223507 0.055280533 0.042395342 0.021162627 -0.058275923 0.04394705
-0.033247042 0.043793105 -0.052487176 0.02615392 -0.0018323298 0.05550128 0.006032433 0.036539398
-0.07160688 0.022296246 -0.07444045 -0.06929694 -0.07515289 -0.055674136 -0.033238716 0.017582567
0.008510936 -0.023327744 0.026983133 -0.06980048 0.06671561 -0.041250493 -0.032212198 0.0019475438
00000000: 8bd4 7a3d 11c1 0c3d da4c 933c 6258 393d
00000010: 5537 073d e984 1fbc d08a 2abd 7c15 d4bc
00000020: dc71 0c3d ca33 b6bc 6e0e 1c3d 8e10 f0bc
00000030: 53e4 3cbd c060 883d 87b6 33bd c326 cc3c
00000040: b88e 833d a8f9 043c fda4 4d3d 61aa 70bc
00000050: ea40 71bd caf4 f9bc a80d 8cbc 7a7f 17bd
00000060: 7a8c 1abd 3063 2c3d 5965 a53d 4ede 743d
00000070: 7fd7 013d 4a3c 5bbd 08a6 a6bb 5fdd 163d
00000080: 8c25 983d d9be e5bc 0450 6a3d e15b 3a3d
00000090: 00ff 4ebc 31d0 83bd 0b82 213d 23ac 343d
000000a0: ab2e 5bbd a926 883d 01b9 c93b 6be7 36bd
000000b0: 1748 993c 2be5 5f3d 338e 933c f0a7 2bbd
000000c0: bea0 b5bc c200 4b3d 4d60 303d 183a 6c3d
000000d0: 09cd 313d d3d3 813d 7339 7e39 f0be 653d
000000e0: 42ab 073c f151 883a 9561 653d bf3b d1bc
000000f0: b7eb 383d 936d d3bc d02f 443d e3b6 a4bb
00000100: a3fb 693d 2196 7dbc f8d9 803c 771a 933d
00000110: 50e8 c93b 7258 013c 8313 e4bc af30 653d
00000120: bc8a 323d ad2d 2fbc 6636 57bc 1887 9a3d
00000130: 8f15 633d ee20 863d 2b09 0abd e9bb b2bc
00000140: e515 2cbd 4bdc 41bd 8d19 843a d2a5 f13b
00000150: 932d febc 90b3 83bc db95 363c 2e64 c5bb
00000160: 5491 47bd 3020 843d b24b 5dbc a5fb c83c
00000170: 3693 403d c0e9 60bd e766 e43b 7a58 29bd
00000180: fa72 ab3d 2510 6abc 632f 663d c233 3d3c
00000190: e2ab bebc 2b5f 1f3d 7480 4bbd ca41 80bc
000001a0: c4cc 813b bca4 a63d 3c9e 62bd c245 273d
000001b0: 556f b53d 7dc7 faba abd0 ccbc 5389 08bd
000001c0: eafe 4fbc 535d 6b3d 095a 2fbd b3f0 913d
000001d0: 0bd0 58bd b487 863d d60e 3f3c f804 81bc
000001e0: 8c70 60bd 4303 00bd c5af 28bd f855 74bd
000001f0: a61e 9ebc c82d 403d f522 81bd f59e 753d
00000200: 57c7 b53c 5b66 343d 462d a5bb b59c 01bd
00000210: 1910 193d 4260 363d 8dc5 923c 9170 003d
00000220: 64e1 8a3d 2bcc 8b3c 0f21 d7bc 473f 273d
00000230: 22c7 1dbd 6b09 843d 2aab 6c3c 5110 183d
00000240: 291b 733c 69d7 893d 1e92 363d fdb6 633d
00000250: 7e12 f7bc 2383 9e3c fd6e 6f3d ca2e 783d
00000260: 21de 81bc 2627 893d eabf 6fbd 2e64 833d
00000270: 92ea 8fbc 5005 1fbd 61fc 9a3d b8e1 843c
00000280: 8761 3cbc 170b 373d e676 743d 6621 833c
00000290: 9046 3dbd 28ab ccbc 815c 02bd 3684 1d3d
000002a0: 5a7c 7fbd 2f3d febc 0c18 83bd 10a5 1a3c
000002b0: 30d1 813d 52a6 c73c 5a0e 3e3c ca2c 083d
000002c0: 0d25 4cbd fb36 90bc f11f 723d 9c02 80bd
000002d0: 3da5 95bd 72e7 c4bc edd4 8bbd 74e6 85bc
000002e0: b2d8 4a3d 5c18 89ba dab5 a23c 4b25 333c
000002f0: 5691 50bd ebc9 1bbd cf5d 0f3c aa9c 873d
00000300: 4252 60bd 8fd1 4a3d 4963 3cbd 0ccf 84bd
00000310: 688e 583c 04a6 593d a8e7 3c3c eda3 3c3d
00000320: cb62 bf3b b51b 24bc 0bec 973c a925 993c
00000330: 35f1 9fbc f340 903c b4dc 973b 4491 8cbd
00000340: 9a7f 613d cbec 90bd 95c3 bc3c 045b 75bd
00000350: eb6d 7bbc c542 0a3d 4ed0 d93c a984 673d
00000360: 5291 e5bc 66d8 a43c 80b8 ff3c 2c83 90bd
00000370: ad66 34bd 5e7e 1e3d 88cf 583c d086 43bc
00000380: 5d17 afbc 922c e93c 51e8 553d d76d 623d
00000390: bda6 2d3d 3f5d ad3c bcb2 6ebd d201 343d
000003a0: 0d2e 08bd 6660 333d cbfc 56bd bf40 d63c
000003b0: c92a f0ba 4f55 633d b7ab c53b 56aa 153d
000003c0: a1a6 92bd 9ea6 b63c 3c74 98bd 8eeb 8dbd
000003d0: c2e9 99bd 900a 64bd 5225 08bd 5109 903c
000003e0: 7471 0b3c d319 bfbc bb0b dd3c 8ef3 8ebd
000003f0: 32a2 883d 47f6 28bd f0f0 03bd ba44 ff3a

model.tcn.1.conv2.bias f4 [25]
-0.02743056 0.03000109 -0.03069582 -0.046532437 -0.014472109 -0.009231106 0.06877634 0.029785879
-0.027598158 -0.049284022 0.04145752 0.042126615 0.015480841 0.003881772 -0.028454266 -0.044376213
-0.013194381 -0.06372089 0.0028911398 0.00052743853 -0.03514007 0.03327488 0.05228738 -0.057300266
0.017775666
00000000: 0eb6 e0bc d9c4 f53c cd75 fbbc cc98 3ebd
00000010: 6d1c 6dbc 113e 17bc 9cda 8c3d 8401 f43c
00000020: 8815 e2bc 0bde 49bd 5ccf 293d f58c 2c3d
00000030: 5aa3 7d3c 5465 7e3b ec18 e9bc d5c3 35bd
00000040: 3f2d 58bc 1980 82bd 4779 3d3b cd43 0a3a
00000050: 09ef 0fbd 3e4b 083d 4b2b 563d afb3 6abd
00000060: 469e 913c

model.tcn.1.conv2.weight_g f4 [25, 1, 1]
0.5805924 0.5847634 0.56104946 0.60524374 0.56454223 0.5604237 0.57424533 0.5531755
0.55143803 0.5504603 0.5950342 0.5577737 0.57200676 0.5811904 0.5680279 0.5663022
0.6115407 0.54426223 0.58548236 0.58579934 0.5992924 0.546862 0.58064216 0.614902
0.58458346
00000000: b4a1 143f 0eb3 153f f0a0 0f3f 41f1 1a3f
00000010: d785 103f ed77 0f3f be01 133f e99c 0d3f
00000020: 0b2b 0d3f f7ea 0c3f 2954 183f 42ca 0e3f
00000030: 096f 123f e5c8 143f 476a 113f 2ef9 103f
00000040: ee8d 1c3f c554 0b3f 2ce2 153f f2f6 153f
00000050: 3a6b 193f 26ff 0b3f f7a4 143f 386a 1d3f
00000060: 43a7 153f
