etc/ckpts/Pecanstreet/single-step/661/1hour/PCA/TCN/best/best-single-step-TCN-ckpt-Pecanstreet-participant-id-661_epoch=144.ckpt (torch, 899207 bytes, 201 tensors)

model.tcn.0.conv1.bias f4 [25]
000000 a3 ff ae 3a 08 5a 14 3d 6a 95 ad bd a4 e8 a5 bd
       0.0013351332 0.036218673 -0.08475764 -0.08101013
000010 91 64 a7 b9 b3 e7 e8 bc 6e 81 84 3d a9 da d1 3c
       -0.0003192765 -0.028430795 0.06469999 0.02561696
000020 69 fd 9d bd 46 a3 93 bd b9 ff 75 3d 01 b9 3a bc
       -0.0771435 -0.07208876 0.06005833 -0.011396647
000030 c0 b7 cd bc 47 13 03 3d 6e 3e 8d bc 6c 03 31 3d
       -0.025112033 0.032000806 -0.017241683 0.043216154
000040 72 21 b9 3c 88 34 08 bd 26 86 98 bd b6 c8 44 3d
       0.022598956 -0.033253223 -0.07447462 0.048042975
000050 65 d7 48 bd 0d 8e 81 bc 23 f0 e7 3c af 1f 3b bd
       -0.04903354 -0.015814805 0.028312748 -0.045684513
000060 2f 4a 3e 3d
       0.046457466

model.tcn.0.conv1.weight_g f4 [25, 1, 1]
000000 30 72 17 3f 8e a8 10 3f c0 aa 15 3f 56 2f 1e 3f
       0.5915861 0.56507194 0.5846367 0.6179098
000010 6f bd 1b 3f 62 56 15 3f 34 95 0c 3f fc 87 1f 3f
       0.6083593 0.58334935 0.54915166 0.6231687
000020 62 ba 13 3f 29 4c 20 3f 5e c5 19 3f 20 02 1b 3f
       0.5770627 0.6261621 0.60066783 0.6055012
000030 54 31 0d 3f bf fe 13 3f 3c e5 15 3f 91 1b 0f 3f
       0.55153394 0.57810587 0.5855291 0.5590144
000040 f6 6b 11 3f 1f 4e 11 3f fd b6 0b 3f c2 f2 16 3f
       0.5680536 0.5675983 0.5457609 0.5896417
000050 b7 95 17 3f 72 26 15 3f 8d 21 12 3f 7c 98 15 3f
       0.5921282 0.5826179 0.57082444 0.584358
000060 f5 57 10 3f
       0.5638421

model.tcn.0.conv1.weight_v f4 [25, 18, 7]
000000 4e 2a 1a bc c6 11 23 3d 7e 67 9e bd 22 dc 87 bd
       -0.0094095 0.039811872 -0.07734583 -0.06633784
000010 eb a7 01 bd e1 50 e5 3c c6 ca 89 3b b4 08 a2 3d
       -0.03165428 0.027992668 0.0042050807 0.07911816
000020 ea 50 ff 3a f3 0a f7 3c ff ab ad bc c2 22 80 bc
       0.001947907 0.030156588 -0.021200178 -0.015641574
000030 08 4f ab bd c5 fa 74 bd 3b 22 4c bd 66 62 1d bc
       -0.083646834 -0.059809465 -0.049837332 -0.00960598
000040 05 f8 b7 3c 62 5b 27 3d f6 26 96 bd f2 2a 52 bd
       0.022457132 0.040858634 -0.0733165 -0.051310487
000050 8f 8e a7 3c 23 a4 96 3d 1b 41 8a bc 0f e4 84 3d
       0.02045372 0.07355525 -0.016876748 0.06488811
000060 4e 92 6f bc 74 36 05 3c 4c f5 9e 3d 58 b0 a7 bd
       -0.014622284 0.008130658 0.077616304 -0.08187932
000070 f4 17 4a bd c2 85 8f bc 1d 36 fb bc 76 5a 9b 3d
       -0.04933925 -0.017519835 -0.030665452 0.075856134
000080 62 f5 67 bd a6 42 2d bd fb ab 84 bd 9f f5 af bd
       -0.0566305 -0.04229989 -0.06478115 -0.085917704
000090 c9 79 61 bd e6 3c 8f 3d 5d 9c eb 3c 36 04 da 3c
       -0.055047784 0.06994037 0.028761083 0.026613336
0000a0 f4 5f 89 bc 64 9a 8f bd 0e a6 c7 3b 71 76 b6 bd
       -0.016769387 -0.070118695 0.0060927933 -0.0890931
0000b0 28 58 8c bd a4 79 40 bd da c8 6a 3d 07 92 64 3d
       -0.06852752 -0.046991006 0.057320453 0.055803325
0000c0 ba db 06 bd 58 0c ac 3a d0 20 6b 3d 17 d9 b0 3d
       -0.03292439 0.0013126237 0.05740434 0.086351566
0000d0 ca dd 08 3d 05 c6 0b 3c e5 c3 5a 3d f0 32 62 bd
       0.03341464 0.008531098 0.053409476 -0.05522436
0000e0 81 8f 71 3c 44 6f 8d bd 9b 88 80 bd 8e 97 44 bd
       0.014743687 -0.06905988 -0.062760554 -0.047996096
0000f0 a6 ef 15 3d 69 ab 04 3d 27 e3 5b bd 4d ae b8 3c
       0.0366055 0.032390032 -0.053683426 0.02254405
000100 9a ed 30 3d 65 70 86 bc cd 8c 8b bb 54 6f 2d 3c
       0.043195345 -0.016411016 -0.004258728 0.010585625
000110 8d 6a 30 3d 81 b7 94 3d 93 c7 9a bd 2d 58 21 bd
       0.043070365 0.07261563 -0.07557597 -0.03939073
000120 d7 90 e8 3c 3b 6a 8e 3d 53 f6 9e 3d 38 bb a6 3d
       0.028389378 0.069538556 0.07761826 0.08141178
000130 b5 3c bf 3c 04 82 9f bd 4d d9 76 3b a6 81 79 bd
       0.023344377 -0.077884704 0.0037666142 -0.060914658
000140 23 e7 b7 bd f1 dd 91 3d 78 9d 79 3d 58 ee c0 bd
       -0.08979633 0.0712241 0.06094119 -0.094204605
000150 bc 9d 8f 3b 10 a1 c8 bc 30 fe b0 bc 14 24 32 bd
       0.004382817 -0.024490863 -0.021605581 -0.043491438
000160 c8 7f 0d 3d 15 32 46 bd c3 6c 19 3d 56 db 1e 3d
       0.03454569 -0.048387606 0.03745724 0.038783394
000170 f6 56 6a 3d 05 cf ef 3c f3 8f b0 bd cb c3 5f bd
       0.05721184 0.02927352 -0.08621206 -0.054630082
000180 1b 0f 3c 3d ba 6e b0 3c 59 8e 78 bd 5f e6 46 bd
       0.045912843 0.021537174 -0.06068263 -0.048559543
000190 07 96 a1 3d b5 52 56 3d b1 f3 40 bd 9c 9e 09 bd
       0.078899436 0.05232497 -0.047107402 -0.033598527
0001a0 c9 fc c5 bd fa a1 a0 3b 19 3b 6e bd fa a6 7c bd
       -0.096673556 0.0049021216 -0.05816183 -0.06168268
0001b0 ea f8 80 bb af 56 26 3c ef 37 26 bd 7b 52 39 3d
       -0.003935923 0.010152503 -0.040580686 0.045244675
0001c0 f5 64 39 bd 6c 35 ae 3d 06 72 82 3d bf 0d 96 bd
       -0.045262296 0.08506283 0.063694045 -0.073268406
0001d0 f0 fa ce bc de 6a eb ba a9 a4 c8 3b 96 37 9a 3c
       -0.02526614 -0.0017960926 0.0061231446 0.018825334
0001e0 18 3b f7 3c ee a6 07 ba 35 ef 4e bd 66 17 0d 3d
       0.030179545 -0.0005174716 -0.050521094 0.034446143
0001f0 23 da b9 bd ec 01 70 bd 69 ac df bc 94 98 4f bd
       -0.090748094 -0.058595583 -0.027303891 -0.05068262
000200 b0 8b 21 bd cc da a4 bd 3c 66 df bc 29 3b 30 3c
       -0.039439857 -0.08049545 -0.027270429 0.010756292
000210 38 a5 86 bd e5 c6 73 bc 2a 2f 60 3d 7f d3 84 bc
       -0.06574482 -0.014878963 0.05473248 -0.01621413
000220 4a d0 ba bb 92 a2 80 bc 5d 97 02 3c c8 23 3c 3d
       -0.0057010995 -0.01570252 0.007970658 0.04593256
000230 89 66 99 3d e6 d0 40 3d 61 8a 9a 3d 49 1d 8d bc
       0.0749026 0.04707422 0.07545925 -0.017225878
000240 ed e7 bc bd 14 e3 5c bd 34 8d 4c 3d a9 6d 9a 3b
       -0.09223924 -0.053927496 0.04993935 0.0047127795
000250 f8 8e 16 bd 85 e8 73 bd 70 d1 9a bd 90 67 88 bd
       -0.03675744 -0.05954792 -0.07559478 -0.06660378
000260 d4 e1 2b bc 11 79 61 3d 95 ea 4b 3d b9 89 a4 bd
       -0.010490853 0.0550471 0.04978426 -0.08034081
000270 4d 82 6a 3d 6b e6 83 bd 76 aa 74 bc b5 98 03 bd
       0.05725317 -0.06440433 -0.014933219 -0.032128055
000280 db 6d 54 bc da 31 dd bc 7a 3d ac bd 5c ac a1 bd
       -0.012965645 -0.02700131 -0.08410163 -0.07894203
000290 8f 53 83 bc b1 ef df 3a cc d9 1f bd aa 65 12 3d
       -0.016031055 0.0017084983 -0.039026067 0.035741486
0002a0 db b0 ad bd d2 b6 5d bc 1f 2c 8e 3d 5e 84 34 bd
       -0.08480998 -0.013532357 0.06942009 -0.044071548
0002b0 d0 71 92 3d 8f 9a c3 3c b3 3f b4 bd 68 70 4a 3d
       0.07150614 0.02387741 -0.08801212 0.049423605
0002c0 af bd 81 bc de ef 37 bd c5 4a 81 3d 93 1c 9e bd
       -0.015837518 -0.04490649 0.06313089 -0.07720294
0002d0 34 92 d4 3a 41 5b d7 bc 1a 7f 5c 3d e8 a7 88 3c
       0.0016217888 -0.02628863 0.05383215 0.016681626
0002e0 92 31 0b 3d ce b9 b1 3c 52 34 06 bd 64 71 02 bd
       0.03398282 0.021695044 -0.03276474 -0.03184642
0002f0 36 d3 b1 bd 77 30 2f 3d 48 50 84 3d f4 88 5d 3d
       -0.086828634 0.04277083 0.06460625 0.054085687
000300 07 3f 8d bd f0 a8 72 bb 30 a1 91 bd 7c 91 6e bd
       -0.06896787 -0.0037026964 -0.07110822 -0.058244213
000310 14 77 3c bd 29 c9 f8 3c 81 14 56 bd 70 9f dd ba
       -0.046012 0.030369358 -0.052265648 -0.0016908478
000320 60 fa 41 3b 0d 63 67 3d e4 a3 85 bd 03 07 9f bd
       0.0029598698 0.056490947 -0.065254 -0.07765009
000330 c0 31 8e bd 33 17 3c 3d 02 49 4d bd 01 29 62 3d
       -0.06943083 0.045920562 -0.050118454 0.055214886
000340 18 c7 47 3c 11 18 0f bc 62 27 9f 3b 27 ce 6e bc
       0.012193464 -0.008733765 0.0048569897 -0.014575518
000350 c7 ee 5f 3c 27 a0 83 bc 6f f2 94 3b 01 57 92 3c
       0.013667769 -0.016067578 0.004545502 0.017863752
000360 74 c9 7f bd 11 22 52 bd b5 28 7f 3d 0b 62 9e bd
       -0.06244798 -0.05130202 0.06229468 -0.07733544
000370 d1 de 4e bc f1 bf a0 3d cd 55 c4 3c b7 d2 b8 bb
       -0.012626366 0.0784911 0.023966694 -0.0056403535
000380 06 bd a8 bd a9 43 0c 3d 29 18 86 bd 4c ba f6 bc
       -0.08239178 0.034244213 -0.06547577 -0.03011813
000390 95 ea 18 bd 66 16 9b bc e9 28 cb bb be c9 98 3d
       -0.03733309 -0.018931579 -0.006199945 0.07460354
0003a0 95 cd 88 3c bd 66 ab 3d 92 0d 72 3d 57 b4 40 bd
       0.016699592 0.08369205 0.059094973 -0.047046985
0003b0 a4 77 3c 3d 33 61 57 bd 02 fc 1b bd 31 88 e3 3c
       0.046012536 -0.05258293 -0.03808213 0.027774902
0003c0 66 92 00 3d bc 8a 89 3d 45 f1 e5 bc a6 66 0c ba
       0.031389616 0.067159146 -0.028069148 -0.0005355872
0003d0 8d 20 37 3d 44 69 d2 bd d5 57 43 3d 51 c1 ba bd
       0.044708777 -0.10273984 0.047691185 -0.091189034
0003e0 17 b7 87 bc b7 4e 13 bd 9b a8 8a bd 5e ed 06 bc
       -0.016566796 -0.03596374 -0.0677044 -0.008235304
0003f0 e0 69 9a 3d fb 9a d0 bc 34 08 56 bd aa ed 04 bd
       0.07539725 -0.025464525 -0.052253917 -0.032453217

model.tcn.0.conv2.bias f4 [25]
000000 df 4f b8 bc 65 ee 63 bd 32 18 00 3d 7f 1e 39 3d
       -0.022499023 -0.055647273 0.031273074 0.0451951
000010 df d3 b2 3c 86 40 75 bc f6 2b 99 3d 89 6f 67 3d
       0.021829544 -0.014968997 0.07479088 0.056502853
000020 9d a1 36 bd 45 d7 29 3d a8 4b 87 bc e8 e6 b6 3c
       -0.04458772 0.041465063 -0.016515568 0.022326902
000030 a9 f8 f5 3b 7f 4e 1d 3d 28 20 1b bd 91 b8 1b bd
       0.0075064492 0.038404938 -0.037872463 -0.038017813
000040 85 85 26 bd 3b a3 47 bd 92 8d 07 bd 21 dc d5 3c
       -0.040654678 -0.048739653 -0.033093996 0.026105942
000050 84 b9 ab 3c 8f ab 77 3c 33 64 6a 3d fc c8 6f 3d
       0.020962484 0.015116586 0.057224464 0.058541283
000060 3a 48 84 3d
       0.064590886

model.tcn.0.conv2.weight_g f4 [25, 1, 1]
000000 05 b9 18 3f 05 48 13 3f e4 c3 27 3f 29 d1 14 3f
       0.5965732 0.5753177 0.6553328 0.58131653
000010 b0 f6 15 3f c1 05 14 3f f4 d0 12 3f 43 09 13 3f
       0.5857954 0.5782128 0.5735009 0.5743601
000020 48 81 13 3f 80 ee 16 3f ab ac 17 3f c9 3c 15 3f
       0.5761914 0.5895767 0.59247845 0.58295876
000030 b7 e0 0e 3f 08 a6 1c 3f 04 1f 13 3f 7c c4 0d 3f
       0.5581164 0.61190844 0.574692 0.55377936
000040 cd 7b 1a 3f 8f b6 18 3f 24 df 17 3f 80 b6 21 3f
       0.60345155 0.5965356 0.5932486 0.631691
000050 a9 10 12 3f 72 f4 15 3f 7d 7b 0a 3f 52 af 12 3f
       0.5705667 0.5857612 0.5409468 0.5729877
000060 50 13 1d 3f
       0.61357594

model.tcn.0.conv2.weight_v f4 [25, 25, 7]
000000 56 40 3c bd be f1 c3 3c 8c df 63 3c 8e 94 0b 3d
       -0.045959793 0.023918983 0.013908278 0.03407722
000010 d5 bb 85 bd 83 36 59 3c 39 67 3e 3d 40 8e 4b bd
       -0.06529967 0.0132576255 0.04648516 -0.049696207
000020 92 3a 69 3c d9 8c 49 bb 35 8a 6e 3d 74 9d 93 bc
       0.014235156 -0.0030754118 0.058237273 -0.018019415
000030 08 36 e1 ba bd b7 08 bd a5 33 b5 bc bd 1f 96 3c
       -0.001718224 -0.03337835 -0.022119353 0.01832568
000040 73 b5 95 bd 57 37 5f 3d fb e9 54 3d d8 2c fa 3c
       -0.07309999 0.054496136 0.051980954 0.030538961
000050 3f 05 63 3d 87 03 84 bc cc c7 ac 3c 1a 15 3d 3c
       0.055424925 -0.016114963 0.021091364 0.011540676
000060 12 a2 29 bd 7e 7b 91 bc 28 37 62 bc a4 3b a5 bb
       -0.041414328 -0.017759081 -0.013807096 -0.00504251
000070 14 5f 7a bd 0b 9e 40 bd 3d 9a 83 ba b7 50 98 bb
       -0.06112583 -0.04702572 -0.0010040473 -0.004648294
000080 db b8 79 bd c5 91 bd 3c b0 69 47 3d 14 3d 8a 3d
       -0.060967308 0.023140797 0.048684776 0.06749931
000090 88 32 8e 3d 00 cb 33 bd af e6 70 bc 9a 5d cd bc
       0.06943232 -0.043894768 -0.014703437 -0.025069047
0000a0 ea e2 cc 3c fa 35 04 3d a3 34 a8 3c 0a 9a 45 3d
       0.025010545 0.03227804 0.020532912 0.048242606
0000b0 7b 7f 38 3d 09 1a 09 bd 6d a6 72 3d 82 2b 75 3d
       0.04504345 -0.033472095 0.059240747 0.059855945
0000c0 ac e1 a4 3c cb 8d 80 bd 65 0b 30 bd e3 11 c7 3c
       0.02012714 -0.06277045 -0.042979617 0.024300521
0000d0 39 46 f4 3c ea f7 98 3d 9e cb 34 3d 06 85 0d 3d
       0.029818641 0.07469161 0.044139497 0.03455069
0000e0 eb 8e 6a bb 42 4d 4a 3d 98 a6 de bc 98 1c f4 3c
       -0.0035790752 0.049390085 -0.027179047 0.02979879
0000f0 d1 bf 0e bd 60 c0 c3 39 94 81 39 3d 50 35 1d 3d
       -0.0348509 0.0003733663 0.04528959 0.03838092
000100 f3 95 36 bc 32 64 ad 3b 63 9d 0b bd c3 2b 2e 3d
       -0.011144149 0.005291485 -0.034085643 0.042522203
000110 c8 8f 71 3d 70 38 0f 3d 10 09 93 bd 5f 16 56 bd
       0.05897501 0.034965932 -0.07179463 -0.05226743
000120 eb 6f 2d 3d 43 8f 1e bc af e3 29 3d 18 dc 50 3d
       0.04234306 -0.009677711 0.0414769 0.050991148
000130 1e db 9c bc 20 49 03 bd 20 1b 6a bd 85 e4 2a 3d
       -0.019147452 -0.03205216 -0.057154775 0.04172184
000140 af 6c 53 3d 6e 6e 02 3b 28 84 65 bd d3 34 fa bc
       0.05161732 0.0019902247 -0.056034237 -0.030542767
000150 7a 62 69 bc 7e 50 9d 3c f6 76 07 bd 79 22 5f bd
       -0.01424467 0.01920342 -0.033072434 -0.054476235
000160 28 37 6e bd 4f 4b 54 3d 51 11 6d 3c 1c 76 69 bd
       -0.05815807 0.051829632 0.014469461 -0.056997404
000170 9e fd 29 bd b4 6d 69 bd 5e 11 8e 3c c1 7b b2 bc
       -0.041501634 -0.056989387 0.017342266 -0.021787526
000180 04 94 06 3c 59 8f 33 bb e2 32 8c bd 7c 5d 8c bd
       0.008214001 -0.0027398674 -0.068456426 -0.06853768
000190 1e 81 6f bd 25 09 00 bd 19 b3 46 3c c3 1c 09 bd
       -0.058472745 -0.03125872 0.012127661 -0.033474695
0001a0 09 cb 69 b9 99 01 0a bc 7f ed 8a 3d cf 9b fe bc
       -0.00022296248 -0.0084232325 0.0678358 -0.031080155
0001b0 94 7a 93 3d a9 e8 57 bd 1a 0e 6a bd ba fc ee 3c
       0.07201114 -0.052712116 -0.057142355 0.029173244
0001c0 1a f2 16 bd db 1e 28 3d bb 38 0c bd a8 0c 80 3d
       -0.03685198 0.04104505 -0.03423379 0.06252414
0001d0 73 2d 9b 3d 7a 24 47 3c fc 8d bc 3c 80 f0 81 3d
       0.07577028 0.012154693 0.023016922 0.063447
0001e0 0f 2a 27 3d 64 a4 84 bd be d1 33 bb 6a 64 87 bd
       0.040811595 -0.064766675 -0.0027438249 -0.06610949
0001f0 04 31 66 3d 43 14 46 bc 7a 81 4b 3c 34 bc 03 bd
       0.05619909 -0.012089792 0.012421006 -0.032161906
000200 cd 42 d8 bc fd 63 d1 3c e6 4b a2 3d b5 a2 9a bc
       -0.02639904 0.025560373 0.07924633 -0.018876413
000210 a3 0c e7 3c 5f 60 8c 3d 0d d6 8b 3d 16 3a 35 bc
       0.028204268 0.06854319 0.06827936 -0.011061212
000220 a8 88 93 3d 50 48 00 3d 73 ac 91 3d 1e e8 03 3c
       0.072037995 0.031318963 0.0711297 0.0080509465
000230 d5 4f 1c bd 2c 73 f9 3b d8 5e 54 3d 24 2b 8d 3d
       -0.03816207 0.0076126065 0.051848263 0.06892994
000240 4c 00 41 bd ee 59 b1 3d be ad 2f bd be 69 f4 3c
       -0.047119424 0.08659731 -0.042890303 0.029835578
000250 fa 07 70 3d 4c de 1f 3c 05 bf 93 bc eb 11 04 3d
       0.058601357 0.00975759 -0.018035421 0.03224365
000260 76 e7 c8 bc 60 c5 62 bd 98 f7 91 bd a4 a8 23 bc
       -0.024524432 -0.055364013 -0.07127303 -0.0099889375
000270 3d 4b 0c 3c 12 76 21 bd d6 34 c0 bd b2 96 bd bd
       0.00856286 -0.03941924 -0.09385078 -0.092572585
000280 1b ac 45 bd c9 d3 c1 3c ca b0 60 bd d1 98 23 3c
       -0.048259836 0.023660557 -0.0548561 0.009985165
000290 c7 e7 31 bd dc d1 4a 3d 4f ed b1 bc cd e0 95 bc
       -0.04343393 0.049516544 -0.021719603 -0.01829567
0002a0 e0 e9 67 bd c3 50 6a bd 53 e5 73 3c 2c fe bc 3c
       -0.056619525 -0.057205927 0.014886218 0.023070417
0002b0 27 75 53 3d 8b 68 56 bd 19 aa dc 3c b2 8f 63 ba
       0.051625397 -0.052345794 0.026936578 -0.0008680775
0002c0 79 26 51 3d e1 22 d0 bc cc 24 ef 3c ad 73 1a 3d
       0.05106208 -0.025407257 0.02919235 0.037707973
0002d0 3e 03 3d 3d cb cc 83 bc 9c 0b 59 3c 9f c1 a5 bc
       0.04614567 -0.016088864 0.013247397 -0.020233927
0002e0 d1 56 23 3c 7e 6d 47 bd 70 6a 77 bd fd ed 7a bd
       0.009969429 -0.048688404 -0.06040424 -0.06126212
0002f0 28 fe 47 bd 94 23 02 bd 50 e5 42 3c 38 84 5c bc
       -0.048826367 -0.03177221 0.011895493 -0.013459258
000300 d7 52 1c bd e7 60 a0 3b 7c 4b 98 bc 65 8a 4f 3d
       -0.03816494 0.004894364 -0.018590681 0.050669093
000310 03 b2 61 bd e6 89 aa bc 5e c6 1d bd da 5f 8b 3c
       -0.055101406 -0.020817708 -0.038519256 0.017013479
000320 fe 6b 4e 3c 55 98 d2 3b 4a b7 ab 3d e1 0f e0 bc
       0.0125989895 0.006426851 0.08384569 -0.027351322
000330 cf b7 18 bc 97 91 a8 3c 02 45 81 3d 1f 52 72 3d
       -0.009321167 0.020577235 0.0631199 0.059160348
000340 35 19 67 3c 7c eb ab bc 8b d6 08 3d f5 1f 67 3d
       0.014105131 -0.020986311 0.03340773 0.05642696
000350 b3 b3 25 3c 71 f3 5a 3d 0d 82 9a 3d 0c 2a c8 bc
       0.010113644 0.05345482 0.075443365 -0.024434112
000360 ed 28 a6 b8 26 0b 66 bd 53 10 e6 3c ae f1 82 3d
       -7.92312e-05 -0.056162976 0.028083956 0.06393753
000370 2e 6d 28 bb 3a 41 c8 3c 04 ad 18 3d 43 4d 49 3c
       -0.0025699842 0.024445165 0.037274376 0.012286487
000380 68 80 7c 3d 64 89 86 3c 05 83 87 bd 54 97 5a bd
       0.061645895 0.016422935 -0.06616787 -0.053366974
000390 7d b6 84 bd 32 54 53 3c c5 78 50 3d 1b b6 da bb
       -0.064801194 0.012898492 0.050896425 -0.0066745407
0003a0 ee 0c 8e 3d 5c 7e 09 bc e1 29 a6 3c 23 9a 90 3d
       0.0693606 -0.008391943 0.020283641 0.07060649
0003b0 21 be 2a 3d 12 85 26 3b c3 be 95 3d 15 1f 16 bd
       0.041685227 0.0025408906 0.073117755 -0.036650736
0003c0 90 e3 10 3d dd e7 62 3d 1b bf 0e bd 0e cc 6a bd
       0.03537327 0.055396903 -0.03485022 -0.057323508
0003d0 f9 1e 11 3d 68 57 10 bd f7 b5 29 bd 83 52 f7 3b
       0.03542993 -0.035239607 -0.0414333 0.007547678
0003e0 0f 41 5a bd ae d1 60 3d 8e 4b 39 bc f6 90 e2 bc
       -0.0532847 0.054887466 -0.011309518 -0.027657013
0003f0 90 eb 88 3d 5d ee f3 3c 9a 14 ca 3c ac d4 c0 bc
       0.06685555 0.029776746 0.024668027 -0.02353891

model.tcn.0.net.0.bias f4 [25]
000000 a3 ff ae 3a 08 5a 14 3d 6a 95 ad bd a4 e8 a5 bd
       0.0013351332 0.036218673 -0.08475764 -0.08101013
000010 91 64 a7 b9 b3 e7 e8 bc 6e 81 84 3d a9 da d1 3c
       -0.0003192765 -0.028430795 0.06469999 0.02561696
000020 69 fd 9d bd 46 a3 93 bd b9 ff 75 3d 01 b9 3a bc
       -0.0771435 -0.07208876 0.06005833 -0.011396647
000030 c0 b7 cd bc 47 13 03 3d 6e 3e 8d bc 6c 03 31 3d
       -0.025112033 0.032000806 -0.017241683 0.043216154
000040 72 21 b9 3c 88 34 08 bd 26 86 98 bd b6 c8 44 3d
       0.022598956 -0.033253223 -0.07447462 0.048042975
000050 65 d7 48 bd 0d 8e 81 bc 23 f0 e7 3c af 1f 3b bd
       -0.04903354 -0.015814805 0.028312748 -0.045684513
000060 2f 4a 3e 3d
       0.046457466

model.tcn.0.net.0.weight_g f4 [25, 1, 1]
000000 30 72 17 3f 8e a8 10 3f c0 aa 15 3f 56 2f 1e 3f
       0.5915861 0.56507194 0.5846367 0.6179098
000010 6f bd 1b 3f 62 56 15 3f 34 95 0c 3f fc 87 1f 3f
       0.6083593 0.58334935 0.54915166 0.6231687
000020 62 ba 13 3f 29 4c 20 3f 5e c5 19 3f 20 02 1b 3f
       0.5770627 0.6261621 0.60066783 0.6055012
000030 54 31 0d 3f bf fe 13 3f 3c e5 15 3f 91 1b 0f 3f
       0.55153394 0.57810587 0.5855291 0.5590144
000040 f6 6b 11 3f 1f 4e 11 3f fd b6 0b 3f c2 f2 16 3f
       0.5680536 0.5675983 0.5457609 0.5896417
000050 b7 95 17 3f 72 26 15 3f 8d 21 12 3f 7c 98 15 3f
       0.5921282 0.5826179 0.57082444 0.584358
000060 f5 57 10 3f
       0.5638421

model.tcn.0.net.0.weight_v f4 [25, 18, 7]
000000 4e 2a 1a bc c6 11 23 3d 7e 67 9e bd 22 dc 87 bd
       -0.0094095 0.039811872 -0.07734583 -0.06633784
000010 eb a7 01 bd e1 50 e5 3c c6 ca 89 3b b4 08 a2 3d
       -0.03165428 0.027992668 0.0042050807 0.07911816
000020 ea 50 ff 3a f3 0a f7 3c ff ab ad bc c2 22 80 bc
       0.001947907 0.030156588 -0.021200178 -0.015641574
000030 08 4f ab bd c5 fa 74 bd 3b 22 4c bd 66 62 1d bc
       -0.083646834 -0.059809465 -0.049837332 -0.00960598
000040 05 f8 b7 3c 62 5b 27 3d f6 26 96 bd f2 2a 52 bd
       0.022457132 0.040858634 -0.0733165 -0.051310487
000050 8f 8e a7 3c 23 a4 96 3d 1b 41 8a bc 0f e4 84 3d
       0.02045372 0.07355525 -0.016876748 0.06488811
000060 4e 92 6f bc 74 36 05 3c 4c f5 9e 3d 58 b0 a7 bd
       -0.014622284 0.008130658 0.077616304 -0.08187932
000070 f4 17 4a bd c2 85 8f bc 1d 36 fb bc 76 5a 9b 3d
       -0.04933925 -0.017519835 -0.030665452 0.075856134
000080 62 f5 67 bd a6 42 2d bd fb ab 84 bd 9f f5 af bd
       -0.0566305 -0.04229989 -0.06478115 -0.085917704
000090 c9 79 61 bd e6 3c 8f 3d 5d 9c eb 3c 36 04 da 3c
       -0.055047784 0.06994037 0.028761083 0.026613336
0000a0 f4 5f 89 bc 64 9a 8f bd 0e a6 c7 3b 71 76 b6 bd
       -0.016769387 -0.070118695 0.0060927933 -0.0890931
0000b0 28 58 8c bd a4 79 40 bd da c8 6a 3d 07 92 64 3d
       -0.06852752 -0.046991006 0.057320453 0.055803325
0000c0 ba db 06 bd 58 0c ac 3a d0 20 6b 3d 17 d9 b0 3d
       -0.03292439 0.0013126237 0.05740434 0.086351566
0000d0 ca dd 08 3d 05 c6 0b 3c e5 c3 5a 3d f0 32 62 bd
       0.03341464 0.008531098 0.053409476 -0.05522436
0000e0 81 8f 71 3c 44 6f 8d bd 9b 88 80 bd 8e 97 44 bd
       0.014743687 -0.06905988 -0.062760554 -0.047996096
0000f0 a6 ef 15 3d 69 ab 04 3d 27 e3 5b bd 4d ae b8 3c
       0.0366055 0.032390032 -0.053683426 0.02254405
000100 9a ed 30 3d 65 70 86 bc cd 8c 8b bb 54 6f 2d 3c
       0.043195345 -0.016411016 -0.004258728 0.010585625
000110 8d 6a 30 3d 81 b7 94 3d 93 c7 9a bd 2d 58 21 bd
       0.043070365 0.07261563 -0.07557597 -0.03939073
000120 d7 90 e8 3c 3b 6a 8e 3d 53 f6 9e 3d 38 bb a6 3d
       0.028389378 0.069538556 0.07761826 0.08141178
000130 b5 3c bf 3c 04 82 9f bd 4d d9 76 3b a6 81 79 bd
       0.023344377 -0.077884704 0.0037666142 -0.060914658
000140 23 e7 b7 bd f1 dd 91 3d 78 9d 79 3d 58 ee c0 bd
       -0.08979633 0.0712241 0.06094119 -0.094204605
000150 bc 9d 8f 3b 10 a1 c8 bc 30 fe b0 bc 14 24 32 bd
       0.004382817 -0.024490863 -0.021605581 -0.043491438
000160 c8 7f 0d 3d 15 32 46 bd c3 6c 19 3d 56 db 1e 3d
       0.03454569 -0.048387606 0.03745724 0.038783394
000170 f6 56 6a 3d 05 cf ef 3c f3 8f b0 bd cb c3 5f bd
       0.05721184 0.02927352 -0.08621206 -0.054630082
000180 1b 0f 3c 3d ba 6e b0 3c 59 8e 78 bd 5f e6 46 bd
       0.045912843 0.021537174 -0.06068263 -0.048559543
000190 07 96 a1 3d b5 52 56 3d b1 f3 40 bd 9c 9e 09 bd
       0.078899436 0.05232497 -0.047107402 -0.033598527
0001a0 c9 fc c5 bd fa a1 a0 3b 19 3b 6e bd fa a6 7c bd
       -0.096673556 0.0049021216 -0.05816183 -0.06168268
0001b0 ea f8 80 bb af 56 26 3c ef 37 26 bd 7b 52 39 3d
       -0.003935923 0.010152503 -0.040580686 0.045244675
0001c0 f5 64 39 bd 6c 35 ae 3d 06 72 82 3d bf 0d 96 bd
       -0.045262296 0.08506283 0.063694045 -0.073268406
0001d0 f0 fa ce bc de 6a eb ba a9 a4 c8 3b 96 37 9a 3c
       -0.02526614 -0.0017960926 0.0061231446 0.018825334
0001e0 18 3b f7 3c ee a6 07 ba 35 ef 4e bd 66 17 0d 3d
       0.030179545 -0.0005174716 -0.050521094 0.034446143
0001f0 23 da b9 bd ec 01 70 bd 69 ac df bc 94 98 4f bd
       -0.090748094 -0.058595583 -0.027303891 -0.05068262
000200 b0 8b 21 bd cc da a4 bd 3c 66 df bc 29 3b 30 3c
       -0.039439857 -0.08049545 -0.027270429 0.010756292
000210 38 a5 86 bd e5 c6 73 bc 2a 2f 60 3d 7f d3 84 bc
       -0.06574482 -0.014878963 0.05473248 -0.01621413
000220 4a d0 ba bb 92 a2 80 bc 5d 97 02 3c c8 23 3c 3d
       -0.0057010995 -0.01570252 0.007970658 0.04593256
000230 89 66 99 3d e6 d0 40 3d 61 8a 9a 3d 49 1d 8d bc
       0.0749026 0.04707422 0.07545925 -0.017225878
000240 ed e7 bc bd 14 e3 5c bd 34 8d 4c 3d a9 6d 9a 3b
       -0.09223924 -0.053927496 0.04993935 0.0047127795
000250 f8 8e 16 bd 85 e8 73 bd 70 d1 9a bd 90 67 88 bd
       -0.03675744 -0.05954792 -0.07559478 -0.06660378
000260 d4 e1 2b bc 11 79 61 3d 95 ea 4b 3d b9 89 a4 bd
       -0.010490853 0.0550471 0.04978426 -0.08034081
000270 4d 82 6a 3d 6b e6 83 bd 76 aa 74 bc b5 98 03 bd
       0.05725317 -0.06440433 -0.014933219 -0.032128055
000280 db 6d 54 bc da 31 dd bc 7a 3d ac bd 5c ac a1 bd
       -0.012965645 -0.02700131 -0.08410163 -0.07894203
000290 8f 53 83 bc b1 ef df 3a cc d9 1f bd aa 65 12 3d
       -0.016031055 0.0017084983 -0.039026067 0.035741486
0002a0 db b0 ad bd d2 b6 5d bc 1f 2c 8e 3d 5e 84 34 bd
       -0.08480998 -0.013532357 0.06942009 -0.044071548
0002b0 d0 71 92 3d 8f 9a c3 3c b3 3f b4 bd 68 70 4a 3d
       0.07150614 0.02387741 -0.08801212 0.049423605
0002c0 af bd 81 bc de ef 37 bd c5 4a 81 3d 93 1c 9e bd
       -0.015837518 -0.04490649 0.06313089 -0.07720294
0002d0 34 92 d4 3a 41 5b d7 bc 1a 7f 5c 3d e8 a7 88 3c
       0.0016217888 -0.02628863 0.05383215 0.016681626
0002e0 92 31 0b 3d ce b9 b1 3c 52 34 06 bd 64 71 02 bd
       0.03398282 0.021695044 -0.03276474 -0.03184642
0002f0 36 d3 b1 bd 77 30 2f 3d 48 50 84 3d f4 88 5d 3d
       -0.086828634 0.04277083 0.06460625 0.054085687
000300 07 3f 8d bd f0 a8 72 bb 30 a1 91 bd 7c 91 6e bd
       -0.06896787 -0.0037026964 -0.07110822 -0.058244213
000310 14 77 3c bd 29 c9 f8 3c 81 14 56 bd 70 9f dd ba
       -0.046012 0.030369358 -0.052265648 -0.0016908478
000320 60 fa 41 3b 0d 63 67 3d e4 a3 85 bd 03 07 9f bd
       0.0029598698 0.056490947 -0.065254 -0.07765009
000330 c0 31 8e bd 33 17 3c 3d 02 49 4d bd 01 29 62 3d
       -0.06943083 0.045920562 -0.050118454 0.055214886
000340 18 c7 47 3c 11 18 0f bc 62 27 9f 3b 27 ce 6e bc
       0.012193464 -0.008733765 0.0048569897 -0.014575518
000350 c7 ee 5f 3c 27 a0 83 bc 6f f2 94 3b 01 57 92 3c
       0.013667769 -0.016067578 0.004545502 0.017863752
000360 74 c9 7f bd 11 22 52 bd b5 28 7f 3d 0b 62 9e bd
       -0.06244798 -0.05130202 0.06229468 -0.07733544
000370 d1 de 4e bc f1 bf a0 3d cd 55 c4 3c b7 d2 b8 bb
       -0.012626366 0.0784911 0.023966694 -0.0056403535
000380 06 bd a8 bd a9 43 0c 3d 29 18 86 bd 4c ba f6 bc
       -0.08239178 0.034244213 -0.06547577 -0.03011813
000390 95 ea 18 bd 66 16 9b bc e9 28 cb bb be c9 98 3d
       -0.03733309 -0.018931579 -0.006199945 0.07460354
0003a0 95 cd 88 3c bd 66 ab 3d 92 0d 72 3d 57 b4 40 bd
       0.016699592 0.08369205 0.059094973 -0.047046985
0003b0 a4 77 3c 3d 33 61 57 bd 02 fc 1b bd 31 88 e3 3c
       0.046012536 -0.05258293 -0.03808213 0.027774902
0003c0 66 92 00 3d bc 8a 89 3d 45 f1 e5 bc a6 66 0c ba
       0.031389616 0.067159146 -0.028069148 -0.0005355872
0003d0 8d 20 37 3d 44 69 d2 bd d5 57 43 3d 51 c1 ba bd
       0.044708777 -0.10273984 0.047691185 -0.091189034
0003e0 17 b7 87 bc b7 4e 13 bd 9b a8 8a bd 5e ed 06 bc
       -0.016566796 -0.03596374 -0.0677044 -0.008235304
0003f0 e0 69 9a 3d fb 9a d0 bc 34 08 56 bd aa ed 04 bd
       0.07539725 -0.025464525 -0.052253917 -0.032453217

model.tcn.0.net.4.bias f4 [25]
000000 df 4f b8 bc 65 ee 63 bd 32 18 00 3d 7f 1e 39 3d
       -0.022499023 -0.055647273 0.031273074 0.0451951
000010 df d3 b2 3c 86 40 75 bc f6 2b 99 3d 89 6f 67 3d
       0.021829544 -0.014968997 0.07479088 0.056502853
000020 9d a1 36 bd 45 d7 29 3d a8 4b 87 bc e8 e6 b6 3c
       -0.04458772 0.041465063 -0.016515568 0.022326902
000030 a9 f8 f5 3b 7f 4e 1d 3d 28 20 1b bd 91 b8 1b bd
       0.0075064492 0.038404938 -0.037872463 -0.038017813
000040 85 85 26 bd 3b a3 47 bd 92 8d 07 bd 21 dc d5 3c
       -0.040654678 -0.048739653 -0.033093996 0.026105942
000050 84 b9 ab 3c 8f ab 77 3c 33 64 6a 3d fc c8 6f 3d
       0.020962484 0.015116586 0.057224464 0.058541283
000060 3a 48 84 3d
       0.064590886

model.tcn.0.net.4.weight_g f4 [25, 1, 1]
000000 05 b9 18 3f 05 48 13 3f e4 c3 27 3f 29 d1 14 3f
       0.5965732 0.5753177 0.6553328 0.58131653
000010 b0 f6 15 3f c1 05 14 3f f4 d0 12 3f 43 09 13 3f
       0.5857954 0.5782128 0.5735009 0.5743601
000020 48 81 13 3f 80 ee 16 3f ab ac 17 3f c9 3c 15 3f
       0.5761914 0.5895767 0.59247845 0.58295876
000030 b7 e0 0e 3f 08 a6 1c 3f 04 1f 13 3f 7c c4 0d 3f
       0.5581164 0.61190844 0.574692 0.55377936
000040 cd 7b 1a 3f 8f b6 18 3f 24 df 17 3f 80 b6 21 3f
       0.60345155 0.5965356 0.5932486 0.631691
000050 a9 10 12 3f 72 f4 15 3f 7d 7b 0a 3f 52 af 12 3f
       0.5705667 0.5857612 0.5409468 0.5729877
000060 50 13 1d 3f
       0.61357594

model.tcn.0.net.4.weight_v f4 [25, 25, 7]
000000 56 40 3c bd be f1 c3 3c 8c df 63 3c 8e 94 0b 3d
       -0.045959793 0.023918983 0.013908278 0.03407722
000010 d5 bb 85 bd 83 36 59 3c 39 67 3e 3d 40 8e 4b bd
       -0.06529967 0.0132576255 0.04648516 -0.049696207
000020 92 3a 69 3c d9 8c 49 bb 35 8a 6e 3d 74 9d 93 bc
       0.014235156 -0.0030754118 0.058237273 -0.018019415
000030 08 36 e1 ba bd b7 08 bd a5 33 b5 bc bd 1f 96 3c
       -0.001718224 -0.03337835 -0.022119353 0.01832568
000040 73 b5 95 bd 57 37 5f 3d fb e9 54 3d d8 2c fa 3c
       -0.07309999 0.054496136 0.051980954 0.030538961
000050 3f 05 63 3d 87 03 84 bc cc c7 ac 3c 1a 15 3d 3c
       0.055424925 -0.016114963 0.021091364 0.011540676
000060 12 a2 29 bd 7e 7b 91 bc 28 37 62 bc a4 3b a5 bb
       -0.041414328 -0.017759081 -0.013807096 -0.00504251
000070 14 5f 7a bd 0b 9e 40 bd 3d 9a 83 ba b7 50 98 bb
       -0.06112583 -0.04702572 -0.0010040473 -0.004648294
000080 db b8 79 bd c5 91 bd 3c b0 69 47 3d 14 3d 8a 3d
       -0.060967308 0.023140797 0.048684776 0.06749931
000090 88 32 8e 3d 00 cb 33 bd af e6 70 bc 9a 5d cd bc
       0.06943232 -0.043894768 -0.014703437 -0.025069047
0000a0 ea e2 cc 3c fa 35 04 3d a3 34 a8 3c 0a 9a 45 3d
       0.025010545 0.03227804 0.020532912 0.048242606
0000b0 7b 7f 38 3d 09 1a 09 bd 6d a6 72 3d 82 2b 75 3d
       0.04504345 -0.033472095 0.059240747 0.059855945
0000c0 ac e1 a4 3c cb 8d 80 bd 65 0b 30 bd e3 11 c7 3c
       0.02012714 -0.06277045 -0.042979617 0.024300521
0000d0 39 46 f4 3c ea f7 98 3d 9e cb 34 3d 06 85 0d 3d
       0.029818641 0.07469161 0.044139497 0.03455069
0000e0 eb 8e 6a bb 42 4d 4a 3d 98 a6 de bc 98 1c f4 3c
       -0.0035790752 0.049390085 -0.027179047 0.02979879
0000f0 d1 bf 0e bd 60 c0 c3 39 94 81 39 3d 50 35 1d 3d
       -0.0348509 0.0003733663 0.04528959 0.03838092
000100 f3 95 36 bc 32 64 ad 3b 63 9d 0b bd c3 2b 2e 3d
       -0.011144149 0.005291485 -0.034085643 0.042522203
000110 c8 8f 71 3d 70 38 0f 3d 10 09 93 bd 5f 16 56 bd
       0.05897501 0.034965932 -0.07179463 -0.05226743
000120 eb 6f 2d 3d 43 8f 1e bc af e3 29 3d 18 dc 50 3d
       0.04234306 -0.009677711 0.0414769 0.050991148
000130 1e db 9c bc 20 49 03 bd 20 1b 6a bd 85 e4 2a 3d
       -0.019147452 -0.03205216 -0.057154775 0.04172184
000140 af 6c 53 3d 6e 6e 02 3b 28 84 65 bd d3 34 fa bc
       0.05161732 0.0019902247 -0.056034237 -0.030542767
000150 7a 62 69 bc 7e 50 9d 3c f6 76 07 bd 79 22 5f bd
       -0.01424467 0.01920342 -0.033072434 -0.054476235
000160 28 37 6e bd 4f 4b 54 3d 51 11 6d 3c 1c 76 69 bd
       -0.05815807 0.051829632 0.014469461 -0.056997404
000170 9e fd 29 bd b4 6d 69 bd 5e 11 8e 3c c1 7b b2 bc
       -0.041501634 -0.056989387 0.017342266 -0.021787526
000180 04 94 06 3c 59 8f 33 bb e2 32 8c bd 7c 5d 8c bd
       0.008214001 -0.0027398674 -0.068456426 -0.06853768
000190 1e 81 6f bd 25 09 00 bd 19 b3 46 3c c3 1c 09 bd
       -0.058472745 -0.03125872 0.012127661 -0.033474695
0001a0 09 cb 69 b9 99 01 0a bc 7f ed 8a 3d cf 9b fe bc
       -0.00022296248 -0.0084232325 0.0678358 -0.031080155
0001b0 94 7a 93 3d a9 e8 57 bd 1a 0e 6a bd ba fc ee 3c
       0.07201114 -0.052712116 -0.057142355 0.029173244
0001c0 1a f2 16 bd db 1e 28 3d bb 38 0c bd a8 0c 80 3d
       -0.03685198 0.04104505 -0.03423379 0.06252414
0001d0 73 2d 9b 3d 7a 24 47 3c fc 8d bc 3c 80 f0 81 3d
       0.07577028 0.012154693 0.023016922 0.063447
0001e0 0f 2a 27 3d 64 a4 84 bd be d1 33 bb 6a 64 87 bd
       0.040811595 -0.064766675 -0.0027438249 -0.06610949
0001f0 04 31 66 3d 43 14 46 bc 7a 81 4b 3c 34 bc 03 bd
       0.05619909 -0.012089792 0.012421006 -0.032161906
000200 cd 42 d8 bc fd 63 d1 3c e6 4b a2 3d b5 a2 9a bc
       -0.02639904 0.025560373 0.07924633 -0.018876413
000210 a3 0c e7 3c 5f 60 8c 3d 0d d6 8b 3d 16 3a 35 bc
       0.028204268 0.06854319 0.06827936 -0.011061212
000220 a8 88 93 3d 50 48 00 3d 73 ac 91 3d 1e e8 03 3c
       0.072037995 0.031318963 0.0711297 0.0080509465
000230 d5 4f 1c bd 2c 73 f9 3b d8 5e 54 3d 24 2b 8d 3d
       -0.03816207 0.0076126065 0.051848263 0.06892994
000240 4c 00 41 bd ee 59 b1 3d be ad 2f bd be 69 f4 3c
       -0.047119424 0.08659731 -0.042890303 0.029835578
000250 fa 07 70 3d 4c de 1f 3c 05 bf 93 bc eb 11 04 3d
       0.058601357 0.00975759 -0.018035421 0.03224365
000260 76 e7 c8 bc 60 c5 62 bd 98 f7 91 bd a4 a8 23 bc
       -0.024524432 -0.055364013 -0.07127303 -0.0099889375
000270 3d 4b 0c 3c 12 76 21 bd d6 34 c0 bd b2 96 bd bd
       0.00856286 -0.03941924 -0.09385078 -0.092572585
000280 1b ac 45 bd c9 d3 c1 3c ca b0 60 bd d1 98 23 3c
       -0.048259836 0.023660557 -0.0548561 0.009985165
000290 c7 e7 31 bd dc d1 4a 3d 4f ed b1 bc cd e0 95 bc
       -0.04343393 0.049516544 -0.021719603 -0.01829567
0002a0 e0 e9 67 bd c3 50 6a bd 53 e5 73 3c 2c fe bc 3c
       -0.056619525 -0.057205927 0.014886218 0.023070417
0002b0 27 75 53 3d 8b 68 56 bd 19 aa dc 3c b2 8f 63 ba
       0.051625397 -0.052345794 0.026936578 -0.0008680775
0002c0 79 26 51 3d e1 22 d0 bc cc 24 ef 3c ad 73 1a 3d
       0.05106208 -0.025407257 0.02919235 0.037707973
0002d0 3e 03 3d 3d cb cc 83 bc 9c 0b 59 3c 9f c1 a5 bc
       0.04614567 -0.016088864 0.013247397 -0.020233927
0002e0 d1 56 23 3c 7e 6d 47 bd 70 6a 77 bd fd ed 7a bd
       0.009969429 -0.048688404 -0.06040424 -0.06126212
0002f0 28 fe 47 bd 94 23 02 bd 50 e5 42 3c 38 84 5c bc
       -0.048826367 -0.03177221 0.011895493 -0.013459258
000300 d7 52 1c bd e7 60 a0 3b 7c 4b 98 bc 65 8a 4f 3d
       -0.03816494 0.004894364 -0.018590681 0.050669093
000310 03 b2 61 bd e6 89 aa bc 5e c6 1d bd da 5f 8b 3c
       -0.055101406 -0.020817708 -0.038519256 0.017013479
000320 fe 6b 4e 3c 55 98 d2 3b 4a b7 ab 3d e1 0f e0 bc
       0.0125989895 0.006426851 0.08384569 -0.027351322
000330 cf b7 18 bc 97 91 a8 3c 02 45 81 3d 1f 52 72 3d
       -0.009321167 0.020577235 0.0631199 0.059160348
000340 35 19 67 3c 7c eb ab bc 8b d6 08 3d f5 1f 67 3d
       0.014105131 -0.020986311 0.03340773 0.05642696
000350 b3 b3 25 3c 71 f3 5a 3d 0d 82 9a 3d 0c 2a c8 bc
       0.010113644 0.05345482 0.075443365 -0.024434112
000360 ed 28 a6 b8 26 0b 66 bd 53 10 e6 3c ae f1 82 3d
       -7.92312e-05 -0.056162976 0.028083956 0.06393753
000370 2e 6d 28 bb 3a 41 c8 3c 04 ad 18 3d 43 4d 49 3c
       -0.0025699842 0.024445165 0.037274376 0.012286487
000380 68 80 7c 3d 64 89 86 3c 05 83 87 bd 54 97 5a bd
       0.061645895 0.016422935 -0.06616787 -0.053366974
000390 7d b6 84 bd 32 54 53 3c c5 78 50 3d 1b b6 da bb
       -0.064801194 0.012898492 0.050896425 -0.0066745407
0003a0 ee 0c 8e 3d 5c 7e 09 bc e1 29 a6 3c 23 9a 90 3d
       0.0693606 -0.008391943 0.020283641 0.07060649
0003b0 21 be 2a 3d 12 85 26 3b c3 be 95 3d 15 1f 16 bd
       0.041685227 0.0025408906 0.073117755 -0.036650736
0003c0 90 e3 10 3d dd e7 62 3d 1b bf 0e bd 0e cc 6a bd
       0.03537327 0.055396903 -0.03485022 -0.057323508
0003d0 f9 1e 11 3d 68 57 10 bd f7 b5 29 bd 83 52 f7 3b
       0.03542993 -0.035239607 -0.0414333 0.007547678
0003e0 0f 41 5a bd ae d1 60 3d 8e 4b 39 bc f6 90 e2 bc
       -0.0532847 0.054887466 -0.011309518 -0.027657013
0003f0 90 eb 88 3d 5d ee f3 3c 9a 14 ca 3c ac d4 c0 bc
       0.06685555 0.029776746 0.024668027 -0.02353891

model.tcn.0.downsample.weight f4 [25, 18, 1]
000000 25 71 f3 bb 8f 48 61 bc df e9 06 bd 3b fa 35 3b
       -0.0074292594 -0.0137502095 -0.03293788 0.0027767557
000010 15 cb 16 bc c9 d0 01 bd 6e f2 90 bb 9b d7 77 bb
       -0.009203692 -0.031693254 -0.004423431 -0.003781772
000020 95 69 ee bb cf 6d 79 bb 6a ce 4b bc 31 9f 6f 3c
       -0.00727577 -0.0038059836 -0.01243935 0.0146253565
000030 b3 d3 c7 3b 0d d1 d0 bb ac c8 48 bb a2 8a 14 3c
       0.0060982346 -0.006372577 -0.0030637188 0.009066256
000040 3b 16 79 bb 24 a4 88 3b 9c 06 a1 3c 4e 90 95 3b
       -0.0038007635 0.0041699577 0.019656472 0.0045643216
000050 1b 9e 5d bc 3e b2 88 bc bd c7 cf bb b5 98 fb bc
       -0.013526465 -0.016686555 -0.0063409493 -0.030712465
000060 68 e8 c5 3b c4 5a 4e 3c de 0a bd 3c cf da 2d 39
       0.006039668 0.012594882 0.023076471 0.00016580078
000070 1a c8 11 39 9d 8b 38 bc 34 c9 85 3c 3a 19 52 bc
       0.00013902821 -0.011263755 0.016331293 -0.012823397
000080 e1 a3 51 bc a3 b1 a7 bb d0 54 2f bc bc 6a 33 bc
       -0.012795419 -0.0051176115 -0.010701373 -0.01095074
000090 1b e4 50 bc 27 bb 17 3b 02 55 86 3b b7 83 89 3c
       -0.012749697 0.0023152323 0.004099489 0.01678644
0000a0 30 62 8a 3b e9 7b 09 bc 8b fe 32 3c b3 ef 2c 3c
       0.0042231306 -0.008391359 0.010924946 0.010555196
0000b0 63 64 f9 bb 6e 4a fc 3b e9 88 b1 bc 73 32 ae bb
       -0.007610844 0.0076993024 -0.02167173 -0.0053160726
0000c0 3c 76 34 bc ba b9 c3 bb 82 3d 2e 3b d5 78 9c 3b
       -0.011014517 -0.005973068 0.0026586954 0.0047751465
0000d0 85 77 91 3c 25 68 11 bc a6 49 aa bb 7f 4d ea 3b
       0.017757187 -0.008874928 -0.005196768 0.0071503515
0000e0 96 95 52 bc fb af 1e bb ed 52 9d bb 0e a1 bc bb
       -0.012853047 -0.002421378 -0.0048011453 -0.005756504
0000f0 34 20 64 bb 77 cf fe 3a c6 fd a0 ba d5 93 a7 bc
       -0.0034809234 0.0019440491 -0.0012282662 -0.020456234
000100 5c 64 d7 bb 2d f0 80 bc 41 e8 c5 3b b6 4e 94 bc
       -0.006573243 -0.015739525 0.0060396497 -0.018103939
000110 cd 20 86 bc ed 73 c5 3b 20 c8 2b 3c 63 09 26 bc
       -0.016373063 0.0060257823 0.010484725 -0.010134074
000120 36 a3 3a bb 54 a7 b6 3b 39 18 16 bc 22 05 19 3c
       -0.002847863 0.0055741463 -0.009161049 0.009339603
000130 b2 3e 16 39 34 6b 63 bc 46 44 f4 3b 79 2d ed bb
       0.0001432847 -0.01388054 0.007454428 -0.007238087
000140 38 89 da bb fe c9 a8 3c 74 85 fa bc 9d 81 9c 3b
       -0.00666919 0.02060413 -0.030581214 0.0047761933
000150 a0 f1 84 3c 47 06 25 3c fc d8 61 bb 0d 3b 80 3c
       0.016228497 0.010072297 -0.0034461608 0.015653158
000160 c2 5b 6d bb 87 8f 86 ba 6c 7b 94 3c 5a 3d 9f 3b
       -0.0036218022 -0.0010266163 0.018125258 0.0048596086
000170 ee 57 15 3c 44 32 5f 3c f1 80 bd 3c 43 9d 13 bb
       0.009115202 0.013622824 0.023132773 -0.0022524155
000180 97 73 f8 3b 36 9b 38 bc be 00 ff bb 88 c9 66 bb
       0.0075821388 -0.011267474 -0.007782071 -0.0035215337
000190 fe 35 b8 3b c5 fa 10 bc c8 49 4f 3b 1c 4c 6d ba
       0.0056216707 -0.008848851 0.003162967 -0.00090521737
0001a0 50 18 a7 bc 27 98 04 bb 3c f2 25 3c 77 68 8a bc
       -0.020397335 -0.0020232291 0.010128554 -0.016895516
0001b0 69 f4 0c 3b 47 43 5f bb 25 3d e2 bc 9f 7e 33 bb
       0.0021507984 -0.00340672 -0.027617047 -0.0027388704
0001c0 04 69 bc 3c c4 f1 08 bb f6 87 d6 3b b8 8c 60 bc
       0.022999294 -0.0020896057 0.0065469695 -0.013705425
0001d0 d6 0c 21 bc b6 e1 c8 bc 5e ee 59 3c 6b 9f 25 bc
       -0.0098297205 -0.02452169 0.01330146 -0.010108809
0001e0 42 06 9f 3c c7 f8 5a bc 12 a0 31 3c 94 f2 c9 ba
       0.019412164 -0.013364977 0.010841386 -0.0015407377
0001f0 36 ed f9 bb b1 4e 4a bc 1a 40 08 bc de a3 ae b9
       -0.0076271547 -0.012347863 -0.008316064 -0.00033309957
000200 de fb 8d bc 5b f5 99 bb 9c 86 d6 bb 68 dd 60 3b
       -0.017332014 -0.004698438 -0.0065468084 0.0034311656
000210 aa b4 9b bc 3a 71 59 3c 3b f3 db bc 84 ba 86 bc
       -0.019007046 0.013271624 -0.02684938 -0.01644636
000220 60 e0 21 bb 78 7c 4c bc e7 bc db bb fe e8 1c bc
       -0.0024700388 -0.012480848 -0.0067058685 -0.009577034
000230 2f 80 8f bb 01 d4 02 3b 54 10 03 3c 1b 6f 6e bc
       -0.0043792943 0.001996279 0.007999498 -0.014552857
000240 7e 1a e4 bb f4 e5 7f bb 06 25 43 3b cf 98 b7 3c
       -0.006961166 -0.0039046975 0.0029776706 0.022411732
000250 1c f6 91 bc 82 40 ac 3c d0 52 9d bb 17 a8 a5 3b
       -0.01781755 0.021026853 -0.004801132 0.0050554383
000260 cc 5b ca 3b ca a3 2d bc 11 af 6c bb e7 da 08 bc
       0.006175494 -0.010598132 -0.003611509 -0.008352972
000270 91 b9 93 3b b0 a6 9a 3a b3 eb 34 3c bd 63 8b bb
       0.004508205 0.0011798944 0.011042523 -0.004253833
000280 a3 22 24 3c 95 30 30 bc 6a a9 4c bc a9 ed 1a 3c
       0.010018024 -0.01075377 -0.012491563 0.009456077
000290 4f e3 f3 3b 82 ea ae 39 77 c5 33 bc da 5c 03 b9
       0.007442869 0.00033362588 -0.010972372 -0.00012527723
0002a0 69 8f 09 bc 22 ba 0d 3c 39 ee 96 bb 57 87 84 3a
       -0.008396008 0.008650335 -0.004606035 0.0010111135
0002b0 02 f1 f6 bc 11 ce 3f 3c f5 75 b5 bc 10 16 59 39
       -0.030144218 0.011706845 -0.022150973 0.00020702952
0002c0 45 e5 10 3b 5d 77 39 3b 42 c0 7d 3c 45 51 00 3c
       0.0022109312 0.0028299906 0.015487732 0.007831876
0002d0 f6 ce 84 bc 0f 20 90 3c 02 90 87 bc 71 9b 70 3b
       -0.016211968 0.017593412 -0.01654816 0.0036713744
0002e0 76 2c a7 bb 37 13 1d bc a8 c3 2d bc 7e 9c 4a ba
       -0.0051017357 -0.009587101 -0.01060573 -0.00077290076
0002f0 91 13 54 bb 26 b3 ff bb 2a d5 1a bc d3 62 30 bc
       -0.0032360295 -0.0078033386 -0.009450236 -0.010765749
000300 6a 7b 1d bb b1 3c 96 bc 55 5d 88 bc 12 86 41 bb
       -0.002402986 -0.018339487 -0.016646067 -0.0029529375
000310 9c ba 9f 3b 03 36 82 bb eb 8b 9d bc c6 c6 49 bb
       0.0048745405 -0.003973724 -0.019231757 -0.0030788644
000320 94 c3 37 bc 88 25 4e bc 9d 66 1e bc 9c f3 9b bb
       -0.011216063 -0.01258219 -0.00966802 -0.004759265
000330 58 bb 50 bc 27 fc 9e bc 08 08 e5 bb 30 83 ed bb
       -0.012739979 -0.019407345 -0.006989483 -0.007248305
000340 94 3a 3e bb a7 23 23 bb 07 ce 7e bb 43 21 43 bb
       -0.0029026615 -0.0024893077 -0.0038880126 -0.0029774464
000350 4d 88 a3 bc 2e 94 9f 3c 35 89 11 3c e9 b3 e4 bc
       -0.019962454 0.019479837 0.00888281 -0.02791782
000360 dd 61 86 bc e2 b1 0f 3b e0 c9 2a bc d4 3a 55 bb
       -0.016404087 0.0021926095 -0.010424107 -0.0032536285
000370 ee be 2b 3c 52 b9 e5 3b 5b 46 c4 3c 14 ae 3f 3c
       0.010482533 0.0070106173 0.02395933 0.011699218
000380 49 ae 93 3c 98 11 f4 ba fc 29 b1 bc 62 25 3d bc
       0.018027442 -0.0018620966 -0.021626465 -0.011544557
000390 fa 35 f4 3b d1 2f f2 ba 86 89 3f ba 8d 99 4c 3c
       0.0074527236 -0.0018477385 -0.00073065644 0.012487781
0003a0 d8 b1 a7 3a 29 5c 11 bd 7f 94 bf 3b 06 f9 80 bb
       0.001279409 -0.03548828 0.0058465595 -0.003935936
0003b0 fe 53 59 3b 88 dc 2d 3b 75 b3 32 bb c8 0d 93 bc
       0.0033161636 0.0026529152 -0.002726761 -0.017950907
0003c0 d6 1f c2 bc 0b 5e 89 3b 0c 34 05 b9 9b 35 e7 bb
       -0.023696821 0.004192119 -0.00012703257 -0.007055951
0003d0 b2 29 35 3b c0 77 eb bc e4 b1 68 3a f5 13 d4 bc
       0.002764326 -0.028743625 0.00088766054 -0.025888423
0003e0 5e 28 79 3b 93 0d ce bb cc 9b 53 3c 37 ac ae bc
       0.0038018445 -0.0062882393 0.012915563 -0.021322353
0003f0 4d 46 6d bc 86 0d 50 3c 3f e2 d4 3c f6 74 f3 bb
       -0.014482093 0.012698537 0.025986789 -0.0074297143

model.tcn.0.downsample.bias f4 [25]
000000 48 ea 80 bb d6 68 92 bd c8 4a 91 3d d7 b6 c5 3d
       -0.0039341785 -0.07148902 0.070943415 0.096540146
000010 9c ff 09 be 47 75 3d bd 00 23 ad 3d 50 78 a9 3d
       -0.13476413 -0.046254423 0.08453941 0.08274901
000020 ba f1 e7 bc c4 6f e0 3d 0b 1b ad 3d bd b1 63 be
       -0.028313506 0.109588176 0.08452424 -0.2223577
000030 fc 75 66 be a1 85 23 3c 5d 1d a6 3d 9f 5c 2d be
       -0.22505945 0.00998059 0.08111069 -0.16929863
000040 56 e5 f2 bd dc cb 65 be ca c5 32 3d 67 9f 32 3e
       -0.118601486 -0.22441047 0.043645658 0.1744362
000050 8b f7 4f 3e 33 f3 42 be 1d 44 3a 3e d3 57 be bd
       0.20309274 -0.19038086 0.18190046 -0.09294095
000060 2a d8 4f be
       -0.20297304

model.tcn.1.conv1.bias f4 [25]
000000 64 81 68 3d 1d a1 33 3c 71 c0 3e bd ce 4f 96 3d
       0.05676402 0.010963705 -0.046570245 0.0733944
000010 31 fb 51 bd 0e a0 38 bb c4 e6 ea bc 81 ce 54 3d
       -0.051264945 -0.0028171572 -0.02867449 0.05195475
000020 28 0f 82 3d 8e 2b 2d bd 91 44 f6 3c 02 63 89 3d
       0.06350547 -0.042277865 0.030061992 0.06708337
000030 f2 c7 54 bd f2 9f 86 bc bc d6 75 bd 7d da fb bc
       -0.051948495 -0.01643369 -0.06001924 -0.030743832
000040 49 6a 11 bd 76 b4 68 3d c5 d2 85 3b 5b 62 d2 bc
       -0.035501752 0.056812726 0.0040839636 -0.025681665
000050 d5 8c 5e bd aa 8e 60 3c 89 33 c9 3c 86 35 22 bd
       -0.054333527 0.013705889 0.024560707 -0.039601825
000060 ec 7f aa 3c
       0.020812951

model.tcn.1.conv1.weight_g f4 [25, 1, 1]
000000 48 75 31 3f b2 c6 10 3f c1 b4 14 3f 27 77 1b 3f
       0.6931958 0.56553185 0.5808831 0.6072869
000010 67 ac 1e 3f c6 bf 14 3f 9b 0a 0b 3f be a8 13 3f
       0.61981815 0.58105123 0.5431306 0.57679355
000020 9f 89 0f 3f 45 7d 16 3f 82 cf 13 3f a8 59 1d 3f
       0.5606937 0.58784896 0.57738507 0.6146493
000030 2a 6d 17 3f d3 26 20 3f 86 14 13 3f 83 be 19 3f
       0.59150946 0.6255924 0.5745319 0.6005632
000040 42 63 11 3f bc 75 12 3f b5 05 14 3f 11 83 1d 3f
       0.5679208 0.572109 0.5782121 0.61528116
000050 f5 75 12 3f e6 2f 10 3f 91 02 24 3f 1e 6a 11 3f
       0.5721124 0.5632309 0.64066416 0.56802547
000060 c7 b4 13 3f
       0.5769772
