etc/ckpts/Pecanstreet/single-step/661/1hour/SHAP/TCN/best/best-single-step-TCN-ckpt-Pecanstreet-participant-id-661_epoch=091.ckpt (torch, 882503 bytes, 201 tensors)

model.tcn.0.conv1.bias f4 [25]
0.08858128 0.007357467 0.03780186 0.013448209 0.023150645 -0.095830165 -0.08380327 0.02067265
0.06278708 0.08534009 0.0151904505 0.056881566 0.052606374 -0.087554395 -0.09282507 -0.066533074
0.01329466 -0.06265203 -0.024243973 -0.009350227 0.043063153 0.024765186 0.11169094 0.09020437
-0.054502588
00000000: 1a6a b53d e816 f13b 20d6 1a3d e055 5c3c
00000010: 6ca6 bd3c 9b42 c4bd 0ca1 abbd b059 a93c
00000020: 8396 803d c9c6 ae3d 5ee1 783c a5fc 683d
00000030: c879 573d b84f b3bd 121b bebd 7e42 88bd
00000040: d8d1 593c b54f 80bd 4c9b c6bc b231 19bc
00000050: fd62 303d 5ce0 ca3c 38be e43d 12bd b83d
00000060: 1b3e 5fbd

model.tcn.0.conv1.weight_g f4 [25, 1, 1]
0.57868594 0.59495354 0.5507364 0.55146545 0.64191353 0.618854 0.5857979 0.63297266
0.56759036 0.6095681 0.5332736 0.614872 0.6196573 0.59037954 0.5976404 0.619928
0.642806 0.5827594 0.5801461 0.59826255 0.53438663 0.5992248 0.586584 0.5564905
0.5912649
00000000: c324 143f e04e 183f 10fd 0c3f d72c 0d3f
00000010: 7254 243f 376d 1e3f daf6 153f 7f0a 223f
00000020: 9a4d 113f a80c 1c3f 9e84 083f 4068 1d3f
00000030: dca1 1e3f 1d23 173f f6fe 183f 9ab3 1e3f
00000040: ef8e 243f b82f 153f 7484 143f bc27 193f
00000050: 90cd 083f cc66 193f 5e2a 163f 2976 0e3f
00000060: 235d 173f

model.tcn.0.conv1.weight_v f4 [25, 11, 7]
-0.0055782604 0.055542633 -0.09829263 -0.088612884 -0.048937406 0.02455652 -0.007977024 0.09073162
-0.009808539 0.029844359 -0.034964208 -0.02294708 -0.109264664 -0.076007694 -0.06377196 -0.011549625
0.030561652 0.05533444 -0.08804422 -0.05710342 0.035840698 0.09816805 -0.019423291 0.088939875
-0.013414058 0.017169755 0.1076772 -0.09940559 -0.06928949 -0.027745571 -0.044891242 0.09701909
-0.07154078 -0.047954276 -0.07530078 -0.124725915 -0.08271836 0.082614176 0.033561546 0.03885843
-0.010790474 -0.078858726 0.019113123 -0.10726542 -0.08367302 -0.060270924 0.070128255 0.06511482
-0.0520549 0.0029186802 0.07900938 0.119517654 0.05069975 0.017765673 0.0755207 -0.06622271
0.03039268 -0.0797296 -0.069961704 -0.05083905 0.055783242 0.047448963 -0.06486823 0.035864197
0.063125886 -0.012595044 0.0047470573 0.023441542 0.064569704 0.10270096 -0.109114125 -0.056797907
0.031792942 0.08355926 0.090709925 0.092840925 0.012738526 -0.10332345 0.0049145306 -0.07543455
-0.10981633 0.09524263 0.08099141 -0.117193766 0.017807487 -0.022250256 -0.021910278 -0.055249542
0.039578144 -0.07048828 0.03794043 0.03925086 0.063542254 0.024985727 -0.1305594 -0.09006765
0.042686585 0.011090656 -0.091772914 -0.067332946 0.10320493 0.074025005 -0.04956631 -0.028871303
-0.10715079 -0.0020667145 -0.084859736 -0.08768271 -0.0075947572 0.015305979 -0.047824565 0.064786814
-0.079994 0.09187863 0.06598779 -0.109288774 -0.0418793 -0.00884063 0.0019038168 0.023114469
0.040659152 0.0031400486 -0.058868077 0.049260706 -0.11203054 -0.070592836 -0.034378715 -0.06008371
-0.044209737 -0.09631309 -0.028971316 0.01839123 -0.0781787 -0.00957131 0.07659617 -0.0139514785
0.00085038645 -0.012167595 0.019859448 0.06819674 0.097771 0.06351509 0.09944768 -0.014614076
-0.10691878 -0.059641555 0.06966385 -0.0137356715 -0.07139569 -0.10087855 -0.12033349 -0.10871923
-0.036013618 0.05071597 0.059659168 -0.11305591 0.06783418 -0.09293641 -0.028179072 -0.050387625
-0.025776524 -0.02247437 -0.10288704 -0.099133864 -0.01804884 0.0010994601 -0.05277309 0.041893944
-0.1084686 -0.014506804 0.09313884 -0.05732118 0.09288963 0.028659074 -0.120973684 0.077861965
-0.008067454 -0.04644668 0.09511612 -0.08806521 0.016421987 -0.020557284 0.07866574 0.02819099
0.05151131 0.038525872 -0.026097825 -0.021128332 -0.090652876 0.05370123 0.08318751 0.07149808
-0.08629575 0.0027534955 -0.081680045 -0.065526046 -0.06719424 0.03863741 -0.06902475 -0.0030547
0.004000523 0.07258264 -0.088469416 -0.07753447 -0.06480324 0.07964438 -0.042152867 0.091316886
0.035599686 0.009771832 0.0017819848 -0.019089473 0.016767584 -0.025065813 -0.0027969757 0.011354814
-0.090831645 -0.06087167 0.092157066 -0.09407752 -0.011685736 0.10652709 0.033154685 -0.00447763
-0.11128468 0.051681913 -0.09183867 -0.039811227 -0.04133887 -0.019295625 -0.0031404058 0.08564066
0.0076465905 0.09378967 0.062350348 -0.076656386 0.044076394 -0.08536781 -0.05282055 0.028392313
0.03238723 0.07984414 -0.041625466 -0.0050036004 0.053291958 -0.126639 0.068704404 -0.10909596
-0.013024479 -0.035300873 -0.07797001 -0.0017248566 0.09144038 -0.03302055 -0.06540396 -0.04028484
00000000: d7c9 b6bb ac80 633d a54d c9bd ac7a b5bd
00000010: 9772 48bd c12a c93c 10b2 02bc 80d1 b93d
00000020: ffb3 20bc 287c f43c a136 0fbd 84fb bbbc
00000030: 27c6 dfbd eca9 9bbd e09a 82bd a33a 3dbc
00000040: 6e5c fa3c 5ea6 623d 8750 b4bd 47e5 69bd
00000050: b2cd 123d 550c c93d 981d 9fbc 1c26 b63d
00000060: a3c6 5bbc 96a7 8c3c dd85 dc3d 2895 cbbd
00000070: a6e7 8dbd ae4a e3bc e1df 37bd f2b1 c63d
00000080: f983 92bd b46b 44bd 4c37 9abd 4d70 ffbd
00000090: 3e68 a9bd 9f31 a93d d577 093d 042a 1f3d
000000a0: 87ca 30bc af80 a1bd 2093 9c3c f9ad dbbd
000000b0: c35c abbd a5de 76bd 679f 8f3d eb5a 853d
000000c0: 8537 55bd 5447 3f3b abcf a13d acc5 f43d
000000d0: 8baa 4f3d 5189 913c 99aa 9a3d c69f 87bd
000000e0: 12fa f83c 4649 a3bd 1548 8fbd 9c3c 50bd
000000f0: f87c 643d d859 423d a2d9 84bd 56e6 123d
00000100: 2548 813d 725b 4ebc 348d 9b3b 7a08 c03c
00000110: 1f3d 843d e254 d23d 3a77 dfbd eca4 68bd
00000120: 5139 023d 1e21 ab3d 20c6 b93d 6223 be3d
00000130: 40b5 503c 3f9b d3bd 120a a13b 6e7d 9abd
00000140: 62e7 e0bd 910e c33d d3de a53d 4903 f0bd
00000150: 02e1 913c 2b46 b6bc 2f7d b3bc 584d 62bd
00000160: b11c 223d 295c 90bd 6d67 1b3d 83c5 203d
00000170: 7122 823d deae cc3c 5db1 05be 6375 b8bd
00000180: 21d8 2e3d 95b5 353c 70f3 bbbd dbe5 89bd
00000190: 1b5d d33d 6c9a 973d 0b06 4bbd 8383 ecbc
000001a0: e071 dbbd b771 07bb f1ca adbd fe92 b3bd
000001b0: 71dd f8bb eec5 7a3c b1e3 43bd f3ae 843d
000001c0: e5d3 a3bd dd2a bc3d 9b24 873d cbd2 dfbd
000001d0: a189 2bbd 4ad8 10bc 7e89 f93a 8e5a bd3c
000001e0: 368a 263d 46c9 4d3b a71f 71bd 98c5 493d
000001f0: 4570 e5bd fa92 90bd b2d0 0cbd 561a 76bd
00000200: 4515 35bd cc3f c5bd 4155 edbc 34a9 963c
00000210: 271c a0bd fcd0 1cbc 74de 9c3d be94 64bc
00000220: 78ec 5e3a 985a 47bc 48b0 a23c bbaa 8b3d
00000230: 293c c83d 3314 823d 3aab cb3d e16f 6fbc
00000240: 3cf8 dabd b44a 74bd ecab 8e3d 950b 61bc
00000250: e737 92bd 6a99 cebd 6871 f6bd 30a8 debd
00000260: 0483 13bd 8dbb 4f3d 2c5d 743d db89 e7bd
00000270: a6ec 8a3d 7255 bebd ccd7 e6bc 4163 4ebd
00000280: 4a29 d3bc 2c1c b8bc 71b6 d2bd b206 cbbd
00000290: 29db 93bc c21b 903a 9828 58bd fc98 2b3d
000002a0: c924 debd f2ad 6dbc 93bf be3d 9dc9 6abd
000002b0: eb3c be3d 6fc6 ea3c 0dc1 f7bd 1876 9f3d
000002c0: 5b2d 04bc e03e 3ebd 3ecc c23d 885b b4bd
000002d0: 6787 863c c067 a8bc 811b a13d cbf0 e63c
000002e0: 86fd 523d 4ecd 1d3d 1bcb d5bc 5315 adbc
000002f0: 37a8 b9bd d2f5 5b3d 375e aa3d 966d 923d
00000300: d4bb b0bd fd73 343b de47 a7bd 8532 86bd
00000310: 229d 89bd 4342 1e3d d95c 8dbd 5d31 48bb
00000320: d216 833b 35a6 943d 742f b5bd 64ca 9ebd
00000330: 90b7 84bd 981c a33d 7ca8 2cbd 5904 bb3d
00000340: fad0 113d 091a 203c 7d91 e93a 8761 9cbc
00000350: 2c5c 893c d256 cdbc 774d 37bb 8b09 3a3c
00000360: f105 babd 9254 79bd d8bc bc3d b7ab c0bd
00000370: 8775 3fbc e02a da3d 35cd 073d 15b9 92bb
00000380: 39e9 e3bd 6ab0 533d ea15 bcbd 1911 23bd
00000390: f252 29bd dc11 9ebc 44cf 4dbb 5f64 af3d
000003a0: 4090 fa3b cc14 c03d 1463 7f3d 06fe 9cbd
000003b0: 7389 343d 52d5 aebd 5c5a 58bd ff96 e83c
000003c0: 79a8 043d 5385 a33d 777f 2abd 3ef5 a3bb
000003d0: ab48 5a3d a7ad 01be e5b4 8c3d b46d dfbd
000003e0: a064 55bc a697 10bd beae 9fbd 9514 e2ba
000003f0: 1845 bb3d 8e40 07bd 83f2 85bd b701 25bd

model.tcn.0.conv2.bias f4 [25]
0.06549032 0.054541327 0.03935171 0.06786117 -0.0502377 -0.06529094 -0.032640573 0.023457026
0.076741725 0.055879205 0.027999032 -0.0055981153 -0.032151125 0.07784464 -0.058546863 -0.038887657
0.05077824 0.0727391 0.02458358 -0.0075414455 -0.0033699272 0.015866358 -0.030807339 0.08172787
0.08502319
00000000: ca1f 863d ba66 5f3d 422f 213d ccfa 8a3d
00000010: 0cc6 4dbd 42b7 85bd 1fb2 05bd f328 c03c
00000020: c42a 9d3d 98e1 643d 3a5e e53c 6570 b7bb
00000030: e6b0 03bd 036d 9f3d d6ce 6fbd aa48 1fbd
00000040: d8fc 4f3d 3df8 943d 8163 c93c 3b1e f7bb
00000050: ffd9 5cbb 2afa 813c ac5f fcbc f160 a73d
00000060: a320 ae3d

model.tcn.0.conv2.weight_g f4 [25, 1, 1]
0.55234784 0.57106084 0.6045716 0.5712224 0.57136786 0.54567426 0.5685232 0.5974081
0.5945661 0.61123925 0.5816708 0.5880895 0.5759148 0.5779293 0.581626 0.5755555
0.59344673 0.6233478 0.58730865 0.56497204 0.60095435 0.5744725 0.55750716 0.6035288
0.61250156
00000000: ab66 0d3f 0b31 123f 34c5 1a3f a23b 123f
00000010: 2a45 123f 4fb1 0b3f bd8a 113f bdef 183f
00000020: 7c35 183f 2d7a 1c3f 61e8 143f 098d 163f
00000030: 276f 133f 2df3 133f 71e5 143f 9b57 133f
00000040: 20ec 173f b993 1f3f dc59 163f 02a2 103f
00000050: 25d8 193f a110 133f cab8 0e3f dd80 1a3f
00000060: e7cc 1c3f

model.tcn.0.conv2.weight_v f4 [25, 25, 7]
0.0020371429 0.014700722 0.06806872 -0.020059176 -0.025607973 -0.043589413 0.059425477 -0.013703471
-0.02046951 0.059522454 0.07817341 0.0050827838 -0.04511738 0.07040679 -0.018557176 -0.027358005
-0.045405217 -0.028149784 -0.05051669 -0.034635007 -0.06004879 -0.0063165985 0.039999362 -0.04821518
0.009835222 -0.017836368 0.04702279 0.0758293 -0.021686528 -0.043593965 -0.061454434 -0.049067527
0.0019010513 -0.0036624842 0.020423152 -0.00338603 0.046444416 -0.058752924 0.02839451 0.08075386
-0.06567128 -0.030094376 0.059754834 -0.0010593679 -0.02982495 0.05726357 0.015626185 0.013469773
-0.012616805 0.06314028 0.048088152 0.019891646 0.018147882 0.045699466 0.053717934 -0.024394717
-0.0076530026 0.03352966 -0.035463657 0.07107876 -0.05014919 0.036103204 -0.052162487 0.0323656
0.061086282 0.017798014 0.0014269364 0.05732422 -0.044986438 -0.041648146 -0.055712443 -0.0374254
0.011700595 -0.02447927 0.026988043 0.012587965 0.07342748 -0.044596408 -0.033249564 0.033142038
-0.03133649 0.055276714 -0.04121864 -0.013741971 -0.009879549 0.04369834 0.03746492 -0.03210437
0.058874022 0.0040426846 -0.0105603235 0.0038579104 0.05812806 0.07987841 0.04252876 0.019004446
0.055123746 -0.026222609 -0.028247144 -0.010363566 -0.037309054 0.04467297 0.019689217 -0.013100854
0.005237129 0.005435647 0.06965676 0.072723754 -0.04990433 0.03374498 0.03460222 0.033781823
-0.015325826 0.010458213 0.011265864 0.06674099 -0.07101633 -0.030570896 -0.051307835 -0.030599097
0.020954093 0.05228289 -0.050967358 0.05509841 0.0689379 -0.031342126 0.02470644 -0.026589103
0.028028235 -0.022192573 -0.016273659 -0.036699265 -0.04874089 0.061708268 -0.0062113595 0.0027656131
-0.030624215 0.060414545 -0.03591667 -0.023134936 -0.051703934 -0.05612356 0.074893914 -0.050509483
-0.0026520332 -0.014473121 0.034971718 0.0385819 -0.0450862 0.08273716 -0.06287446 0.025814356
0.011054484 -0.0011016715 0.03759032 0.05003495 -0.0029883955 -0.03624739 0.041754056 0.03285841
7.925586e-05 -0.013183664 0.011201594 0.076850355 0.01719311 -0.006049871 -0.05573389 -0.031477265
0.046401754 -0.008541866 -0.0102185365 0.024242116 -0.051911604 -0.0075555444 -0.022780865 0.040762395
0.06216411 0.048612747 0.05754664 -0.06358193 -0.023512745 0.011565534 -0.055384416 0.02801456
-0.04093978 0.03984284 0.0681704 -0.055755313 0.070487335 0.04062617 -0.042642683 0.07719678
-0.05757668 -0.04302219 -0.029757345 0.0036020624 0.022658309 -0.012526983 -0.061460357 0.0012159771
0.06695098 0.06798695 0.047843937 -0.011780931 -0.0073720035 -0.05576334 0.0033713228 -0.07124981
-0.033939514 -0.02596085 0.05988065 0.0048110164 -0.02652517 0.019809144 -0.054193277 -0.012468491
0.02735862 0.0065017026 0.003850643 0.056651946 -0.04444973 -0.025526797 0.08305379 0.026488673
-0.005025821 0.04517421 0.051400717 -0.005244634 -0.023837548 -0.0049706968 0.034102596 -0.008390099
0.043621186 -0.059098218 -0.035149366 0.056966804 0.010588645 0.015610056 0.03202095 -0.010184431
-0.022281086 0.02936017 -0.01193556 -0.022946918 0.018009864 0.027291335 0.0026453247 -0.041003697
-0.0014752131 -0.032458846 0.04952993 -0.03917447 0.039300535 0.012955331 -0.072892815 0.036173794
00000000: 9681 053b 4cdb 703c 9d67 8b3d 2453 a4bc
00000010: d0c7 d1bc d08a 32bd 2168 733d 8684 60bc
00000020: adaf a7bc d1cd 733d 6119 a03d 7b8d a63b
00000030: 00cd 38bd 6f31 903d 3805 98bc e51d e0bc
00000040: d2fa 39bd 609a e6bc 97ea 4ebd 70dd 0dbd
00000050: b8f5 75bd 78fb cebb 5fd6 233d 487d 45bd
00000060: e923 213c 931d 92bc f89a 403d 644c 9b3d
00000070: f2a7 b1bc 968f 32bd a5b7 7bbd 08fb 48bd
00000080: b22c f93a 4a06 70bb 744e a73c 28e8 5dbb
00000090: 803c 3e3d e8a6 70bd 9a9b e83c 4862 a53d
000000a0: aa7e 86bd 7b88 f6bc 7cc1 743d 7dda 8aba
000000b0: 7453 f4bc 358d 6a3d 7c02 803c 53b0 5c3c
000000c0: b7b6 4ebc b14f 813d 15f8 443d cef3 a23c
000000d0: deaa 943c 5d2f 3b3d 5607 5c3d 6ed7 c7bc
000000e0: 0ac6 fabb 6656 093d 5742 11bd be91 913d
000000f0: 3d69 4dbd f4e0 133d 55a8 55bd cb91 043d
00000100: 9c35 7a3d 24cd 913c 0a08 bb3a cdcc 6a3d
00000110: b343 38bd 3f97 2abd bb32 64bd 604b 19bd
00000120: dab3 3f3c c088 c8bc 0716 dd3c c03d 4e3c
00000130: 2661 963d b9aa 36bd b230 08bd f2bf 073d
00000140: b15a 00bd d669 623d e0d4 28bd 0126 61bc
00000150: d5dd 21bc 08fd 323d d174 193d df7f 03bd
00000160: e325 713d 7f78 843b 3505 2dbc ffd4 7c3b
00000170: b017 6e3d 4b97 a33d a332 2e3d 36af 9b3c
00000180: 70c9 613d ccd0 d6bc 8e66 e7bc f2cb 29bc
00000190: 61d1 18bd 01fb 363d 484b a13c f7a4 56bc
000001a0: 399c ab3b 831d b23b 34a8 8e3d 31f0 943d
000001b0: 7c68 4cbd 2d38 0a3d 0fbb 0d3d cf5e 0a3d
000001c0: 2c19 7bbc ed58 2b3c 7594 383c 80af 883d
000001d0: 0271 91bd d16f fabc 2a28 52bd f5aa fabc
000001e0: eba7 ab3c 9526 563d 26c3 50bd dfae 613d
000001f0: 502f 8d3d 9a60 00bd 2965 ca3c 64d1 d9bc
00000200: 789b e53c 33cd b5bc 5650 85bc f851 16bd
00000210: 87a4 47bd cfc1 7c3d a988 cbbb 4a3f 353b
00000220: a2df fabc 3e75 773d 5c1d 13bd 7a85 bdbc
00000230: 81c7 53bd d1e1 65bd fb61 993d 08e3 4ebd
00000240: bccd 2dbb ab20 6dbc 813e 0f3d 0e08 1e3d
00000250: 4fac 38bd 1a72 a93d 53c4 80bd a178 d33c
00000260: de1d 353c f665 90ba 4ff8 193d 73f1 4c3d
00000270: f5d8 43bb 2578 14bd 4d06 2b3d 8a96 063d
00000280: 2a36 a638 4b00 58bc e486 373c b863 9d3d
00000290: 91d8 8c3c ff3d c6bb 3849 64bd 4eee 00bd
000002a0: c40f 3e3d 2ff3 0bbc a66b 27bc 6797 c63c
000002b0: 43a1 54bd 8094 f7bb f09e babc 78f6 263d
000002c0: cb9f 7e3d 291e 473d 07b6 6b3d 3e37 82bd
000002d0: cd9d c0bc 5e7d 3d3c c5da 62bd ca7e e53c
000002e0: 79b0 27bd 3f32 233d ec9c 8b3d af5f 64bd
000002f0: aa5b 903d a067 263d 18aa 2ebd 5819 9e3d
00000300: 86d5 6bbd 0938 30bd adc5 f3bc 9410 6c3b
00000310: eb9d b93c fa3d 4dbc dbbd 7bbd 6c61 9f3a
00000320: 981d 893d be3c 8b3d 01f8 433d ce04 41bc
00000330: d990 f1bb 1a68 64bd 69f1 5c3b 6ceb 91bd
00000340: 2904 0bbd d9ab d4bc 6a45 753d bba5 9d3b
00000350: 504b d9bc c946 a23c c5f9 5dbd a448 4cbc
00000360: 2f1f e03c 3c0c d53b 125b 7c3b df0b 683d
00000370: ec10 36bd 931d d1bc 1b18 aa3d c6fe d83c
00000380: a4af a4bb 9808 393d 8f89 523d 2edb abbb
00000390: f646 c3bc 3ae1 a2bb 2aaf 0b3d a076 09bc
000003a0: 21ac 323d f910 72bd c8f8 0fbd 0656 693d
000003b0: ff7b 2d3c 52c1 7f3c 6628 033d 9adc 26bc
000003c0: d386 b6bc bd84 f03c 5e8d 43bc 2dfb bbbc
000003d0: 6c89 933c 1492 df3c 2f5d 2d3b 7ef3 27bd
000003e0: f05b c1ba 91f3 04bd e5df 4a3d 6975 20bd
000003f0: 99f9 203d 9942 543c d448 95bd f92a 143d

model.tcn.0.net.0.bias f4 [25]
0.08858128 0.007357467 0.03780186 0.013448209 0.023150645 -0.095830165 -0.08380327 0.02067265
0.06278708 0.08534009 0.0151904505 0.056881566 0.052606374 -0.087554395 -0.09282507 -0.066533074
0.01329466 -0.06265203 -0.024243973 -0.009350227 0.043063153 0.024765186 0.11169094 0.09020437
-0.054502588
00000000: 1a6a b53d e816 f13b 20d6 1a3d e055 5c3c
00000010: 6ca6 bd3c 9b42 c4bd 0ca1 abbd b059 a93c
00000020: 8396 803d c9c6 ae3d 5ee1 783c a5fc 683d
00000030: c879 573d b84f b3bd 121b bebd 7e42 88bd
00000040: d8d1 593c b54f 80bd 4c9b c6bc b231 19bc
00000050: fd62 303d 5ce0 ca3c 38be e43d 12bd b83d
00000060: 1b3e 5fbd

model.tcn.0.net.0.weight_g f4 [25, 1, 1]
0.57868594 0.59495354 0.5507364 0.55146545 0.64191353 0.618854 0.5857979 0.63297266
0.56759036 0.6095681 0.5332736 0.614872 0.6196573 0.59037954 0.5976404 0.619928
0.642806 0.5827594 0.5801461 0.59826255 0.53438663 0.5992248 0.586584 0.5564905
0.5912649
00000000: c324 143f e04e 183f 10fd 0c3f d72c 0d3f
00000010: 7254 243f 376d 1e3f daf6 153f 7f0a 223f
00000020: 9a4d 113f a80c 1c3f 9e84 083f 4068 1d3f
00000030: dca1 1e3f 1d23 173f f6fe 183f 9ab3 1e3f
00000040: ef8e 243f b82f 153f 7484 143f bc27 193f
00000050: 90cd 083f cc66 193f 5e2a 163f 2976 0e3f
00000060: 235d 173f

model.tcn.0.net.0.weight_v f4 [25, 11, 7]
-0.0055782604 0.055542633 -0.09829263 -0.088612884 -0.048937406 0.02455652 -0.007977024 0.09073162
-0.009808539 0.029844359 -0.034964208 -0.02294708 -0.109264664 -0.076007694 -0.06377196 -0.011549625
0.030561652 0.05533444 -0.08804422 -0.05710342 0.035840698 0.09816805 -0.019423291 0.088939875
-0.013414058 0.017169755 0.1076772 -0.09940559 -0.06928949 -0.027745571 -0.044891242 0.09701909
-0.07154078 -0.047954276 -0.07530078 -0.124725915 -0.08271836 0.082614176 0.033561546 0.03885843
-0.010790474 -0.078858726 0.019113123 -0.10726542 -0.08367302 -0.060270924 0.070128255 0.06511482
-0.0520549 0.0029186802 0.07900938 0.119517654 0.05069975 0.017765673 0.0755207 -0.06622271
0.03039268 -0.0797296 -0.069961704 -0.05083905 0.055783242 0.047448963 -0.06486823 0.035864197
0.063125886 -0.012595044 0.0047470573 0.023441542 0.064569704 0.10270096 -0.109114125 -0.056797907
0.031792942 0.08355926 0.090709925 0.092840925 0.012738526 -0.10332345 0.0049145306 -0.07543455
-0.10981633 0.09524263 0.08099141 -0.117193766 0.017807487 -0.022250256 -0.021910278 -0.055249542
0.039578144 -0.07048828 0.03794043 0.03925086 0.063542254 0.024985727 -0.1305594 -0.09006765
0.042686585 0.011090656 -0.091772914 -0.067332946 0.10320493 0.074025005 -0.04956631 -0.028871303
-0.10715079 -0.0020667145 -0.084859736 -0.08768271 -0.0075947572 0.015305979 -0.047824565 0.064786814
-0.079994 0.09187863 0.06598779 -0.109288774 -0.0418793 -0.00884063 0.0019038168 0.023114469
0.040659152 0.0031400486 -0.058868077 0.049260706 -0.11203054 -0.070592836 -0.034378715 -0.06008371
-0.044209737 -0.09631309 -0.028971316 0.01839123 -0.0781787 -0.00957131 0.07659617 -0.0139514785
0.00085038645 -0.012167595 0.019859448 0.06819674 0.097771 0.06351509 0.09944768 -0.014614076
-0.10691878 -0.059641555 0.06966385 -0.0137356715 -0.07139569 -0.10087855 -0.12033349 -0.10871923
-0.036013618 0.05071597 0.059659168 -0.11305591 0.06783418 -0.09293641 -0.028179072 -0.050387625
-0.025776524 -0.02247437 -0.10288704 -0.099133864 -0.01804884 0.0010994601 -0.05277309 0.041893944
-0.1084686 -0.014506804 0.09313884 -0.05732118 0.09288963 0.028659074 -0.120973684 0.077861965
-0.008067454 -0.04644668 0.09511612 -0.08806521 0.016421987 -0.020557284 0.07866574 0.02819099
0.05151131 0.038525872 -0.026097825 -0.021128332 -0.090652876 0.05370123 0.08318751 0.07149808
-0.08629575 0.0027534955 -0.081680045 -0.065526046 -0.06719424 0.03863741 -0.06902475 -0.0030547
0.004000523 0.07258264 -0.088469416 -0.07753447 -0.06480324 0.07964438 -0.042152867 0.091316886
0.035599686 0.009771832 0.0017819848 -0.019089473 0.016767584 -0.025065813 -0.0027969757 0.011354814
-0.090831645 -0.06087167 0.092157066 -0.09407752 -0.011685736 0.10652709 0.033154685 -0.00447763
-0.11128468 0.051681913 -0.09183867 -0.039811227 -0.04133887 -0.019295625 -0.0031404058 0.08564066
0.0076465905 0.09378967 0.062350348 -0.076656386 0.044076394 -0.08536781 -0.05282055 0.028392313
0.03238723 0.07984414 -0.041625466 -0.0050036004 0.053291958 -0.126639 0.068704404 -0.10909596
-0.013024479 -0.035300873 -0.07797001 -0.0017248566 0.09144038 -0.03302055 -0.06540396 -0.04028484
00000000: d7c9 b6bb ac80 633d a54d c9bd ac7a b5bd
00000010: 9772 48bd c12a c93c 10b2 02bc 80d1 b93d
00000020: ffb3 20bc 287c f43c a136 0fbd 84fb bbbc
00000030: 27c6 dfbd eca9 9bbd e09a 82bd a33a 3dbc
00000040: 6e5c fa3c 5ea6 623d 8750 b4bd 47e5 69bd
00000050: b2cd 123d 550c c93d 981d 9fbc 1c26 b63d
00000060: a3c6 5bbc 96a7 8c3c dd85 dc3d 2895 cbbd
00000070: a6e7 8dbd ae4a e3bc e1df 37bd f2b1 c63d
00000080: f983 92bd b46b 44bd 4c37 9abd 4d70 ffbd
00000090: 3e68 a9bd 9f31 a93d d577 093d 042a 1f3d
000000a0: 87ca 30bc af80 a1bd 2093 9c3c f9ad dbbd
000000b0: c35c abbd a5de 76bd 679f 8f3d eb5a 853d
000000c0: 8537 55bd 5447 3f3b abcf a13d acc5 f43d
000000d0: 8baa 4f3d 5189 913c 99aa 9a3d c69f 87bd
000000e0: 12fa f83c 4649 a3bd 1548 8fbd 9c3c 50bd
000000f0: f87c 643d d859 423d a2d9 84bd 56e6 123d
00000100: 2548 813d 725b 4ebc 348d 9b3b 7a08 c03c
00000110: 1f3d 843d e254 d23d 3a77 dfbd eca4 68bd
00000120: 5139 023d 1e21 ab3d 20c6 b93d 6223 be3d
00000130: 40b5 503c 3f9b d3bd 120a a13b 6e7d 9abd
00000140: 62e7 e0bd 910e c33d d3de a53d 4903 f0bd
00000150: 02e1 913c 2b46 b6bc 2f7d b3bc 584d 62bd
00000160: b11c 223d 295c 90bd 6d67 1b3d 83c5 203d
00000170: 7122 823d deae cc3c 5db1 05be 6375 b8bd
00000180: 21d8 2e3d 95b5 353c 70f3 bbbd dbe5 89bd
00000190: 1b5d d33d 6c9a 973d 0b06 4bbd 8383 ecbc
000001a0: e071 dbbd b771 07bb f1ca adbd fe92 b3bd
000001b0: 71dd f8bb eec5 7a3c b1e3 43bd f3ae 843d
000001c0: e5d3 a3bd dd2a bc3d 9b24 873d cbd2 dfbd
000001d0: a189 2bbd 4ad8 10bc 7e89 f93a 8e5a bd3c
000001e0: 368a 263d 46c9 4d3b a71f 71bd 98c5 493d
000001f0: 4570 e5bd fa92 90bd b2d0 0cbd 561a 76bd
00000200: 4515 35bd cc3f c5bd 4155 edbc 34a9 963c
00000210: 271c a0bd fcd0 1cbc 74de 9c3d be94 64bc
00000220: 78ec 5e3a 985a 47bc 48b0 a23c bbaa 8b3d
00000230: 293c c83d 3314 823d 3aab cb3d e16f 6fbc
00000240: 3cf8 dabd b44a 74bd ecab 8e3d 950b 61bc
00000250: e737 92bd 6a99 cebd 6871 f6bd 30a8 debd
00000260: 0483 13bd 8dbb 4f3d 2c5d 743d db89 e7bd
00000270: a6ec 8a3d 7255 bebd ccd7 e6bc 4163 4ebd
00000280: 4a29 d3bc 2c1c b8bc 71b6 d2bd b206 cbbd
00000290: 29db 93bc c21b 903a 9828 58bd fc98 2b3d
000002a0: c924 debd f2ad 6dbc 93bf be3d 9dc9 6abd
000002b0: eb3c be3d 6fc6 ea3c 0dc1 f7bd 1876 9f3d
000002c0: 5b2d 04bc e03e 3ebd 3ecc c23d 885b b4bd
000002d0: 6787 863c c067 a8bc 811b a13d cbf0 e63c
000002e0: 86fd 523d 4ecd 1d3d 1bcb d5bc 5315 adbc
000002f0: 37a8 b9bd d2f5 5b3d 375e aa3d 966d 923d
00000300: d4bb b0bd fd73 343b de47 a7bd 8532 86bd
00000310: 229d 89bd 4342 1e3d d95c 8dbd 5d31 48bb
00000320: d216 833b 35a6 943d 742f b5bd 64ca 9ebd
00000330: 90b7 84bd 981c a33d 7ca8 2cbd 5904 bb3d
00000340: fad0 113d 091a 203c 7d91 e93a 8761 9cbc
00000350: 2c5c 893c d256 cdbc 774d 37bb 8b09 3a3c
00000360: f105 babd 9254 79bd d8bc bc3d b7ab c0bd
00000370: 8775 3fbc e02a da3d 35cd 073d 15b9 92bb
00000380: 39e9 e3bd 6ab0 533d ea15 bcbd 1911 23bd
00000390: f252 29bd dc11 9ebc 44cf 4dbb 5f64 af3d
000003a0: 4090 fa3b cc14 c03d 1463 7f3d 06fe 9cbd
000003b0: 7389 343d 52d5 aebd 5c5a 58bd ff96 e83c
000003c0: 79a8 043d 5385 a33d 777f 2abd 3ef5 a3bb
000003d0: ab48 5a3d a7ad 01be e5b4 8c3d b46d dfbd
000003e0: a064 55bc a697 10bd beae 9fbd 9514 e2ba
000003f0: 1845 bb3d 8e40 07bd 83f2 85bd b701 25bd

model.tcn.0.net.4.bias f4 [25]
0.06549032 0.054541327 0.03935171 0.06786117 -0.0502377 -0.06529094 -0.032640573 0.023457026
0.076741725 0.055879205 0.027999032 -0.0055981153 -0.032151125 0.07784464 -0.058546863 -0.038887657
0.05077824 0.0727391 0.02458358 -0.0075414455 -0.0033699272 0.015866358 -0.030807339 0.08172787
0.08502319
00000000: ca1f 863d ba66 5f3d 422f 213d ccfa 8a3d
00000010: 0cc6 4dbd 42b7 85bd 1fb2 05bd f328 c03c
00000020: c42a 9d3d 98e1 643d 3a5e e53c 6570 b7bb
00000030: e6b0 03bd 036d 9f3d d6ce 6fbd aa48 1fbd
00000040: d8fc 4f3d 3df8 943d 8163 c93c 3b1e f7bb
00000050: ffd9 5cbb 2afa 813c ac5f fcbc f160 a73d
00000060: a320 ae3d

model.tcn.0.net.4.weight_g f4 [25, 1, 1]
0.55234784 0.57106084 0.6045716 0.5712224 0.57136786 0.54567426 0.5685232 0.5974081
0.5945661 0.61123925 0.5816708 0.5880895 0.5759148 0.5779293 0.581626 0.5755555
0.59344673 0.6233478 0.58730865 0.56497204 0.60095435 0.5744725 0.55750716 0.6035288
0.61250156
00000000: ab66 0d3f 0b31 123f 34c5 1a3f a23b 123f
00000010: 2a45 123f 4fb1 0b3f bd8a 113f bdef 183f
00000020: 7c35 183f 2d7a 1c3f 61e8 143f 098d 163f
00000030: 276f 133f 2df3 133f 71e5 143f 9b57 133f
00000040: 20ec 173f b993 1f3f dc59 163f 02a2 103f
00000050: 25d8 193f a110 133f cab8 0e3f dd80 1a3f
00000060: e7cc 1c3f

model.tcn.0.net.4.weight_v f4 [25, 25, 7]
0.0020371429 0.014700722 0.06806872 -0.020059176 -0.025607973 -0.043589413 0.059425477 -0.013703471
-0.02046951 0.059522454 0.07817341 0.0050827838 -0.04511738 0.07040679 -0.018557176 -0.027358005
-0.045405217 -0.028149784 -0.05051669 -0.034635007 -0.06004879 -0.0063165985 0.039999362 -0.04821518
0.009835222 -0.017836368 0.04702279 0.0758293 -0.021686528 -0.043593965 -0.061454434 -0.049067527
0.0019010513 -0.0036624842 0.020423152 -0.00338603 0.046444416 -0.058752924 0.02839451 0.08075386
-0.06567128 -0.030094376 0.059754834 -0.0010593679 -0.02982495 0.05726357 0.015626185 0.013469773
-0.012616805 0.06314028 0.048088152 0.019891646 0.018147882 0.045699466 0.053717934 -0.024394717
-0.0076530026 0.03352966 -0.035463657 0.07107876 -0.05014919 0.036103204 -0.052162487 0.0323656
0.061086282 0.017798014 0.0014269364 0.05732422 -0.044986438 -0.041648146 -0.055712443 -0.0374254
0.011700595 -0.02447927 0.026988043 0.012587965 0.07342748 -0.044596408 -0.033249564 0.033142038
-0.03133649 0.055276714 -0.04121864 -0.013741971 -0.009879549 0.04369834 0.03746492 -0.03210437
0.058874022 0.0040426846 -0.0105603235 0.0038579104 0.05812806 0.07987841 0.04252876 0.019004446
0.055123746 -0.026222609 -0.028247144 -0.010363566 -0.037309054 0.04467297 0.019689217 -0.013100854
0.005237129 0.005435647 0.06965676 0.072723754 -0.04990433 0.03374498 0.03460222 0.033781823
-0.015325826 0.010458213 0.011265864 0.06674099 -0.07101633 -0.030570896 -0.051307835 -0.030599097
0.020954093 0.05228289 -0.050967358 0.05509841 0.0689379 -0.031342126 0.02470644 -0.026589103
0.028028235 -0.022192573 -0.016273659 -0.036699265 -0.04874089 0.061708268 -0.0062113595 0.0027656131
-0.030624215 0.060414545 -0.03591667 -0.023134936 -0.051703934 -0.05612356 0.074893914 -0.050509483
-0.0026520332 -0.014473121 0.034971718 0.0385819 -0.0450862 0.08273716 -0.06287446 0.025814356
0.011054484 -0.0011016715 0.03759032 0.05003495 -0.0029883955 -0.03624739 0.041754056 0.03285841
7.925586e-05 -0.013183664 0.011201594 0.076850355 0.01719311 -0.006049871 -0.05573389 -0.031477265
0.046401754 -0.008541866 -0.0102185365 0.024242116 -0.051911604 -0.0075555444 -0.022780865 0.040762395
0.06216411 0.048612747 0.05754664 -0.06358193 -0.023512745 0.011565534 -0.055384416 0.02801456
-0.04093978 0.03984284 0.0681704 -0.055755313 0.070487335 0.04062617 -0.042642683 0.07719678
-0.05757668 -0.04302219 -0.029757345 0.0036020624 0.022658309 -0.012526983 -0.061460357 0.0012159771
0.06695098 0.06798695 0.047843937 -0.011780931 -0.0073720035 -0.05576334 0.0033713228 -0.07124981
-0.033939514 -0.02596085 0.05988065 0.0048110164 -0.02652517 0.019809144 -0.054193277 -0.012468491
0.02735862 0.0065017026 0.003850643 0.056651946 -0.04444973 -0.025526797 0.08305379 0.026488673
-0.005025821 0.04517421 0.051400717 -0.005244634 -0.023837548 -0.0049706968 0.034102596 -0.008390099
0.043621186 -0.059098218 -0.035149366 0.056966804 0.010588645 0.015610056 0.03202095 -0.010184431
-0.022281086 0.02936017 -0.01193556 -0.022946918 0.018009864 0.027291335 0.0026453247 -0.041003697
-0.0014752131 -0.032458846 0.04952993 -0.03917447 0.039300535 0.012955331 -0.072892815 0.036173794
00000000: 9681 053b 4cdb 703c 9d67 8b3d 2453 a4bc
00000010: d0c7 d1bc d08a 32bd 2168 733d 8684 60bc
00000020: adaf a7bc d1cd 733d 6119 a03d 7b8d a63b
00000030: 00cd 38bd 6f31 903d 3805 98bc e51d e0bc
00000040: d2fa 39bd 609a e6bc 97ea 4ebd 70dd 0dbd
00000050: b8f5 75bd 78fb cebb 5fd6 233d 487d 45bd
00000060: e923 213c 931d 92bc f89a 403d 644c 9b3d
00000070: f2a7 b1bc 968f 32bd a5b7 7bbd 08fb 48bd
00000080: b22c f93a 4a06 70bb 744e a73c 28e8 5dbb
00000090: 803c 3e3d e8a6 70bd 9a9b e83c 4862 a53d
000000a0: aa7e 86bd 7b88 f6bc 7cc1 743d 7dda 8aba
000000b0: 7453 f4bc 358d 6a3d 7c02 803c 53b0 5c3c
000000c0: b7b6 4ebc b14f 813d 15f8 443d cef3 a23c
000000d0: deaa 943c 5d2f 3b3d 5607 5c3d 6ed7 c7bc
000000e0: 0ac6 fabb 6656 093d 5742 11bd be91 913d
000000f0: 3d69 4dbd f4e0 133d 55a8 55bd cb91 043d
00000100: 9c35 7a3d 24cd 913c 0a08 bb3a cdcc 6a3d
00000110: b343 38bd 3f97 2abd bb32 64bd 604b 19bd
00000120: dab3 3f3c c088 c8bc 0716 dd3c c03d 4e3c
00000130: 2661 963d b9aa 36bd b230 08bd f2bf 073d
00000140: b15a 00bd d669 623d e0d4 28bd 0126 61bc
00000150: d5dd 21bc 08fd 323d d174 193d df7f 03bd
00000160: e325 713d 7f78 843b 3505 2dbc ffd4 7c3b
00000170: b017 6e3d 4b97 a33d a332 2e3d 36af 9b3c
00000180: 70c9 613d ccd0 d6bc 8e66 e7bc f2cb 29bc
00000190: 61d1 18bd 01fb 363d 484b a13c f7a4 56bc
000001a0: 399c ab3b 831d b23b 34a8 8e3d 31f0 943d
000001b0: 7c68 4cbd 2d38 0a3d 0fbb 0d3d cf5e 0a3d
000001c0: 2c19 7bbc ed58 2b3c 7594 383c 80af 883d
000001d0: 0271 91bd d16f fabc 2a28 52bd f5aa fabc
000001e0: eba7 ab3c 9526 563d 26c3 50bd dfae 613d
000001f0: 502f 8d3d 9a60 00bd 2965 ca3c 64d1 d9bc
00000200: 789b e53c 33cd b5bc 5650 85bc f851 16bd
00000210: 87a4 47bd cfc1 7c3d a988 cbbb 4a3f 353b
00000220: a2df fabc 3e75 773d 5c1d 13bd 7a85 bdbc
00000230: 81c7 53bd d1e1 65bd fb61 993d 08e3 4ebd
00000240: bccd 2dbb ab20 6dbc 813e 0f3d 0e08 1e3d
00000250: 4fac 38bd 1a72 a93d 53c4 80bd a178 d33c
00000260: de1d 353c f665 90ba 4ff8 193d 73f1 4c3d
00000270: f5d8 43bb 2578 14bd 4d06 2b3d 8a96 063d
00000280: 2a36 a638 4b00 58bc e486 373c b863 9d3d
00000290: 91d8 8c3c ff3d c6bb 3849 64bd 4eee 00bd
000002a0: c40f 3e3d 2ff3 0bbc a66b 27bc 6797 c63c
000002b0: 43a1 54bd 8094 f7bb f09e babc 78f6 263d
000002c0: cb9f 7e3d 291e 473d 07b6 6b3d 3e37 82bd
000002d0: cd9d c0bc 5e7d 3d3c c5da 62bd ca7e e53c
000002e0: 79b0 27bd 3f32 233d ec9c 8b3d af5f 64bd
000002f0: aa5b 903d a067 263d 18aa 2ebd 5819 9e3d
00000300: 86d5 6bbd 0938 30bd adc5 f3bc 9410 6c3b
00000310: eb9d b93c fa3d 4dbc dbbd 7bbd 6c61 9f3a
00000320: 981d 893d be3c 8b3d 01f8 433d ce04 41bc
00000330: d990 f1bb 1a68 64bd 69f1 5c3b 6ceb 91bd
00000340: 2904 0bbd d9ab d4bc 6a45 753d bba5 9d3b
00000350: 504b d9bc c946 a23c c5f9 5dbd a448 4cbc
00000360: 2f1f e03c 3c0c d53b 125b 7c3b df0b 683d
00000370: ec10 36bd 931d d1bc 1b18 aa3d c6fe d83c
00000380: a4af a4bb 9808 393d 8f89 523d 2edb abbb
00000390: f646 c3bc 3ae1 a2bb 2aaf 0b3d a076 09bc
000003a0: 21ac 323d f910 72bd c8f8 0fbd 0656 693d
000003b0: ff7b 2d3c 52c1 7f3c 6628 033d 9adc 26bc
000003c0: d386 b6bc bd84 f03c 5e8d 43bc 2dfb bbbc
000003d0: 6c89 933c 1492 df3c 2f5d 2d3b 7ef3 27bd
000003e0: f05b c1ba 91f3 04bd e5df 4a3d 6975 20bd
000003f0: 99f9 203d 9942 543c d448 95bd f92a 143d

model.tcn.0.downsample.weight f4 [25, 11, 1]
-0.014555199 -0.007974025 -0.039511584 0.004366114 0.002109623 -0.015886659 -0.010501809 -0.010241205
-0.015078318 -0.012464165 -0.026283197 0.017175945 -0.0013357647 -0.018548245 0.014952396 0.01535051
-0.010732604 0.007148877 0.0062770336 0.005299748 -0.014926828 -0.024692938 -0.008368083 -0.0074285045
-0.023433767 0.002926239 0.014626717 0.01083927 0.004581049 -0.01055981 0.0141137885 -0.00041020947
-0.012012559 -0.008689726 -0.013180015 -0.022306833 -0.005309132 0.003595186 -0.0035809013 0.010490223
-0.008563284 -0.0015262564 0.005815898 -0.002097838 -0.003709256 -0.0018444977 -0.029949205 -0.006239644
-0.0028606874 -0.0015016304 -0.007914229 -0.008498215 0.0012000572 -0.022887982 -0.005648966 0.0016472779
0.00041163166 -0.004951199 -0.00154969 0.00803959 0.001918 0.0066432753 0.00095038576 -0.012853074
-0.0006619901 -0.010377389 0.003012166 -0.017003147 -0.026163483 0.0033466243 0.011382224 -0.015335974
-0.012606961 -0.012871655 0.0022901325 -0.025573803 -0.007552154 -0.0053988993 0.00078578334 -0.019402396
-0.0017316011 0.011205974 -0.038744204 0.0001922468 -0.009397917 0.007829264 -0.010306688 -0.00677404
0.006852781 0.009152613 0.024188204 0.008814073 -0.0044211643 0.013440388 0.02342861 0.0030257243
0.009209664 0.0011570381 -0.0017553834 -0.0014076848 0.007999425 -0.018845119 0.0007889719 -0.0014556163
-0.007101537 0.013385175 0.010185119 -0.004937241 0.012517849 -0.0076086097 -0.02388987 -0.005391118
0.0061828312 0.007363496 0.015080105 -0.023404682 -0.0067936233 -0.023621963 0.008764846 -0.010678721
0.012584656 -0.01469327 0.012225779 -0.019192958 -0.0062901736 0.0022804956 -0.012455207 -0.007200966
-0.019790756 -0.011314217 -0.016975231 0.0102598835 -0.013744458 0.011238218 -0.0299082 -0.0045790304
0.0014345698 -0.020569313 -0.003427137 -0.0052960115 0.004260251 -0.0035023256 -0.0077298908 -0.014938455
-0.005991303 -0.0049466486 0.002859807 0.020327497 -0.011483436 -0.004874184 -0.010771034 -0.0051425267
-0.009202518 -0.020371228 -0.005527802 -0.005997704 -0.0043535917 0.0146903675 0.010255698 -0.018129531
-0.000121861354 -0.01236412 -0.014707145 0.00022918814 -0.006417652 0.0014721204 -0.018329639 0.0066188048
0.00571244 0.0025652773 -0.021456135 -0.0007854516 -0.013954504 0.018084297 -0.0051865783 0.00086023397
-0.004806398 -0.009230248 -0.009873732 0.0035608963 -0.01064525 0.0075851907 -0.016175522 -0.0047126715
-0.011518843 -0.0029439095 -0.019037662 -0.009727537 0.0053445464 0.03914792 -0.0048931655 -0.020800477
-0.014549028 -0.010733085 0.01738697 0.019491924 0.027509658 -0.0010273147 -0.018433273 -0.008774146
-0.015713573 -0.012467708 -0.007846702 -0.013114023 -0.011217509 -0.030374065 -0.010281584 -0.009502073
-0.006429123 0.008815435 0.0024968574 -0.0072429175 -0.011270018 0.026144646 0.01760253 -0.010856301
-0.029764725 -0.0018451257 -0.013675506 1.5150111e-05 0.0028910185 -0.0033190185 0.027207302 -0.0002731398
-0.009389592 -0.009084153 -0.02179614 0.006509069 0.015490419 0.0154778855 -0.006921758 0.007209333
-0.002899159 -0.034205634 0.007670018 0.0046055773 -0.0020306848 -0.001975312 -0.014505635 -0.005064258
-0.033181347 -0.0069361865 -0.0019846074 -0.004265313 -0.0050084097 -0.020031184 0.0035596986 -0.03518131
0.0074175326 -0.010495764 0.010665623 -0.024602555 -0.021687193 0.008742464 0.027736472 -0.019856025
00000000: ee78 6ebc 7ca5 02bc e6d6 21bd 9e11 8f3b
00000010: 9a41 0a3b bd24 82bc c80f 2cbc baca 27bc
00000020: 0d0b 77bc 7f36 4cbc dc4f d7bc 91b4 8c3c
00000030: d314 afba 7df2 97bc e5fa 743c b580 7b3c
00000040: ced7 2fbc 2041 ea3b 93af cd3b 82a9 ad3b
00000050: a88f 74bc d848 cabc 491a 09bc d06a f3bb
00000060: 2cf8 bfbc 25c6 3f3b e6a4 6f3c 3297 313c
00000070: a01c 963b 0e03 2dbc 853d 673c 6211 d7b9
00000080: 53d0 44bc 5a5f 0ebc fdf0 57bc d2bc b6bc
00000090: 3af8 adbb 369d 6b3b 8ead 6abb 2fdf 2b3c
000000a0: 044d 0cbc ab0c c8ba 4a93 be3b e27b 09bb
000000b0: fd16 73bb 13c3 f1ba 0958 f5bc ed75 ccbb
000000c0: 5f7a 3bbb 5bd2 c4ba afaa 01bc 193c 0bbc
000000d0: 3d4b 9d3a 947f bbbc f61a b9bb 79e9 d73a
000000e0: 44d0 d739 ab3d a2bb f81e cbba 7cb8 033c
000000f0: 6765 fb3a d5af d93b 4f23 793a b395 52bc
00000100: 6789 2dba ed05 2abc c267 453b 2f4a 8bbc
00000110: cd54 d6bc 0a53 5b3b 827c 3a3c bd43 7bbc
00000120: 6d8d 4ebc a2e3 52bc 0c16 163b 2780 d1bc
00000130: 0f78 f7bb 40e9 b0bb 07fd 4d3a c6f1 9ebc
00000140: e4f6 e2ba 4399 373c 3eb2 1ebd dc95 4939
00000150: b9f9 19bc 5046 003c 62dd 28bc c4f8 ddbb
00000160: 4b8d e03b d7f4 153c 5726 c63c e768 103c
00000170: 6adf 90bb 1335 5c3c 5bed bf3c 3b4b 463b
00000180: 21e4 163c c2a7 973a e514 e6ba 1082 b8ba
00000190: 0510 033c 1461 9abc 02d3 4e3a 61ca beba
000001a0: 03b4 e8bb 7e4d 5b3c 7cdf 263c 94c8 a1bb
000001b0: aa17 4d3c a551 f9bb b0b4 c3bc faa7 b0bb
000001c0: 5999 ca3b 7b49 f13b 8b12 773c 2dbb bfbc
000001d0: 0b9d debb d982 c1bc 6e9a 0f3c cdf5 2ebc
000001e0: df2f 4e3c 0bbc 70bc a24e 483c 8d3a 9dbc
000001f0: cd1d cebb 5e74 153b ed10 4cbc 15f6 ebbb
00000200: 3920 a2bc 445f 39bc a40f 8bbc 1219 283c
00000210: 6f30 61bc 8120 383c 0b02 f5bc b10b 96bb
00000220: 2d08 bc3a fa80 a8bc d199 60bb 2a8a adbb
00000230: 9399 8b3b 4687 65bb 064b fdbb 6cc0 74bc
00000240: b152 c4bb 7f17 a2bb 9a6b 3b3b da85 a63c
00000250: 0625 3cbc 9eb7 9fbb fe78 30bc a482 a8bb
00000260: 28c6 16bc 90e1 a6bc 9022 b5bb 6388 c4bb
00000270: 93a8 8ebb deaf 703c 8407 283c 6284 94bc
00000280: d18f ffb8 e192 4abc 3df6 70bc 3952 7039
00000290: 2b4b d2bb 2af4 c03a 0a28 96bc 8fe2 d83b
000002a0: 6b2f bb3b 361e 283b c7c4 afbc c4e6 4dba
000002b0: 6fa1 64bc 8525 943c 2cf4 a9bb 5381 613a
000002c0: fd7e 9dbb 773a 17bc 6fc5 21bc ed5d 693b
000002d0: 6a69 2ebc 318d f83b 8782 84bc c16c 9abb
000002e0: 87b9 3cbc 9bee 40bb dff4 9bbc 3f60 1fbc
000002f0: 4e21 af3b 9259 203d d956 a0bb c365 aabc
00000300: 0c5f 6ebc d2d9 2fbc 1e6f 8e3c 87ad 9f3c
00000310: ef5b e13c f6a6 86ba 6001 97bc 70c1 0fbc
00000320: c0b9 80bc 5c45 4cbc 748f 00bc 33dc 56bc
00000330: a5c9 37bc 08d3 f8bc 1774 28bc 95ae 1bbc
00000340: 65ab d2bb 9d6e 103c 51a2 233b ff55 edbb
00000350: e2a5 38bc 4c2d d63c 2e33 903c a0de 31bc
00000360: 27d5 f3bc 25d8 f1ba 3b0f 60bc 3b2d 7e37
00000370: 3e77 3d3b e483 59bb d9e1 de3c 3434 8fb9
00000380: ced6 19bc b3d5 14bc d28d b2bc 074a d53b
00000390: 87cb 7d3c f596 7d3c eacf e2bb 453c ec3b
000003a0: d1ff 3dbb 351b 0cbd c654 fb3b 62ea 963b
000003b0: 3d15 05bb 3c74 01bb 0ba9 6dbc 13f2 a5bb
000003c0: 2ae9 07bd f348 e3bb 3010 02bb 0ac4 8bbb
000003d0: 961d a4bb 7018 a4bc d549 693b 471a 10bd
000003e0: c60e f33b 6df6 2bbc ddbe 2e3c 4c8b c9bc
000003f0: 57a9 b1bc 8d3c 0f3c 9937 e33c 1aa9 a2bc

model.tcn.0.downsample.bias f4 [25]
0.26041833 0.017412022 -0.020124074 0.18118604 -0.25430572 0.01701035 0.20284964 0.21114686
0.033854965 -0.023551583 0.11085633 0.068678364 -0.0018505943 0.24017155 0.2620164 -0.15783393
0.27667865 -0.06693535 0.069022454 0.260273 -0.13661529 0.14555621 -0.03469926 -0.16323444
-0.009286774
00000000: 8d55 853e a8a3 8e3c 3edb a4bc d588 393e
00000010: 5c34 82be 4a59 8b3c d1b7 4f3e e236 583e
00000020: 81ab 0a3d 40ef c0bc a508 e33d 3ea7 8c3d
00000030: a48f f2ba 88ef 753e 0327 863e 389f 21be
00000040: d3a8 8d3e 6715 89bd a55b 8d3d 8142 853e
00000050: e1e4 0bbe b00c 153e d020 0ebd ee26 27be
00000060: 8e27 18bc

model.tcn.1.conv1.bias f4 [25]
0.064170934 -0.032053337 0.06628559 0.016487591 0.002019784 0.069919646 0.041134283 0.04554603
-0.005416765 0.03746435 -0.064613 0.00472147 0.00289835 -0.055689543 -0.008753147 0.024841957
0.05347349 0.011571483 -0.023503799 -0.028186757 -0.046452988 -0.021256307 -0.032601792 -0.051764123
0.017387759
00000000: 0d6c 833d 5c4a 03bd bdc0 873d fc10 873c
00000010: 5a5e 043b 0832 8f3d 6c7c 283d 798e 3a3d
00000020: 1e7f b1bb 3874 193d d253 84bd 90b6 9a3b
00000030: 3ef2 3d3b b81a 64bd 5c69 0fbc 5c81 cb3c
00000040: 0507 5b3d 5196 3d3c 0a8b c0bc eae7 e6bc
00000050: 7d45 3ebd b521 aebc 7589 05bd 9e06 54bd
00000060: c670 8e3c

model.tcn.1.conv1.weight_g f4 [25, 1, 1]
0.6058116 0.59549224 0.6192848 0.5882725 0.6050057 0.56743944 0.60822505 0.59747756
0.5748261 0.57873905 0.5889582 0.6037911 0.5717293 0.6064231 0.5474609 0.6497235
0.5564246 0.577644 0.61101836 0.6173118 0.58009505 0.54319024 0.57088995 0.5632487
0.58792806
00000000: 7816 1b3f 2e72 183f 7389 1e3f 0799 163f
00000010: a7e1 1a3f b643 113f a3b4 1b3f 4af4 183f
00000020: ce27 133f 3e28 143f f7c5 163f 0e92 1a3f
00000030: da5c 123f 8b3e 1b3f 6626 0c3f 4754 263f
00000040: d871 0e3f 7ae0 133f b36b 1c3f 2508 1e3f
00000050: 1c81 143f 840e 0b3f d825 123f 1131 103f
00000060: 7482 163f

model.tcn.1.conv1.weight_v f4 [25, 25, 7]
0.018930336 -0.034610447 0.050595358 -0.00397639 0.06703759 -0.06271945 -0.03652003 0.030397141
-0.04315189 -0.0048148986 -0.01923341 0.043947633 -0.075783886 -0.0608918 -0.07855581 -0.028321639
-0.037777588 -0.07917921 -0.09575668 -0.0038087058 -0.09129403 -0.042017296 -0.005958923 -0.064452626
-0.013500292 0.015102741 0.04429145 0.0035795746 0.03405689 -0.0013400728 0.0060983878 -0.023868887
-0.0014835907 0.03475571 0.02823792 -0.007859351 -0.034436505 -0.026259452 -0.057620455 0.017686734
0.047435798 -0.019496247 -0.04212129 0.07315198 -0.027410707 -0.013336702 -0.05067727 0.057602417
0.007713836 -0.073787 0.06855053 0.04655185 0.030391281 0.07350805 0.01293061 -0.041471653
-0.010718135 0.051820025 -0.022004714 0.06723183 -0.022808999 0.07735248 0.0063257865 0.030975115
-0.04861661 0.0011570939 0.028427985 -0.009319336 -0.032841325 -0.07078794 -0.02821607 0.03336674
0.068146095 -0.03137414 -0.029148163 -0.04075448 0.008065069 -0.032066796 0.019715419 -0.034720283
-0.026922336 0.05440498 -0.04861414 -0.075045094 -8.701216e-05 -0.05916691 -0.039588086 -0.07893115
-0.08016519 -0.025574293 0.0031569826 -0.01706606 -0.069443814 -0.055654515 0.0015726875 0.0393153
-0.020234035 0.029050985 0.015076309 0.06433771 0.0326111 0.012364597 -0.040792797 -0.010643413
0.056781005 0.016781466 -0.044999927 0.045060463 0.02210929 -0.061958153 -0.015757177 0.00889584
0.030671544 -0.010937644 0.00046601653 0.047823913 0.0014807192 -0.03740983 0.050923802 0.087092176
0.020386038 -0.009633888 0.025947472 0.0053785318 0.047025014 -0.008809488 -0.054655716 0.019492611
-0.009294617 -0.008334201 0.011476927 0.020744663 0.049746707 -0.009426042 -0.0044323555 -0.06449057
-0.06422716 -0.047225785 0.03939557 0.034906074 0.012625144 0.023923334 -0.017695244 -0.04800144
0.041472897 -0.02216091 -0.017022455 -0.04628088 0.04869288 0.055579655 -0.036980886 0.06030299
0.04158174 0.01403342 -0.036426328 -0.05290948 0.0029736108 0.023900783 -0.05706218 0.04398282
0.034274347 -2.2995886e-05 -0.07590398 -0.064474955 0.04623719 0.0013795776 -0.019419475 -0.055982914
-0.049810197 0.041759055 0.017548146 -0.009594489 0.039638404 -0.061447058 -0.045597192 0.026801353
-0.056101356 0.06543071 0.047993697 0.012656936 -0.058237765 0.056535088 -0.022809755 -0.0077301846
0.065563515 -0.012400747 0.074410066 -0.0037805764 -0.040813126 0.010902559 -0.05535863 0.07267908
0.07501087 0.07564795 -0.049228866 0.07342629 0.037177075 0.057578407 -0.032805257 0.026878571
0.031976804 -0.010865194 0.0056481217 0.03768403 -0.006892668 -0.019892931 0.016031079 -0.00880525
-0.023706201 -0.0101516545 0.038783792 0.06726157 -0.014637761 0.052848868 0.066718735 0.041796923
0.03735149 -0.059790477 -0.03134488 -0.02787632 0.07517553 0.014174174 -0.061285786 -0.063891634
-0.060741346 -0.05080241 -0.042024 -0.03691005 0.05790202 -0.0276489 0.07176381 -0.036464807
-0.072759286 -0.044243455 -0.048589114 -0.06424537 -0.08094928 -0.018956551 -0.04631429 -0.0042217076
-0.0018458363 -0.029384397 0.022608267 -0.045199323 -0.007784881 0.061480284 0.065042004 0.004928611
0.016399272 0.06465923 0.070549875 -0.034389403 0.015649762 -0.010830102 -0.04734038 0.06845044
00000000: cb13 9b3c afc3 0dbd 143d 4f3d 614c 82bb
00000010: 014b 893d 0e73 80bd 0796 15bd 6d03 f93c
00000020: 09c0 30bd 4cc6 9dbb 628f 9dbc 6f02 343d
00000030: 9534 9bbd ae69 79bd dee1 a0bd c802 e8bc
00000040: acbc 1abd b628 a2bd 141c c4bd 7b9b 79bb
00000050: 5df8 babd 541a 2cbd 1243 c3bb bdff 83bd
00000060: 5430 5dbc 7d71 773c f46a 353d 4c97 6a3b
00000070: 3d7f 0b3d 62a5 afba fcd4 c73b af88 c3bc
00000080: 0b75 c2ba 015c 0e3d 3653 e73c 82c4 00bc
00000090: 4b0d 0dbd 101e d7bc 6d03 6cbd c5e3 903c
000000a0: 0a4c 423d 98b6 9fbc 6087 2cbd b5d0 953d
000000b0: 6b8c e0bc 2f82 5abc f892 4fbd 83f0 6b3d
000000c0: 59c4 fc3b a31d 97bd 3864 8c3d 27ad 3e3d
000000d0: 23f7 f83c 638b 963d e9da 533c 2ede 29bd
000000e0: 1e9b 2fbc 3c41 543d 3b43 b4bc d7b0 893d
000000f0: f0d9 babc fa6a 9e3d 8b48 cf3b 86bf fd3c
00000100: 3622 47bd a1a9 973a cee1 e83c 21b0 18bc
00000110: a084 06bd 44f9 90bd 6325 e7bc 90ab 083d
00000120: 2e90 8b3d 2c82 00bd 21c8 eebc 2bee 26bd
00000130: 5a23 043c 7958 03bd 3b82 a13c db36 0ebd
00000140: 3b8c dcbc c2d7 5e3d 9f1f 47bd 3eb1 99bd
00000150: 4c7a b6b8 0059 72bd 1e27 22bd a8a6 a1bd
00000160: a62d a4bd 2e81 d1bc 61e5 4e3b 1fce 8bbc
00000170: 8f38 8ebd fdf5 63bd a322 ce3a 1409 213d
00000180: d9c1 a5bc 55fc ed3c a002 773c 7dc3 833d
00000190: 3793 053d e194 4a3c 5916 27bd b661 2ebc
000001a0: 3393 683d 4979 893c d851 38bd 5291 383d
000001b0: 8b1e b53c d5c7 7dbd 3215 81bc dbbf 113c
000001c0: e442 fb3c ce33 33bc ae53 f439 02e3 433d
000001d0: b114 c23a 0d3b 19bd 7a95 503d 625d b23d
000001e0: 9f00 a73c 74d7 1dbc cb8f d43c 653e b03b
000001f0: 4d9d 403d ac55 10bc acde 5fbd f8ae 9f3c
00000200: 7348 18bc 2c8c 08bc b909 3c3c b6f0 a93c
00000210: 34c3 4b3d b06f 1abc 4b3d 91bb a213 84bd
00000220: 8789 83bd d36f 41bd 405d 213d acf9 0e3d
00000230: b1d9 4e3c defa c33c 9ef5 90bc 289d 44bd
00000240: 7cdf 293d cc8a b5bc ad72 8bbc 0591 3dbd
00000250: 2f72 473d 7ea7 633d 4579 17bd 4500 773d
00000260: 9d51 2a3d 6eec 653c c633 15bd 9cb7 58bd
00000270: e9e0 423b 93cb c33c 08ba 69bd 5427 343d
00000280: 4263 0c3d 4ae7 c0b7 8c73 9bbd 720b 84bd
00000290: 3563 3d3d f1d2 b43a 9715 9fbc 574e 65bd
000002a0: c705 4cbd 8b0b 2b3d 21c1 8f3c 3432 1dbc
000002b0: e15b 223d e9af 7bbd 1fc4 3abd 838e db3c
000002c0: 89ca 65bd 8900 863d 0a95 443d 0a5f 4f3c
000002d0: b98a 6ebd 5691 673d 86db babc 7d4d fdbb
000002e0: 2a46 863d 812c 4bbc 4e64 983d 8cc3 77bb
000002f0: aa2b 27bd a6a0 323c bbbf 62bd c5d8 943d
00000300: 4d9f 993d 50ed 9a3d 35a4 49bd 8660 963d
00000310: fd46 183d 56d7 6b3d ce5e 06bd 7330 dc3c
00000320: 1cfa 023d ed03 32bc e113 b93b 925a 1a3d
00000330: e4db e1bb 80f6 a2bc 9c53 833c e543 10bc
00000340: 8233 c2bc 2053 26bc c1db 1e3d 6fc0 893d
00000350: 38d3 6fbc 0e78 583d d5a3 883d 4033 2b3d
00000360: e0fd 183d dce6 74bd 7d63 00bd e15c e4bc
00000370: a1f5 993d cb3a 683c ce06 7bbd 9ed9 82bd
00000380: ebcb 78bd 3016 50bd 5c21 2cbd fe2e 17bd
00000390: ab2a 6d3d f27f e2bc e8f8 923d 1f5c 15bd
000003a0: d202 95bd a038 35bd 6105 47bd 1493 83bd
000003b0: bcc8 a5bd c54a 9bbc 0eb4 3dbd 4056 8abb
000003c0: fdef f1ba 8cb7 f0bc f934 b93c ed22 39bd
000003d0: 5118 ffbb c0d2 7b3d be34 853d 3080 a13b
000003e0: c457 863c 0f6c 843d 747c 903d e7db 0cbd
000003f0: ee33 803c bd70 31bc fce7 41bd bf2f 8c3d

model.tcn.1.conv2.bias f4 [25]
0.01015835 -0.051187478 -0.019281333 0.034611233 0.00965969 0.08438473 0.04659304 -0.0043626167
0.022340631 0.056223813 0.028448354 0.07637495 0.06645599 -0.044389397 -0.04916831 0.074947186
-0.05659714 0.062105633 -0.06311058 0.0011776567 0.02434118 -0.052546766 0.04187393 0.032890093
-0.05893654
00000000: 356f 263c f6a9 51bd e3f3 9dbc 82c4 0d3d
00000010: ad43 1e3c e7d1 ac3d 58d8 3e3d 48f4 8ebb
00000020: b303 b73c f14a 663d 860c e93c 786a 9c3d
00000030: 141a 883d a8d1 35bd b664 49bd e97d 993d
00000040: 67d2 67bd 7a62 7e3d 1f40 81bd 9a5b 9a3a
00000050: 2867 c73c 473b 57bd ff83 2b3d c3b7 063d
00000060: 7167 71bd

model.tcn.1.conv2.weight_g f4 [25, 1, 1]
0.5895116 0.58499396 0.5790382 0.5813452 0.59182054 0.6423573 0.5608583 0.5734249
0.6158808 0.5881029 0.5719833 0.57501256 0.5867095 0.5367725 0.5717048 0.59451556
0.5858883 0.61281264 0.61243325 0.59499097 0.5811375 0.57054055 0.6192322 0.5974243
0.57186687
00000000: 3bea 163f 2ac2 153f d93b 143f 0ad3 143f
00000010: 8d81 173f 8771 243f 6994 0f3f f9cb 123f
00000020: 5daa 1d3f e98d 163f 7f6d 123f 0634 133f
00000030: 9832 163f ec69 093f 3f5b 123f 2c32 183f
00000040: c7fc 153f 4ae1 1c3f 6dc8 1c3f 5451 183f
00000050: 6dc5 143f f20e 123f 0086 1e3f cdf0 183f
00000060: de65 123f
